Assets/Training/results/seperate/PlayerAgentBehavior.onnx (onnx, 295465 bytes, 13 tensors)

discrete_act_size_vector f4 [1, 2]
00000000: 0000 4040 0000 0040
3.0 2.0

network_body.observation_encoder.processors.0.normalizer.running_mean f4 [405]
00000000: 0000 0000 0000 0000 0000 0000 2a85 9838
00000010: 2a85 9838 0000 0000 0000 0000 0000 0000
00000020: 2a85 9838 2a85 9838 0000 0000 0000 0000
00000030: 0000 0000 2a85 9838 2a85 9838 0000 0000
00000040: 0000 0000 0000 0000 2a85 9838 2a85 9838
00000050: 0000 0000 0000 0000 0000 0000 2a85 9838
00000060: 2a85 9838 0000 0000 0000 0000 0000 0000
00000070: 2a85 9838 2a85 9838 0000 0000 0000 0000
00000080: 0000 0000 2a85 9838 2a85 9838 0000 0000
00000090: 0000 0000 0000 0000 2a85 9838 2a85 9838
000000a0: 0000 0000 0000 0000 0000 0000 2a85 9838
000000b0: 2a85 9838 0000 0000 0000 0000 0000 0000
000000c0: 2a85 9838 2a85 9838 0000 0000 0000 0000
000000d0: 0000 0000 2a85 9838 2a85 9838 0000 0000
000000e0: 0000 0000 0000 0000 2a85 9838 2a85 9838
000000f0: 0000 0000 0000 0000 0000 0000 2a85 9838
00000100: 2a85 9838 0000 0000 0000 0000 0000 0000
00000110: 2a85 9838 2a85 9838 0000 0000 0000 0000
00000120: 0000 0000 2a85 9838 2a85 9838 0000 0000
00000130: 0000 0000 0000 0000 2a85 9838 2a85 9838
00000140: 0000 0000 0000 0000 0000 0000 2a85 9838
00000150: 2a85 9838 0000 0000 0000 0000 0000 0000
00000160: 2a85 9838 2a85 9838 0000 0000 0000 0000
00000170: 0000 0000 2a85 9838 2a85 9838 0000 0000
00000180: 0000 0000 0000 0000 2a85 9838 2a85 9838
00000190: 0000 0000 0000 0000 0000 0000 2a85 9838
000001a0: 2a85 9838 0000 0000 0000 0000 0000 0000
000001b0: 2a85 9838 2a85 9838 0000 0000 0000 0000
000001c0: 0000 0000 2a85 9838 2a85 9838 0000 0000
000001d0: 0000 0000 0000 0000 2a85 9838 2a85 9838
000001e0: 0000 0000 0000 0000 0000 0000 2a85 9838
000001f0: 2a85 9838 0000 0000 0000 0000 0000 0000
00000200: 2a85 9838 2a85 9838 0000 0000 0000 0000
00000210: 0000 0000 2a85 9838 2a85 9838 0000 0000
00000220: 2a85 9838 0000 0000 0000 0000 9637 f637
00000230: 0000 0000 0000 0000 0000 0000 2a85 9838
00000240: 2a85 9838 0000 0000 2a85 9838 0000 0000
00000250: 0000 0000 9239 e637 0000 0000 0000 0000
00000260: 0000 0000 2a85 9838 2a85 9838 0000 0000
00000270: 2a85 9838 0000 0000 0000 0000 a0be e037
00000280: 0000 0000 0000 0000 0000 0000 2a85 9838
00000290: 2a85 9838 0000 0000 2a85 9838 0000 0000
000002a0: 0000 0000 2d92 e037 0000 0000 0000 0000
000002b0: 0000 0000 2a85 9838 2a85 9838 0000 0000
000002c0: 0000 0000 0000 0000 0000 0000 ec36 5537
000002d0: 0000 0000 0000 0000 0000 0000 2a85 9838
000002e0: 2a85 9838 0000 0000 0000 0000 0000 0000
000002f0: 0000 0000 bdc7 4e37 0000 0000 0000 0000
00000300: 0000 0000 2a85 9838 2a85 9838 0000 0000
00000310: 0000 0000 0000 0000 0000 0000 3187 4937
00000320: 0000 0000 0000 0000 0000 0000 2a85 9838
00000330: 2a85 9838 0000 0000 0000 0000 0000 0000
00000340: 0000 0000 a438 4537 0000 0000 0000 0000
00000350: 0000 0000 2a85 9838 2a85 9838 0000 0000
00000360: 0000 0000 0000 0000 0000 0000 37c5 4137
00000370: 0000 0000 0000 0000 0000 0000 2a85 9838
00000380: 2a85 9838 0000 0000 0000 0000 0000 0000
00000390: 0000 0000 621b 3f37 0000 0000 0000 0000
000003a0: 0000 0000 2a85 9838 2a85 9838 0000 0000
000003b0: 0000 0000 0000 0000 0000 0000 452e 3d37
000003c0: 0000 0000 0000 0000 0000 0000 2a85 9838
000003d0: 2a85 9838 0000 0000 0000 0000 0000 0000
000003e0: 0000 0000 a2f4 3b37 0000 0000 0000 0000
000003f0: 0000 0000 2a85 9838 2a85 9838 0000 0000
0.0 0.0 0.0 7.2727285e-05 7.2727285e-05 0.0 0.0 0.0
7.2727285e-05 7.2727285e-05 0.0 0.0 0.0 7.2727285e-05 7.2727285e-05 0.0
0.0 0.0 7.2727285e-05 7.2727285e-05 0.0 0.0 0.0 7.2727285e-05
7.2727285e-05 0.0 0.0 0.0 7.2727285e-05 7.2727285e-05 0.0 0.0
0.0 7.2727285e-05 7.2727285e-05 0.0 0.0 0.0 7.2727285e-05 7.2727285e-05
0.0 0.0 0.0 7.2727285e-05 7.2727285e-05 0.0 0.0 0.0
7.2727285e-05 7.2727285e-05 0.0 0.0 0.0 7.2727285e-05 7.2727285e-05 0.0
0.0 0.0 7.2727285e-05 7.2727285e-05 0.0 0.0 0.0 7.2727285e-05
7.2727285e-05 0.0 0.0 0.0 7.2727285e-05 7.2727285e-05 0.0 0.0
0.0 7.2727285e-05 7.2727285e-05 0.0 0.0 0.0 7.2727285e-05 7.2727285e-05
0.0 0.0 0.0 7.2727285e-05 7.2727285e-05 0.0 0.0 0.0
7.2727285e-05 7.2727285e-05 0.0 0.0 0.0 7.2727285e-05 7.2727285e-05 0.0
0.0 0.0 7.2727285e-05 7.2727285e-05 0.0 0.0 0.0 7.2727285e-05
7.2727285e-05 0.0 0.0 0.0 7.2727285e-05 7.2727285e-05 0.0 0.0
0.0 7.2727285e-05 7.2727285e-05 0.0 0.0 0.0 7.2727285e-05 7.2727285e-05
0.0 0.0 0.0 7.2727285e-05 7.2727285e-05 0.0 0.0 0.0
7.2727285e-05 7.2727285e-05 0.0 0.0 0.0 7.2727285e-05 7.2727285e-05 0.0
7.2727285e-05 0.0 0.0 2.935137e-05 0.0 0.0 0.0 7.2727285e-05
7.2727285e-05 0.0 7.2727285e-05 0.0 0.0 2.7444945e-05 0.0 0.0
0.0 7.2727285e-05 7.2727285e-05 0.0 7.2727285e-05 0.0 0.0 2.6791648e-05
0.0 0.0 0.0 7.2727285e-05 7.2727285e-05 0.0 7.2727285e-05 0.0
0.0 2.677095e-05 0.0 0.0 0.0 7.2727285e-05 7.2727285e-05 0.0
0.0 0.0 0.0 1.2708577e-05 0.0 0.0 0.0 7.2727285e-05
7.2727285e-05 0.0 0.0 0.0 0.0 1.2325062e-05 0.0 0.0
0.0 7.2727285e-05 7.2727285e-05 0.0 0.0 0.0 0.0 1.201201e-05
0.0 0.0 0.0 7.2727285e-05 7.2727285e-05 0.0 0.0 0.0
0.0 1.1755303e-05 0.0 0.0 0.0 7.2727285e-05 7.2727285e-05 0.0
0.0 0.0 0.0 1.1549614e-05 0.0 0.0 0.0 7.2727285e-05
7.2727285e-05 0.0 0.0 0.0 0.0 1.1390863e-05 0.0 0.0
0.0 7.2727285e-05 7.2727285e-05 0.0 0.0 0.0 0.0 1.1276051e-05
0.0 0.0 0.0 7.2727285e-05 7.2727285e-05 0.0 0.0 0.0
0.0 1.1203027e-05 0.0 0.0 0.0 7.2727285e-05 7.2727285e-05 0.0

network_body.observation_encoder.processors.1.normalizer.running_mean f4 [13]
00000000: 0000 0000 0000 0000 0000 0000 0000 0000
00000010: 0000 0000 0000 0000 0000 0000 0000 0000
00000020: 0000 0000 0000 0000 0000 0000 0000 0000
00000030: 0000 0000
0.0 0.0 0.0 0.0 0.0 0.0 0.0 0.0
0.0 0.0 0.0 0.0 0.0

network_body._body_endoder.seq_layers.0.weight f4 [128, 418]
00000000: 2449 4db9 2f1e 263b 2e34 f03d 4ae7 ac3d
00000010: 08a0 f7bc cb6c 8cbc a7f4 8ebd f868 d6bd
00000020: 7183 b83c 2240 afbb 3a13 523d 0498 61bd
00000030: af6e d4bb b650 7d3c ac2d 023d 6521 a03d
00000040: e675 cebc d2d3 7d3d 908a 49bd f5de 963a
00000050: 12cc 173d 3c79 8fbc fde1 adbc 6f3b cdbd
00000060: dae4 323c d007 993c 3e79 303d 97f6 afbd
00000070: df2d 04bd ae77 383d 9c2a d9bc a0ca 4cbc
00000080: 54f4 4a3d 57bd 0e3d 7768 97bd abc4 2e3c
00000090: 2e23 aabd 49ba 72bd af8d 703b 687f aabd
000000a0: 69e8 eabd 75d8 09bd f0a4 823d da6e 39bd
000000b0: 0b9a 11bb 0bd5 6a3d 89a0 f9bc 0005 f03c
000000c0: ee40 6f3d f890 743d 8fa9 02bd 7c38 3dbd
000000d0: 39d7 5c3b d5f8 d1bc 3c54 17bc 438f ae3c
000000e0: 6a42 393d b9e8 ce3d ba1a d53d e2c1 ddbc
000000f0: 721a e8bb 97f0 283c af0c 00bc 523f a73b
00000100: 1fae 973c a49a 5b3d d81b 2cbd 11c6 0cbd
00000110: 2458 133c 7fae f0bc e5e7 143d 1dd6 663d
00000120: 15ea 9b3d d732 88bd bbc6 eebb b28e bc3b
00000130: 7f14 063d 8582 f8bc 22c3 a13c d5ef 9abc
00000140: 4370 c5bc 1a20 993d e4e0 8e3b a9f7 e13c
00000150: f45e be3c fb3a e9bd 8021 423d 68ff 15bd
00000160: 222f b7bc d55f 963c 0098 ed3b c5a0 803d
00000170: 83e5 e2bc 7da5 9dbc e5d4 8abd 707d d4bd
00000180: d91f 253c dbc6 013d 3778 633d fd6a 353d
00000190: 6441 0f3c b199 863d 0a6c 4fbd ab72 0b3c
000001a0: d561 c0bc 43a1 c83b 23b2 9fbc 059b 103d
000001b0: 5e89 3d3c d7a5 cebd 4af2 7abc 8e5a 883d
000001c0: 2107 6d3d b9b5 a8bd 0270 32bb 4db5 8bbd
000001d0: ce60 723d da89 033d b8a4 e93d cefe c3bc
000001e0: 4f33 9b3d 051a 90bc 4375 a8bc 711b 063d
000001f0: bf00 113d aca3 2dbd 7641 82bc b11f 10bd
00000200: 8509 8b3d 1844 7abc cc00 9abd 789d b33d
00000210: 58ee 923c 78a7 68bc 21f2 13bd 2be3 473d
00000220: e4c7 b53b d907 58ba 5754 0abd 7f10 5bbd
00000230: 4b8f ddbc 61aa 96bc 4dc6 c2bd 4e46 80bd
00000240: 587d c8bb 32bb fb3c 36c1 b0bb a9f2 63bd
00000250: acaa 053c 2d16 283d 05ef 863c 9bb2 b73d
00000260: adf1 1bbd d8dc 833c 663c 81bc 48b4 633a
00000270: 36ae 5ebc 832a 9a3c 2c10 28bd 17d8 debd
00000280: 5d05 af3d e191 a13d 23c8 29bd c47c c6bc
00000290: 05fa 8abd bad9 26bd bcc6 03bd a41e 63bc
000002a0: 0333 baba 5be4 b7bd 5db6 373b 4401 f2bc
000002b0: cb15 bd3c 2af5 c13c f06d b2bc 452b ceb9
000002c0: 4e0d 4c3d ab8b ccbc 530a fbbc a117 e8bd
000002d0: 714c 173d e0a7 133d 8be7 603c 3ced cc3c
000002e0: a26d b6bb 7435 3abd 20df 58bd 38ad 87bd
000002f0: 64fe ca3c a027 903c 7994 d43a 1a2b 65bc
00000300: 6963 b33c 4663 f03b 2c52 0dbd a0d1 3c3d
00000310: b1f0 c63c c65c 593d 64eb 3abd de5e 80bd
00000320: dc61 673d 55b0 5ebd 7ac6 2e3d 25bc 68bd
00000330: 184b 983d 42a4 13bd 9657 dd3c e45b 6abd
00000340: 5db5 32bd d6ff 5f3d c849 283b e22b da3c
00000350: 1ff9 55bd 73b9 173d c468 b63b 4841 01bd
00000360: ae71 16bd f25a 73bd e21f 96bc 0729 a0bd
00000370: 4746 ddbb 09b3 393d a052 243d 5afb e03b
00000380: cfce 1dbd ed1c df3c 0ea4 cb3b c5c5 873d
00000390: 5526 4bbd 6230 17bd d644 86bd b105 993d
000003a0: bd69 84bb 886c 8abd aa64 abbd 30b5 57bd
000003b0: 753c 66bd 120b e0bd a079 573b 403d 3fbc
000003c0: 62bb 81bd 2d32 2e3d 0d51 613d 30df 7ebd
000003d0: 79a8 c23d 8752 c6bd 2114 febc 981f 82bc
000003e0: 40a8 4e3d e4b8 aebd 286e a13c 2f52 663d
000003f0: ab06 90bc a81c 063d e848 c7bc bf24 9bbd
-0.0001957757 0.002534758 0.117287025 0.084425524 -0.030227676 -0.01714172 -0.069802575 -0.1046924
0.022523614 -0.0053482214 0.051287867 -0.055076614 -0.006482921 0.0154611375 0.031781837 0.078188695
-0.025202703 0.061969586 -0.04920441 0.0011510538 0.03705985 -0.017513864 -0.021225924 -0.10021102
0.01091882 0.018680483 0.043084376 -0.08591955 -0.03227031 0.04503601 -0.026509576 -0.012499481
0.049549416 0.034848537 -0.07392972 0.0106670065 -0.08307491 -0.059259687 0.0036705544 -0.08325082
-0.1147011 -0.033653695 0.063791156 -0.045271732 -0.002221706 0.05733208 -0.030472057 0.02929926
0.05841153 0.059708565 -0.031899985 -0.046196446 0.0033697619 -0.025631348 -0.009236392 0.021308547
0.045229353 0.10102982 0.10405488 -0.02706999 -0.0070832307 0.010311267 -0.007815524 0.005103984
0.018515645 0.053614274 -0.04201874 -0.03436858 0.008993182 -0.029380081 0.036353964 0.056356538
0.07613007 -0.06650322 -0.007286874 0.0057543153 0.03273439 -0.030335674 0.019746367 -0.018913189
-0.024101382 0.07476826 0.004360305 0.027583914 0.023238637 -0.11388203 0.04739523 -0.036620528
-0.022361342 0.018356243 0.007250786 0.06280664 -0.02769733 -0.01924395 -0.06778888 -0.10375488
0.010078394 0.031683784 0.055534568 0.044291485 0.008743618 0.06572283 -0.050640143 0.008511226
-0.02348415 0.0061227395 -0.019494122 0.03530409 0.011568395 -0.10090225 -0.015316555 0.06657897
0.057868127 -0.08237786 -0.0027227406 -0.0682169 0.05917435 0.032113887 0.11408371 -0.023925211
0.07578146 -0.017590532 -0.020563727 0.032741014 0.035401102 -0.042392418 -0.015900355 -0.035186473
0.06788925 -0.015275024 -0.07519683 0.08770269 0.017935917 -0.014200084 -0.036119584 0.04880063
0.0055475105 -0.00082409155 -0.03377184 -0.05348253 -0.027045866 -0.01839179 -0.09510479 -0.062634096
-0.0061184578 0.03072891 -0.0053941263 -0.05565134 0.008158367 0.041036773 0.016471395 0.08969613
-0.038072277 0.016096517 -0.01577587 0.0008686227 -0.01359134 0.0188191 -0.041031048 -0.108810596
0.08545945 0.07889152 -0.04145063 -0.024229415 -0.06785969 -0.040734984 -0.03217195 -0.013862286
-0.0014205877 -0.08979102 0.002803228 -0.02954162 0.02308168 0.023676474 -0.021780938 -0.0003932362
0.049817376 -0.024968943 -0.030644571 -0.11332632 0.036938135 0.03604877 0.013727079 0.025015466
-0.0055672685 -0.045461133 -0.052947164 -0.06624836 0.024779506 0.01759702 0.0016218565 -0.013987327
0.021897988 0.007336053 -0.034502193 0.04609835 0.024284692 0.05306699 -0.045634642 -0.062680945
0.05648981 -0.054367382 0.04266975 -0.056820054 0.07436198 -0.03604532 0.027019303 -0.05721654
-0.043629993 0.054687344 0.0025678743 0.026632253 -0.052239534 0.037042093 0.0055666883 -0.031556398
-0.036729507 -0.059412904 -0.01832575 -0.07820325 -0.0067527625 0.045336757 0.04011786 0.006865901
-0.038527306 0.027235473 0.006214625 0.066295184 -0.049597103 -0.036911376 -0.06556098 0.07471789
-0.0040409253 -0.06758982 -0.083688095 -0.05266303 -0.05621 -0.109396115 0.003287889 -0.011672318
-0.063345686 0.04252832 0.055008937 -0.062224567 0.0950479 -0.096837096 -0.031015458 -0.015884206
0.050453424 -0.08531359 0.019705847 0.05623072 -0.017581305 0.032742172 -0.024326757 -0.07575368

network_body._body_endoder.seq_layers.0.bias f4 [128]
00000000: a037 683b 542a 0abb d0bf 5bbc 6ea0 813b
00000010: 5517 0f3c 2d4d 003c e46a 63bc 7dcf d6ba
00000020: 1e0d 4a3c 27c5 23bb a1dd 3dbc 80a5 833c
00000030: f6ea 9aba bad4 beba 75cf 743c 1b13 e83b
00000040: ba00 63bc 1f92 77bc d33f 36bc beda 793c
00000050: 961c 403c 7bc8 8e3c c681 3f3c 1cea 5fbc
00000060: d519 70bc 9762 8cbc 7f73 263c 4a03 81bc
00000070: fa62 833c c295 ae3b cb8c 00bb 9507 883c
00000080: 9ae9 43bc 1f1c 123c 87c7 693c ff3f 943b
00000090: 02c1 4b3c 8fe9 15bc 5ead bb3b 8af9 173c
000000a0: ea33 5abb 824a 38bc 7183 6fbc cc05 6bbb
000000b0: ecca 65bc 6929 723c fc2f 4bbc 1642 37bc
000000c0: b9e5 a2bb aac5 ebbb c2ad 72bc 87c9 5cbc
000000d0: b4de 643c 7ab6 3e3c 2d13 673c c35b 99bb
000000e0: ebe8 5bbc 1b85 4abc 2b54 5ebc 7d47 57bc
000000f0: 3ad3 84bc 514d f43b 2a0d 77ba 8900 263c
00000100: fa1c 6fbc 628c c63b 1e5e 443c bd0c 803c
00000110: f9ec 653c 4adb c43b 929d 863c 0a0d 7f3b
00000120: ecbe f83b 55da 84bc 14e5 4fbc 1455 86bc
00000130: eb00 8b3c 1d6e 52ba 0135 61bc 4ed5 abb8
00000140: fb98 52bc ae79 4cbc af58 08bc 31cd 103c
00000150: 96b9 54bc 6afe 05bc 98bb 733c 1fc9 85bb
00000160: 0a7b bebb 600c f2bb 4f62 2d3b 3cc2 a23b
00000170: b902 f9bb 264e 88bc c71e 603c 084b 40bb
00000180: 65cc 84bc 923a 043c 10ec 663c 270f 2f3c
00000190: dcbc dcbb d3a0 213c 69d2 a8bb faf0 bdbb
000001a0: 3a99 953c 7f3f 993a 77e6 28bc 2b3f cfbb
000001b0: f9b2 a5bb 8366 3a3c ac19 28bc 8d5f c1bb
000001c0: d580 843c d41e 80bc cc5d 4fbc c743 7d3c
000001d0: 9005 3d3c 863f 8fbc fbe3 7f3c b200 8dbc
000001e0: 7441 483c 4629 10ba a804 57bb cce9 6b3c
000001f0: 2a3a 2bbc 86c6 41bc a661 adbb d171 f0bb
0.0035433546 -0.0021082358 -0.013412431 0.0039558923 0.00873359 0.0078309 -0.013880465 -0.0016388741
0.012332229 -0.0024989338 -0.011588485 0.016070127 -0.0011819291 -0.0014559247 0.01494204 0.0070823557
-0.013855154 -0.015110522 -0.011123615 0.015249906 0.011725565 0.01742958 0.011688655 -0.013666656
-0.014654596 -0.017136855 0.010159372 -0.015748639 0.016038407 0.005327911 -0.001961517 0.016605178
-0.01195755 0.008917837 0.014268762 0.0045242305 0.012436153 -0.009149923 0.005727454 0.009275803
-0.0033295103 -0.011248233 -0.01461874 -0.003586161 -0.014025431 0.014780381 -0.012401577 -0.01118519
-0.0049712327 -0.0071951943 -0.014811935 -0.013475782 0.013969112 0.0116401855 0.014103693 -0.0046801283
-0.013422231 -0.012360836 -0.013569872 -0.013139603 -0.016214002 0.007455506 -0.0009424264 0.0101319635
-0.014594311 0.0060592154 0.01198533 0.015631074 0.014033549 0.0060075866 0.016432557 0.0038917684
0.007591119 -0.01621739 -0.012688894 -0.01639799 0.016968211 -0.00080272724 -0.013745547 -8.1936465e-05
-0.012853856 -0.012480183 -0.008321925 0.008837984 -0.0129837 -0.008178333 0.014876269 -0.0040828134
-0.0058130072 -0.007386729 0.0026456302 0.004967002 -0.0075992015 -0.016638827 0.013679213 -0.0029341597
-0.016210744 0.008070605 0.014094368 0.010684765 -0.006736381 0.009865004 -0.005152036 -0.005796549
0.01826154 0.0011691897 -0.010308853 -0.006324669 -0.0050567356 0.01137698 -0.010260027 -0.005901283
0.016174713 -0.0156397 -0.01265664 0.015458054 0.011536971 -0.017486345 0.01561832 -0.017212246
0.0122226365 -0.0005499314 -0.0032809172 0.014399003 -0.010450879 -0.011827117 -0.0052911816 -0.0073377867

network_body._body_endoder.seq_layers.2.weight f4 [128, 128]
00000000: 2a2e 633b a1f3 1b3d bac0 263d 7772 913d
00000010: dc15 ba3c 097a 2dbc 128d a73c f97f fdbc
00000020: 2283 f2bc 5319 99bd 137c 0e3e bc73 08bd
00000030: 75f9 e73b de31 1d3c 8b7b dd3d c6c1 e1bd
00000040: 69d6 843d de9b c83c 77c2 cf3c 6be7 c8bd
00000050: 2e08 e83d 2502 89bd e6ce bf3d 0a19 193e
00000060: eb14 53be 49bb aa3d 1f7e f33c f62c 373d
00000070: 47e3 c2bd 6e92 953d 1d2f 3b3e 7f77 f9bd
00000080: 175e 9bbd 9e75 10be 87af acbd d07f 3d3d
00000090: 8550 1c3d a59b 8ebd 6a87 80bd 38b7 a1bd
000000a0: f9c3 a53d 9985 4cbb 2457 30be 462c f63d
000000b0: 32d8 413e 089f 5d3d 4895 d8bd 4d2f 52bd
000000c0: 4ca4 0e3c 8197 15bd 81b3 b2bc 6c08 8dbc
000000d0: c7ad ccbc ee71 403d 9200 693d 41f4 c0bd
000000e0: 277d d9bc 5d73 bc3d f461 f63d 521e ef3c
000000f0: 3104 3abd 4be9 63bd 032c 14be 1acd 3f3c
00000100: 3905 d4bd 971b 3c3e d2f9 2ebd 5306 a7bd
00000110: 926f 4c3b 3366 383e c9b7 69bd 71ee 9ebb
00000120: 34d2 8dbc d47a dc3d c0ca 04bd 7e27 5c3c
00000130: 1212 3dbe a23d c93d cb12 38be ffeb 98bc
00000140: 74f9 933d 7583 323e 3e79 4e3d 721d 24be
00000150: f511 003d a67b 9c3b df11 5f3b dd76 003b
00000160: 0e54 7f3d c05c 753d 3cd6 ec3c 275f e23d
00000170: e1d3 ebba c3e3 a6bd d556 963d b9a9 a13b
00000180: 5a60 c63d 3468 553d 1d98 343d eb96 423c
00000190: 9a9a 40be 1879 6cbd 547b c73d 5511 b3bd
000001a0: 21c4 66be 5baa 1cbd a798 6a3d b65b fc3d
000001b0: 9682 ee3d e136 c1bd bba7 d13d 3cd3 d9bc
000001c0: b3e1 60bc 16f0 b1bd 5418 f8bd e024 d9bd
000001d0: ca39 8dbc f5d6 a9bd ee1d 04be e6b1 3e3d
000001e0: d007 9c3d 4e85 51bd ac03 72bd d894 943c
000001f0: 98f1 b9bd b4a5 2bbd c899 bbbd 3930 cdbd
00000200: 5568 043e 2422 aa3d f655 9bbd 7fb8 853d
00000210: 65ff ed3c dfb5 ca3d e427 0abd 1318 1ebc
00000220: d5d6 ea3d b378 93bc 193f 5a3e 991e 8c3c
00000230: 1a9e 81bd 40c4 9f3b 7b0a a0bd 1b46 1c3e
00000240: 1ae7 a73d dad1 3dbd 5007 993b 1b8d 0d3e
00000250: d1e2 ccbd 9867 08be 8c95 c13d 27d8 083d
00000260: 9eaa e4bd e29a 2b3d af3a 99bd 00ee 8bbc
00000270: e23d bdbd efcb 28bd eac0 d23d 77cc 873d
00000280: f255 d8bd 5af6 5abe b316 11be 9529 e3bd
00000290: efde bfbd 044c b9bc 0145 c43d 572a 81bd
000002a0: 1ab8 0f3c f195 12bd cc15 b4bd 0242 9bbc
000002b0: a109 62bd e105 cebd 0e56 773d 7d91 d23d
000002c0: d915 713d 0f13 15bd e509 f43c e8d4 9f3c
000002d0: b35d 0d3d 6c48 433d 7f0a d43c a7b7 bcbc
000002e0: 8cc3 bfbc d277 cfbb af7c d6bd 609f 96bc
000002f0: 551c 09bb af84 643d c67b 32bd 6bab 1b3d
00000300: 08ec 16bd 4c68 7ebd d09a d33d 81a7 8a3e
00000310: fe07 173d ccdd b63d 4b58 053e 8e0a 17bd
00000320: 5d7f 5fbd 280b f9bd 5467 51bd ab09 2cbe
00000330: 89fa 803c 838c a7bb 6bfa 583b 0383 a6bd
00000340: dd8f aebc 2c61 b7bc 62e0 863d d4fd a03d
00000350: 75f7 a0be a5d6 623d 8b8c 853c ad8c 8dbd
00000360: 74b8 f3bd 6aef 803d 7814 b13c 0906 8a3d
00000370: 32ba bb3c 7864 7abd 4984 003e a61d 9bbd
00000380: 3532 dcbc cdf6 383e 8939 ce3d 0c8f ab3d
00000390: 6ff9 a13c adf5 3fbc 8e32 d6bd ee22 bf3d
000003a0: 0ca4 41be 4de1 16bd 3106 f5bd cdc5 243e
000003b0: 68e1 1d3d 92d7 063d ef2c 0b3d 77d5 5f3d
000003c0: 49ce e43d bc91 393c 7c40 483d ee68 b6bc
000003d0: 50e8 333d 4c76 a5bd 1812 ab3c f1ae fdbd
000003e0: c7a8 1c3d 1b2a 6bbd 5954 04be b8ce cfba
000003f0: a6bf 44bd 9e17 7abc a196 4fbc 4d99 1a3e
0.0034664967 0.03807414 0.040711142 0.071019106 0.022715501 -0.0105881775 0.02045301 -0.030944811
-0.029603545 -0.07475533 0.13914518 -0.033313498 0.007079298 0.009594409 0.108145796 -0.110232875
0.06486208 0.024488386 0.025361283 -0.098097645 0.11329685 -0.06689862 0.093656346 0.14950958
-0.20613448 0.08336503 0.029723225 0.044720612 -0.09516006 0.0730332 0.18279691 -0.12180995
-0.075863056 -0.14107367 -0.08431917 0.04626447 0.038162727 -0.069632806 -0.06275828 -0.07896274
0.080940194 -0.003120756 -0.17220742 0.12020163 0.18930128 0.054106742 -0.10575348 -0.05131464
0.008706164 -0.03652144 -0.02181411 -0.01721593 -0.024985207 0.04698365 0.05688531 -0.09421588
-0.026548935 0.09201691 0.12030402 0.029189263 -0.045414153 -0.055642407 -0.14469914 0.011706615
-0.10352559 0.183699 -0.042718716 -0.08155503 0.003119443 0.18007736 -0.057060037 -0.004850202
-0.017312147 0.10765615 -0.03241992 0.01343715 -0.18463925 0.09826209 -0.17975919 -0.01866722
0.07225314 0.1743296 0.050408594 -0.16026857 0.031267125 0.004775482 0.0034037752 0.0019602098
0.06233602 0.059902906 0.028910749 0.11053305 -0.0017992222 -0.08148911 0.07340781 0.0049335626
0.09686346 0.05210133 0.04409038 0.011876802 -0.18808976 -0.05773267 0.0974032 -0.0874354
-0.22535755 -0.0382484 0.057274487 0.1232218 0.11646001 -0.094342954 0.1023707 -0.026589982
-0.013725686 -0.08688371 -0.12114015 -0.106027365 -0.01723947 -0.08292953 -0.12902042 0.046556376
0.076186776 -0.05115252 -0.059085533 0.01813738 -0.090792835 -0.041906074 -0.09160191 -0.10018963
0.12930425 0.08307293 -0.07584755 0.065293305 0.029052446 0.098979704 -0.03372945 -0.009649294
0.11466757 -0.01800189 0.21313132 0.017104434 -0.063289836 0.0048756897 -0.07814499 0.15261118
0.08198376 -0.04634271 0.004670061 0.13823359 -0.10004199 -0.13320768 0.09452352 0.033409264
-0.11165355 0.041895755 -0.07481896 -0.01708126 -0.09240319 -0.04121011 0.10290702 0.066307954
-0.10563268 -0.21383038 -0.14168815 -0.110919155 -0.09368693 -0.022619255 0.09583474 -0.06306904
0.008771921 -0.035787527 -0.0879322 -0.018952373 -0.055184964 -0.10059715 0.060384803 0.10281656
0.058858726 -0.03639513 0.029789874 0.019510701 0.034513187 0.04767649 0.025883911 -0.023036791
-0.023408674 -0.0063314224 -0.10473 -0.018386543 -0.0020921428 0.0557906 -0.04357507 0.038005274
-0.03684619 -0.062111184 0.103322625 0.2708092 0.036872856 0.08929023 0.13021962 -0.0368753
-0.054564822 -0.12160331 -0.051123932 -0.16800563 0.015744464 -0.005113186 0.0033108245 -0.08130457
-0.021308834 -0.022385202 0.065857664 0.07860914 -0.31438795 0.055380482 0.016302368 -0.069115974
-0.11900416 0.062956646 0.021616206 0.06739432 0.022915933 -0.06113097 0.12550463 -0.07574014
-0.02687941 0.18062897 0.10069568 0.083768934 0.01977226 -0.0117162885 -0.10458861 0.09332834
-0.18910235 -0.036835957 -0.119640715 0.1609108 0.038545042 0.032920428 0.0339784 0.054646935
0.11172158 0.01132625 0.048889622 -0.022266831 0.043922722 -0.08079204 0.020882651 -0.12386883
0.038246896 -0.0574132 -0.12922801 -0.0015854454 -0.048034333 -0.01526442 -0.01267019 0.15097542

network_body._body_endoder.seq_layers.2.bias f4 [128]
00000000: 5668 0cbc 86ff 883c 001b 333b 2ae3 9fbb
00000010: 2304 6abc 0983 933b e866 8e3c 7793 663b
00000020: d4fa 81bc bfb6 363c 9fc0 3c3c 94d4 833c
00000030: 99bc d7bb 3f9e b93b 397e 34bc a1fb 263c
00000040: c18d 2d3c e5af dfbb 2edd 53bc 9628 843c
00000050: f064 5cbb 93fb 723c 0c82 2fbc e322 4a3c
00000060: 223a 073c 8b0f 7a3c 5cd3 91bc 1ca7 6c3c
00000070: 1412 0bbc ed53 d33b f081 84bc e6ce 803c
00000080: 451a 823c 6abf 543c 4361 713c e6af 4a3c
00000090: 664a 87bc 58fe 753c cfeb 7b3c 0477 d7b9
000000a0: 1819 19bc 89a1 873c 3b65 aabb f8da 043c
000000b0: ebbb 373c 6076 45bc 0eb8 7abb 739d 42bc
000000c0: 31de 8c3a cebf 81bc cf45 7e3b 8cae 89bb
000000d0: f599 05bc 0018 5bbc dcfe 47ba 61ef 14bc
000000e0: 1b18 09bc 40ae 213c 05e9 92bb a0cd 64bc
000000f0: 22ff 763c 4b35 6bbc 1d62 4dbc bb14 a6bb
00000100: 3977 7abc 3340 7d3c 906f f33b f8f1 45bc
00000110: 3950 df3b ae32 33bc ca43 cfba 28b5 0c3c
00000120: 2fc3 823b eef3 82bc 8daa 7e3c edda 2c3c
00000130: d92e 30bc 3325 22bc b251 823c 3df7 8f3b
00000140: a09e 80bc 6ade 46bc 76fa 093c 5c79 86bb
00000150: 06d3 743c bed9 80bc b525 233c 06b7 683c
00000160: f9e3 2bbc 9bde 8f3b eaa5 8f3b e0e0 833c
00000170: 9cad 523c 828f 9dbb ff9a 8a3c 073c 5f3b
00000180: bbe6 c5bb b09d 6abc 37c7 7cbb aff7 823c
00000190: 31b8 873c 82c5 733b 812b 32bc f07c b93b
000001a0: c289 9ebb 8aec aa3b 620f 5fbc 3fae 403b
000001b0: 1130 403c ca0e 063c 070b 233c a6d9 883b
000001c0: ab4a 11bc 6a57 43bb 009b 78bc 937e 313c
000001d0: 9638 0cbc 5518 2bbc 78d8 133b f090 713b
000001e0: d6a8 883c a9ff 7cbc 1745 0fbc 80a5 663c
000001f0: bc14 31bc a4e4 183c fd1c 55bc d795 353c
-0.0085697975 0.016723406 0.0027329326 -0.004879375 -0.014283213 0.0045017046 0.017383054 0.003518311
-0.015866674 0.0111519685 0.011520534 0.016092576 -0.006583762 0.0056646164 -0.011016422 0.010191829
0.010592879 -0.006826388 -0.012931151 0.016132634 -0.00336295 0.014830488 -0.010712158 0.012337419
0.008253606 0.015262495 -0.01780098 0.014444139 -0.008488197 0.0064492137 -0.01617524 0.015723657
0.015881667 0.01298509 0.014732662 0.012371039 -0.016514968 0.015014254 0.015376045 -0.0004109667
-0.009344362 0.016556518 -0.005200056 0.008108847 0.011214237 -0.012052149 -0.0038256678 -0.011878359
0.001074737 -0.01583853 0.0038798933 -0.004201716 -0.008154382 -0.013372421 -0.00076292246 -0.0090902755
-0.008367564 0.009868205 -0.0044833445 -0.01396504 0.015075477 -0.014355968 -0.012535599 -0.0050683892
-0.015287214 0.015457201 0.007429071 -0.012081616 0.006814983 -0.010937376 -0.0015813049 0.008588113
0.003990553 -0.015985455 0.015543592 0.010550243 -0.010753357 -0.009896564 0.015908096 0.004393487
-0.015700638 -0.012137989 0.008421531 -0.0041038226 0.01494289 -0.015728828 0.0099577205 0.014203792
-0.010491365 0.0043905503 0.004383792 0.01609844 0.0128587745 -0.004808367 0.016919611 0.0034062879
-0.006039468 -0.014319822 -0.003857089 0.015987245 0.016567321 0.0037196581 -0.01087463 0.0056606457
-0.0048381994 0.005216186 -0.013614507 0.0029400734 0.01173021 0.008182237 0.00995136 0.0041763363
-0.0088679 -0.0029806742 -0.015173674 0.0108334 -0.008558413 -0.010442813 0.0022559445 0.003686007
0.01668207 -0.0154418135 -0.0087445 0.014077544 -0.010808166 0.009331856 -0.0130074 0.011083088

action_model._discrete_distribution.branches.0.weight f4 [3, 128]
00000000: 2e88 4dbc fcb5 da3c cf8c 853c 99cd 52bc
00000010: f222 a0bc 896d da3c bea0 c63c a96a f73b
00000020: 9ed7 9abc b5c3 dc3c b138 253c d7dc 9d3c
00000030: 1bb3 5bbc 9ded cd3a 4227 a8bc 3f65 893c
00000040: 65a3 043d 9615 3abb 128a 3bbc f139 843c
00000050: b273 91bb 563e d03c 5361 c4bb ee7a dc3c
00000060: e377 153d c60e 043d 348c fdbc c064 d23c
00000070: 9616 27bc 47ec 563c c7b9 0ebd 3f19 023d
00000080: 5dc5 b93c 1f53 cb3c a5ad 0b3d 275f 813c
00000090: 1a17 04bd d6f3 b53c 95bb 013d 619f 21bb
000000a0: 1aa9 3cbc 694f b93c 6699 44bc fe75 fa3b
000000b0: 1738 aa3c e8be 81bb 29eb 253b 2286 67bc
000000c0: 23e4 d8bb b9e9 c9bc fe5f 6a39 4887 94b9
000000d0: 59f2 6cbc a8ae 80bc 0ccf 243c 6b2e 64bc
000000e0: bed1 c3bb 3ca5 aa3c 3c9e 68bb 4d38 1cbc
000000f0: f7d0 fc3c 6c0e c6bc f946 a4bc 4341 9eba
00000100: f7fa f1bc 0010 7c3c 7a31 f93b d465 9abc
00000110: 248b cb3c 5e5d a2bc 42ac a1bc b44f 083d
00000120: 54f6 943a 5df8 95bc dbd3 d33c 973f ac3c
00000130: 5570 44bc 4bea babc 8cfd 933c a58b 0f3c
00000140: b3f6 d8bc 6a83 cebc a0e3 093c 2f3c a2bc
00000150: fb6b 933c 4c61 b5bc e3ee ad3c 6f12 e43c
00000160: f03b eebc 632f 943c f58e 4a3b f3c9 b63c
00000170: 3898 463c fee5 8fbc 93fa 103d 741d d43c
00000180: bb3e aebc 1b32 bcbc e363 0cbd a051 aa3c
00000190: d549 a03c c1a5 a13b bb6f 83bc 79f6 da3b
000001a0: 22d1 98bb 97bc 593c cadf a3bc f4b1 54ba
000001b0: 1e0a 083c ccde 903c ef78 953c f60d bd3c
000001c0: 6629 53bc 97e0 953b f205 b9bc cc0d 593c
000001d0: 8bc8 a5bc 73ab b9bc ded6 15ba 4550 2d3b
000001e0: 37a8 323d f824 bcbc a6db ddbc 39e3 933c
000001f0: 0d1d 88bc 57a2 9f3b 96c2 d3bc 8b4f 7b3c
00000200: 573c 803c e74f 7abc 634d e6bb 597c bc39
00000210: 2163 cc3c 5b3d 31bb 209f 85bc 64f5 4fbc
00000220: d65c 8e3c 8523 f0bb b3b4 9bbc 4d38 cdbc
00000230: ab65 b43c 2c7e 59bc 23be 1f3c a114 bbbc
00000240: 15b4 aebb 6056 363c 3f4f 043d 4393 81bc
00000250: f709 673c 7d8f 5ebc aa9a e43c 5cac bebc
00000260: 5836 51bc 246c e4bc e4a0 2d3c f9ea 23bc
00000270: 4cee c23c 5b41 4cbc 4633 dd3c c99e debc
00000280: fd37 c3bc e019 0cbc b273 aabc ff79 93bc
00000290: 2a28 823b ff75 b5bc 024e 8bbc 682b 26bc
000002a0: d2cc 4e3c ebf2 f6bc adfd 963b 51ca c0bc
000002b0: 1bb4 70bc 19b8 133d 5293 223c 8a93 753c
000002c0: bf07 1d3c 5eb9 0d3c 040c 7cbb 39ba 82b9
000002d0: 7194 0e3c 278d b33c c1b4 6dbb 266a c73c
000002e0: 2bdb a13c c07e 55bc 56b6 193c 4169 013d
000002f0: 9fa1 91bc d9d4 643c 8b43 903c e434 d53b
00000300: 8afd 8f3b 98f8 92bc 55b7 89bc 7f89 803c
00000310: a902 2ebc da34 ba3c 9c02 ebbb 5350 ee3a
00000320: 5f1e d5bc d72c f93c b3b3 85bc d25f 03bc
00000330: 12a6 843c 19dd 673c 29f5 a3bc 4438 63bc
00000340: 7ab0 893c 9917 363c f3c6 b7bb a2b3 e2b9
00000350: ff6d abbc 1059 e43c 433b aebb 046d 4abc
00000360: 83d4 1d3c 571f 4fbc 0ebb 063a 9248 d6bc
00000370: 1850 c1bc 7e70 53bb a421 b4bc 3b0c 933b
00000380: baa4 063c df7d 7d3c 33b0 d03b 703b cfbc
00000390: c6ef 10bd a544 f5bb 8e8c 143c c7c6 81bc
000003a0: 9da4 05bb cf7b 09bc f5b9 dd3c 34eb 403b
000003b0: 84d7 d1bc f16c ddbb e868 babc fc60 62bc
000003c0: 58a8 b23c 343c 1a3b a165 c63c 57fe d2bb
000003d0: 91c7 f23b 22fd b73c 530c f7bb 71bb 7cbb
000003e0: 16f6 87bc aa6a b73c 6e0d 0c3c d914 cabc
000003f0: c04e 4e3c f6d0 a9bc 7b1b aa3c d99a 35bc
-0.012544675 0.026698105 0.016302494 -0.012866401 -0.019547913 0.026663559 0.02424657 0.0075505567
-0.018901642 0.02694879 0.010084317 0.019270344 -0.013409401 0.0015711073 -0.020526532 0.01677191
0.032382388 -0.0028394214 -0.011446493 0.01614091 -0.004438841 0.02542035 -0.0059930473 0.026914086
0.036491286 0.03224065 -0.030950643 0.025682807 -0.010198256 0.013117856 -0.03484514 0.031762358
0.022677118 0.024819909 0.034101147 0.015792442 -0.032248594 0.022210997 0.031673033 -0.0024661648
-0.011514926 0.022620874 -0.011999464 0.0076434603 0.020778699 -0.0039595254 0.0025317168 -0.014131101
-0.006618993 -0.02464758 0.00022351739 -0.00028329552 -0.014462077 -0.015708283 0.010059129 -0.0139270825
-0.005975931 0.020830743 -0.0035494706 -0.0095349075 0.030861361 -0.024176799 -0.020053374 -0.0012073893
-0.029538615 0.015384674 0.007604775 -0.018847384 0.02484662 -0.019819912 -0.01973546 0.033279136
0.0011364915 -0.018306905 0.025857856 0.021026416 -0.011989673 -0.022816798 0.018065237 0.008761321
-0.026484823 -0.025209147 0.008416086 -0.019804088 0.017995825 -0.022141121 0.021232074 0.027840821
-0.029081315 0.018089002 0.0030907963 0.022313094 0.012121253 -0.017565724 0.035395216 0.02589295
-0.021270147 -0.02297311 -0.034274947 0.020790875 0.019566456 0.0049330895 -0.016044488 0.006682214
-0.0046636024 0.013289592 -0.020004172 -0.0008113675 0.008303193 0.017684363 0.018246142 0.023077946
-0.012888288 0.0045738923 -0.022585843 0.013247918 -0.020237228 -0.022664761 -0.00057159166 0.002644555
0.043617453 -0.022966847 -0.027082276 0.018052684 -0.016615415 0.0048716473 -0.025849622 0.015338789
0.015653772 -0.015277839 -0.007028268 0.000359508 0.024949612 -0.0027044627 -0.016311228 -0.012692783
0.017378252 -0.007328453 -0.019007063 -0.02505126 0.022021135 -0.013274711 0.009749922 -0.022836985
-0.005331526 0.011128992 0.032302137 -0.01581729 0.014101497 -0.013584015 0.02790578 -0.023275547
-0.012769304 -0.027883597 0.010597441 -0.010004752 0.02379527 -0.012466754 0.027001988 -0.027175324
-0.023830408 -0.008551091 -0.020807121 -0.018002508 0.003972073 -0.022150991 -0.01700497 -0.010142185
0.012622075 -0.03014513 0.004607877 -0.023533972 -0.014691378 0.03606424 0.009922819 0.014988789
0.009584366 0.008650152 -0.003845931 -0.0002493428 0.008702383 0.021917893 -0.0036271068 0.024342608
0.019757828 -0.013030708 0.009381851 0.03159452 -0.017777262 0.013966762 0.017610332 0.006506549
0.004394238 -0.017940804 -0.016811052 0.015690563 -0.010620751 0.02273028 -0.007171942 0.0018181897
-0.026015459 0.03041689 -0.016321039 -0.008018451 0.01619247 0.014151835 -0.020014362 -0.013868395
0.016807783 0.011114025 -0.0056084334 -0.00043239916 -0.020926474 0.0278745 -0.005317123 -0.012355093
0.009633186 -0.012641749 0.00051395677 -0.026157651 -0.023597762 -0.0032263095 -0.021988697 0.004487542
0.008217985 0.015471905 0.006368661 -0.025296897 -0.035384916 -0.0074849897 0.009066714 -0.015841855
-0.0020392307 -0.008391335 0.02706621 0.0029437067 -0.025615461 -0.0067573716 -0.022755101 -0.013817068
0.021808788 0.002353442 0.024218382 -0.006439011 0.007409044 0.02245957 -0.007539311 -0.0038563872
-0.016596835 0.022389729 0.008548124 -0.024668144 0.012592018 -0.020729523 0.020765057 -0.011084282

action_model._discrete_distribution.branches.0.bias f4 [3]
00000000: 68c3 7d3c d933 64bc 5b0a 533b
0.015488483 -0.013928377 0.0032202217

action_model._discrete_distribution.branches.1.weight f4 [2, 128]
00000000: 516f fb3b 966d 08bc aebf 773b 3bea ea3c
00000010: 16a5 303c 5c5b ac3a ebd9 a4bb a076 d4ba
00000020: 1e2e 183b 7aa8 14bd 4c00 063c 8b77 55bb
00000030: 3180 20bb 8ee4 32bc 3659 c73c 0828 cbbb
00000040: 4527 82bc 7425 263b 0979 943a c1e1 ffbb
00000050: ddaf 513c f93d a5bc 9c90 783b e537 24bb
00000060: 58ac bd3b 4778 5abc e3cf a23c ed3d 86bc
00000070: a7f3 babb e530 413c 7251 a33a 06c3 5a3b
00000080: 4d2d e4bc 7118 adbb 4ae7 daba 773f a3bc
00000090: c3d4 373c 4c80 c7bc e13e a2bc 2315 4b3c
000000a0: 77db 913b a80c 93bc 2dba 153c 66fa 58bc
000000b0: 379d c1bc 00aa 683c 1352 62bb 62a7 523c
000000c0: 35df 22bb 5067 07bb 9f9b 3d3c f587 773b
000000d0: 524f 0b3c 26e8 813c 0450 ed3b f4fb c93a
000000e0: 813b b13b c091 bcba 5dca b8b8 5591 323c
000000f0: cc53 e2bb fe71 bd3c 1225 8f3a e6eb 223a
00000100: de6b 903c c7cb 39bc 8e11 07bc c9b0 563c
00000110: 6d73 75bb 4acd 3dbc 1dc8 383c 410c 02bc
00000120: 27a2 cfbb 4134 653b 8871 80bc 1f31 5abc
00000130: 5a3d 963b 11c6 0f3b bcd4 33bc b6a5 e63b
00000140: 4990 c13a a51b e73b 5a3e d9bb ec4b 8b3c
00000150: 19ec 7ebc f764 e73b 9b8d 97bb e5a1 41bc
00000160: c367 843a 34b7 f5ba aa38 07bc c109 afbb
00000170: b8a6 2d3b bdd2 40bb cde8 3fbc 00cb 26bc
00000180: 27a8 693c 2f9d 5a3c cb38 d1bb 91d1 54bc
00000190: c1c2 27bc d022 06bc 7f7a d5ba 587d 95bc
000001a0: 53e4 653c 755d 973c d4de 913b 01bd 13bb
000001b0: 2b6a 95bc 867e 39bb eeb7 8e3b bb93 f53b
000001c0: 3cc4 123b da65 5e3c 2159 3d3c dfce 80bc
000001d0: f0a0 44b8 204d 713b f48a f7bb f3bc 86bc
000001e0: e2a8 03bc 3a5e 3e3c 5561 843b 8a7a a4ba
000001f0: adab 8f3b 16a1 b6bb ab97 b93b 2b66 10bc
00000200: 4d9a 82ba 7a02 1f3c d6de 82ba da04 e83a
00000210: 379d 883b 9cdc 723a 8099 4a3c cec4 cb3b
00000220: 7d5b 13bc ce7f b63b e436 643c 4278 923c
00000230: 091d dd3a b4f4 4b3c e5d5 c6bb 8b22 ccbb
00000240: 1a3e 863c 6d6e aabc db77 50bc 65cb 0f3c
00000250: 516b 3f3c cff2 cd3b 8585 02bb 9f46 ad3a
00000260: 59a2 9f3a a54a 3f3a 7362 333b 8cde d2b9
00000270: c441 15bb c7f4 033c 55ea 33bc f899 533c
00000280: d1c0 833b fbe8 f03b 8ab4 a63b 2ffc 6fba
00000290: e6e9 41bc 511c 233c 5951 783c 1904 a23b
000002a0: b9ca 0ebc 4362 393c 65b9 4cbc 0afc 0b39
000002b0: 5eb1 153c b643 2d3b 33e5 05bc f7a8 8fbc
000002c0: 580e 503c 4f3c 40bc e967 a6ba 2a17 233c
000002d0: f2ec 31bc b05e 5abc 2ed5 67bc 53a1 593b
000002e0: b572 85bc 1762 c63a f7a9 153b 2e38 5fbc
000002f0: f69c ad3c e607 aa3b 2134 a1bc 90a7 60bc
00000300: 04cb 213a 86ef cf3b 2d59 593c 71b1 21bc
00000310: 4ebf d63b 9cc6 37bc 8564 863c 47c2 7e3c
00000320: d773 f9bb 1cbf 63bc 6249 273c 70fb cb3c
00000330: 95da bcbc 2c75 b8bb 7a7f 2c3b c6ff 02bb
00000340: c3f0 eebb effc 243b 9874 9a3c 0661 36bb
00000350: fa21 663c ad41 2bbc 035a 853c ef95 9b3c
00000360: 19d2 433b 43b8 dcbb c482 cc3c 9235 ac3c
00000370: 1646 023c 3e75 48ba e13a c03b bdce 1e3c
00000380: 82c4 beba 2f7a 7dbc f887 173c f18b 233c
00000390: 7bde 913c bdba 513c 97ba eebb c847 a53b
000003a0: a493 79bb a63f 8c3b 2d94 87bb 6a59 383b
000003b0: 886d 123c 1fd6 6a3c fde1 0f3c 2752 683b
000003c0: 2fc6 4ebb b31f b33b 08a9 3cbb 2ea3 4d3c
000003d0: 84d2 7bbc 5262 113b b83f 113b d6c3 493b
000003e0: c83b c63c 3cb8 9ebc 5760 ec3a 7692 f03b
000003f0: 1e6a 2fbc ef07 47bb f41f ae3a 1960 5f3c
0.007673182 -0.008326909 0.003780346 0.028676143 0.010781547 0.0013149786 -0.0050308607 -0.0016209669
0.0023220847 -0.036293484 0.008178782 -0.0032572474 -0.002449047 -0.0109187495 0.024334531 -0.0061998405
-0.015887866 0.0025351914 0.0011327575 -0.0078088944 0.012798277 -0.020171152 0.003792799 -0.002505773
0.0057883672 -0.01333434 0.019874519 -0.01638695 -0.005705315 0.0117914425 0.0012460186 0.0033380403
-0.027853632 -0.0052824547 -0.001670101 -0.019927723 0.01122016 -0.024353169 -0.019805374 0.012395176
0.004451211 -0.01795037 0.009138626 -0.013243293 -0.023634536 0.014200687 -0.0034533783 0.01285729
-0.002485228 -0.0020660944 0.0115727475 0.0037770246 0.008502798 0.015857767 0.0072422046 0.0015410171
0.0054087047 -0.0014386699 -8.811497e-05 0.010898908 -0.006906962 0.023125645 0.0010921082 0.0006214961
0.01762956 -0.011340088 -0.008243931 0.013103672 -0.0037452832 -0.011584589 0.0112781795 -0.007937492
-0.0063364687 0.0034973773 -0.015679136 -0.013317375 0.0045849504 0.0021938125 -0.010976013 0.0070387973
0.0014767732 0.007052856 -0.0066297473 0.017003976 -0.01555922 0.0070615965 -0.004625035 -0.011818384
0.0010101724 -0.0018746615 -0.008253256 -0.005341739 0.0026497077 -0.0029422485 -0.011713219 -0.010180235
0.014261282 0.01334314 -0.006384944 -0.012989418 -0.010239304 -0.008187011 -0.0016287117 -0.018248245
0.0140314875 0.018477181 0.004451612 -0.0022543075 -0.018239101 -0.0028304174 0.004355422 0.0074944175
0.0022394797 0.013574088 0.0115568945 -0.015723644 -4.6879926e-05 0.0036819652 -0.0075544063 -0.01644752
-0.00803587 0.011619145 0.004039923 -0.0012548727 0.004384479 -0.005573402 0.005663832 -0.008813421
-0.0009964198 0.00970518 -0.0009984623 0.0017701641 0.004169132 0.0009264441 0.012365699 0.0062185293
-0.0089939805 0.0055694347 0.013929103 0.017879609 0.0016869615 0.0124484785 -0.0060679787 -0.006229704
0.016387034 -0.020804608 -0.012723888 0.00877652 0.011683301 0.0062850486 -0.001991601 0.0013219899
0.0012179121 0.00072971947 0.0027371913 -0.00040220132 -0.0022774795 0.008053965 -0.010981162 0.012915127
0.0040207882 0.007351992 0.00508744 -0.0009154705 -0.011835551 0.009955482 0.015156114 0.004944336
-0.008715325 0.011314931 -0.012495373 0.00013349965 0.009136526 0.0026438064 -0.008172321 -0.017536623
0.012698732 -0.011733129 -0.0012695763 0.009954253 -0.010859715 -0.013328239 -0.014149947 0.003320773
-0.016290048 0.0015135434 0.0022836903 -0.013624234 0.021193009 0.00518893 -0.019678177 -0.013711825
0.0006171914 0.006345692 0.01326589 -0.0098689655 0.006553567 -0.011216786 0.016405353 0.015549249
-0.007612686 -0.0139005445 0.010210367 0.024900168 -0.023053447 -0.0056292024 0.00263211 -0.0019988879
-0.0072918846 0.0025175174 0.018854424 -0.0027828827 0.014046187 -0.01045267 0.016278272 0.018992392
0.0029879867 -0.006735833 0.024964698 0.021021638 0.00795128 -0.0007646865 0.005866394 0.009692845
-0.0014554414 -0.015471025 0.009248726 0.009982095 0.017806282 0.0128008695 -0.007285427 0.0050439574
-0.0038082385 0.0042800484 -0.004137537 0.0028129467 0.008937247 0.014333277 0.008781907 0.0035449357
-0.0031551232 0.0054664253 -0.0028787274 0.012551112 -0.015370015 0.0022183848 0.0022163223 0.0030786893
0.024198428 -0.01937496 0.0018034083 0.0073416783 -0.010706453 -0.003036972 0.0013284669 0.013633751

action_model._discrete_distribution.branches.1.bias f4 [2]
00000000: 55c7 f3bb 58c7 f33b
-0.0074395337 0.007439535

onnx::Div_78 f4 [405]
00000000: 25b9 0b3c 25b9 0b3c 25b9 0b3c 4998 453c
00000010: 4998 453c 25b9 0b3c 25b9 0b3c 25b9 0b3c
00000020: 4998 453c 4998 453c 25b9 0b3c 25b9 0b3c
00000030: 25b9 0b3c 4998 453c 4998 453c 25b9 0b3c
00000040: 25b9 0b3c 25b9 0b3c 4998 453c 4998 453c
00000050: 25b9 0b3c 25b9 0b3c 25b9 0b3c 4998 453c
00000060: 4998 453c 25b9 0b3c 25b9 0b3c 25b9 0b3c
00000070: 4998 453c 4998 453c 25b9 0b3c 25b9 0b3c
00000080: 25b9 0b3c 4998 453c 4998 453c 25b9 0b3c
00000090: 25b9 0b3c 25b9 0b3c 4998 453c 4998 453c
000000a0: 25b9 0b3c 25b9 0b3c 25b9 0b3c 4998 453c
000000b0: 4998 453c 25b9 0b3c 25b9 0b3c 25b9 0b3c
000000c0: 4998 453c 4998 453c 25b9 0b3c 25b9 0b3c
000000d0: 25b9 0b3c 4998 453c 4998 453c 25b9 0b3c
000000e0: 25b9 0b3c 25b9 0b3c 4998 453c 4998 453c
000000f0: 25b9 0b3c 25b9 0b3c 25b9 0b3c 4998 453c
00000100: 4998 453c 25b9 0b3c 25b9 0b3c 25b9 0b3c
00000110: 4998 453c 4998 453c 25b9 0b3c 25b9 0b3c
00000120: 25b9 0b3c 4998 453c 4998 453c 25b9 0b3c
00000130: 25b9 0b3c 25b9 0b3c 4998 453c 4998 453c
00000140: 25b9 0b3c 25b9 0b3c 25b9 0b3c 4998 453c
00000150: 4998 453c 25b9 0b3c 25b9 0b3c 25b9 0b3c
00000160: 4998 453c 4998 453c 25b9 0b3c 25b9 0b3c
00000170: 25b9 0b3c 4998 453c 4998 453c 25b9 0b3c
00000180: 25b9 0b3c 25b9 0b3c 4998 453c 4998 453c
00000190: 25b9 0b3c 25b9 0b3c 25b9 0b3c 4998 453c
000001a0: 4998 453c 25b9 0b3c 25b9 0b3c 25b9 0b3c
000001b0: 4998 453c 4998 453c 25b9 0b3c 25b9 0b3c
000001c0: 25b9 0b3c 4998 453c 4998 453c 25b9 0b3c
000001d0: 25b9 0b3c 25b9 0b3c 4998 453c 4998 453c
000001e0: 25b9 0b3c 25b9 0b3c 25b9 0b3c 4998 453c
000001f0: 4998 453c 25b9 0b3c 25b9 0b3c 25b9 0b3c
00000200: 4998 453c 4998 453c 25b9 0b3c 25b9 0b3c
00000210: 25b9 0b3c 4998 453c 4998 453c 25b9 0b3c
00000220: 4998 453c 25b9 0b3c 25b9 0b3c 20ac 163c
00000230: 25b9 0b3c 25b9 0b3c 25b9 0b3c 4998 453c
00000240: 4998 453c 25b9 0b3c 4998 453c 25b9 0b3c
00000250: 25b9 0b3c 1f57 153c 25b9 0b3c 25b9 0b3c
00000260: 25b9 0b3c 4998 453c 4998 453c 25b9 0b3c
00000270: 4998 453c 25b9 0b3c 25b9 0b3c dce6 143c
00000280: 25b9 0b3c 25b9 0b3c 25b9 0b3c 4998 453c
00000290: 4998 453c 25b9 0b3c 4998 453c 25b9 0b3c
000002a0: 25b9 0b3c 58e3 143c 25b9 0b3c 25b9 0b3c
000002b0: 25b9 0b3c 4998 453c 4998 453c 25b9 0b3c
000002c0: 25b9 0b3c 25b9 0b3c 25b9 0b3c 0dd7 0d3c
000002d0: 25b9 0b3c 25b9 0b3c 25b9 0b3c 4998 453c
000002e0: 4998 453c 25b9 0b3c 25b9 0b3c 25b9 0b3c
000002f0: 25b9 0b3c 11b7 0d3c 25b9 0b3c 25b9 0b3c
00000300: 25b9 0b3c 4998 453c 4998 453c 25b9 0b3c
00000310: 25b9 0b3c 25b9 0b3c 25b9 0b3c aa9d 0d3c
00000320: 25b9 0b3c 25b9 0b3c 25b9 0b3c 4998 453c
00000330: 4998 453c 25b9 0b3c 25b9 0b3c 25b9 0b3c
00000340: 25b9 0b3c 4f89 0d3c 25b9 0b3c 25b9 0b3c
00000350: 25b9 0b3c 4998 453c 4998 453c 25b9 0b3c
00000360: 25b9 0b3c 25b9 0b3c 25b9 0b3c 4d79 0d3c
00000370: 25b9 0b3c 25b9 0b3c 25b9 0b3c 4998 453c
00000380: 4998 453c 25b9 0b3c 25b9 0b3c 25b9 0b3c
00000390: 25b9 0b3c 246d 0d3c 25b9 0b3c 25b9 0b3c
000003a0: 25b9 0b3c 4998 453c 4998 453c 25b9 0b3c
000003b0: 25b9 0b3c 25b9 0b3c 25b9 0b3c 7464 0d3c
000003c0: 25b9 0b3c 25b9 0b3c 25b9 0b3c 4998 453c
000003d0: 4998 453c 25b9 0b3c 25b9 0b3c 25b9 0b3c
000003e0: 25b9 0b3c f75e 0d3c 25b9 0b3c 25b9 0b3c
000003f0: 25b9 0b3c 4998 453c 4998 453c 25b9 0b3c
0.008528029 0.008528029 0.008528029 0.012060233 0.012060233 0.008528029 0.008528029 0.008528029
0.012060233 0.012060233 0.008528029 0.008528029 0.008528029 0.012060233 0.012060233 0.008528029
0.008528029 0.008528029 0.012060233 0.012060233 0.008528029 0.008528029 0.008528029 0.012060233
0.012060233 0.008528029 0.008528029 0.008528029 0.012060233 0.012060233 0.008528029 0.008528029
0.008528029 0.012060233 0.012060233 0.008528029 0.008528029 0.008528029 0.012060233 0.012060233
0.008528029 0.008528029 0.008528029 0.012060233 0.012060233 0.008528029 0.008528029 0.008528029
0.012060233 0.012060233 0.008528029 0.008528029 0.008528029 0.012060233 0.012060233 0.008528029
0.008528029 0.008528029 0.012060233 0.012060233 0.008528029 0.008528029 0.008528029 0.012060233
0.012060233 0.008528029 0.008528029 0.008528029 0.012060233 0.012060233 0.008528029 0.008528029
0.008528029 0.012060233 0.012060233 0.008528029 0.008528029 0.008528029 0.012060233 0.012060233
0.008528029 0.008528029 0.008528029 0.012060233 0.012060233 0.008528029 0.008528029 0.008528029
0.012060233 0.012060233 0.008528029 0.008528029 0.008528029 0.012060233 0.012060233 0.008528029
0.008528029 0.008528029 0.012060233 0.012060233 0.008528029 0.008528029 0.008528029 0.012060233
0.012060233 0.008528029 0.008528029 0.008528029 0.012060233 0.012060233 0.008528029 0.008528029
0.008528029 0.012060233 0.012060233 0.008528029 0.008528029 0.008528029 0.012060233 0.012060233
0.008528029 0.008528029 0.008528029 0.012060233 0.012060233 0.008528029 0.008528029 0.008528029
0.012060233 0.012060233 0.008528029 0.008528029 0.008528029 0.012060233 0.012060233 0.008528029
0.012060233 0.008528029 0.008528029 0.009196311 0.008528029 0.008528029 0.008528029 0.012060233
0.012060233 0.008528029 0.012060233 0.008528029 0.008528029 0.00911501 0.008528029 0.008528029
0.008528029 0.012060233 0.012060233 0.008528029 0.012060233 0.008528029 0.008528029 0.009088244
0.008528029 0.008528029 0.008528029 0.012060233 0.012060233 0.008528029 0.012060233 0.008528029
0.008528029 0.009087406 0.008528029 0.008528029 0.008528029 0.012060233 0.012060233 0.008528029
0.008528029 0.008528029 0.008528029 0.008657229 0.008528029 0.008528029 0.008528029 0.012060233
0.012060233 0.008528029 0.008528029 0.008528029 0.008528029 0.008649603 0.008528029 0.008528029
0.008528029 0.012060233 0.012060233 0.008528029 0.008528029 0.008528029 0.008528029 0.008643547
0.008528029 0.008528029 0.008528029 0.012060233 0.012060233 0.008528029 0.008528029 0.008528029
0.008528029 0.008638694 0.008528029 0.008528029 0.008528029 0.012060233 0.012060233 0.008528029
0.008528029 0.008528029 0.008528029 0.008634877 0.008528029 0.008528029 0.008528029 0.012060233
0.012060233 0.008528029 0.008528029 0.008528029 0.008528029 0.008631978 0.008528029 0.008528029
0.008528029 0.012060233 0.012060233 0.008528029 0.008528029 0.008528029 0.008528029 0.008629907
0.008528029 0.008528029 0.008528029 0.012060233 0.012060233 0.008528029 0.008528029 0.008528029
0.008528029 0.008628598 0.008528029 0.008528029 0.008528029 0.012060233 0.012060233 0.008528029

onnx::Div_81 f4 [13]
00000000: 25b9 0b3c 25b9 0b3c 25b9 0b3c 25b9 0b3c
00000010: 25b9 0b3c 25b9 0b3c 25b9 0b3c 25b9 0b3c
00000020: 25b9 0b3c 25b9 0b3c 25b9 0b3c 25b9 0b3c
00000030: 25b9 0b3c
0.008528029 0.008528029 0.008528029 0.008528029 0.008528029 0.008528029 0.008528029 0.008528029
0.008528029 0.008528029 0.008528029 0.008528029 0.008528029
