Assets/Training/results/finally_works/PlayerAgentBehavior.onnx (onnx, 224882 bytes, 11 tensors)

discrete_act_size_vector f4 [1, 2]
000000 00 00 40 40 00 00 00 40
       3.0 2.0

network_body.observation_encoder.processors.0.normalizer.running_mean f4 [284]
000000 fc f9 8a 41 21 a5 5f 40 00 00 00 00 72 d3 c8 40
       17.372063 3.4944537 0.0 6.275811
000010 2c 1f 78 3e 5d 9e af 3b 00 00 00 00 00 00 00 00
       0.24230641 0.0053594545 0.0 0.0
000020 10 49 e5 42 39 3c 1b 41 00 00 00 00 23 96 9f 43
       114.6427 9.702203 0.0 319.17294
000030 3e 6c 00 41 00 00 00 00 97 fb 88 43 1d 93 1f 41
       8.026426 0.0 273.96555 9.973416
000040 00 00 00 00 ac 91 8d 43 1f a3 1f 41 00 00 00 00
       0.0 283.13806 9.9773245 0.0
000050 fd 70 0d 44 0c 90 2a 41 00 00 00 00 ec 42 fb 43
       565.76544 10.660168 0.0 502.52283
000060 43 1b 93 41 00 00 00 00 ae 8d 1b 44 59 44 dc 41
       18.388311 0.0 622.21375 27.533373
000070 00 00 00 00 6e 2d 8b 43 ea fe 1f 41 00 00 00 00
       0.0 278.35492 9.999735 0.0
000080 df 26 2b 43 9f 40 55 41 00 00 00 00 71 b5 91 43
       171.15184 13.328277 0.0 291.4175
000090 06 44 21 41 00 00 00 00 3b 37 a0 43 d3 7e 01 41
       10.079107 0.0 320.4315 8.093463
0000a0 00 00 00 00 26 b0 c2 43 a2 b2 e0 40 00 00 00 00
       0.0 389.37616 7.021806 0.0
0000b0 d0 83 e3 43 ee 1b fc 40 00 00 00 00 60 19 c6 43
       455.0298 7.8784094 0.0 396.19824
0000c0 32 08 e2 40 00 00 00 00 f4 c0 a5 43 81 54 03 41
       7.0635004 0.0 331.50745 8.208131
0000d0 00 00 00 00 73 46 60 43 a5 ed 0a 40 00 00 00 00
       0.0 224.27519 2.1707547 0.0
0000e0 1e 39 01 44 71 82 b0 41 00 00 00 00 a9 b1 07 44
       516.89246 22.063692 0.0 542.77594
0000f0 21 1d 5d 41 00 00 00 00 50 ad 36 43 a8 f1 07 41
       13.819612 0.0 182.677 8.496498
000100 00 00 00 00 61 b2 dd 43 03 15 f3 40 00 00 00 00
       0.0 443.3936 7.596315 0.0
000110 61 cf 5d 43 f8 19 09 41 00 00 00 00 0f 8a cf 43
       221.81007 8.56884 0.0 415.07858
000120 b5 39 ea 40 00 00 00 00 a8 08 10 44 da fd 62 41
       7.3195443 0.0 576.13525 14.1869755
000130 00 00 00 00 f6 92 06 44 84 4a 8d 41 00 00 00 00
       0.0 538.29626 17.661385 0.0
000140 c7 5e 11 44 bc 04 92 41 00 00 00 00 2d 56 be 43
       581.4809 18.252312 0.0 380.67325
000150 7e 3f 41 41 00 00 00 00 f2 ba c0 43 94 b0 41 41
       12.078001 0.0 385.4605 12.10561
000160 00 00 00 00 76 c6 1e 44 70 9e dc 41 00 00 00 00
       0.0 635.10095 27.577362 0.0
000170 dd 55 ff 43 d6 e1 b0 41 00 00 00 00 b1 dd a8 43
       510.6708 22.110271 0.0 337.73196
000180 58 e1 00 41 00 00 00 00 68 da 1d 44 93 c8 de 41
       8.055016 0.0 631.4126 27.847937
000190 00 00 00 00 c9 ef e6 43 25 1b f7 40 00 00 00 00
       0.0 461.87332 7.7220635 0.0
0001a0 b9 8c 1f 44 c3 31 dd 41 00 00 00 00 a3 7e a7 43
       638.1988 27.649298 0.0 334.98935
0001b0 0b 09 00 41 00 00 00 00 1c 57 be 43 82 41 e0 40
       8.002208 0.0 380.68054 7.0079966
0001c0 00 00 00 00 fb fe 03 44 0d 28 b1 41 00 00 00 00
       0.0 527.9841 22.144556 0.0
0001d0 3e 4a f5 43 27 39 1d 41 00 00 00 00 55 1f d8 43
       490.58002 9.826453 0.0 432.24478
0001e0 e8 1a 92 41 00 00 00 00 d2 86 f6 43 18 c4 64 41
       18.263138 0.0 493.05328 14.297874
0001f0 00 00 00 00 f4 8b a3 43 08 33 01 41 00 00 00 00
       0.0 327.09338 8.074959 0.0
000200 cb d1 d6 43 40 20 f5 40 00 00 00 00 e4 af d2 42
       429.639 7.660187 0.0 105.34354
000210 37 20 21 41 00 00 00 00 4f f6 d2 43 c9 a3 ed 40
       10.070365 0.0 421.9243 7.4262433
000220 00 00 00 00 e0 65 14 44 b6 d0 da 41 00 00 00 00
       0.0 593.5918 27.35191 0.0
000230 95 79 87 43 ae dd 21 41 00 00 00 00 e6 d9 da 43
       270.94986 10.116621 0.0 437.70233
000240 d1 8e 92 41 00 00 00 00 70 f1 12 44 f8 6b b9 41
       18.319735 0.0 587.77246 23.17772
000250 00 00 00 00 98 5f c0 43 5e 46 55 41 00 00 00 00
       0.0 384.74683 13.3296795 0.0
000260 0a 5e 0d 43 15 f4 aa 41 00 00 00 00 dc 6d 4b 43
       141.36734 21.36918 0.0 203.42914
000270 01 f7 21 41 00 00 00 00 8b 16 11 44 51 fe cb 41
       10.122804 0.0 580.35223 25.499178
000280 00 00 00 00 eb 90 0a 44 45 7c 3d 41 00 00 00 00
       0.0 554.26434 11.842839 0.0
000290 74 9e 75 43 f6 20 25 40 00 00 00 00 05 58 b3 43
       245.61896 2.5801368 0.0 358.68765
0002a0 c2 b0 ca 40 00 00 00 00 e6 0a a4 43 55 9c 4c 40
       6.334077 0.0 328.08514 3.1970417
0002b0 00 00 00 00 32 08 f5 43 c8 19 81 41 00 00 00 00
       0.0 490.06403 16.137589 0.0
0002c0 64 97 05 44 fa ab 7b 41 00 00 00 00 98 f3 1e 44
       534.3655 15.729486 0.0 635.80615
0002d0 f1 2e bc 41 00 00 00 00 13 25 80 43 1b bc b6 3f
       23.52292 0.0 256.28964 1.4276155
0002e0 00 00 00 00 14 11 a1 43 d1 e5 17 40 00 00 00 00
       0.0 322.13342 2.3734019 0.0
0002f0 bd e2 12 44 ab 04 b1 41 00 00 00 00 47 3d 65 43
       587.5428 22.12728 0.0 229.23936
000300 4f 67 dc 40 00 00 00 00 0c a8 fb 43 da e1 27 41
       6.887611 0.0 503.31287 10.49264
000310 00 00 00 00 0f 26 b0 43 4f 92 6f 40 00 00 00 00
       0.0 352.29733 3.743305 0.0
000320 be e4 df 43 d4 ff 28 40 00 00 00 00 19 67 78 43
       447.78705 2.6406145 0.0 248.40273
000330 4a 25 b0 40 00 00 00 00 11 30 d6 43 33 cd 3d 40
       5.504552 0.0 428.37552 2.9656494
000340 00 00 00 00 3d 5c 76 43 fa 21 35 bf 00 00 00 00
       0.0 246.3603 -0.7075497 0.0
000350 e7 4e 55 43 80 72 a3 40 00 00 00 00 ea 80 a2 43
       213.30821 5.107727 0.0 325.00714
000360 c7 cc 49 40 00 00 00 00 1b 17 a5 43 bb 76 3d 40
       3.1531236 0.0 330.1805 2.9603717
000370 00 00 00 00 0f 01 d9 43 55 b9 35 40 00 00 00 00
       0.0 434.00827 2.8394368 0.0
000380 a4 b0 f7 43 e0 90 27 41 00 00 00 00 32 85 1a 44
       495.38 10.47287 0.0 618.0812
000390 23 a5 b8 41 00 00 00 00 7b c6 00 44 37 a4 80 41
       23.080633 0.0 515.10126 16.080183
0003a0 00 00 00 00 61 df 00 44 0d c7 88 41 00 00 00 00
       0.0 515.4903 17.097193 0.0
0003b0 6f 65 f7 43 6e 23 05 41 00 00 00 00 7d 58 1a 44
       494.79245 8.32115 0.0 617.3826
0003c0 8e 5a b2 41 00 00 00 00 2a 68 1b 44 be af c1 41
       22.294216 0.0 621.62756 24.210812
0003d0 00 00 00 00 54 60 06 44 72 73 92 41 00 00 00 00
       0.0 537.5051 18.30637 0.0
0003e0 99 61 aa 43 33 42 88 40 00 00 00 00 74 46 18 44
       340.76248 4.258081 0.0 609.1008
0003f0 ac 3a b3 41 00 00 00 00 34 64 0a 44 66 59 0e 41
       22.403648 0.0 553.5657 8.896826

network_body._body_endoder.seq_layers.0.weight f4 [128, 284]
000000 ca 03 91 bd c9 59 ec 3b ba f7 0f bd 96 f5 43 3c
       -0.07080801 0.0072128517 -0.03514836 0.011960408
000010 98 3f 40 bd 08 29 d6 bd a4 62 84 bc f4 b9 3a 3c
       -0.046935648 -0.10457045 -0.016160317 0.011396874
000020 8c 78 59 3b 80 8a e9 bd 21 94 4d bb e7 b8 ad bd
       0.0033183424 -0.1140337 -0.003136881 -0.08482533
000030 1c 4c a4 bd 57 bf b0 bd 13 30 5e 3d 04 f8 f6 bc
       -0.08022329 -0.08630245 0.054245066 -0.03014756
000040 e9 31 74 bc d2 a3 8d bd 3f 59 0d be e7 63 80 bc
       -0.014904478 -0.06916012 -0.13803576 -0.015672637
000050 9b a0 9c bb 1c 53 c6 bd 7a 53 d2 3d 2a 8c 24 bd
       -0.004779888 -0.096838206 0.10269828 -0.040172733
000060 74 bf 16 3c f2 19 98 bd e5 d7 c8 bd c7 ad a5 bd
       0.009200919 -0.07426824 -0.098068036 -0.08089786
000070 c8 f1 0b 3d 38 63 0b bd 75 1f c8 3c af 43 e2 bd
       0.034166127 -0.03403017 0.024429062 -0.11048066
000080 c1 39 54 3d c7 e5 f9 bb 28 c2 10 3b 2f 63 95 3c
       0.05181289 -0.0076262685 0.0022088382 0.018235771
000090 80 3e 4d 3d f8 a8 af 3b 7f a9 5e 3c 52 a8 ee 3c
       0.050108433 0.005360719 0.013590216 0.029132996
0000a0 14 06 83 bd f3 2a 0e 3c a6 16 9f bc 35 19 88 3d
       -0.06397644 0.008677232 -0.01941998 0.06645433
0000b0 bf 43 6b bd 65 27 ca 3d e1 c4 9d 3d 37 d2 b9 3c
       -0.057437655 0.09870795 0.07703567 0.022683246
0000c0 7a 3a a5 bd 3a a0 67 bd 36 79 0b 3e 09 49 40 3d
       -0.08067794 -0.05654929 0.13620457 0.04694465
0000d0 0b cd 91 bd 07 8c 10 3d e3 2c 48 3c 20 43 e5 3c
       -0.07119187 0.03528979 0.012217733 0.02798611
0000e0 dc 29 f7 bd 41 cf a3 bd 12 48 54 3c 15 d4 56 bb
       -0.12068531 -0.07998515 0.012956636 -0.003278022
0000f0 91 30 b8 3d ee a7 21 3d 44 8b a8 bc 3a 39 20 3e
       0.08993638 0.03946679 -0.02057422 0.1564683
000100 60 60 8d bd d9 11 d7 3d ad 03 ce 3d 53 bd 7f bd
       -0.06903148 0.10501451 0.10059295 -0.062436413
000110 e5 0a c3 3d 6e 8a 1c 3d fd 8e 8b bd 91 70 86 bc
       0.09523562 0.038217954 -0.06814382 -0.016411098
000120 9e b1 84 3c 87 84 67 bd 79 8e 4f bd 40 6b 48 3d
       0.016197976 -0.056522872 -0.050672982 0.048930407
000130 a5 07 16 3d bf 94 2c bd a5 6c 2a bd 9c fa 45 be
       0.036628384 -0.042134043 -0.041607518 -0.19333881
000140 cd 96 cd bc c7 80 99 bd 7b 03 fd bd 13 ca 3b 3a
       -0.025096321 -0.074952655 -0.123541795 0.00071635953
000150 fa cb e6 bc aa e0 b9 bd fc 26 81 bc 68 4e 53 bc
       -0.028173435 -0.090760544 -0.01576566 -0.0128971115
000160 db 01 26 3e c1 78 0e 3d ac 88 1f be 8d f7 2e 3c
       0.16211645 0.03478313 -0.1557948 0.010679138
000170 42 78 d4 bd 3f 47 9f 3d af 14 e0 3d bc c5 88 3b
       -0.103745 0.07777261 0.10941445 0.0041739624
000180 38 93 bc 3d 50 4d cf 3b 2a ac d3 3c bd 06 2a 3c
       0.09207767 0.006326355 0.02583893 0.010377583
000190 7e 03 91 bc 8a c6 89 3d e9 80 02 3e 2b c6 24 3c
       -0.01770186 0.067273214 0.12744488 0.010057013
0001a0 fb bb bd bd a7 2b 67 be bc a8 9a bd 6a 05 00 3e
       -0.0926437 -0.22575246 -0.07551715 0.12502065
0001b0 d8 3c d2 3d 44 aa a9 bc da 5a 85 bc 36 90 7a 3d
       0.10265511 -0.020711072 -0.016278673 0.061172687
0001c0 f3 3f 3d 3e 7d f2 a2 bd 65 1f 61 bc 14 b6 2c bd
       0.18481426 -0.07956407 -0.013740395 -0.04216583
0001d0 e3 09 46 bd 3f 3c 8a 3c e4 46 b0 3a 8b 73 23 bd
       -0.048349272 0.01687443 0.0013448861 -0.039905112
0001e0 43 96 32 bd 28 b1 5b 3d a3 52 ae 3d 04 58 bf bd
       -0.043600332 0.053635746 0.085118555 -0.093429595
0001f0 bd 35 62 3d 88 07 e6 bb 47 a4 1c 3d 55 b6 21 3d
       0.05522703 -0.0070199408 0.038242605 0.039480526
000200 bc 6f bc 3d 7b 36 f3 3c 4b 7e 28 bd 3a ae d2 bd
       0.09200999 0.029689064 -0.041136067 -0.10287137
000210 38 08 42 3d 3c a7 46 3d bb 26 99 bd 0c 74 51 bb
       0.04737112 0.04849933 -0.074780904 -0.0031960038
000220 ad 82 3b bd 41 5c e5 bc 95 a3 89 3c 32 57 fc bc
       -0.04577892 -0.027998092 0.016801635 -0.030803297
000230 fd d6 6a 3c e1 6f 97 3d 15 0b 30 bd 7a 91 68 bd
       0.014333484 0.07394386 -0.04297932 -0.056779362
000240 37 ea 3e 3d 52 a9 84 bd 59 2c 11 3d 6d 7e c5 bc
       0.046610083 -0.06477608 0.035442684 -0.024108136
000250 ec da 83 bd e5 9c f2 3d 69 a4 8e 3d 56 9c d2 bb
       -0.064382404 0.118463315 0.069649525 -0.006427328
000260 62 97 40 bc ed 28 5e bd fc b8 07 3d 61 70 b8 bc
       -0.0117548425 -0.05423825 0.0331354 -0.022514524
000270 84 7e 33 bb e4 da d2 bb 01 8c 5c bd 85 8a 0e bc
       -0.0027388642 -0.006434785 -0.053844456 -0.008700018
000280 f6 39 c8 bc 14 a0 23 bd 24 08 d3 bd e9 d6 d2 bd
       -0.0244417 -0.039947584 -0.10304287 -0.10294897
000290 ab fc 52 3d 83 75 a7 3d e8 30 cf 3d ed f6 32 3d
       0.051510494 0.081767105 0.1011675 0.043692518
0002a0 81 7b f1 bd fa a2 d7 3d 31 7f ca bc e1 59 03 3e
       -0.117911346 0.10529132 -0.024718853 0.12827255
0002b0 bf 19 43 3d 3a e2 9e bc 7f 6a fe bd fb f1 94 3d
       0.047631975 -0.019394983 -0.12422656 0.072727166
0002c0 b5 21 d2 bd bf af 1e bd 6c df 04 bb e8 b7 7a bd
       -0.10260335 -0.038741823 -0.0020274771 -0.061210543
0002d0 b4 b7 49 bd bf 18 c3 3c 69 18 fb bb c4 d5 c6 bd
       -0.04924746 0.02381551 -0.007662822 -0.09708741
0002e0 45 f9 6f 3d 91 5b 5c 3d c5 1c e0 3d 1b ef 14 3d
       0.05858733 0.053798262 0.10942987 0.03636084
0002f0 15 21 3b 3c 8d 31 85 3d 75 a4 1f bc 7a a3 db 3c
       0.011421462 0.06503592 -0.009743799 0.02681135
000300 a6 9c dc 3c 91 81 d7 3c 24 a2 96 bd 02 07 b0 3c
       0.026930165 0.0263069 -0.073551446 0.021487717
000310 2c 80 10 3d 76 b7 c3 bd b4 ad 21 3d 35 45 21 bc
       0.035278484 -0.09556477 0.039472297 -0.00984316
000320 29 28 db 3c e3 d4 9d 3d cb 82 f7 bc 38 c2 a5 3d
       0.026752548 0.077066205 -0.030213734 0.08093685
000330 95 5b 73 3d aa c3 b5 bd 8b 5c c7 3d 47 67 30 bd
       0.05941351 -0.088752106 0.09734448 -0.043067243
000340 c9 8b f6 bc 62 34 0e 3d bf a6 92 bd 45 ad d3 bb
       -0.030095952 0.034717925 -0.071607105 -0.0064598643
000350 83 9f 09 bd db a0 08 bd 48 49 8a ba 75 d8 05 bd
       -0.033599388 -0.03335653 -0.0010550404 -0.032677133
000360 f9 36 b1 3c e6 19 d5 3d f0 c5 f9 3c c3 dc 23 3d
       0.021632658 0.1040533 0.030489892 0.040005457
000370 9d a9 7c 3d 0c fc 15 3e f2 da 3c 3d 04 1b 28 be
       0.061685193 0.1464693 0.04610724 -0.16416556
000380 8b 94 6d bd 81 82 3b 3d 15 a6 f6 bd 0d bf 69 3d
       -0.05800299 0.045778755 -0.120433964 0.057066966
000390 52 c5 09 3d a1 49 bf 3a a0 73 22 bd e2 22 76 bd
       0.033635445 0.0014594087 -0.03966105 -0.06009186
0003a0 f8 7d cf 3c c4 81 15 bd db c8 dd 3a 78 82 31 bd
       0.025328621 -0.036500707 0.0016920822 -0.043337315
0003b0 16 c3 1b bd fc 66 ec 3d 5b d8 ad 3d 10 0d 85 b9
       -0.038027845 0.1154308 0.08488532 -0.0002537747
0003c0 2e 31 8d 3d ea 1f a7 3d ac 0c 46 bd f7 f0 89 bc
       0.06894146 0.08160384 -0.04835193 -0.016838534
0003d0 24 97 d7 3b 79 a5 0b bd 5e a7 86 bd 85 18 67 3d
       0.0065792967 -0.034093354 -0.065748915 0.056419868
0003e0 1b 6b e0 bc 54 5f 3d bc 00 c9 a1 bc 0b 12 b6 bc
       -0.027394822 -0.0115583725 -0.019749165 -0.0222254
0003f0 ba 19 d6 bb f2 8a 10 3d f9 f7 30 be fb 76 87 bb
       -0.0065338286 0.03528876 -0.17282094 -0.0041340566

network_body._body_endoder.seq_layers.0.bias f4 [128]
000000 8f ae 76 bd 22 ab 25 3d 62 54 da 3c a4 ac 33 3d
       -0.060225066 0.040446408 0.026651565 0.043865815
000010 f4 a0 5d bd 30 cb 35 3d fa 01 e7 3c 07 0e a3 bc
       -0.054108575 0.044383228 0.028199185 -0.01990415
000020 f7 84 1e 3d 28 0f aa 3c d0 fc d3 3c 00 bb 00 3d
       0.038701024 0.02075918 0.025877386 0.031428337
000030 6e b9 01 3d 06 2c 1b bd 59 12 84 3c 93 58 43 3c
       0.03167098 -0.03788378 0.01612203 0.011922973
000040 d9 cc 29 3d 84 01 50 3d c7 4f de 3c 1e 89 3e bd
       0.041455124 0.050782695 0.02713765 -0.046517484
000050 a2 6f 22 3d c7 71 4b 3d f8 73 30 3c 80 c1 10 3d
       0.039657243 0.049669053 0.010769837 0.035340786
000060 ca b1 f1 3c d7 6a 59 bd 33 54 0c 3d 74 35 0a bc
       0.029503722 -0.053080406 0.034259986 -0.008435596
000070 bf 31 ee 3c 2e c9 5b 3b af 52 0c 3d b5 02 bb 3c
       0.029076455 0.003353666 0.03425854 0.02282844
000080 77 a0 21 3d d3 31 37 bd 48 7c 2a bc af 41 87 bc
       0.03945967 -0.04472525 -0.0104056075 -0.016510813
000090 64 08 a4 3c 02 33 24 bd 24 81 f7 bc 4e eb 2f 3d
       0.020023532 -0.040087707 -0.030212946 0.042949013
0000a0 62 9d 4e 3d 69 c9 1a 3d c7 90 21 3d b1 2f 50 bb
       0.05044306 0.037789736 0.03944471 -0.0031766708
0000b0 ee 25 9c bc 2b 9a ff 3c 5d 96 29 bd a0 f3 02 3d
       -0.019061055 0.031201443 -0.041403163 0.03197062
0000c0 51 bf 08 bd ae c8 42 bb e5 98 60 3d 2f 00 4d 3d
       -0.03338558 -0.0029721665 0.05483331 0.050049003
0000d0 d2 ff 17 3d 35 8e 35 3d 76 13 be 3c 15 7c 06 bb
       0.037109204 0.044325072 0.02320264 -0.0020520736
0000e0 fa d2 fb bc 3c 20 63 bd 3f 4b d9 3c 1f 61 43 3d
       -0.03074025 -0.055450663 0.026525138 0.047700044
0000f0 aa c9 34 bd 80 0b b7 3c 68 bd 38 bd f5 eb 3d 3d
       -0.044137634 0.02234435 -0.045102507 0.046367604
000100 64 e8 32 3d ef 1a 4b bc ac ef e3 bb 45 dc 46 3d
       0.043678656 -0.012396558 -0.0069560613 0.04854991
000110 1f da 09 bd 85 2f 0e 3d 98 7d 31 3d f6 38 7f bd
       -0.033655282 0.034713287 0.043332666 -0.06231018
000120 c8 94 39 3d 04 b0 30 bd f2 72 4b bd 7b b5 53 3d
       0.045307904 -0.04313661 -0.049670167 0.051686745
000130 1b 98 53 bd 75 8f c8 3b ce 56 cc bc aa 8f 46 3d
       -0.05165873 0.006120617 -0.024943735 0.048476852
000140 45 60 0d 3d 49 ec 6f bd f8 7f 36 3d c8 09 2c bd
       0.034515638 -0.05857495 0.044555634 -0.042001516
000150 88 7d 40 3c 76 3b 43 bd c5 f8 fe 3c ec 38 06 3d
       0.011748679 -0.04766413 0.031124482 0.03276913
000160 f8 49 01 3d 41 09 30 3d 5b bc 57 3d 42 39 89 bc
       0.031564683 0.042977575 0.052669864 -0.016750935
000170 ec e2 38 3d 0c 50 2e 3d 93 e8 66 3d 23 23 2f bd
       0.045138285 0.042556807 0.056374144 -0.04275812
000180 b4 ff 11 bd d6 3e 5b 3d 3f f8 bc 3c 9b e0 ea 3c
       -0.035644248 0.053526722 0.023067592 0.028671553
000190 95 95 30 3d 11 dd 86 bc cb b0 f4 3c 1a d9 54 bd
       0.043111403 -0.016462835 0.029869458 -0.051964857
0001a0 2f 04 af 3b f4 c2 cc 3c 0d ae 4f bd df f5 d5 3b
       0.005341075 0.024995305 -0.050703097 0.0065295543
0001b0 5a 34 55 bd 19 36 bc bc 20 24 2a 3d 9d 52 51 3d
       -0.05205188 -0.022975015 0.041538358 0.051104177
0001c0 35 0a 07 bb fa c0 0c 3d 89 19 2d 3d 3e 0e e8 3c
       -0.002060545 0.034363724 0.04226068 0.028327104
0001d0 ad 7f 90 3c bb 79 9b 3c 9b a4 10 3d c3 6c 1f 3d
       0.017639006 0.018978944 0.03531323 0.038922083
0001e0 5c 21 85 bc d2 40 96 bd e9 5a 27 3d 66 f6 43 bd
       -0.016251259 -0.07336582 0.040858183 -0.047842406
0001f0 22 eb 4b bd b7 79 43 bd 8e 2a fe 3c 47 8d 3b 3d
       -0.049784787 -0.0477235 0.031026151 0.04578903

network_body._body_endoder.seq_layers.2.weight f4 [128, 128]
000000 3e 53 83 3a 7d cf e9 bd 26 59 21 be 47 ae 12 be
       0.0010019315 -0.114165284 -0.15756664 -0.14324294
000010 6e ae 8f bd 21 da f9 3d 62 db ea 3d 03 9b 6d bc
       -0.07015692 0.12199808 0.11467625 -0.01450229
000020 4b 07 43 bd 5e e3 2b 3e 27 1d 15 3e 80 d7 e4 3c
       -0.047614377 0.16785952 0.14561902 0.02793479
000030 53 40 b9 bd ac ed e9 3d e1 37 85 3d 14 7d c1 bd
       -0.09045472 0.114222854 0.06504799 -0.09447685
000040 bd b6 b6 bd 4d 16 5c 3d b7 ef c6 3d 55 a6 f3 3d
       -0.08921573 0.053732205 0.09713691 0.1189696
000050 20 06 8b bc 26 d9 2e 3e 18 f8 13 3e 09 1a e1 3d
       -0.016970694 0.17075023 0.14450109 0.10991294
000060 52 3f c8 3d eb 15 f7 bd 75 0c 52 3e 4f cd 34 3d
       0.097777024 -0.120647274 0.20512564 0.04414111
000070 b7 12 2e 3d 25 bb 37 bd ef db 2f ba 45 45 22 3e
       0.042498317 -0.04485621 -0.0006708493 0.15846737
000080 2d ad 8b 3d 63 fc b0 bd 55 53 2a bd 86 51 ec bd
       0.0682014 -0.08641889 -0.041583378 -0.11538987
000090 1a 76 c0 3d 31 b7 45 bd a7 35 3f be fc 70 e1 bd
       0.09397526 -0.048270408 -0.1867281 -0.11007878
0000a0 f6 71 1e 3d 88 7d d9 bd 5f 87 ce 3d 36 52 06 bd
       0.0386829 -0.10619646 0.10084414 -0.032793246
0000b0 61 dc 3d be e6 98 ff bc 5d c5 e3 3c 54 fd 71 bc
       -0.18541099 -0.031200837 0.027804071 -0.014769871
0000c0 c8 25 0c bb d0 70 df bc a1 b8 cd 3d d5 53 84 3d
       -0.0021384824 -0.027275473 0.10044981 0.06461302
0000d0 22 22 4c 3e 4f 6e de 3d 6e 25 a6 3b ff 98 c2 3d
       0.19934896 0.108608834 0.00507038 0.09501838
0000e0 89 f9 86 bd 16 75 32 3d cc 37 af 3d ae dd c3 3d
       -0.06590564 0.043568693 0.08555564 0.095637664
0000f0 e1 92 0e be 96 c8 3d 3e ff f5 b9 3d b6 5f f4 bc
       -0.13923217 0.18533549 0.09080123 -0.029830795
000100 f1 e7 8c bd c6 7a db 3d 96 af b0 3d 3a cc 9c 3b
       -0.06880177 0.107167765 0.0862724 0.004785088
000110 27 bd 30 be ae 33 b4 3d c1 58 b7 bd 15 91 9a bd
       -0.17259656 0.087989196 -0.08952475 -0.075472035
000120 49 f0 0e 3d 26 0b 97 3d b0 98 9d 3d 51 78 1f bd
       0.034897123 0.07375173 0.076951385 -0.038933102
000130 23 b4 79 bc d1 a2 bf 3d c9 4e bb bd c4 df 1c 3e
       -0.015240702 0.09357227 -0.091458865 0.15319735
000140 d4 b2 a2 bb 6b 68 23 3e 77 c0 15 3e d8 93 97 3d
       -0.0049651656 0.15957801 0.14624201 0.07401246
000150 d7 a5 13 3e 30 e8 11 be 87 eb 5b 3d a8 6c 83 3d
       0.14418732 -0.14248729 0.053691413 0.06417209
000160 fb 68 0d 3d 5b 1f be bd a1 ce 17 bd 6d 63 0c bc
       0.034523945 -0.09283324 -0.03706229 -0.008568627
000170 c0 34 08 3e 8d dc 80 bd 66 ba a2 3c bf 29 33 be
       0.13301373 -0.06292067 0.019864272 -0.17496394
000180 2a df 5a bd 12 f5 97 3c d2 00 0b bd 1d b5 a0 3d
       -0.053435482 0.018549476 -0.03393633 0.078470446
000190 95 4a a9 3c 28 be a2 be cf a6 2e 3d 18 4b 00 be
       0.020665446 -0.31785703 0.04263955 -0.12528646
0001a0 fe e9 a2 bd 05 ea 8f bc de 3b 83 3d fa 7f 03 3d
       -0.07954787 -0.017567644 0.06407903 0.03210447
0001b0 7e 86 7c 3d 6e cb 4c 3c 57 c8 2e 3e 1a 4a 1c bd
       0.0616517 0.012499673 0.17068611 -0.038156606
0001c0 eb 81 44 3c 15 3f 4e bd da 84 63 bb 31 90 5b 3d
       0.0119938655 -0.05035313 -0.0034716637 0.05360431
0001d0 4c ed be bd a3 2a 82 3d 5e b7 d9 3d 19 e1 b5 3d
       -0.093226045 0.063557886 0.10630678 0.088808246
0001e0 2c 0f 61 3e e1 de 24 3d 60 9d f3 3d ec 7c 37 be
       0.21978444 0.040251616 0.11895251 -0.17918748
0001f0 db 20 24 bd c2 78 3b bd 63 1e 3e 3c ec 2f d1 3d
       -0.040070396 -0.04576946 0.011603924 0.102142185
000200 b4 d4 09 bd a2 23 cc ba 9d b8 8f 3c 31 12 88 bc
       -0.033650115 -0.0015574584 0.017544085 -0.016610237
000210 f9 16 14 3d 29 1c 01 be 42 8d 15 be 5a 1c b2 3d
       0.03615472 -0.12608398 -0.14604667 0.08696814
000220 e0 01 52 3d 31 7e 44 bd b3 93 9c 3d c6 94 19 3e
       0.05127132 -0.047971908 0.07645359 0.14998159
000230 d4 40 c6 bb aa 1c 7a bb 8b f4 4b 3d 9b 32 0d bd
       -0.0060502086 -0.0038164058 0.04979376 -0.03447209
000240 97 17 04 3e 1a d9 b6 bd db bc 3f bc 80 5a b9 3d
       0.12899624 -0.089281276 -0.0117027415 0.09050465
000250 09 e4 9e 3d a0 62 20 3e 92 02 86 bc 7a d1 8d 3d
       0.07758338 0.15662622 -0.016358647 0.0692472
000260 34 77 ce 3d a4 4c c1 3c 69 fa ac bd 6d 62 da 3b
       0.1008133 0.023596115 -0.084461994 0.0066645653
000270 02 a4 24 3e fc 10 b3 3d 51 6b ff 3d e3 8c 69 bd
       0.16078189 0.08743474 0.12471641 -0.057019126
000280 c0 e6 10 3c 4a 42 a3 3d cd 2d 9c 3d b8 53 cf 3b
       0.008844078 0.07971628 0.07625923 0.0063271187
000290 ec b2 4c 3d 28 bb e8 bd 46 70 d4 bd e3 76 44 3e
       0.04997532 -0.11363822 -0.10372977 0.19185977
0002a0 49 14 b4 3c 3c b3 2f bd ae c4 c7 bd 5b d5 cd 3d
       0.021982329 -0.04289554 -0.097543105 0.1005046
0002b0 2a 1e 3e bd f9 03 bb bd 00 77 f2 bc 00 79 93 bd
       -0.046415485 -0.09131617 -0.02959776 -0.07200813
0002c0 f0 99 90 3d c6 e4 62 bc ed e5 2b 3c 3b 6a 3b bd
       0.07060611 -0.013848489 0.01049183 -0.045755606
0002d0 8c 83 a3 3c 19 87 a3 bd b6 a4 d4 bd ae 98 03 3e
       0.019960187 -0.07984752 -0.103829786 0.12851211
0002e0 11 45 92 bd 61 9a 08 be ca cf 62 3d 42 a9 b5 3d
       -0.071420796 -0.13340141 0.055373944 0.08870174
0002f0 15 cd e2 3d 8d 84 e5 bd 4b 1d 73 3c 66 f0 a9 bc
       0.110742725 -0.11206923 0.014838527 -0.020744514
000300 8c e1 81 3e f7 0d c0 3c cf ed 97 3d a7 40 69 bd
       0.2536739 0.023444159 0.07418405 -0.056946423
000310 b9 d3 0e bb db 32 4f 3d 68 a2 f8 3c 75 09 c2 3b
       -0.0021793677 0.05058561 0.030350879 0.0059215375
000320 72 f6 a4 3d 7b f3 28 3c ce d6 ec 3c 16 71 06 3c
       0.08054818 0.0103119565 0.02891102 0.008205673
000330 90 14 e9 bc e7 21 32 be 1d ce 41 be dc 8d 5f 3d
       -0.028452188 -0.17395745 -0.18926282 0.054578647
000340 21 02 af bc b9 71 13 3e 51 8f c8 bb c1 d6 b5 bd
       -0.02136332 0.1439885 -0.0061206003 -0.08878852
000350 51 95 a2 3c cf a3 03 3d 7c a8 7a 3d 7d 53 60 3e
       0.01984659 0.032138642 0.061195835 0.21906848
000360 01 7b 9b 3d 20 51 bf bc d0 a0 66 bc 1d 58 89 bc
       0.075918205 -0.023354113 -0.014076427 -0.016765648
000370 36 b8 38 bc cb 26 92 3c 2e da 5a 3d ed 7d 03 3e
       -0.011274388 0.017840764 0.05343073 0.12841006
000380 7c 42 70 3d cf dd 76 bd a4 a6 95 3d 69 4f ac 3d
       0.058657154 -0.060270127 0.07307175 0.08413584
000390 54 3b 56 3c a9 75 a4 3d b8 79 da 3d 63 d4 00 be
       0.013075668 0.080302544 0.10667747 -0.12581019
0003a0 62 05 51 3c 86 5d 0e be 97 12 80 bd 83 e9 94 bd
       0.012757631 -0.13902864 -0.06253546 -0.07271101
0003b0 81 41 c4 bd d1 81 90 3d 35 7e ab 3d f6 35 53 bc
       -0.095828064 0.070560105 0.083736815 -0.012891283
0003c0 6b 5c 67 3d 48 ba c3 3b cf 78 73 3d a5 cf ff bc
       0.05648462 0.005973134 0.059441384 -0.031226942
0003d0 2c bb 38 bd 65 a1 48 3e 59 26 64 3d 8e c9 a9 bd
       -0.045100376 0.19592817 0.055700634 -0.08290397
0003e0 4e d1 96 bd 30 f8 54 3d 1e ba 80 3c fd bf 36 bd
       -0.073641405 0.051994503 0.015713748 -0.044616688
0003f0 b7 24 09 3d b4 46 b8 bc fa d5 fb 3d ee 1d f7 3d
       0.03348228 -0.022494651 0.12296672 0.120662555

network_body._body_endoder.seq_layers.2.bias f4 [128]
000000 ea 29 2f 3d 08 03 d4 3c 56 38 49 bd fe d2 d0 3c
       0.04276458 0.025880352 -0.04912599 0.025491234
000010 96 d0 26 3d 6a 9e 26 3d cb 79 01 3b 75 66 04 3d
       0.040726267 0.04067842 0.0019756432 0.032324273
000020 3e 37 17 bd 6d a9 cd bc b3 2b 19 bd f1 b3 3a bd
       -0.036917917 -0.025105203 -0.03739519 -0.04558176
000030 b2 7d 07 bd 79 e9 24 3d d8 8b ee bc be 64 22 bd
       -0.033078857 0.04026172 -0.029119417 -0.039646856
000040 57 ae 26 3d e3 eb c4 3c e4 97 db 3c 60 db fd bc
       0.040693607 0.02403826 0.026805826 -0.030988395
000050 bf b8 49 bd 45 c7 82 bd 06 3e 19 3d 61 d8 04 bd
       -0.049248453 -0.06385664 0.037412666 -0.032432918
000060 8e 07 01 3d 53 d3 6f 3d 8f 65 71 3d c4 0c 42 bd
       0.031501345 0.058551144 0.058934744 -0.047375455
000070 4e 2a 86 bd 83 b9 20 bd 19 61 e7 3c 6b fc 24 bd
       -0.06551038 -0.039239418 0.028244542 -0.040279787
000080 f6 01 2b 3d b4 28 72 3c 22 22 10 bd df 65 73 bc
       0.041749917 0.014780212 -0.0351888 -0.014855831
000090 a3 2f 58 3d 30 fb 09 bd 8a e3 72 3c 40 87 00 bd
       0.052779805 -0.033686817 0.014824757 -0.031378984
0000a0 8b aa 4c 3d f3 f8 27 bd 13 34 2d bd 31 61 03 bd
       0.04996733 -0.0410089 -0.04228599 -0.03207511
0000b0 f3 a1 94 3c 0e 28 f9 3c d6 f4 75 bd 30 8f 2c bd
       0.01814363 0.030414607 -0.060047947 -0.04212874
0000c0 1e 83 12 bd eb 76 1d 3d 3b e7 17 bd d9 2d 2d 3d
       -0.035769574 0.038443487 -0.037085753 0.04228005
0000d0 10 98 2f 3d ee 19 03 3d 2c 21 2c bd 17 b4 1a 3d
       0.042869627 0.03200715 -0.042023823 0.037769403
0000e0 dc 4b 2e bd e3 a6 40 bd 4a 00 33 bd e0 45 42 3d
       -0.042552814 -0.047034156 -0.043701448 0.04742992
0000f0 13 a7 94 3c e8 52 bf 3c 84 08 17 3d ea ec 24 bd
       0.018146073 0.023354962 0.036873356 -0.040265
000100 6c 9a 84 bd dd 0f 1d bd 67 eb b7 3c 74 e8 4c 3d
       -0.06474766 -0.038345207 0.022451116 0.050026372
000110 85 af 28 bd 48 9f 25 bd 04 24 60 3d 0e eb 13 3d
       -0.041183013 -0.040435106 0.054721847 0.036112837
000120 13 19 41 3d ec 1e 5a bc 80 9e 6d bc 02 47 3d 3d
       0.047143053 -0.013313036 -0.014503121 0.046210296
000130 f2 06 74 bd 42 a0 f5 3c c9 ed 62 3d c4 1e 4e 3d
       -0.059576936 0.029983643 0.05540255 0.05032231
000140 cb 14 01 bd 89 14 d9 bc 3f 91 af bb 41 4d 76 3c
       -0.03151397 -0.02649905 -0.005357891 0.015033067
000150 27 26 20 3d aa 5e e9 3c b9 b3 32 3d 44 fe 40 bd
       0.039098885 0.028487522 0.043628428 -0.047117487
000160 b5 d6 6e bd 55 10 3d bd 0e fe 4b bd 79 14 58 3d
       -0.05831023 -0.046158154 -0.049802832 0.0527539
000170 42 0e 38 3d ad 19 ba 3c ba 85 af 3c 65 13 25 bd
       0.044935472 0.022717321 0.02142607 -0.0403017
000180 f5 98 44 bd 0a 7e 0d bd 01 3b e1 3c 9c b5 86 3c
       -0.047997434 -0.03454403 0.027493956 0.01644402
000190 b9 14 a0 3c ef 3c 64 3d e4 7d 41 3d 45 ca be 3c
       0.019541131 0.055722173 0.0472392 0.023289809
0001a0 9e ab 1d 3d 46 b7 b2 3c cd 11 9a 3c 15 af 1f bb
       0.038493745 0.021815907 0.018807316 -0.0024365832
0001b0 29 4f 3a 3d 68 d1 0d 3d 74 c9 dc 3c cd 3e 38 bd
       0.04548565 0.034623533 0.02695153 -0.044981766
0001c0 ac 49 14 bd ce c2 67 bd 1c 69 07 3d 61 4c 17 bd
       -0.03620307 -0.056582265 0.033059224 -0.036938075
0001d0 4c c0 5f bd 9d 29 22 bd f3 67 10 bd 35 90 eb 3c
       -0.054626748 -0.039590467 -0.035255384 0.028755287
0001e0 af 72 46 3d a1 88 06 bd 55 60 23 bd 2f ef 18 3d
       0.048449215 -0.032845143 -0.03988679 0.03733748
0001f0 76 76 67 3c 83 e8 4c bd 66 f7 a6 bb 80 71 55 3d
       0.014127364 -0.050026428 -0.00509541 0.052110195

action_model._discrete_distribution.branches.0.weight f4 [3, 128]
000000 af 53 6e bd 8c 18 3c bd 21 86 38 3d b1 83 f4 bc
       -0.058185276 -0.045921847 0.04504979 -0.029847952
000010 0a 38 6e bd 63 d9 77 bc 04 fd bc bc 69 e6 2e bd
       -0.05815891 -0.015127513 -0.023069866 -0.042700205
000020 af e7 3a 3d ac d4 34 3d a8 31 43 3d 21 8f 4c 3d
       0.045631107 0.044148132 0.047654778 0.049941186
000030 47 8f 74 3d 69 53 c0 bc 39 4c f4 3b f7 aa 1c 3d
       0.059706952 -0.023477273 0.0074553755 0.038248982
000040 04 4a 15 bd cf 22 3e bd 3a 3f 03 bd fc f6 a3 3c
       -0.03644754 -0.046419915 -0.03204272 0.020015232
000050 96 e2 e1 3c 11 17 40 3d 49 24 27 bd 15 f7 20 3d
       0.027573865 0.046896998 -0.04080609 0.039298136
000060 ad 18 07 bd 1f 2e 2f bd af d7 6b bd fd f6 65 3d
       -0.032982517 -0.042768594 -0.05757874 0.05614375
000070 f8 be 69 3d c4 0c 3f 3d 1b 89 a4 bc 48 9e 28 3d
       0.057066888 0.046643034 -0.020084908 0.041166574
000080 8f f4 da bc 7f 6d 17 bd 86 46 30 3d a6 e9 5a 3d
       -0.026727943 -0.036969658 0.043036006 0.05344548
000090 b6 30 1c bd a6 8e 83 3c 34 43 29 bd a0 c7 56 3d
       -0.038132392 0.016059231 -0.041323856 0.05243647
0000a0 46 8f eb bc 8a 5b 3a 3d 0c 01 85 3d 30 bd 44 3d
       -0.028754842 0.045497455 0.0649434 0.048031986
0000b0 fb d4 14 bd 25 44 f0 bc 14 74 35 3d 5c b6 53 3d
       -0.036335927 -0.029329369 0.044300154 0.051687583
0000c0 51 82 6e 3d a7 08 74 bd df 0b 94 3d 44 90 84 bc
       0.05822975 -0.059578564 0.07228827 -0.016182072
0000d0 3b 55 2e bd ee f2 fb bc 6a 0c 21 3d 85 4f 57 bd
       -0.04256175 -0.030755486 0.03931848 -0.05256607
0000e0 16 7f 10 3d 0e 5e 4f 3d 5d 6f 0c 3d fc 20 1a bd
       0.03527745 0.050626807 0.03428589 -0.037629113
0000f0 43 da 7f bb e9 3c 02 bd 75 c5 5a bd 5e 81 74 3d
       -0.0039040006 -0.03179637 -0.053410966 0.059693687
000100 b4 47 0a 3d fe 37 84 3d c2 d9 99 bc 42 82 4e bd
       0.033759788 0.06455992 -0.018780593 -0.050417192
000110 61 74 37 3d 2d 16 a9 3c ba 17 ff bc 78 8d 27 bd
       0.044788722 0.020640457 -0.031139243 -0.0409064
000120 7c ee 30 bd 06 a2 8b bb 74 d4 e7 3c 96 80 45 bd
       -0.043196186 -0.004261258 0.028299548 -0.048218332
000130 f1 4f 6b 3d 10 0c 89 bc 9b c8 44 bd e1 98 43 bd
       0.057449285 -0.016729385 -0.048042875 -0.04775322
000140 3a b7 67 3d 40 06 77 3d fe 7f d0 3c b4 74 f6 bc
       0.056571223 0.060308695 0.025451656 -0.030084945
000150 bc 10 f4 bc 11 74 a4 bc c5 ce 83 bd 26 bc 35 3d
       -0.029793136 -0.020074876 -0.064359225 0.044368885
000160 52 05 4d 3d 0c 65 47 3d eb d1 51 3d 5e b9 76 bd
       0.050053902 0.04868035 0.051225584 -0.060235374
000170 e6 06 32 bd 8b c3 4e bd 17 b3 b9 bc 26 1e 3c 3d
       -0.04346361 -0.050479453 -0.022668405 0.04592719
000180 ac 23 49 3d be 32 5c 3d 75 4c 24 bd d3 06 e0 b9
       0.049106285 0.05375933 -0.040111978 -0.00042729694
000190 51 86 a0 3b d4 93 43 bd ce b5 84 bd 8d 8c 0f bd
       0.0048988243 -0.0477484 -0.06479989 -0.03504615
0001a0 9a 37 16 bd 46 b0 d9 bc 72 3f e9 bc a5 98 28 bc
       -0.03667412 -0.026573312 -0.028472636 -0.0102903
0001b0 02 ea ff bc 18 64 0f bd 19 5e e7 bc e8 03 27 3d
       -0.031239513 -0.035007566 -0.028243111 0.04077521
0001c0 ad 3f 72 3d 58 c3 2d 3d 32 e4 24 bd 15 fd 63 3d
       0.059142757 0.042422622 -0.040256687 0.05566128
0001d0 50 56 4e 3d 5f bc 78 3d 62 47 38 3d e0 48 17 bd
       0.050375283 0.06072652 0.04498995 -0.036934733
0001e0 9b 35 2c bd f0 99 47 3d 52 4a a8 3c b4 62 71 bc
       -0.04204331 0.04873079 0.020543251 -0.014733005
0001f0 79 44 a9 bc 2a e5 53 3d 49 c3 dc 3c 6a 49 3d bd
       -0.020662533 0.05173222 0.026948588 -0.04621259
000200 be ae 3f 3d c1 6b d0 3c f8 7a 3a bd 49 da 25 3d
       0.046797507 0.025442006 -0.04552743 0.040491376
000210 fe 59 04 3d 2e ed 07 3d 0a 87 01 3c f2 45 3c 3d
       0.032312386 0.033185177 0.007905731 0.045965143
000220 2a 5f 70 bd 6e 00 42 bd 47 cd b8 bc ef 33 32 bd
       -0.058684506 -0.04736369 -0.022558821 -0.04350656
000230 3f 00 84 bd f8 86 06 3d eb 54 99 3b ff 60 de bc
       -0.064453594 0.03284356 0.0046793125 -0.02714586
000240 02 50 35 3d 4b 3e 02 3d 0f 9a f1 3c 37 fc bc bc
       0.044265755 0.03179769 0.029492406 -0.023069484
000250 1f c0 38 bd c4 9a 1d bd a9 70 48 3d 69 4a 5a bd
       -0.045105096 -0.038477674 0.048935566 -0.05329362
000260 73 3f 3d 3d 05 a5 5c 3d 75 3f 4d 3d 5f d1 3b bd
       0.046203088 0.053868312 0.050109345 -0.04585397
000270 6a cc 34 bd ab b4 9c bd ea 3c 1e 3d 56 85 3b bd
       -0.044140257 -0.07651647 0.03863231 -0.045781456
000280 7a 2e 3d 3d 66 1e 0e 3d 17 5d c2 bc 9c 51 94 bd
       0.0461869 0.03469696 -0.02372603 -0.07242128
000290 51 23 4d 3d 1f 76 8c bc 39 67 0c 3d 3a d6 cf bc
       0.05008251 -0.017146168 0.03427813 -0.025370706
0002a0 22 59 41 3d a3 0e 48 bd 39 71 6e bd 2e 93 4f bd
       0.047204144 -0.048842084 -0.058213446 -0.05067747
0002b0 3f 2c e3 3c de 6e d9 3c 04 0c 5a bd 14 d4 4a bd
       0.02773106 0.026542123 -0.053234115 -0.04951866
0002c0 9c 74 6e bd 5b 2f 1d 3d 8a 51 73 bd e5 81 ae 3c
       -0.058216676 0.03837524 -0.059403934 0.021302173
0002d0 94 ec 42 3d 1e 7a 1a 3d 62 53 04 bd 3e 2e 15 3d
       0.0475889 0.037714116 -0.032306083 0.036421053
0002e0 d8 00 38 bd bc 92 62 bd 66 ec 3f bd 70 da 40 3d
       -0.04492268 -0.055315718 -0.046856306 0.04708332
0002f0 4e 98 ca 3c 04 71 dd 3c d2 9d 1b 3d 0b d3 5c bd
       0.024730828 0.02703143 0.037992306 -0.053912204
000300 44 0f 55 bd 99 f7 95 bd a6 83 11 3d 94 14 53 3d
       -0.05201651 -0.07322616 0.03552594 0.051533297
000310 25 7a 4f bd 02 d5 53 bd 63 e2 8b 3d e3 d2 0b 3d
       -0.050653595 -0.051716812 0.06830289 0.034136664
000320 8e 88 44 3d 5b fc 05 3b 20 79 07 bd 73 b1 45 3d
       0.04798179 0.0020444605 -0.0330745 0.048264932
000330 3f 3f 56 bd c4 b5 32 3d 47 88 2b 3d 6f c3 4d 3d
       -0.05230641 0.043630376 0.04187801 0.050235208
000340 79 9b 8a bd 54 67 1c bd ba fd c2 bc 78 82 8a 3c
       -0.06767935 -0.03818448 -0.023802627 0.016907915
000350 08 fe 2f 3d d2 0c 31 3d e5 b3 e9 3c 97 df 66 bd
       0.042966872 0.043225117 0.028528163 -0.056365576
000360 da 7c 61 bd 02 24 93 bd 53 ea 2d bd af fb 47 3d
       -0.05505071 -0.07184602 -0.042459797 0.04882401
000370 00 27 48 3d 4c 1d 13 3d fa c5 0f 3d c6 60 5e bd
       0.04886532 0.03591661 0.035100915 -0.05429151
000380 b3 3e 23 bd 71 3f 8b bd 16 6e eb 3c 40 d5 1a 3c
       -0.039854717 -0.0679921 0.028739017 0.009450257
000390 d8 a9 3a 3c 90 1d 74 3d f5 75 53 3d a1 fd d3 3c
       0.011393033 0.059598505 0.051626164 0.025877776
0003a0 c8 2d 27 3d 70 74 9a 3c 10 83 15 3d 16 9e d6 3b
       0.040815145 0.01885435 0.036501944 0.006549607
0003b0 8d 8d 30 3d 9e de 26 3d 33 27 58 3d 63 59 35 bd
       0.043103743 0.040739648 0.05277176 -0.0442747
0003c0 e1 f7 3a bd f1 4c d2 bc 92 c6 ff 3c 61 29 66 bd
       -0.045646552 -0.025671454 0.031222615 -0.056191806
0003d0 6c 54 61 bd 33 a9 83 bd f4 d2 60 bd 18 40 c3 3c
       -0.05501215 -0.064287566 -0.05488868 0.023834273
0003e0 85 1f 1b 3d 35 cb 16 bd ea fb 2c bd 41 b1 49 3d
       0.037871856 -0.036814887 -0.04223243 0.049241308
0003f0 84 f3 30 3c 67 c4 69 bd 14 81 ef 3b 54 3d 45 3d
       0.010800246 -0.05707207 0.0073090885 0.04815419

action_model._discrete_distribution.branches.0.bias f4 [3]
000000 bf 49 56 bd 14 dc 56 3d db d5 c9 bc
       -0.052316424 0.052455977 -0.024638107

action_model._discrete_distribution.branches.1.weight f4 [2, 128]
000000 8b ca 00 3c a0 72 91 bc d4 cd a6 3c 9d 15 27 bc
       0.00786079 -0.017754853 0.020361818 -0.010198024
000010 1a 79 75 bc 82 84 05 3b 5f 30 b9 bb a3 96 2c bc
       -0.014982486 0.002037317 -0.0056515182 -0.0105339615
000020 49 fc dd 3c dd 51 4b 3c 78 1b 07 3c b3 fa bd 3c
       0.027097838 0.012409654 0.008246295 0.023190832
000030 a7 61 25 3c 4e ce 9c bb 9b 72 ca 3c 08 b9 94 3c
       0.010094083 -0.0047853356 0.024712851 0.018154636
000040 67 37 d8 bc ec a1 0f bb 06 eb 14 bc 57 b8 31 3c
       -0.026393605 -0.0021916581 -0.009089237 0.010847173
000050 eb e9 ab 3b a0 ab e4 3c 47 12 5d bc 42 7a c2 3c
       0.005246391 0.027913868 -0.013493127 0.023739938
000060 01 d0 81 bb d2 cf ca bb 9e 23 bb bb bf 2c 84 3c
       -0.0039615636 -0.006189325 -0.005711033 0.016134618
000070 1c 3b b9 3b b4 53 a8 3c 57 89 99 3b 66 b6 ca 3c
       0.0056527983 0.020547725 0.0046855616 0.024745177
000080 ca d2 4e bc 10 ad ef bb 52 c9 c2 3a c1 82 7c 3c
       -0.012623498 -0.007314332 0.0014861024 0.015412034
000090 6d 12 25 bc af 2b 0f 3c fd b9 0c bc 5d 94 07 3c
       -0.010075194 0.008738442 -0.008589265 0.008275119
0000a0 ae 21 d4 bb 74 bc 16 3c 72 35 f1 3b 9b 94 8c 3c
       -0.0064737415 0.009200204 0.0073611075 0.017160704
0000b0 b3 48 8c bc b4 cd 5a 39 38 7f 8f 3c 10 d4 79 ba
       -0.01712451 0.0002086673 0.017516717 -0.0009530196
0000c0 cf ef 95 3c 07 af 3f bc 60 be 50 3c c8 ab 4a 3c
       0.018302826 -0.011699445 0.012740701 0.012370057
0000d0 a8 e4 33 bc 77 00 83 bc d3 88 23 3c d5 8f c7 bb
       -0.010979809 -0.015991433 0.009981352 -0.006090144
0000e0 0c 6c 73 3c 81 15 48 3a ea 17 9e bb de 17 5f bc
       0.014857303 0.0007632599 -0.004824628 -0.01361653
0000f0 d5 7f 9b 3c 57 c5 7b ba 9b 4f 94 3a 9b ee 27 3c
       0.018981854 -0.0009604296 0.0011315228 0.010249759
000100 23 25 af 3c 8c f8 65 3c 58 f9 57 bc a0 8a 54 bb
       0.021380013 0.014036309 -0.013182007 -0.003243126
000110 28 32 d2 39 4a b0 60 3c 62 7f 53 bc 3a 45 0f bc
       0.0004009169 0.013713906 -0.012908788 -0.008744532
000120 89 d6 af 3a 30 48 85 3c de 53 b1 3c 1a 72 a4 39
       0.0013415377 0.016269773 0.021646436 0.0003136553
000130 5b be dd 3b 57 b0 16 bc 52 6c da 39 52 c2 62 bc
       0.006767077 -0.009197316 0.00041660905 -0.013840275
000140 a6 d3 1a 3c fd 30 e5 3c c5 1f e4 38 39 2b c7 bb
       0.009449875 0.027977461 0.00010877805 -0.0060781506
000150 e8 6b fd bb 18 eb 81 bc 45 ef 2e bc 97 c1 c6 3c
       -0.0077338107 -0.015859172 -0.0106771635 0.024262233
000160 c7 36 4f 3c e2 30 81 3c dd e8 c6 3c 34 20 5b bc
       0.012647337 0.01577038 0.02428096 -0.013374377
000170 58 6e a8 bc 76 88 e8 3b 90 dc 21 bb 64 99 63 3c
       -0.020560429 0.0070963455 -0.0024698116 0.013891552
000180 b3 0c 80 3c dc 35 43 3c 9a ff 81 bc e2 85 4f 3c
       0.015631055 0.011914697 -0.01586895 0.0126661975
000190 79 c3 1b 3c f4 76 16 bc 51 14 02 bc 0d 64 5c 3c
       0.0095070535 -0.009183634 -0.007939414 0.013451588
0001a0 99 3b 60 bb 85 2d e1 3b 58 c4 21 3c 0c 66 3b bb
       -0.003421521 0.0068718814 0.009873472 -0.002859476
0001b0 51 e3 02 bc c6 ac 32 bc e7 ae 78 3c cf ca 85 3c
       -0.007988767 -0.01090545 0.015178419 0.016332058
0001c0 c3 4e 2e 3c 5a 75 8f 3b 27 26 aa bb 29 53 28 3c
       0.010638895 0.004378003 -0.0051925364 0.010273733
0001d0 9c 4f 4d 3c 0a 21 85 3c 7d a7 a1 3c 97 fe 91 bc
       0.012531187 0.016251106 0.019733185 -0.017821593
0001e0 c7 d2 aa bc 2d a5 a6 3c d4 81 14 3c 80 ef 31 bc
       -0.02085246 0.020342434 0.009064157 -0.010860324
0001f0 81 c1 3f bc d6 54 8a 3c b5 3b 9a 3c 47 68 e6 bb
       -0.01170385 0.016886156 0.018827299 -0.007031474
000200 3d d0 82 3c 3c 56 e5 bb f6 09 cf bb 12 98 33 bc
       0.015968436 -0.0069988053 -0.006318326 -0.010961549
000210 86 2d 85 3c df b4 16 3b 76 09 96 3b 07 c3 80 3c
       0.016257059 0.0022995991 0.0045787646 0.015717996
000220 5a 4e 9d bc 13 9d 8d bb 17 23 46 bc bb 33 52 bc
       -0.0192024 -0.004321703 -0.012093327 -0.012829716
000230 db be 26 bc 13 10 1c bb f6 3d d5 3b 29 5c a4 bc
       -0.010177339 -0.0023813292 0.0065076305 -0.020063477
000240 a5 61 1c 3b bf bb 65 3b a2 a9 09 3c 44 90 e7 bc
       0.0023861912 0.0035054532 0.00840226 -0.028267033
000250 92 23 4d bc 76 c6 f5 3a 36 22 3f bc 7d 31 13 bc
       -0.012520688 0.0018751163 -0.011665871 -0.008983967
000260 9f e5 23 3c ba ce 5f 3c 60 f6 90 3c 9a 45 c2 bb
       0.010003476 0.013660127 0.017695606 -0.0059287073
000270 bb 08 50 bc e2 b1 3f bc 1a 98 9c 39 11 d6 89 bb
       -0.012697394 -0.011700125 0.00029867963 -0.004206427
000280 cb e0 4d bb db 46 26 3c cc b3 af bc ba 2a 21 bc
       -0.0031414505 0.010148729 -0.021448039 -0.009836847
000290 38 d9 8e 3c fe 69 9e bb 7f 0f 7c bb e3 28 5c bc
       0.017437562 -0.0048344126 -0.0038461385 -0.0134374825
0002a0 d6 eb 5c 3c 50 82 d6 39 41 42 c0 bb a1 a5 e8 3b
       0.013483962 0.0004091435 -0.005867273 0.0070998226
0002b0 41 32 39 3c c8 86 ec 3a 14 87 5b bc fe 4f 2e bb
       0.011303485 0.0018045539 -0.013398904 -0.0026597972
0002c0 8d e4 1e bc af 4f 01 bc d8 9d 84 bc e7 7e 05 bc
       -0.009698045 -0.007892533 -0.016188547 -0.008147932
0002d0 59 04 4d 3c 5c 59 df 3c 7a 0f 82 bc 49 5f 5d 3c
       0.012513244 0.02726429 -0.01587652 0.013511487
0002e0 05 c8 7e ba c7 39 3f bc b0 9f 8c bc a5 6c 4b 3c
       -0.0009719136 -0.01167149 -0.017165989 0.01241604
0002f0 f0 b7 22 3c 4a b1 37 bb d2 b4 39 3b e8 86 37 bc
       0.009931549 -0.0028029257 0.0028336537 -0.011201598
000300 2d 2b 02 bc 54 c1 c8 bb 54 2a a5 bb b1 45 33 3c
       -0.007944864 -0.006126562 -0.0050404463 0.010941909
000310 c9 5b d3 3a 5d ad 9a bb 88 bd 84 3c d8 e2 58 3c
       0.0016125377 -0.0047203735 0.016203657 0.0132376775
000320 4c 9e 73 3c 5e f3 83 ba 07 e5 cc bb 00 b3 73 3c
       0.014869284 -0.0010067036 -0.006252888 0.01487422
000330 12 b4 7b bb 3f 90 0f 3c 9a 37 84 3c 62 a6 6e 3c
       -0.003840689 0.008762418 0.016139794 0.014566036
000340 d0 9a 47 bc 77 b2 5b bb d8 9c eb ba 59 2e 49 3c
       -0.012182906 -0.0033523121 -0.001797582 0.012279117
000350 48 9f 7a 3c 7b e8 38 3b 87 60 b0 3c 72 4c 2f bc
       0.015296765 0.002821474 0.021530403 -0.010699378
000360 8c 90 1d bc 3d f6 80 bb 98 8c ff bb 2a 4e 96 3b
       -0.009616982 -0.003935604 -0.0077987425 0.0045869546
000370 61 db 09 3d 71 79 55 3c bd 50 80 3b de da e6 bc
       0.03365648 0.013029442 0.0039158748 -0.028180536
000380 9c 21 43 bc 33 24 b8 bc dd d2 6a 3c 4a 1f c0 bb
       -0.011909869 -0.022478199 0.0143325 -0.005863105
000390 f2 db 88 3a 3a 68 0a 3c bc 82 b5 ba 10 2f 2f 3c
       0.0010441525 0.008447701 -0.0013848166 0.010692373
0003a0 64 58 88 3c c5 a9 9c bc 08 b0 85 bc 4e 4a 50 bb
       0.01664371 -0.019123921 -0.01631929 -0.003178257
0003b0 c3 99 82 3c 68 44 70 3b 14 14 d4 bb 0b d2 83 bc
       0.01594246 0.0036661867 -0.00647212 -0.016091367
0003c0 4b fc 4a bc 90 be 7c bc d6 a1 35 3b 6e d6 33 bc
       -0.012389253 -0.015426293 0.002771487 -0.010976417
0003d0 c2 45 25 bc 3b 2b 9c bb ac d7 96 bc 2e 01 95 3c
       -0.010087432 -0.0047658957 -0.018413387 0.01818904
0003e0 4b fc fe 3a 06 08 0d bb ea d4 ab ba ff 2d 6d bb
       0.0019453851 -0.0021519675 -0.0013109718 -0.0036190746
0003f0 b2 cd 95 bb d4 3c e9 bb cb a2 1a bd f8 24 4d 3c
       -0.00457164 -0.007117847 -0.037752908 0.012521021

action_model._discrete_distribution.branches.1.bias f4 [2]
000000 c6 93 06 bc cc 93 06 3c
       -0.008213943 0.008213948

onnx::Div_68 f4 [284]
000000 c5 b8 4b 41 0e 1f 1a 40 86 37 47 3b 95 43 41 40
       12.73261 2.4081454 0.0030398085 3.0197499
000010 51 ab 0d 41 6f a8 95 3d 86 37 47 3b 86 37 47 3b
       8.854325 0.07307517 0.0030398085 0.0030398085
000020 21 97 0b 42 50 ab 8e 3e 86 37 47 3b 13 dd c0 40
       34.897587 0.27865076 0.0030398085 6.0269866
000030 28 88 6b 3e 86 37 47 3b bd 3f e7 40 b0 40 6c 3e
       0.23001158 0.0030398085 7.2265306 0.23071551
000040 86 37 47 3b ad 91 3c 41 8c ed 49 3e 86 37 47 3b
       0.0030398085 11.785565 0.19719523 0.0030398085
000050 50 49 ae 41 bc 5a e0 3e 86 37 47 3b 8b 90 8d 40
       21.785797 0.43819225 0.0030398085 4.4238944
000060 75 00 d7 3d 86 37 47 3b e3 11 69 41 1e 45 c4 3f
       0.10498134 0.0030398085 14.566867 1.5333593
000070 86 37 47 3b ba 25 85 3f b4 44 fa 3c 86 37 47 3b
       0.0030398085 1.0402138 0.030550338 0.0030398085
000080 80 0b 92 41 e3 fc 37 3f 86 37 47 3b 23 c9 70 41
       18.255615 0.7187025 0.0030398085 15.049106
000090 63 66 59 3f 86 37 47 3b 59 84 d6 41 3c 87 55 3f
       0.84921855 0.0030398085 26.814623 0.83409476
0000a0 86 37 47 3b e5 70 f7 41 e5 4f ff 3e 86 37 47 3b
       0.0030398085 30.930124 0.49865642 0.0030398085
0000b0 cb 2b d2 41 f7 15 01 40 86 37 47 3b 26 4c a1 41
       26.271383 2.0169656 0.0030398085 20.162182
0000c0 34 ad 97 3f 86 37 47 3b 3a 30 05 42 85 11 ff 3f
       1.1849732 0.0030398085 33.297096 1.9927222
0000d0 86 37 47 3b 6e ac 3d 42 43 c0 3e 40 86 37 47 3b
       0.0030398085 47.41839 2.9804847 0.0030398085
0000e0 a3 67 f7 41 a5 ee b3 3f 86 37 47 3b f8 d1 94 41
       30.925604 1.4057204 0.0030398085 18.602524
0000f0 fa 26 7f 3f 86 37 47 3b ae 84 b5 41 3d 5d dd 3f
       0.9966885 0.0030398085 22.689785 1.7294079
000100 86 37 47 3b 9c 56 87 41 8a c2 61 3f 86 37 47 3b
       0.0030398085 16.91729 0.8818747 0.0030398085
000110 72 10 d3 41 29 7b 01 3e 86 37 47 3b 76 f7 0c 41
       26.38303 0.12644638 0.0030398085 8.810415
000120 3d d4 9b 3d 86 37 47 3b 0e c1 70 41 91 75 b7 3f
       0.076088406 0.0030398085 15.0471325 1.4332753
000130 86 37 47 3b 98 8a de 40 cd 62 13 3f 86 37 47 3b
       0.0030398085 6.954418 0.57572633 0.0030398085
000140 f7 94 a4 41 20 46 ff 3e 86 37 47 3b 2c c1 83 41
       20.572737 0.4985819 0.0030398085 16.469322
000150 da 84 85 3f 86 37 47 3b 48 e6 39 41 3f 5b 35 3f
       1.0431168 0.0030398085 11.618721 0.70842355
000160 86 37 47 3b 4f ee 97 41 a8 1d 02 40 86 37 47 3b
       0.0030398085 18.991362 2.03306 0.0030398085
000170 bc aa 40 41 6c 8d 59 3f 86 37 47 3b 35 24 93 41
       12.041683 0.8498142 0.0030398085 18.39268
000180 fe 8b 8b 3f 86 37 47 3b 4a fc 3f 41 4c cd 90 3f
       1.0902097 0.0030398085 11.999094 1.1312652
000190 86 37 47 3b e3 ce d5 41 c8 2c a1 3f 86 37 47 3b
       0.0030398085 26.726019 1.2591791 0.0030398085
0001a0 b8 42 e1 41 41 5d 14 40 86 37 47 3b db de 6f 41
       28.157578 2.3181918 0.0030398085 14.991908
0001b0 9a bd e2 3d 86 37 47 3b c1 7f a8 41 4e d4 92 3f
       0.1107132 0.0030398085 21.06238 1.147104
0001c0 86 37 47 3b 7d 5d cc 41 3c 77 a0 3f 86 37 47 3b
       0.0030398085 25.545649 1.2536387 0.0030398085
0001d0 fc c1 76 41 f6 53 95 3e 86 37 47 3b fd fc 02 42
       15.422359 0.2916562 0.0030398085 32.74706
0001e0 0e 3e 89 3f 86 37 47 3b 8f a0 1c 42 64 72 8b 3e
       1.0722063 0.0030398085 39.156796 0.2723571
0001f0 86 37 47 3b 52 9e bc 41 56 f0 25 3f 86 37 47 3b
       0.0030398085 23.577305 0.6481985 0.0030398085
000200 81 b8 41 41 bf 02 c3 3f 86 37 47 3b 49 a0 00 42
       12.107545 1.5235213 0.0030398085 32.15653
000210 02 34 35 3f 86 37 47 3b fe 91 be 40 ad 78 8e 3f
       0.7078248 0.0030398085 5.9553213 1.1130577
000220 86 37 47 3b 81 a9 8c 41 53 bb 04 40 86 37 47 3b
       0.0030398085 17.582766 2.0739334 0.0030398085
000230 ec 93 d8 41 cf c0 9d 3f 86 37 47 3b c1 5c ea 40
       27.072227 1.2324466 0.0030398085 7.3238225
000240 13 f8 28 3f 86 37 47 3b 87 9d 60 41 04 ae 1f 3f
       0.6600353 0.0030398085 14.038459 0.623749
000250 86 37 47 3b b2 9b e1 40 b1 b7 51 3f 86 37 47 3b
       0.0030398085 7.050256 0.81920916 0.0030398085
000260 a2 3d 43 42 f8 87 ba 40 86 37 47 3b 36 db 88 41
       48.81019 5.8290977 0.0030398085 17.107037
000270 24 ed 90 40 86 37 47 3b 9f 82 04 43 05 14 c3 40
       4.528948 0.0030398085 132.51024 6.096194
000280 86 37 47 3b ac 56 fc 41 01 69 ac 40 86 37 47 3b
       0.0030398085 31.54232 5.387818 0.0030398085
000290 66 c4 cf 42 ea 5b 28 40 86 37 47 3b b0 b6 4b 42
       103.88359 2.63061 0.0030398085 50.928406
0002a0 f5 b2 d7 3f 86 37 47 3b 36 fd e1 41 e1 48 b3 3f
       1.6851488 0.0030398085 28.248638 1.4006616
0002b0 86 37 47 3b db 35 67 42 c0 08 93 40 86 37 47 3b
       0.0030398085 57.802593 4.594818 0.0030398085
0002c0 cc ed 46 41 2e 92 92 3f 86 37 47 3b f3 49 1c 42
       12.433056 1.145086 0.0030398085 39.072216
0002d0 6c 81 62 40 86 37 47 3b 0f a3 06 43 c7 0d fd 40
       3.5391493 0.0030398085 134.63695 7.907932
0002e0 86 37 47 3b 1b a1 27 42 d0 aa c1 3f 86 37 47 3b
       0.0030398085 41.90733 1.5130253 0.0030398085
0002f0 8a 7a ae 42 77 33 d6 40 86 37 47 3b f4 fa 05 43
       87.239334 6.6937823 0.0030398085 133.98029
000300 bd 3e c0 40 86 37 47 3b a5 96 db 42 24 84 00 40
       6.0076585 0.0030398085 109.79423 2.0080652
000310 86 37 47 3b 38 43 87 42 58 b4 3c 40 86 37 47 3b
       0.0030398085 67.63129 2.9485073 0.0030398085
000320 5c e9 40 42 bb 3a 6a 3f 86 37 47 3b 77 f3 a6 42
       48.22789 0.91495866 0.0030398085 83.47552
000330 d0 ae 0a 40 86 37 47 3b 9e c5 96 42 e3 3d c8 3f
       2.1669197 0.0030398085 75.38597 1.5643886
000340 86 37 47 3b 8b 73 9a 42 a0 99 0e 40 86 37 47 3b
       0.0030398085 77.22567 2.2281265 0.0030398085
000350 a6 9d ec 41 95 f9 12 40 86 37 47 3b d1 81 32 42
       29.576977 2.2964833 0.0030398085 44.626774
000360 35 79 c8 3f 86 37 47 3b ae 74 03 42 31 89 12 40
       1.566199 0.0030398085 32.863945 2.2896235
000370 86 37 47 3b 00 ed 1d 42 49 5c bc 3f 86 37 47 3b
       0.0030398085 39.481445 1.4715663 0.0030398085
000380 b0 c1 b4 41 a5 17 3e 40 86 37 47 3b 8c 4e 21 42
       22.594574 2.9701931 0.0030398085 40.326706
000390 fe c7 80 40 86 37 47 3b d7 e3 45 42 5c 8e 42 40
       4.024413 0.0030398085 49.4725 3.039939
0003a0 86 37 47 3b 75 49 ca 41 c4 97 df 3f 86 37 47 3b
       0.0030398085 25.285868 1.746819 0.0030398085
0003b0 bd 25 ad 41 7e 98 4a 40 86 37 47 3b c1 a0 79 42
       21.643427 3.1655574 0.0030398085 62.406986
0003c0 61 f1 b0 40 86 37 47 3b 51 7b 18 42 81 98 1a 40
       5.529465 0.0030398085 38.120426 2.415558
0003d0 86 37 47 3b aa 3d 18 42 5a 45 2e 40 86 37 47 3b
       0.0030398085 38.06022 2.722983 0.0030398085
0003e0 3e 17 84 42 3f 1e 93 40 86 37 47 3b ea f1 c6 42
       66.045395 4.597442 0.0030398085 99.47249
0003f0 1c 5c d9 40 86 37 47 3b e1 e7 3f 42 04 da ae 40
       6.792494 0.0030398085 47.976444 5.464113
