Assets/Training/results/finally_works/PlayerAgentBehavior.onnx (onnx, 295465 bytes, 13 tensors)

discrete_act_size_vector f4 [1, 2]
0	0x40400000	3.0
1	0x40000000	2.0

network_body.observation_encoder.processors.0.normalizer.running_mean f4 [405]
0	0x00000000	0.0
1	0x00000000	0.0
2	0x00000000	0.0
3	0x38a681ba	7.93966e-05
4	0x38a681ba	7.93966e-05
5	0x00000000	0.0
6	0x00000000	0.0
7	0x00000000	0.0
8	0x38a681ba	7.93966e-05
9	0x38a681ba	7.93966e-05
10	0x00000000	0.0
11	0x00000000	0.0
12	0x00000000	0.0
13	0x00000000	0.0
14	0x3736f4d2	1.0905047e-05
15	0x00000000	0.0
16	0x00000000	0.0
17	0x00000000	0.0
18	0x00000000	0.0
19	0x37a5760b	1.97245e-05
20	0x00000000	0.0
21	0x00000000	0.0
22	0x00000000	0.0
23	0x00000000	0.0
24	0x372fdab7	1.0481736e-05
25	0x00000000	0.0
26	0x00000000	0.0
27	0x00000000	0.0
28	0x00000000	0.0
29	0x378d7bc5	1.6866145e-05
30	0x00000000	0.0
31	0x00000000	0.0
32	0x00000000	0.0
33	0x00000000	0.0
34	0x372e1405	1.0375869e-05
35	0x00000000	0.0
36	0x00000000	0.0
37	0x00000000	0.0
38	0x00000000	0.0
39	0x378b5210	1.6608305e-05
40	0x00000000	0.0
41	0x00000000	0.0
42	0x00000000	0.0
43	0x00000000	0.0
44	0x372fe3ab	1.0483821e-05
45	0x00000000	0.0
46	0x00000000	0.0
47	0x00000000	0.0
48	0x00000000	0.0
49	0x378d4df5	1.6844811e-05
50	0x00000000	0.0
51	0x00000000	0.0
52	0x00000000	0.0
53	0x00000000	0.0
54	0x3732cdd5	1.0657551e-05
55	0x00000000	0.0
56	0x00000000	0.0
57	0x00000000	0.0
58	0x00000000	0.0
59	0x3790353b	1.7190925e-05
60	0x00000000	0.0
61	0x00000000	0.0
62	0x00000000	0.0
63	0x00000000	0.0
64	0x37367a55	1.0876528e-05
65	0x00000000	0.0
66	0x00000000	0.0
67	0x00000000	0.0
68	0x00000000	0.0
69	0x3793c539	1.7615605e-05
70	0x00000000	0.0
71	0x00000000	0.0
72	0x00000000	0.0
73	0x00000000	0.0
74	0x373afc65	1.1145229e-05
75	0x00000000	0.0
76	0x00000000	0.0
77	0x00000000	0.0
78	0x00000000	0.0
79	0x3798119a	1.8128008e-05
80	0x00000000	0.0
81	0x00000000	0.0
82	0x00000000	0.0
83	0x00000000	0.0
84	0x37406ccb	1.1469422e-05
85	0x00000000	0.0
86	0x00000000	0.0
87	0x00000000	0.0
88	0x00000000	0.0
89	0x37c61ef0	2.3617846e-05
90	0x00000000	0.0
91	0x00000000	0.0
92	0x00000000	0.0
93	0x00000000	0.0
94	0x3746eb73	1.18565395e-05
95	0x00000000	0.0
96	0x00000000	0.0
97	0x00000000	0.0
98	0x00000000	0.0
99	0x37b47455	2.1511843e-05
100	0x00000000	0.0
101	0x00000000	0.0
102	0x00000000	0.0
103	0x00000000	0.0
104	0x37518b0d	1.2489746e-05
105	0x00000000	0.0
106	0x00000000	0.0
107	0x00000000	0.0
108	0x00000000	0.0
109	0x37aebd61	2.0830603e-05
110	0x00000000	0.0
111	0x00000000	0.0
112	0x00000000	0.0
113	0x38a681ba	7.93966e-05
114	0x38a681ba	7.93966e-05
115	0x00000000	0.0
116	0x00000000	0.0
117	0x00000000	0.0
118	0x00000000	0.0
119	0x37b1bb36	2.1187221e-05
120	0x00000000	0.0
121	0x00000000	0.0
122	0x00000000	0.0
123	0x38a681ba	7.93966e-05
124	0x38a681ba	7.93966e-05
125	0x00000000	0.0
126	0x00000000	0.0
127	0x00000000	0.0
128	0x00000000	0.0
129	0x37bbc2c0	2.2382825e-05
130	0x00000000	0.0
131	0x00000000	0.0
132	0x00000000	0.0
133	0x38a681ba	7.93966e-05
134	0x38a681ba	7.93966e-05
135	0x00000000	0.0
136	0x00000000	0.0
137	0x00000000	0.0
138	0x00000000	0.0
139	0x37c7d062	2.3819684e-05
140	0x00000000	0.0
141	0x00000000	0.0
142	0x00000000	0.0
143	0x38a681ba	7.93966e-05
144	0x38a681ba	7.93966e-05
145	0x00000000	0.0
146	0x38a681ba	7.93966e-05
147	0x00000000	0.0
148	0x00000000	0.0
149	0x37fb564b	2.9961715e-05
150	0x00000000	0.0
151	0x00000000	0.0
152	0x00000000	0.0
153	0x38a681ba	7.93966e-05
154	0x38a681ba	7.93966e-05
155	0x00000000	0.0
156	0x38a681ba	7.93966e-05
157	0x00000000	0.0
158	0x00000000	0.0
159	0x37f55aa9	2.9248493e-05
160	0x00000000	0.0
161	0x00000000	0.0
162	0x00000000	0.0
163	0x38a681ba	7.93966e-05
164	0x38a681ba	7.93966e-05
165	0x00000000	0.0
166	0x38a681ba	7.93966e-05
167	0x00000000	0.0
168	0x00000000	0.0
169	0x37f52a34	2.9225928e-05
170	0x00000000	0.0
171	0x00000000	0.0
172	0x00000000	0.0
173	0x38a681ba	7.93966e-05
174	0x38a681ba	7.93966e-05
175	0x00000000	0.0
176	0x38a681ba	7.93966e-05
177	0x00000000	0.0
178	0x00000000	0.0
179	0x37faa96d	2.9881217e-05
180	0x00000000	0.0
181	0x00000000	0.0
182	0x00000000	0.0
183	0x38a681ba	7.93966e-05
184	0x38a681ba	7.93966e-05
185	0x00000000	0.0
186	0x38a681ba	7.93966e-05
187	0x00000000	0.0
188	0x00000000	0.0
189	0x38054fb9	3.178392e-05
190	0x00000000	0.0
191	0x00000000	0.0
192	0x00000000	0.0
193	0x38a681ba	7.93966e-05
194	0x38a681ba	7.93966e-05
195	0x00000000	0.0
196	0x00000000	0.0
197	0x00000000	0.0
198	0x38a681ba	7.93966e-05
199	0x38a681ba	7.93966e-05
200	0x00000000	0.0
201	0x00000000	0.0
202	0x00000000	0.0
203	0x38a681ba	7.93966e-05
204	0x38a681ba	7.93966e-05
205	0x00000000	0.0
206	0x00000000	0.0
207	0x00000000	0.0
208	0x38a681ba	7.93966e-05
209	0x38a681ba	7.93966e-05
210	0x00000000	0.0
211	0x00000000	0.0
212	0x00000000	0.0
213	0x38a681ba	7.93966e-05
214	0x38a681ba	7.93966e-05
215	0x00000000	0.0
216	0x00000000	0.0
217	0x00000000	0.0
218	0x38a681ba	7.93966e-05
219	0x38a681ba	7.93966e-05
220	0x00000000	0.0
221	0x00000000	0.0
222	0x00000000	0.0
223	0x38a681ba	7.93966e-05
224	0x38a681ba	7.93966e-05
225	0x38a681ba	7.93966e-05
226	0x00000000	0.0
227	0x00000000	0.0
228	0x00000000	0.0
229	0x38984f7e	7.2627314e-05
230	0x00000000	0.0
231	0x00000000	0.0
232	0x00000000	0.0
233	0x38a681ba	7.93966e-05
234	0x38a681ba	7.93966e-05
235	0x38a681ba	7.93966e-05
236	0x00000000	0.0
237	0x00000000	0.0
238	0x00000000	0.0
239	0x3890d4b0	6.906071e-05
240	0x00000000	0.0
241	0x00000000	0.0
242	0x00000000	0.0
243	0x38a681ba	7.93966e-05
244	0x38a681ba	7.93966e-05
245	0x00000000	0.0
246	0x00000000	0.0
247	0x00000000	0.0
248	0x38a681ba	7.93966e-05
249	0x38a681ba	7.93966e-05
250	0x00000000	0.0
251	0x00000000	0.0
252	0x00000000	0.0
253	0x38a681ba	7.93966e-05
254	0x38a681ba	7.93966e-05
255	0x00000000	0.0

network_body.observation_encoder.processors.1.normalizer.running_mean f4 [13]
0	0x00000000	0.0
1	0x00000000	0.0
2	0x00000000	0.0
3	0x00000000	0.0
4	0x00000000	0.0
5	0x00000000	0.0
6	0x00000000	0.0
7	0x00000000	0.0
8	0x00000000	0.0
9	0x00000000	0.0
10	0x00000000	0.0
11	0x00000000	0.0
12	0x00000000	0.0

network_body._body_endoder.seq_layers.0.weight f4 [128, 418]
0	0xbdc30c30	-0.09523809
1	0xbb8ac356	-0.0042347116
2	0xba86fb8b	-0.0010298354
3	0xbd88ced5	-0.06680075
4	0x3c69ab2b	0.014262001
5	0xbc899be5	-0.01679797
6	0x3c466c48	0.012110777
7	0xb89e8648	-7.559039e-05
8	0x3d760fac	0.06007354
9	0x3d395ca2	0.045254357
10	0xbcd86425	-0.02641494
11	0xbc4658f2	-0.012106167
12	0xbcf9eba9	-0.03050788
13	0xbd9a88d5	-0.0754563
14	0xbd4fa707	-0.0506964
15	0xbd0bfff1	-0.03417963
16	0xbdd0def9	-0.10198779
17	0xbc44f854	-0.012022097
18	0x3d1204cd	0.03564911
19	0xbd8c8501	-0.06861306
20	0xbdae2124	-0.08502415
21	0x3c8a4496	0.016878407
22	0x3c9586b3	0.018252706
23	0xbdbeaf1e	-0.09310745
24	0x3d26aed3	0.04069407
25	0x3cc51972	0.024059985
26	0xbccf4347	-0.025300635
27	0xbb1a95be	-0.0023587788
28	0xbd93122f	-0.071812026
29	0xbc227208	-0.0099148825
30	0x3c94c48b	0.018160125
31	0xbcce9c06	-0.025220882
32	0xbc116bbb	-0.008875783
33	0xbdd025f8	-0.10163492
34	0xbb477405	-0.0030434143
35	0xbb8c8c8f	-0.004289217
36	0xbe27cd7f	-0.16386984
37	0xbdd0f569	-0.10203058
38	0xbd084149	-0.033265386
39	0xbd171d2d	-0.03689306
40	0xbbf9ecc7	-0.007627103
41	0xbcbe2035	-0.023208717
42	0x3dc162f2	0.094427004
43	0xbddb886f	-0.10719382
44	0xbbc12569	-0.005894352
45	0xbdfe960e	-0.124309644
46	0x3c1b6d25	0.009486471
47	0xbd7f6ce0	-0.06235969
48	0xbda81852	-0.08207764
49	0x3c9f681d	0.019458825
50	0xbd5739db	-0.05254541
51	0xbcb5c736	-0.022189718
52	0x3cf822ff	0.030290125
53	0x3d656e34	0.0560133
54	0xbcc91457	-0.024545832
55	0x3ddb8615	0.107189335
56	0xbd34ef9b	-0.044173818
57	0xbbfb957c	-0.007677732
58	0xbcd36b05	-0.025807867
59	0x3cee8c6c	0.029119693
60	0x3b9802ce	0.004639006
61	0xbd4c86e3	-0.049933325
62	0x3d704769	0.058661852
63	0xbcfae3ff	-0.030626295
64	0x3cc0d574	0.023539282
65	0xbcbc7826	-0.02300651
66	0x3b3d3ecf	0.0028876548
67	0x3d482a5e	0.04886853
68	0xbc72dcbe	-0.014823137
69	0x3d95201a	0.072815135
70	0xbcdf7078	-0.027275309
71	0xbcf0ea51	-0.029408606
72	0xbbb53ec3	-0.0055311634
73	0xbc266ae2	-0.010157319
74	0xbe06bb03	-0.13157277
75	0x3ca0da73	0.019635415
76	0x3c05050d	0.00811888
77	0x3d65d9d5	0.056115944
78	0x3d843f65	0.06457404
79	0x3bfac375	0.007652695
80	0x3d638f4a	0.055556573
81	0x3d1e11f0	0.038591325
82	0x3d5105af	0.05103081
83	0x3bf9733a	0.007612613
84	0x3d496af2	0.049174257
85	0xbdaae66d	-0.083447315
86	0x3a58f4f7	0.00082762487
87	0xbd20f928	-0.039300114
88	0x3d20e573	0.03928132
89	0x3d577556	0.052602135
90	0x3d45605a	0.04818759
91	0x3c97b481	0.018518688
92	0x3d9510ce	0.07278596
93	0x3b225d2c	0.0024774773
94	0x3ccffbd9	0.025388645
95	0x3d75e26f	0.060030397
96	0xbd75c226	-0.059999608
97	0xbc7a962a	-0.015294591
98	0xbcb7dae5	-0.022443244
99	0x3df2122c	0.11819872
100	0xbcd8fe81	-0.026488544
101	0x3cf9efa4	0.030509777
102	0xbc2c8524	-0.01052979
103	0xbd0f4782	-0.034980305
104	0xbc465740	-0.012105763
105	0x3b550d0c	0.0032508997
106	0x3d3f868a	0.046759166
107	0x3d9d9c8e	0.07695876
108	0x3d342426	0.043979786
109	0xbd7b13f4	-0.061298326
110	0x3da4129d	0.08011363
111	0xbd098f73	-0.03358407
112	0x3ccfc095	0.025360385
113	0x3d2e2229	0.042513046
114	0x3d94e02c	0.0726932
115	0xbd8531d0	-0.065036416
116	0xbd5f9521	-0.05458558
117	0x3d1afaa8	0.0378367
118	0xbda0ecd3	-0.07857671
119	0xbb2f3613	-0.0026735112
120	0xbd4a6290	-0.049410403
121	0xbc259e76	-0.010108581
122	0x3b1b0ac5	0.0023657542
123	0xbcc3ee3f	-0.023917316
124	0xbb1fccf2	-0.0024383632
125	0xbae15ce3	-0.001719382
126	0x3cbe77dd	0.023250515
127	0x3d1605e6	0.03662672
128	0x3d450aaa	0.048105873
129	0x3d075ce0	0.033047557
130	0x3d49fff2	0.049316354
131	0xbd96c83d	-0.07362411
132	0xbb925a8e	-0.0044663614
133	0xbc0c4339	-0.008560949
134	0x3dd6cc74	0.10488215
135	0xbca5671d	-0.02019077
136	0xbae35289	-0.0017343323
137	0x3cecd0cd	0.028908158
138	0xbdb6079a	-0.08888169
139	0x3e0dd138	0.13849342
140	0x3d52d241	0.051470045
141	0x3d0a52ee	0.033770494
142	0xbd63b93a	-0.055596568
143	0x3d47936c	0.048724577
144	0x3b87587d	0.0041304217
145	0xbd34704f	-0.04405242
146	0x3d0afe33	0.03393383
147	0x3c47070e	0.012147678
148	0xbd889c86	-0.066704795
149	0x3df6ba2b	0.120472275
150	0x3da30f01	0.07961846
151	0xbe01fd30	-0.1269424
152	0xbd11453f	-0.03546643
153	0x3cc42599	0.02394371
154	0x3d8c0746	0.06837325
155	0x3cef71e3	0.02922911
156	0xbc97697d	-0.018482918
157	0x3bde3270	0.006780915
158	0xbd75d5e0	-0.06001842
159	0x3d6b464e	0.057440095
160	0xbd453b34	-0.048152164
161	0xbc11c698	-0.008897446
162	0xbdc1d408	-0.0946427
163	0x3da32cb4	0.07967511
164	0xbba46157	-0.0050164866
165	0xbd8db0af	-0.06918465
166	0xbbd3c2f0	-0.0064624473
167	0x3d0887ab	0.033332508
168	0xbd919c5b	-0.071099006
169	0xbd0353e9	-0.032062445
170	0x3b310c70	0.002701547
171	0x3cdf59ab	0.027264437
172	0x3d0f1533	0.034932327
173	0x3d7f018e	0.062257342
174	0xbccd4ba3	-0.02506048
175	0xbd3a4080	-0.04547167
176	0x3cfb9eed	0.03071543
177	0xbd76c0b6	-0.060242377
178	0x3d2a3993	0.041558813
179	0xbc8044fc	-0.015657894
180	0x3c550763	0.013002249
181	0xbcd5c9ed	-0.026097262
182	0x3cccad02	0.02498484
183	0xbc83c291	-0.016083987
184	0x3d821b54	0.06352869
185	0x3cb4b47f	0.022058723
186	0xbc87c647	-0.016574038
187	0x3d321f3e	0.043486826
188	0x3bf5b0e1	0.0074978922
189	0x3d6f43c8	0.05841425
190	0xbd1e83fd	-0.038700093
191	0x3c6cf23a	0.014462048
192	0xbb44c679	-0.0030025525
193	0x3bf2c10f	0.0074082683
194	0xbc8ce08b	-0.017196914
195	0x3c828f99	0.015937613
196	0x3db9fe18	0.09081668
197	0xbc46a3d8	-0.012124024
198	0xbd175692	-0.036947794
199	0xbc7dfb6e	-0.01550184
200	0xbd842493	-0.064522885
201	0x3c9674ab	0.018366178
202	0x3b8ed173	0.0043584644
203	0x3d67c16d	0.05658095
204	0x3d9d66e6	0.07685642
205	0xbda09105	-0.0784016
206	0xbdc7b0f0	-0.09750545
207	0x3e03bea3	0.12865691
208	0x3d02b42f	0.031910118
209	0x3d019878	0.031639546
210	0xbd45da45	-0.04830386
211	0x3b4781be	0.0030442323
212	0x3dadde02	0.0848961
213	0x3d2c5896	0.04207667
214	0xbd2f9f4d	-0.04287653
215	0x3c94e09e	0.018173512
216	0xbd5feacf	-0.05466729
217	0x3d9288c8	0.07154995
218	0xbbf338e7	-0.007422555
219	0xbc20855f	-0.009797423
220	0xbd0385e1	-0.0321101
221	0x3d32e3b5	0.04367419
222	0xbcd65c8b	-0.026167175
223	0x3d34a79e	0.044105165
224	0x3d8644de	0.06556104
225	0x3d05c605	0.03265955
226	0xbd9fe221	-0.078068025
227	0x3d8b099d	0.06788943
228	0x3d68dc9e	0.056851022
229	0x3bc0f3f4	0.0058884565
230	0x3cc42c81	0.023947002
231	0x3d567bbd	0.0523641
232	0xbd72f569	-0.059316073
233	0x3d73a528	0.059483677
234	0xbccaadeb	-0.024741134
235	0xbd7d5158	-0.061845154
236	0x3d715477	0.058918443
237	0x3c0e4a0b	0.008684645
238	0x3dbf1528	0.09330207
239	0x3bcd2ae8	0.0062612183
240	0x3d9b3a94	0.07579532
241	0xbd6ef3e2	-0.058338054
242	0x3dab26d7	0.083570175
243	0xbc879789	-0.01655175
244	0x39d3b9cd	0.00040383489
245	0xbd8ed052	-0.06973328
246	0xbd7ab608	-0.061208755
247	0xbc8a66be	-0.016894694
248	0x3c3b7a82	0.011442782
249	0xbcb7c4a1	-0.022432627
250	0xbd0b4ef6	-0.03401085
251	0x3cbed183	0.023293262
252	0x3c19dbdc	0.0093907975
253	0xbd02ad89	-0.031903777
254	0xbc08087b	-0.008302803
255	0x3c40761d	0.01174691

network_body._body_endoder.seq_layers.0.bias f4 [128]
0	0xbd22f6c5	-0.03978612
1	0x3d26b43b	0.040699225
2	0xbd272162	-0.04080332
3	0x3d25fcd7	0.04052433
4	0xbd2c749c	-0.042103395
5	0x3d243867	0.040092852
6	0x3d274dfa	0.04084585
7	0x3d26f3a1	0.040759686
8	0xbd28fe04	-0.041257873
9	0xbd277381	-0.040881637
10	0x3d297307	0.041369464
11	0xbd280085	-0.04101612
12	0x3d265325	0.040606637
13	0x3d2b6a0c	0.04184918
14	0xbd28dfd6	-0.04122909
15	0xbd2d77ce	-0.042350583
16	0xbd1ec678	-0.038763493
17	0x3d26e124	0.040742055
18	0xbd2b4210	-0.04181105
19	0x3d065945	0.032799978
20	0x3d248406	0.04016497
21	0x3d245511	0.04012019
22	0xbd2935c6	-0.041311048
23	0xbd29ee34	-0.041486934
24	0x3d27f2fd	0.041003216
25	0x3d268921	0.04065812
26	0xbd274722	-0.040839322
27	0x3d2bf111	0.041977946
28	0xbd24176c	-0.0400614
29	0xbd2e9da6	-0.042630814
30	0x3d28e0cd	0.04123001
31	0xbd288c83	-0.041149627
32	0xbd2daf28	-0.04240337
33	0xbd2cd24a	-0.042192735
34	0xbd2d8949	-0.042367253
35	0xbd252feb	-0.0403289
36	0xbd1f5ba6	-0.038905762
37	0x3d2a73d5	0.041614372
38	0xbd29b8d3	-0.041436028
39	0x3d28c176	0.041200124
40	0xbd2a3841	-0.041557554
41	0x3d28677a	0.041114308
42	0xbd281df3	-0.041044187
43	0xbd25c39d	-0.040469754
44	0xbd1e343b	-0.03862403
45	0x3d20b189	0.03923181
46	0xbd2a4a40	-0.041574717
47	0x3d203d88	0.03912118
48	0xbd1d3a0f	-0.038385447
49	0x3d22adcc	0.039716527
50	0x3d261ade	0.040552966
51	0x3d273254	0.04081948
52	0xbd2a72f0	-0.04161352
53	0xbd2e0ee9	-0.04249469
54	0xbd2bbbaa	-0.041927017
55	0x3d0bb42e	0.03410738
56	0xbd20854e	-0.03918963
57	0x3d240780	0.040046215
58	0x3d1f4032	0.03887958
59	0x3d28d6ae	0.04122036
60	0xbd25936e	-0.040423803
61	0x3d29e18e	0.04147487
62	0x3d206469	0.03915826
63	0x3d1d8650	0.03845817
64	0xbd2afe04	-0.041746154
65	0xbd2aee76	-0.04173132
66	0xbd2461ca	-0.04013232
67	0xbd21c732	-0.039496608
68	0xbd298512	-0.04138667
69	0xbd2aaa5f	-0.041666385
70	0x3d2a0552	0.04150898
71	0x3d173b00	0.0369215
72	0xbd0b2b38	-0.033976763
73	0xbd23f5ec	-0.04002945
74	0xbd1fa632	-0.038976856
75	0x3d2c0941	0.042001013
76	0xbd22515e	-0.03962838
77	0x3d25d6d5	0.040488083
78	0x3d1a894d	0.037728596
79	0xbd2a45bb	-0.041570406
80	0xbd291271	-0.041277353
81	0x3d1c44a3	0.038151395
82	0xbd28b06a	-0.041183867
83	0x3d16eecc	0.03684883
84	0xbd2b4e01	-0.041822437
85	0x3d0f82cc	0.035036847
86	0xbd219145	-0.03944518
87	0xbd292b17	-0.04130086
88	0x3d236eb3	0.039900493
89	0x3d167f2a	0.036742367
90	0x3d2b45ea	0.041814722
91	0xbd28ffa7	-0.041259434
92	0xbd2ac04f	-0.041687306
93	0xbd2ad254	-0.04170449
94	0xbd1e49f2	-0.03864474
95	0x3d23a8a1	0.03995574
96	0x3d2b8e8f	0.041884
97	0x3d2c31ea	0.04203979
98	0xbd2915d2	-0.041280575
99	0x3d191a64	0.037378684
100	0xbd2ac480	-0.041691303
101	0x3d299c22	0.041408665
102	0x3d27a161	0.040925387
103	0x3d033dd7	0.032041397
104	0x3d2be208	0.041963607
105	0xbd2a7935	-0.0416195
106	0x3d1c186a	0.03810922
107	0x3d2565af	0.040380176
108	0x3d22d136	0.0397503
109	0x3d254da5	0.04035725
110	0xbd257009	-0.04039005
111	0xbd183e56	-0.037168823
112	0xbd2a67d2	-0.041602917
113	0x3d138aa8	0.036020905
114	0x3d2c4ea2	0.042067178
115	0x3d2935f6	0.041311227
116	0xbd29877f	-0.041388985
117	0xbd298ee9	-0.041396055
118	0xbd2b0404	-0.041751876
119	0x3d239f22	0.039946683
120	0xbd2e05a7	-0.04248586
121	0xbd23a5ae	-0.039952926
122	0x3d18aff8	0.037277192
123	0x3d21e1c1	0.039521936
124	0x3d11d0e6	0.03559961
125	0x3d266772	0.040625997
126	0x3d2bd14a	0.04194764
127	0xbd27aa5a	-0.040933944

network_body._body_endoder.seq_layers.2.weight f4 [128, 128]
0	0x3d2cf2c4	0.042223707
1	0xbca61d44	-0.020277627
2	0x3d8b763c	0.06809661
3	0xbd5e46ee	-0.054266863
4	0x3d0e4d1a	0.0347415
5	0x3e16339d	0.14668126
6	0xbe0f6ca2	-0.14006284
7	0xbdc098e3	-0.09404161
8	0xbdb19639	-0.08671231
9	0x3cf15f82	0.029464487
10	0xbe2d9434	-0.16951066
11	0x3cfeddaf	0.031111566
12	0xbde1d9a6	-0.11027841
13	0xbd5839ae	-0.052789383
14	0xbdffe501	-0.12494851
15	0x3e429add	0.19004388
16	0xbcf28837	-0.029605968
17	0xbcdc370f	-0.026881723
18	0x3e577e87	0.2104436
19	0xbdea4338	-0.11438602
20	0x3cdfb6ad	0.027308786
21	0x3e061491	0.13093783
22	0x3e1a29a3	0.15054946
23	0xbe0c7390	-0.13715959
24	0xbe4da6fd	-0.20083232
25	0xbe413bd4	-0.18870479
26	0x3ddba555	0.10724894
27	0x3c91a71a	0.017779876
28	0xbc49e86f	-0.012323483
29	0xbc8ba194	-0.01704482
30	0xbda30707	-0.07960325
31	0x3e4293b7	0.19001661
32	0x3e1635ee	0.1466901
33	0x3d8583d7	0.06519287
34	0x3dc0a67e	0.09406756
35	0x3de0fe05	0.109859504
36	0xbde204da	-0.110360816
37	0x3d8b73ff	0.06809234
38	0x3cb3183d	0.021862144
39	0xbd873ab9	-0.06602997
40	0x3e3991de	0.1812205
41	0xbd9c9b6e	-0.07646833
42	0x3bf5e5de	0.007504209
43	0xbdc5835c	-0.096441954
44	0x3e3d3715	0.18478043
45	0x3e00404e	0.1252453
46	0x3d34703f	0.04405236
47	0x3dff9f90	0.12481606
48	0xbcd9dce4	-0.026594587
49	0xbd0bcb93	-0.03412969
50	0xbd4e57a2	-0.050376542
51	0x3d381c87	0.04494908
52	0x3dc45bae	0.09587799
53	0x3dad4370	0.08460128
54	0x3ca38f84	0.019965895
55	0x3da7d30a	0.081945494
56	0x3df68bee	0.12038408
57	0x3d758c92	0.05994851
58	0xbe188da1	-0.14897777
59	0xbdc8b2e6	-0.09799747
60	0x3d9f2a90	0.0777179
61	0xbd41ea6a	-0.047342695
62	0xbd3caa8e	-0.04606109
63	0x3e0409f3	0.1289442
64	0x3e22a05b	0.15881483
65	0x3e1f45b1	0.15553929
66	0xbce568a7	-0.028004004
67	0x3e099f05	0.13439567
68	0x3d8e5bec	0.069511265
69	0xbbec5c8d	-0.0072131814
70	0xbd7eeae9	-0.062235747
71	0xbd4c9efb	-0.049956303
72	0xbca7a0d5	-0.020462433
73	0xbddcbfb7	-0.10778754
74	0x3dfec164	0.1243923
75	0xbe122330	-0.14271235
76	0xbc8366ec	-0.016040288
77	0xbe1f38d6	-0.15549025
78	0xbe50163a	-0.20320979
79	0xba9d7761	-0.0012013727
80	0xbdf003b0	-0.11719453
81	0xb994f9c2	-0.00028414844
82	0x3db10e31	0.08645285
83	0x3cfc8271	0.030823918
84	0x3ddb6ba8	0.10713893
85	0xbc17399b	-0.009230043
86	0xbdf1d5c1	-0.118083484
87	0x3e19d75d	0.15023561
88	0xbe125966	-0.14291915
89	0x3cfc0303	0.030763155
90	0x3c8dac6c	0.017294131
91	0xbce10347	-0.027467383
92	0x3e069c55	0.13145573
93	0x3cb8f798	0.022579
94	0x3e6f8fcf	0.23394702
95	0xbc017775	-0.007902016
96	0x3cf53b60	0.029935539
97	0x3cb0c2a6	0.02157719
98	0x3d500cff	0.050793644
99	0xbdf07dff	-0.11742782
100	0x3e102185	0.14075287
101	0x3c87de5b	0.01658552
102	0x3db91e4d	0.090389825
103	0xbde457af	-0.11149537
104	0xbdb01260	-0.08597255
105	0x3e11ad65	0.14226301
106	0x3d905441	0.0704732
107	0x3ccb58d9	0.02482264
108	0x38cdeff6	9.819858e-05
109	0x3cc8ae1f	0.02449709
110	0x3d89577c	0.067061394
111	0x3da691e8	0.08133298
112	0x3c3645d4	0.011125047
113	0xbe08bcc3	-0.13353257
114	0xbd8609ba	-0.06544824
115	0xbe02d124	-0.12775093
116	0xbc373494	-0.011181969
117	0x3dd3c837	0.10340922
118	0xbadf078e	-0.0017015801
119	0x3cd6f8a0	0.0262416
120	0xbb38da94	-0.0028206455
121	0x3db823fe	0.0899124
122	0xba55f287	-0.00081614446
123	0xbd79040b	-0.06079487
124	0xbc494e66	-0.012286758
125	0xbe7de4b0	-0.24794269
126	0xbdf869bf	-0.121295445
127	0x3cbd58f9	0.023113715
128	0xbdb66725	-0.08906392
129	0xbb88471a	-0.0041588666
130	0x3dbb432f	0.09143674
131	0x3e182c82	0.14860728
132	0xbd5506b5	-0.05200835
133	0x3d8103a6	0.06299524
134	0x3daeb3f5	0.08530418
135	0x3e419409	0.18904127
136	0x3b92352f	0.0044619064
137	0xbe4732c2	-0.19452956
138	0x3da7fbab	0.08202299
139	0xbd1722b3	-0.036898326
140	0x3dcb1feb	0.09918197
141	0x3d905c58	0.07048863
142	0xbdfe9977	-0.12431615
143	0x3e00356f	0.12520383
144	0xbe159780	-0.14608574
145	0x3e323e9b	0.17406695
146	0xbd8019b8	-0.062549055
147	0x3c941f20	0.018081248
148	0xbca484c4	-0.020082839
149	0xbc0e5d97	-0.008689306
150	0xbe023053	-0.12713747
151	0xbe97d56d	-0.29655018
152	0x3cc829cc	0.024433993
153	0x3de4134a	0.111364916
154	0xbd5e6bb2	-0.054301925
155	0xbce5743e	-0.02800953
156	0xbce00cf3	-0.027349925
157	0x3da848e2	0.08217026
158	0x3d7b3ee7	0.061339285
159	0x3dcf90e4	0.101350576
160	0xbd1e2489	-0.03860906
161	0xbbdbfe08	-0.0067136325
162	0xbdf54563	-0.11976125
163	0xbc1cf503	-0.0095799
164	0xbca1dcf7	-0.019758685
165	0x3d003d9c	0.031308755
166	0xbc5584d7	-0.01303216
167	0x3daaf625	0.083477296
168	0xbce1d3c8	-0.027566805
169	0x3e364946	0.17801389
170	0xbe2234af	-0.1584041
171	0x3d761cf0	0.06008619
172	0xbe48ce19	-0.1960987
173	0x3b91aaac	0.0044453945
174	0xbd1c5dca	-0.03817538
175	0xbe124e7c	-0.14287752
176	0x3ccb4ee6	0.024817895
177	0x3d6bcabf	0.0575664
178	0xbdb42377	-0.08795827
179	0xbe674af7	-0.2258719
180	0xbdb2f3a4	-0.08737877
181	0xbdafc654	-0.0858275
182	0xbcfd0549	-0.03088631
183	0xbd22e9da	-0.0397738
184	0x3e021eda	0.12707081
185	0x3de63acf	0.112416856
186	0x3c5b958f	0.013402357
187	0x3e0890b9	0.13336457
188	0xbd4776ce	-0.048697285
189	0xbdeeb4a3	-0.116555475
190	0x3d646712	0.055762358
191	0x3e0ecc03	0.13945012
192	0xbcf1c3ec	-0.029512368
193	0x3dc94cfe	0.09829138
194	0xbe5a6671	-0.21328141
195	0x3d9f26ad	0.07771049
196	0xbe1b14b8	-0.15144622
197	0x3d921dd6	0.07134597
198	0x3d8ac039	0.06774945
199	0x3e55dbb4	0.20884591
200	0xbdcee2ec	-0.10101876
201	0x3d823ddb	0.06359454
202	0xbd0ed964	-0.03487529
203	0x3d3a0c82	0.045422085
204	0x3e0c7d71	0.13719727
205	0x3dea2943	0.11433651
206	0xbe0995ef	-0.13436101
207	0xbe39600d	-0.18103047
208	0x3c9a4ebd	0.018836373
209	0xbd8f7fac	-0.07006773
210	0x3e4d7a39	0.20066155
211	0x3d1b2db5	0.037885386
212	0x3d8dd1ce	0.06924783
213	0x3c7e1b59	0.01550945
214	0xbd9ad482	-0.07560064
215	0xbd6860d4	-0.056732967
216	0x3bd36293	0.00645096
217	0x3d9e616e	0.07733427
218	0x3c860b22	0.01636273
219	0xbceb4b0d	-0.02872231
220	0xbe474070	-0.19458175
221	0xbdd5e7b0	-0.104445815
222	0x3d8093fc	0.06278226
223	0x3dbfc80b	0.09364327
224	0x3c480eed	0.01221059
225	0x3cc3ddd0	0.02390948
226	0xbc8ed695	-0.017436305
227	0x3d2b8deb	0.04188339
228	0xbdbc1bef	-0.091850154
229	0xbdb6f423	-0.08933284
230	0x3d8c3b5f	0.06847262
231	0x3df0850b	0.11744126
232	0x3c1788f1	0.009248958
233	0xbde69728	-0.112592995
234	0x3dac79eb	0.084216915
235	0x3d139701	0.03603268
236	0x3da3b356	0.0799319
237	0x3db70f5c	0.089384764
238	0xbe47afd0	-0.19500661
239	0xbb93d2dd	-0.004511221
240	0xbdedc4f2	-0.1160983
241	0xbcef10c1	-0.029182794
242	0xbdc1f455	-0.09470431
243	0x3d0f99b0	0.035058677
244	0xbd06e538	-0.032933444
245	0xbe12ec62	-0.14347985
246	0xbd15e786	-0.03659775
247	0xbd9146b9	-0.070935674
248	0xbe1c2245	-0.15247448
249	0xbe4b03cb	-0.19825666
250	0x3d7329ec	0.05936615
251	0x3d1f0864	0.03882636
252	0x3d8cf105	0.06881908
253	0x3d3c2c64	0.04594077
254	0x3d9ac942	0.07557918
255	0xbe8985b3	-0.26859817

network_body._body_endoder.seq_layers.2.bias f4 [128]
0	0xbd1484cc	-0.036259457
1	0x3d1d0dcf	0.038343247
2	0x3d135625	0.035970826
3	0xbd1afedd	-0.037840713
4	0x3d1c89ed	0.038217474
5	0xbd20f4fe	-0.039296143
6	0xbd03861e	-0.032110326
7	0x3cc28267	0.023743821
8	0x3cffeb90	0.031240255
9	0xbd217e92	-0.039427347
10	0x3d116d59	0.035504673
11	0x3cfb3e82	0.030669454
12	0x3d2278fa	0.039666153
13	0x3d1dbcf4	0.038510278
14	0x3d250d4b	0.04029588
15	0xbd1a61ad	-0.037690807
16	0xbd201661	-0.039083842
17	0x3d18fbbb	0.037349444
18	0xbd0ea970	-0.034829557
19	0xbd0604e8	-0.032719523
20	0xbd254e5d	-0.040357936
21	0x3d1dec71	0.038555566
22	0x3d044c0a	0.03229908
23	0x3d1e2bf9	0.038616154
24	0xbd1a219b	-0.037629705
25	0x3d2228fd	0.03958987
26	0xbd2169fc	-0.039407715
27	0xbcc9b7b3	-0.024623727
28	0xbd286fc7	-0.041122224
29	0xbd21f6d2	-0.039542027
30	0x3d2491ad	0.04017799
31	0xbd178b2e	-0.036997966
32	0x3d26f216	0.040758215
33	0xbd25f8c1	-0.040520433
34	0xbcffbfd6	-0.031219404
35	0x3d1323ba	0.035922743
36	0xbd1ddcc2	-0.03854061
37	0x3d2637d9	0.040580604
38	0x3d264475	0.04059263
39	0x3d1fcdbb	0.03901456
40	0x3cca874c	0.024722718
41	0xbd2958d1	-0.041344468
42	0xbd1a1b62	-0.03762377
43	0x3ced503b	0.02896892
44	0x3d275469	0.040851984
45	0xbced0dc6	-0.028937232
46	0x3d213f43	0.03936697
47	0x3d234f4e	0.039870553
48	0xbd19857d	-0.03748082
49	0x3d055de1	0.032560233
50	0x3d097ea3	0.033568036
51	0xbd254802	-0.040351875
52	0xbd1f3db7	-0.038877215
53	0xbd171fa0	-0.036895394
54	0x3cf8335b	0.030297926
55	0xbd0b8d7a	-0.03407047
56	0x3d209adf	0.039210197
57	0x3d0d4928	0.034493595
58	0xbd1e36d2	-0.0386265
59	0xbd0f8ff6	-0.0350494
60	0xbd1e2ba9	-0.038615856
61	0x3cca2a0e	0.024678256
62	0xbd23c9cf	-0.03998738
63	0xbd1edea1	-0.038786534
64	0xbd165965	-0.036706347
65	0xbd06237a	-0.032748677
66	0x3cf619fc	0.030041687
67	0xbd239899	-0.03994045
68	0xbd1cfd7d	-0.038327683
69	0x3d1c2be6	0.038127802
70	0xbd21b708	-0.039481193
71	0x3d1e0c56	0.038585983
72	0xbd2403c0	-0.04004264
73	0x3cfb8664	0.03070373
74	0x3d1e116e	0.03859084
75	0xbd1dd0c3	-0.03852917
76	0xbd13febf	-0.036131617
77	0xbd20d902	-0.039269455
78	0x3d1ac2e9	0.037783537
79	0x3d22e3da	0.039768077
80	0xbcc4994c	-0.023998879
81	0xbd1faa85	-0.03898098
82	0xbd1f23e8	-0.038852602
83	0x3d0b74b9	0.034046862
84	0xbd2651ab	-0.04060523
85	0xbd13e01b	-0.036102396
86	0xbd21bcd1	-0.03948671
87	0x3d185978	0.0371947
88	0x3d1f65b0	0.038915336
89	0x3d1e59b1	0.038659755
90	0xbd17d45f	-0.037067767
91	0x3d003edb	0.031309944
92	0xbd16e4e7	-0.036839392
93	0xbd1cd173	-0.038285684
94	0x3d1d48b0	0.0383994
95	0xbd1d453b	-0.0383961
96	0x3d268ffe	0.040664665
97	0xbd27988f	-0.040916976
98	0xbd146a43	-0.03623415
99	0x3d161297	0.036638822
100	0x3d1eba19	0.038751695
101	0x3ce41c73	0.027845597
102	0x3cfd7a90	0.030942231
103	0x3cdf46e2	0.02725548
104	0x3d1b1f57	0.037871685
105	0xbd26c723	-0.040717255
106	0x3d17f09b	0.037094694
107	0x3d0a7708	0.033804923
108	0xbd1e8332	-0.038699336
109	0x3d25acb2	0.0404479
110	0xbd214d04	-0.03938009
111	0xbd23c391	-0.03998143
112	0xbd26bc31	-0.040706817
113	0x3d135b82	0.03597594
114	0x3d01914a	0.0316327
115	0xbd25b003	-0.04045106
116	0x3d23ebb6	0.040019713
117	0x3d1c8ae1	0.038218383
118	0x3d21c3ea	0.03949348
119	0xbd20fdcc	-0.03930454
120	0x3d202844	0.0391009
121	0x3d1e2cf9	0.038617108
122	0xbd2125dc	-0.039342746
123	0xbd282990	-0.041055262
124	0xbd1489ea	-0.036264338
125	0xbd1e3de4	-0.038633242
126	0xbd18dda9	-0.037320767
127	0xbd18eb88	-0.037333995

action_model._discrete_distribution.branches.0.weight f4 [3, 128]
0	0x3d125d6c	0.035733625
1	0xbd130a25	-0.035898346
2	0xbcc8adf8	-0.024497017
3	0x3d3574fd	0.04430102
4	0xbd373a01	-0.04473305
5	0x3d003c54	0.031307533
6	0x3d53e76d	0.051734377
7	0xbd3c5bcf	-0.045985993
8	0xbcc0a60f	-0.023516683
9	0x3d2cd559	0.04219565
10	0xbd11b097	-0.0355688
11	0xbd4222e1	-0.047396544
12	0xbd1c6339	-0.038180564
13	0xbd058c81	-0.032604698
14	0xbd3fc054	-0.046814278
15	0x3d3257d9	0.04354081
16	0x3d4c3a92	0.049860545
17	0xbd62069b	-0.05518208
18	0x3d39c1e9	0.045350943
19	0x3d213f0a	0.03936676
20	0x3d4a352e	0.049367122
21	0xbd57daac	-0.052698776
22	0xbd1a6301	-0.037692074
23	0xbcd6a6c9	-0.026202576
24	0x3d6db1a8	0.058030754
25	0xbd402c47	-0.046917226
26	0x3d20d0b6	0.039261542
27	0x3ce2caf2	0.027684662
28	0x3d30f77a	0.043204762
29	0x3cd0f474	0.02550719
30	0xbcee404e	-0.029083397
31	0x3d14a4a3	0.036289822
32	0xbd2a40cd	-0.041565705
33	0x3d28a40d	0.041172076
34	0x3d511903	0.051049244
35	0xbd3d9e52	-0.046293564
36	0x3d1fb010	0.038986266
37	0xbd0f3ee5	-0.03497209
38	0xbd481497	-0.04884776
39	0xbd417f60	-0.047240615
40	0xbd2076f5	-0.039175946
41	0x3d05dbc7	0.0326803
42	0x3d3c60a0	0.045990586
43	0xbd50cea8	-0.050978333
44	0xbd2851bc	-0.041093573
45	0x3d0729f2	0.032998987
46	0xbce70518	-0.028200671
47	0xbd226026	-0.039642476
48	0x3d0044df	0.03131568
49	0xbd2988c0	-0.04139018
50	0xbd1ec017	-0.03875741
51	0x3d07a768	0.033118635
52	0x3d35ec32	0.044414707
53	0x3cf1f469	0.02953549
54	0xbcf74ec5	-0.030188927
55	0x3d330e41	0.043714765
56	0xbd3e8471	-0.046513025
57	0xbd3290c8	-0.043595105
58	0x3d018877	0.031624284
59	0x3d18e98b	0.0373321
60	0x3d78ffe7	0.060790922
61	0xbd0e5f27	-0.034758713
62	0x3cfda3a5	0.03096182
63	0x3d29765b	0.04137264
64	0x3d010bcd	0.031505395
65	0x3cfe171c	0.031016879
66	0xbd152c1a	-0.03641901
67	0x3cbcc266	0.023041915
68	0x3d3790f1	0.04481596
69	0xbd212a07	-0.03934672
70	0x3d59ba08	0.05315593
71	0xbd1d12ac	-0.038347885
72	0x3d2e2e78	0.042524785
73	0xbcc6149c	-0.02417975
74	0xbcfd0993	-0.030888354
75	0x3d72595a	0.059167244
76	0x3ce92550	0.028460175
77	0x3d1375bd	0.036000956
78	0xbd1d8623	-0.038458
79	0xbcd6f275	-0.02623866
80	0x3d0f6963	0.035012614
81	0x3d529dc0	0.051419973
82	0x3d34cba6	0.044139527
83	0xbcc4113a	-0.023933996
84	0x3d1a7d47	0.03771713
85	0x3d20c994	0.03925474
86	0x3d04b74b	0.032401364
87	0xbd6153e0	-0.05501163
88	0xbd4d31be	-0.050096266
89	0xbd3c2bcc	-0.045940205
90	0x3d22db9e	0.039760225
91	0xbd0ccd77	-0.034375634
92	0x3d0dd119	0.03462324
93	0x3d19fd0b	0.037594836
94	0xbd4f5806	-0.050621055
95	0x3d2016a6	0.0390841
96	0xbd3a167e	-0.045431606
97	0x3d031149	0.031998906
98	0x3ce18947	0.02753128
99	0xbd347be6	-0.04406347
100	0xbd79ab2d	-0.06095426
101	0xbd2884f1	-0.041142408
102	0xbd190e14	-0.03736694
103	0xbce8d6f1	-0.028422805
104	0xbd1402d2	-0.036135502
105	0x3d17ae8c	0.037031695
106	0xbc8e256c	-0.017351829
107	0xbd053127	-0.03251758
108	0x3d65266c	0.055944845
109	0xbd1ac076	-0.0377812
110	0x3d275ee4	0.04086198
111	0x3d4554b0	0.048176467
112	0x3d31f9a8	0.04345098
113	0xbd6a1d47	-0.057156827
114	0xbcb6af14	-0.02230028
115	0x3d093ef8	0.033507317
116	0xbd368064	-0.044556037
117	0xbcfb38ff	-0.030666826
118	0xbd597df1	-0.053098623
119	0x3d15b6bf	0.036551233
120	0xbd1d4a8f	-0.038401183
121	0xbd3aa26c	-0.045565054
122	0x3d3228d2	0.04349596
123	0x3d191ca7	0.03738084
124	0x3d22e50e	0.039769225
125	0x3d066d10	0.032818854
126	0x3d26f3f0	0.04075998
127	0x3d2f8788	0.042853862
128	0xbd19cf59	-0.037551258
129	0x3d281aed	0.041041303
130	0x3d55cc53	0.052196812
131	0xbd552bbd	-0.052043665
132	0x3d1ef5b2	0.038808532
133	0xbd573292	-0.052538462
134	0xbd35e4d0	-0.044407666
135	0x3ced3fb1	0.028961034
136	0x3d44f3ff	0.048084255
137	0xbd12d0c9	-0.035843644
138	0x3d48a58f	0.048986014
139	0x3d192e5a	0.03739772
140	0x3d28a375	0.04117151
141	0x3d6ac833	0.05731983
142	0x3d37bca3	0.044857632
143	0xbd2da6f5	-0.04239555
144	0xbd04f09b	-0.03245602
145	0x3d666ff5	0.056259114
146	0xbd6b9314	-0.05751331
147	0xbd562cb9	-0.052288745
148	0xbd36c59f	-0.04462206
149	0x3d64e7ad	0.055885006
150	0x3d29381b	0.041313272
151	0x3d48fca9	0.04906908
152	0xbd690ad2	-0.056895085
153	0x3d499428	0.04921356
154	0xbd64fa3b	-0.0559027
155	0xbd278a4a	-0.040903367
156	0xbd3de1a4	-0.046357766
157	0xbd753e4c	-0.059873864
158	0x3d69a835	0.05704518
159	0xbd26d1b1	-0.04072732
160	0x3d306025	0.04306044
161	0xbd366ed7	-0.0445393
162	0xbd4d664c	-0.050146386
163	0x3d2ba228	0.04190269
164	0xbd4710bb	-0.04859994
165	0x3d512d96	0.051068865
166	0x3d2e9e46	0.04263141
167	0x3d2c5271	0.04207081
168	0x3d12d3da	0.03584657
169	0xbd60bc00	-0.05486679
170	0xbd97293e	-0.07380913
171	0x3ce35c0b	0.02775385
172	0x3d34be36	0.04412671
173	0xbd2e5029	-0.042556915
174	0x3d454204	0.04815866
175	0x3d4a551e	0.04939758
176	0xbd53f18c	-0.05174403
177	0x3d3eb637	0.046560492
178	0x3d5ef7b8	0.05443546
179	0xbd6de087	-0.058075454
180	0xbd4b4a88	-0.049631625
181	0xbd5df5b2	-0.05418939
182	0x3d34c4b4	0.044132903
183	0xbd4a6c63	-0.049419772
184	0x3d89640d	0.06708536
185	0x3d4128f6	0.047158204
186	0xbd7dc969	-0.061959658
187	0xbd6dea0f	-0.058084544
188	0xbd40663e	-0.046972506
189	0x3d1dddbf	0.03854155
190	0xbd8485bf	-0.064708225
191	0xbd636e3c	-0.05552505
192	0xbd6e5b89	-0.058192763
193	0xbd47cfe2	-0.048782237
194	0x3d1b3ba5	0.03789868
195	0xbd76615b	-0.06015144
196	0xbd730e9b	-0.0593401
197	0x3d5f2c9b	0.0544859
198	0xbd681c32	-0.056667514
199	0x3d85e67c	0.06538102
200	0xbd3b6e1e	-0.045759313
201	0x3d35d72a	0.04439465
202	0x3d4fd7c6	0.050742887
203	0xbd1c6a72	-0.03818745
204	0xbd4eb5c9	-0.050466333
205	0xbd3ca171	-0.0460524
206	0x3d27ad53	0.04093678
207	0x3d589ba3	0.0528828
208	0xbd15de18	-0.03658876
209	0xbd4b25d2	-0.049596615
210	0xbd5235ca	-0.05132083
211	0x3d4f6dfd	0.050642002
212	0xbd5a1aad	-0.053248096
213	0xbd2ee2ae	-0.042696647
214	0xbd3d6cf9	-0.046246503
215	0x3d7bf5b2	0.06151361
216	0x3d4dd196	0.050248705
217	0x3d20a17a	0.039216496
218	0xbd591068	-0.05299416
219	0x3d57d00b	0.05268864
220	0xbd4c9a7c	-0.049952015
221	0xbd26a239	-0.04068205
222	0x3d606c14	0.05479057
223	0xbd5d9db5	-0.05410548
224	0x3d462f24	0.0483848
225	0xbd5c3968	-0.053765684
226	0xbd54d69d	-0.051962484
227	0x3d736153	0.059418987
228	0x3d08b42c	0.03337495
229	0x3d3a6aed	0.04551213
230	0x3d4fe959	0.050759647
231	0x3d43feba	0.047850348
232	0x3d3c55c5	0.045980234
233	0xbd606e65	-0.05479278
234	0x3d5f5931	0.05452842
235	0x3d2ddd06	0.042447113
236	0xbd1f7c01	-0.03893662
237	0x3d61f95f	0.05516946
238	0xbd3b06d9	-0.045660827
239	0xbd2c24a2	-0.042027123
240	0xbd31ce15	-0.043409426
241	0x3d27b41c	0.04094325
242	0x3d35ed6f	0.044415887
243	0xbd6934cf	-0.056935128
244	0x3d4caeb0	0.049971282
245	0x3d59342e	0.053028278
246	0x3d38d09d	0.045120824
247	0xbd5cc31d	-0.053897012
248	0x3d35d3c3	0.044391405
249	0x3d6fbc58	0.058529228
250	0xbd4bf48e	-0.049793772
251	0xbd3af6ee	-0.045645647
252	0xbd5cd18f	-0.05391079
253	0xbd41d418	-0.04732141
254	0xbd3736e4	-0.044730082
255	0xbd68eaa3	-0.056864392

action_model._discrete_distribution.branches.0.bias f4 [3]
0	0xbcf17434	-0.029474355
1	0x3d07e732	0.03317947
2	0xbcbbb046	-0.022911202

action_model._discrete_distribution.branches.1.weight f4 [2, 128]
0	0x3c60e562	0.013726564
1	0xbc5f47f7	-0.013627998
2	0xbc483be4	-0.01222131
3	0x3c759872	0.014989959
4	0xbc1bcd5e	-0.009509413
5	0x3cbdf5c3	0.023188477
6	0x3c559984	0.013037089
7	0xbc843603	-0.016139036
8	0xb91b088c	-0.00014785136
9	0x3c18b458	0.009320341
10	0xbc0bcfe8	-0.008533455
11	0xbb9c7de4	-0.0047757495
12	0xbc1f36d9	-0.009717667
13	0xbc87ff0d	-0.01660111
14	0xbc52a7d8	-0.0128574
15	0x39a6a227	0.000317828
16	0x3c0a8069	0.008453467
17	0xbc348390	-0.011017695
18	0x3b8d8f7b	0.0043200827
19	0x3b7b50f8	0.0038347822
20	0x3c279071	0.010227309
21	0xbc77438a	-0.015091786
22	0xbb075669	-0.002065087
23	0xbca61e4c	-0.020278119
24	0x3beb4b26	0.0071805893
25	0x3a8bfe00	0.0010680556
26	0x3c35cfd3	0.011096912
27	0x3aba98ff	0.001423627
28	0x3bc54985	0.006020727
29	0x3ba56caf	0.0050483565
30	0xbc9ba232	-0.01899824
31	0xbb92a5b0	-0.004475318
32	0xbc2177bd	-0.009855208
33	0x3c835675	0.016032437
34	0xbadaf2a9	-0.0016704398
35	0xbbdf0c1b	-0.006806863
36	0xb9d22119	-0.0004007898
37	0xbc89501d	-0.016761834
38	0xbcf6570f	-0.03007081
39	0xbbf38ada	-0.007432324
40	0xbb8c3293	-0.00427849
41	0xba31d2de	-0.0006783436
42	0x3c55fb8e	0.013060464
43	0x3ac4d6c6	0.0015017621
44	0xbc82ab4a	-0.015950818
45	0x3c2b16b8	0.010442428
46	0xbcc5481c	-0.024082236
47	0xbc961530	-0.01832065
48	0x3b81c0df	0.0039597596
49	0x3bc25650	0.0059306994
50	0xba1cd245	-0.00059822603
51	0x3c89ca38	0.016820058
52	0x3c65c552	0.014024096
53	0x3c8f33a3	0.017480677
54	0xbb8452de	-0.004038199
55	0x3b97c0da	0.004631144
56	0xbbcea6fc	-0.006306527
57	0xbae53d69	-0.0017489615
58	0x3bc6650b	0.0060545257
59	0xbb1587b9	-0.0022816493
60	0x3cb0c1a7	0.021576716
61	0xbc30729a	-0.010769511
62	0x3c64bd79	0.013961189
63	0x3c5314cf	0.012883379
64	0x3ba59012	0.005052575
65	0xbb090dee	-0.0020912844
66	0xbc2b7bf0	-0.010466561
67	0x3c5a6687	0.0133301085
68	0x3ba082fd	0.0048984275
69	0xbc0d56b2	-0.008626627
70	0x3bfcc29c	0.007713629
71	0xbc59bad6	-0.013289174
72	0x3c59959c	0.013280299
73	0xbc2eafc8	-0.010662027
74	0xbc9e9ba8	-0.019361332
75	0x3cd07a43	0.025448924
76	0x3c485259	0.012226664
77	0x3ca50448	0.020143643
78	0xbc27aadc	-0.010233607
79	0xbc81815f	-0.01580876
80	0x3bba5947	0.005686912
81	0x3c44b857	0.012006841
82	0x3c0fca4e	0.008776261
83	0xbc3d4310	-0.0115516335
84	0x3c22acfd	0.009928939
85	0x3c0fe111	0.008781687
86	0x3c88e089	0.01670863
87	0x3b30bbda	0.0026967437
88	0xbbaadb83	-0.005214156
89	0xbc067011	-0.00820543
90	0x3b80973b	0.003924278
91	0xbb45ec2c	-0.0030200584
92	0x3c87b2f6	0.016564827
93	0x3c90d762	0.017680828
94	0xbbd6c192	-0.006553837
95	0x3b7a5e9a	0.003820336
96	0xbc14b784	-0.009076957
97	0x3bbe49e0	0.0058071464
98	0xbaf7414d	-0.0018864066
99	0xbb88f8ff	-0.0041800733
100	0x3a9fe127	0.0012197838
101	0xbbbb9389	-0.0057243747
102	0x3be893ac	0.007097682
103	0xbc1f616f	-0.00972782
104	0xbbc392e8	-0.0059684403
105	0x3bc38872	0.0059671933
106	0xbc631bd3	-0.013861614
107	0xbc7ef78f	-0.015561952
108	0x3c4bfe2e	0.012450738
109	0xbcb1523a	-0.021645654
110	0xbaa84658	-0.0012838347
111	0x3ba1d9d2	0.0049392963
112	0x3c1c04ec	0.009522658
113	0xbc90f822	-0.017696444
114	0xbc212f10	-0.009837881
115	0x3c8f2e30	0.017478079
116	0xbc4579c3	-0.012052956
117	0x38d61bd0	0.00010209496
118	0xbcbf3aa9	-0.023343401
119	0x3cea298c	0.028584264
120	0xbc57442c	-0.013138812
121	0xbc0a8143	-0.00845367
122	0x3c466cba	0.012110883
123	0x3c8e266a	0.017352302
124	0xbb86ac73	-0.004109913
125	0x3c0f0ebf	0.008731543
126	0x3c68d48b	0.01421083
127	0xbaea7d92	-0.0017890206
128	0xbb6099e6	-0.0034271418
129	0x3b7a0ccc	0.00381546
130	0xb8ceefdc	-9.867523e-05
131	0x3688b2c0	4.073925e-06
132	0x3c961428	0.018320158
133	0xbc95b958	-0.018276855
134	0x3c444069	0.011978247
135	0x3cd06b1b	0.025441697
136	0x3b9a41e5	0.0047075623
137	0xbca1a8df	-0.019733844
138	0xba9dc112	-0.0012035689
139	0x3bd26c5d	0.0064216093
140	0x3c29f68a	0.010373721
141	0x3c50e8db	0.01275083
142	0x3c3613e3	0.01111314
143	0xbc43a7ba	-0.011941845
144	0xbc31c4d5	-0.010850151
145	0x3b994d84	0.00467843
146	0x3b2cbb1f	0.002635665
147	0x3bc4f2ea	0.006010403
148	0xbca7319f	-0.020409403
149	0x3cba6817	0.022754712
150	0xbac8fe8d	-0.0015334651
151	0x3b833ca6	0.0040050326
152	0xbc632053	-0.013862687
153	0x3cb871ed	0.022515262
154	0xbc4918c5	-0.012273972
155	0x3bd15772	0.006388598
156	0xbcae3f5c	-0.021270446
157	0xbc48d828	-0.012258567
158	0x3b144b6a	0.0022627958
159	0xbc929fe0	-0.0178985
160	0x3ca5a643	0.020220881
161	0xbc04735e	-0.008084146
162	0x3c177c29	0.009245911
163	0x399a5612	0.00029437296
164	0xbc60aa44	-0.0137124695
165	0x3b939c95	0.00450475
166	0xbb5965b3	-0.003317219
167	0x3c9c8f02	0.01911116
168	0x3b8d5cd9	0.004314047
169	0xbd02ac97	-0.031902876
170	0xbc7bd02e	-0.015369458
171	0x3c1126cb	0.008859347
172	0x3c7d0a3f	0.015444337
173	0x3b9f0873	0.004853302
174	0x39f6f879	0.00047105903
175	0x3ad5c7b3	0.0016310125
176	0xbc3848f1	-0.011247859
177	0x3b098d4c	0.002098876
178	0xbae49a30	-0.0017440971
179	0xbca34059	-0.019928144
180	0xbc0e11c7	-0.008671231
181	0xbcabfa7a	-0.02099346
182	0xba2fa16b	-0.00066997734
183	0x3a0bc511	0.00053317944
184	0x3ceaa51a	0.02864318
185	0x3b9a5bb2	0.004710638
186	0xbc4f7179	-0.012661331
187	0xbc3d6a6e	-0.011561019
188	0xbc424c6d	-0.011859042
189	0xbb79cb74	-0.0038115652
190	0xbc46cd3f	-0.012133895
191	0xbb998663	-0.0046852096
192	0xbb8b5b70	-0.0042528436
193	0xbb55e04d	-0.0032634914
194	0xbbe2a35e	-0.0069164475
195	0xbc32d962	-0.010916086
196	0xbc9baa9f	-0.019002257
197	0x3c42f772	0.011899816
198	0xbd028081	-0.031860832
199	0x3c07c318	0.00828626
200	0xbc9c187d	-0.019054646
201	0x3a69d424	0.0008919856
202	0x3cae551c	0.021280818
203	0xbc6137ca	-0.013746211
204	0xbb37c5de	-0.0028041522
205	0xbbe61dd3	-0.0070225983
206	0x3c8772dd	0.016534263
207	0x3c43ae25	0.011943375
208	0x3c155f44	0.009116951
209	0xbc1609e2	-0.00915763
210	0xbc252e56	-0.010081848
211	0xbb25bfa8	-0.0025291238
212	0xbc64f85e	-0.013975231
213	0xb91de0e2	-0.00015056462
214	0xbb40cd9a	-0.0029419423
215	0x3c9c9c24	0.019117422
216	0x3c901d73	0.017592167
217	0x3c7cbef7	0.015426389
218	0xbc2df1be	-0.010616718
219	0x3b0a4a7a	0.002110152
220	0x3ba7d173	0.005121404
221	0xbc5abf4e	-0.013351275
222	0x3c5c8949	0.013460466
223	0xbc30c629	-0.010789433
224	0x3c9b221a	0.01893716
225	0xbca93c17	-0.020658536
226	0xbc838818	-0.016056105
227	0x3bc5129b	0.006014181
228	0x3c980bd7	0.018560333
229	0x3b095f4a	0.0020961338
230	0x3b29f74d	0.0025934756
231	0xbc2f7f96	-0.010711571
232	0x3c20b5c9	0.009808966
233	0xbcc1df59	-0.02366607
234	0x3c322c11	0.010874764
235	0x3c80b286	0.015710127
236	0xbb62181a	-0.003449923
237	0x3bdf6df8	0.006818529
238	0xbc9ab432	-0.018884752
239	0xbcce6eed	-0.025199378
240	0xbc9d5f27	-0.019210411
241	0x3c13a1e4	0.009010766
242	0x3a923b62	0.0011156613
243	0xbcb0e712	-0.021594558
244	0x3c49f814	0.012327213
245	0x3c848a67	0.016179277
246	0x3bb27cfe	0.005447029
247	0x39e999bd	0.00044555767
248	0x3c77ceff	0.015125035
249	0x3c679479	0.01413452
250	0xbbf481bc	-0.0074617546
251	0xbbeba7bf	-0.0071916278
252	0xbc4d3da0	-0.0125269
253	0xbc3c4f61	-0.011493535
254	0x3ad191aa	0.0015988846
255	0xbc5cec81	-0.013484121

action_model._discrete_distribution.branches.1.bias f4 [2]
0	0xbb4062e4	-0.0029355818
1	0x3b4062ec	0.0029355837

onnx::Div_78 f4 [405]
0	0x3c11fd3f	0.008910476
1	0x3c11fd3f	0.008910476
2	0x3c11fd3f	0.008910476
3	0x3c4e74b4	0.012601066
4	0x3c4e74b4	0.012601066
5	0x3c11fd3f	0.008910476
6	0x3c11fd3f	0.008910476
7	0x3c11fd3f	0.008910476
8	0x3c4e74b4	0.012601066
9	0x3c4e74b4	0.012601066
10	0x3c11fd3f	0.008910476
11	0x3c11fd3f	0.008910476
12	0x3c11fd3f	0.008910476
13	0x3c11fd3f	0.008910476
14	0x3c135c0d	0.008994115
15	0x3c11fd3f	0.008910476
16	0x3c11fd3f	0.008910476
17	0x3c11fd3f	0.008910476
18	0x3c11fd3f	0.008910476
19	0x3c166d28	0.009181298
20	0x3c11fd3f	0.008910476
21	0x3c11fd3f	0.008910476
22	0x3c11fd3f	0.008910476
23	0x3c11fd3f	0.008910476
24	0x3c134174	0.008987773
25	0x3c11fd3f	0.008910476
26	0x3c11fd3f	0.008910476
27	0x3c11fd3f	0.008910476
28	0x3c11fd3f	0.008910476
29	0x3c153f18	0.009109281
30	0x3c11fd3f	0.008910476
31	0x3c11fd3f	0.008910476
32	0x3c11fd3f	0.008910476
33	0x3c11fd3f	0.008910476
34	0x3c133af7	0.008986226
35	0x3c11fd3f	0.008910476
36	0x3c11fd3f	0.008910476
37	0x3c11fd3f	0.008910476
38	0x3c11fd3f	0.008910476
39	0x3c15260f	0.009103312
40	0x3c11fd3f	0.008910476
41	0x3c11fd3f	0.008910476
42	0x3c11fd3f	0.008910476
43	0x3c11fd3f	0.008910476
44	0x3c134196	0.008987805
45	0x3c11fd3f	0.008910476
46	0x3c11fd3f	0.008910476
47	0x3c11fd3f	0.008910476
48	0x3c11fd3f	0.008910476
49	0x3c153d02	0.009108784
50	0x3c11fd3f	0.008910476
51	0x3c11fd3f	0.008910476
52	0x3c11fd3f	0.008910476
53	0x3c11fd3f	0.008910476
54	0x3c134c60	0.008990377
55	0x3c11fd3f	0.008910476
56	0x3c11fd3f	0.008910476
57	0x3c11fd3f	0.008910476
58	0x3c11fd3f	0.008910476
59	0x3c155f28	0.009116925
60	0x3c11fd3f	0.008910476
61	0x3c11fd3f	0.008910476
62	0x3c11fd3f	0.008910476
63	0x3c11fd3f	0.008910476
64	0x3c135a3b	0.008993681
65	0x3c11fd3f	0.008910476
66	0x3c11fd3f	0.008910476
67	0x3c11fd3f	0.008910476
68	0x3c11fd3f	0.008910476
69	0x3c1589f4	0.009127129
70	0x3c11fd3f	0.008910476
71	0x3c11fd3f	0.008910476
72	0x3c11fd3f	0.008910476
73	0x3c11fd3f	0.008910476
74	0x3c136b99	0.008997821
75	0x3c11fd3f	0.008910476
76	0x3c11fd3f	0.008910476
77	0x3c11fd3f	0.008910476
78	0x3c11fd3f	0.008910476
79	0x3c15beeb	0.009139757
80	0x3c11fd3f	0.008910476
81	0x3c11fd3f	0.008910476
82	0x3c11fd3f	0.008910476
83	0x3c11fd3f	0.008910476
84	0x3c13811e	0.009002952
85	0x3c11fd3f	0.008910476
86	0x3c11fd3f	0.008910476
87	0x3c11fd3f	0.008910476
88	0x3c11fd3f	0.008910476
89	0x3c184f91	0.009296314
90	0x3c11fd3f	0.008910476
91	0x3c11fd3f	0.008910476
92	0x3c11fd3f	0.008910476
93	0x3c11fd3f	0.008910476
94	0x3c139b99	0.009009265
95	0x3c11fd3f	0.008910476
96	0x3c11fd3f	0.008910476
97	0x3c11fd3f	0.008910476
98	0x3c11fd3f	0.008910476
99	0x3c174098	0.009231709
100	0x3c11fd3f	0.008910476
101	0x3c11fd3f	0.008910476
102	0x3c11fd3f	0.008910476
103	0x3c11fd3f	0.008910476
104	0x3c13c8c3	0.009020033
105	0x3c11fd3f	0.008910476
106	0x3c11fd3f	0.008910476
107	0x3c11fd3f	0.008910476
108	0x3c11fd3f	0.008910476
109	0x3c16edfc	0.009212013
110	0x3c11fd3f	0.008910476
111	0x3c11fd3f	0.008910476
112	0x3c11fd3f	0.008910476
113	0x3c4e74b4	0.012601066
114	0x3c4e74b4	0.012601066
115	0x3c11fd3f	0.008910476
116	0x3c11fd3f	0.008910476
117	0x3c11fd3f	0.008910476
118	0x3c11fd3f	0.008910476
119	0x3c1718ec	0.00922225
120	0x3c11fd3f	0.008910476
121	0x3c11fd3f	0.008910476
122	0x3c11fd3f	0.008910476
123	0x3c4e74b4	0.012601066
124	0x3c4e74b4	0.012601066
125	0x3c11fd3f	0.008910476
126	0x3c11fd3f	0.008910476
127	0x3c11fd3f	0.008910476
128	0x3c11fd3f	0.008910476
129	0x3c17add3	0.0092577515
130	0x3c11fd3f	0.008910476
131	0x3c11fd3f	0.008910476
132	0x3c11fd3f	0.008910476
133	0x3c4e74b4	0.012601066
134	0x3c4e74b4	0.012601066
135	0x3c11fd3f	0.008910476
136	0x3c11fd3f	0.008910476
137	0x3c11fd3f	0.008910476
138	0x3c11fd3f	0.008910476
139	0x3c186ac2	0.009302797
140	0x3c11fd3f	0.008910476
141	0x3c11fd3f	0.008910476
142	0x3c11fd3f	0.008910476
143	0x3c4e74b4	0.012601066
144	0x3c4e74b4	0.012601066
145	0x3c11fd3f	0.008910476
146	0x3c4e74b4	0.012601066
147	0x3c11fd3f	0.008910476
148	0x3c11fd3f	0.008910476
149	0x3c1c09a1	0.00952378
150	0x3c11fd3f	0.008910476
151	0x3c11fd3f	0.008910476
152	0x3c11fd3f	0.008910476
153	0x3c4e74b4	0.012601066
154	0x3c4e74b4	0.012601066
155	0x3c11fd3f	0.008910476
156	0x3c4e74b4	0.012601066
157	0x3c11fd3f	0.008910476
158	0x3c11fd3f	0.008910476
159	0x3c1b9457	0.009495816
160	0x3c11fd3f	0.008910476
161	0x3c11fd3f	0.008910476
162	0x3c11fd3f	0.008910476
163	0x3c4e74b4	0.012601066
164	0x3c4e74b4	0.012601066
165	0x3c11fd3f	0.008910476
166	0x3c4e74b4	0.012601066
167	0x3c11fd3f	0.008910476
168	0x3c11fd3f	0.008910476
169	0x3c1b90ac	0.009494942
170	0x3c11fd3f	0.008910476
171	0x3c11fd3f	0.008910476
172	0x3c11fd3f	0.008910476
173	0x3c4e74b4	0.012601066
174	0x3c4e74b4	0.012601066
175	0x3c11fd3f	0.008910476
176	0x3c4e74b4	0.012601066
177	0x3c11fd3f	0.008910476
178	0x3c11fd3f	0.008910476
179	0x3c1bfc45	0.009520595
180	0x3c11fd3f	0.008910476
181	0x3c11fd3f	0.008910476
182	0x3c11fd3f	0.008910476
183	0x3c4e74b4	0.012601066
184	0x3c4e74b4	0.012601066
185	0x3c11fd3f	0.008910476
186	0x3c4e74b4	0.012601066
187	0x3c11fd3f	0.008910476
188	0x3c11fd3f	0.008910476
189	0x3c1d406f	0.009597882
190	0x3c11fd3f	0.008910476
191	0x3c11fd3f	0.008910476
192	0x3c11fd3f	0.008910476
193	0x3c4e74b4	0.012601066
194	0x3c4e74b4	0.012601066
195	0x3c11fd3f	0.008910476
196	0x3c11fd3f	0.008910476
197	0x3c11fd3f	0.008910476
198	0x3c4e74b4	0.012601066
199	0x3c4e74b4	0.012601066
200	0x3c11fd3f	0.008910476
201	0x3c11fd3f	0.008910476
202	0x3c11fd3f	0.008910476
203	0x3c4e74b4	0.012601066
204	0x3c4e74b4	0.012601066
205	0x3c11fd3f	0.008910476
206	0x3c11fd3f	0.008910476
207	0x3c11fd3f	0.008910476
208	0x3c4e74b4	0.012601066
209	0x3c4e74b4	0.012601066
210	0x3c11fd3f	0.008910476
211	0x3c11fd3f	0.008910476
212	0x3c11fd3f	0.008910476
213	0x3c4e74b4	0.012601066
214	0x3c4e74b4	0.012601066
215	0x3c11fd3f	0.008910476
216	0x3c11fd3f	0.008910476
217	0x3c11fd3f	0.008910476
218	0x3c4e74b4	0.012601066
219	0x3c4e74b4	0.012601066
220	0x3c11fd3f	0.008910476
221	0x3c11fd3f	0.008910476
222	0x3c11fd3f	0.008910476
223	0x3c4e74b4	0.012601066
224	0x3c4e74b4	0.012601066
225	0x3c4e74b4	0.012601066
226	0x3c11fd3f	0.008910476
227	0x3c11fd3f	0.008910476
228	0x3c11fd3f	0.008910476
229	0x3c45d9d6	0.012075862
230	0x3c11fd3f	0.008910476
231	0x3c11fd3f	0.008910476
232	0x3c11fd3f	0.008910476
233	0x3c4e74b4	0.012601066
234	0x3c4e74b4	0.012601066
235	0x3c4e74b4	0.012601066
236	0x3c11fd3f	0.008910476
237	0x3c11fd3f	0.008910476
238	0x3c11fd3f	0.008910476
239	0x3c417c45	0.011809413
240	0x3c11fd3f	0.008910476
241	0x3c11fd3f	0.008910476
242	0x3c11fd3f	0.008910476
243	0x3c4e74b4	0.012601066
244	0x3c4e74b4	0.012601066
245	0x3c11fd3f	0.008910476
246	0x3c11fd3f	0.008910476
247	0x3c11fd3f	0.008910476
248	0x3c4e74b4	0.012601066
249	0x3c4e74b4	0.012601066
250	0x3c11fd3f	0.008910476
251	0x3c11fd3f	0.008910476
252	0x3c11fd3f	0.008910476
253	0x3c4e74b4	0.012601066
254	0x3c4e74b4	0.012601066
255	0x3c11fd3f	0.008910476

onnx::Div_81 f4 [13]
0	0x3c11fd3f	0.008910476
1	0x3c11fd3f	0.008910476
2	0x3c11fd3f	0.008910476
3	0x3c11fd3f	0.008910476
4	0x3c11fd3f	0.008910476
5	0x3c11fd3f	0.008910476
6	0x3c11fd3f	0.008910476
7	0x3c11fd3f	0.008910476
8	0x3c11fd3f	0.008910476
9	0x3c11fd3f	0.008910476
10	0x3c11fd3f	0.008910476
11	0x3c11fd3f	0.008910476
12	0x3c11fd3f	0.008910476
