Assets/Training/results/ProperRewards/PlayerAgentBehavior.onnx (onnx, 295465 bytes, 13 tensors)

discrete_act_size_vector f4 [1, 2]
0	0x40400000	3.0
1	0x40000000	2.0

network_body.observation_encoder.processors.0.normalizer.running_mean f4 [405]
0	0x36c94d74	5.9992835e-06
1	0x00000000	0.0
2	0x00000000	0.0
3	0x3796fa38	1.799791e-05
4	0x3796fa38	1.799791e-05
5	0x36c94d74	5.9992835e-06
6	0x00000000	0.0
7	0x00000000	0.0
8	0x3796fa38	1.799791e-05
9	0x3796fa38	1.799791e-05
10	0x36c94d74	5.9992835e-06
11	0x00000000	0.0
12	0x00000000	0.0
13	0x3796fa38	1.799791e-05
14	0x3796fa38	1.799791e-05
15	0x36c94d74	5.9992835e-06
16	0x00000000	0.0
17	0x00000000	0.0
18	0x3796fa38	1.799791e-05
19	0x3796fa38	1.799791e-05
20	0x36c94d74	5.9992835e-06
21	0x00000000	0.0
22	0x00000000	0.0
23	0x3796fa38	1.799791e-05
24	0x3796fa38	1.799791e-05
25	0x36c94d74	5.9992835e-06
26	0x00000000	0.0
27	0x00000000	0.0
28	0x3796fa38	1.799791e-05
29	0x3796fa38	1.799791e-05
30	0x36c94d74	5.9992835e-06
31	0x00000000	0.0
32	0x00000000	0.0
33	0x378633a7	1.5998097e-05
34	0x37877cf0	1.6151433e-05
35	0x36c94d74	5.9992835e-06
36	0x00000000	0.0
37	0x00000000	0.0
38	0x3796fa38	1.799791e-05
39	0x3796fa38	1.799791e-05
40	0x36c94d74	5.9992835e-06
41	0x00000000	0.0
42	0x00000000	0.0
43	0x378633a7	1.5998097e-05
44	0x37872ba0	1.6113569e-05
45	0x36c94d74	5.9992835e-06
46	0x00000000	0.0
47	0x00000000	0.0
48	0x3796fa38	1.799791e-05
49	0x3796fa38	1.799791e-05
50	0x36c94d74	5.9992835e-06
51	0x00000000	0.0
52	0x00000000	0.0
53	0x378633a7	1.5998097e-05
54	0x3786fb17	1.6090968e-05
55	0x36c94d74	5.9992835e-06
56	0x00000000	0.0
57	0x00000000	0.0
58	0x3796fa38	1.799791e-05
59	0x3796fa38	1.799791e-05
60	0x36c94d74	5.9992835e-06
61	0x00000000	0.0
62	0x00000000	0.0
63	0x378633a7	1.5998097e-05
64	0x3786daf4	1.6076003e-05
65	0x36c94d74	5.9992835e-06
66	0x00000000	0.0
67	0x00000000	0.0
68	0x3796fa38	1.799791e-05
69	0x3796fa38	1.799791e-05
70	0x36c94d74	5.9992835e-06
71	0x00000000	0.0
72	0x00000000	0.0
73	0x378633a7	1.5998097e-05
74	0x3786c421	1.6065374e-05
75	0x36c94d74	5.9992835e-06
76	0x00000000	0.0
77	0x00000000	0.0
78	0x3796fa38	1.799791e-05
79	0x3796fa38	1.799791e-05
80	0x36c94d74	5.9992835e-06
81	0x00000000	0.0
82	0x00000000	0.0
83	0x378633a7	1.5998097e-05
84	0x3786b338	1.60575e-05
85	0x36c94d74	5.9992835e-06
86	0x00000000	0.0
87	0x00000000	0.0
88	0x3796fa38	1.799791e-05
89	0x3796fa38	1.799791e-05
90	0x36c94d74	5.9992835e-06
91	0x00000000	0.0
92	0x00000000	0.0
93	0x378633a7	1.5998097e-05
94	0x3786a647	1.6051474e-05
95	0x36c94d74	5.9992835e-06
96	0x00000000	0.0
97	0x00000000	0.0
98	0x3796fa38	1.799791e-05
99	0x3796fa38	1.799791e-05
100	0x36c94d74	5.9992835e-06
101	0x00000000	0.0
102	0x00000000	0.0
103	0x378633a7	1.5998097e-05
104	0x37869bf2	1.6046662e-05
105	0x36c94d74	5.9992835e-06
106	0x00000000	0.0
107	0x00000000	0.0
108	0x3796fa38	1.799791e-05
109	0x3796fa38	1.799791e-05
110	0x36c94d74	5.9992835e-06
111	0x00000000	0.0
112	0x00000000	0.0
113	0x378633a7	1.5998097e-05
114	0x378693d4	1.6042883e-05
115	0x36c94d74	5.9992835e-06
116	0x00000000	0.0
117	0x00000000	0.0
118	0x3796fa38	1.799791e-05
119	0x3796fa38	1.799791e-05
120	0x36c94d74	5.9992835e-06
121	0x00000000	0.0
122	0x00000000	0.0
123	0x378633a7	1.5998097e-05
124	0x37868cf2	1.6039678e-05
125	0x36c94d74	5.9992835e-06
126	0x00000000	0.0
127	0x00000000	0.0
128	0x3796fa38	1.799791e-05
129	0x3796fa38	1.799791e-05
130	0x36c94d74	5.9992835e-06
131	0x00000000	0.0
132	0x00000000	0.0
133	0x378633a7	1.5998097e-05
134	0x3786876b	1.6037104e-05
135	0x36c94d74	5.9992835e-06
136	0x36c94d4b	5.999265e-06
137	0x00000000	0.0
138	0x37494d5d	1.1998546e-05
139	0x3771ec2f	1.441971e-05
140	0x36c94d74	5.9992835e-06
141	0x00000000	0.0
142	0x00000000	0.0
143	0x378633a7	1.5998097e-05
144	0x378682d2	1.6034963e-05
145	0x36c94d74	5.9992835e-06
146	0x36c94d4b	5.999265e-06
147	0x00000000	0.0
148	0x37494d5d	1.1998546e-05
149	0x376f4930	1.426255e-05
150	0x36c94d74	5.9992835e-06
151	0x00000000	0.0
152	0x00000000	0.0
153	0x378633a7	1.5998097e-05
154	0x37867ed3	1.6033102e-05
155	0x36c94d74	5.9992835e-06
156	0x368633ae	3.9995275e-06
157	0x00000000	0.0
158	0x37494d5d	1.1998546e-05
159	0x37667d9b	1.3738313e-05
160	0x36c94d74	5.9992835e-06
161	0x00000000	0.0
162	0x00000000	0.0
163	0x378633a7	1.5998097e-05
164	0x37867b84	1.6031561e-05
165	0x36c94d74	5.9992835e-06
166	0x368633ae	3.9995275e-06
167	0x00000000	0.0
168	0x37494d5d	1.1998546e-05
169	0x37664aee	1.3726514e-05
170	0x36c94d74	5.9992835e-06
171	0x00000000	0.0
172	0x00000000	0.0
173	0x378633a7	1.5998097e-05
174	0x378678a3	1.603022e-05
175	0x36c94d74	5.9992835e-06
176	0x360633ac	1.9997633e-06
177	0x00000000	0.0
178	0x37494d5d	1.1998546e-05
179	0x376100c4	1.3411223e-05
180	0x36c94d74	5.9992835e-06
181	0x00000000	0.0
182	0x00000000	0.0
183	0x378633a7	1.5998097e-05
184	0x37867657	1.6029151e-05
185	0x36c94d74	5.9992835e-06
186	0x360633ac	1.9997633e-06
187	0x00000000	0.0
188	0x37494d5d	1.1998546e-05
189	0x376137b8	1.3424018e-05
190	0x36c94d74	5.9992835e-06
191	0x00000000	0.0
192	0x00000000	0.0
193	0x378633a7	1.5998097e-05
194	0x37867471	1.6028267e-05
195	0x36c94d74	5.9992835e-06
196	0x00000000	0.0
197	0x00000000	0.0
198	0x3727c083	9.998798e-06
199	0x374029ff	1.145387e-05
200	0x36c94d74	5.9992835e-06
201	0x00000000	0.0
202	0x00000000	0.0
203	0x378633a7	1.5998097e-05
204	0x378672c7	1.6027492e-05
205	0x36c94d74	5.9992835e-06
206	0x00000000	0.0
207	0x00000000	0.0
208	0x3727c083	9.998798e-06
209	0x373f7539	1.141178e-05
210	0x36c94d74	5.9992835e-06
211	0x00000000	0.0
212	0x00000000	0.0
213	0x378633a7	1.5998097e-05
214	0x37867169	1.6026856e-05
215	0x36c94d74	5.9992835e-06
216	0x00000000	0.0
217	0x00000000	0.0
218	0x370633a7	7.999049e-06
219	0x372829f0	1.0023345e-05
220	0x36c94d74	5.9992835e-06
221	0x00000000	0.0
222	0x00000000	0.0
223	0x378633a7	1.5998097e-05
224	0x3786703c	1.6026308e-05
225	0x36c94d74	5.9992835e-06
226	0x00000000	0.0
227	0x00000000	0.0
228	0x370633a7	7.999049e-06
229	0x3727b25e	9.995505e-06
230	0x36c94d74	5.9992835e-06
231	0x00000000	0.0
232	0x00000000	0.0
233	0x378633a7	1.5998097e-05
234	0x37866f75	1.6025946e-05
235	0x36c94d74	5.9992835e-06
236	0x00000000	0.0
237	0x00000000	0.0
238	0x368633ac	3.9995266e-06
239	0x36fc0a64	7.511395e-06
240	0x36c94d74	5.9992835e-06
241	0x00000000	0.0
242	0x00000000	0.0
243	0x378633a7	1.5998097e-05
244	0x37866ee3	1.602568e-05
245	0x36c94d74	5.9992835e-06
246	0x00000000	0.0
247	0x00000000	0.0
248	0x368633ac	3.9995266e-06
249	0x36fb2c92	7.4855716e-06
250	0x36c94d74	5.9992835e-06
251	0x00000000	0.0
252	0x00000000	0.0
253	0x378633a7	1.5998097e-05
254	0x37866e77	1.6025484e-05
255	0x36c94d74	5.9992835e-06

network_body.observation_encoder.processors.1.normalizer.running_mean f4 [13]
0	0x00000000	0.0
1	0x00000000	0.0
2	0x00000000	0.0
3	0x00000000	0.0
4	0x00000000	0.0
5	0x00000000	0.0
6	0x00000000	0.0
7	0x00000000	0.0
8	0x00000000	0.0
9	0x00000000	0.0
10	0x00000000	0.0
11	0x00000000	0.0
12	0x00000000	0.0

network_body._body_endoder.seq_layers.0.weight f4 [128, 418]
0	0xbcc62671	-0.024188252
1	0xbc20eb0b	-0.009821664
2	0xbd8ed55b	-0.06974288
3	0xbb20d2ab	-0.002453963
4	0x3d1d92fa	0.038470246
5	0xbd3586d6	-0.044318043
6	0x3b3d1125	0.002884933
7	0xbcdea59d	-0.02717858
8	0xbd59289e	-0.05301725
9	0xbd558040	-0.05212426
10	0x3c2f9a9d	0.010718015
11	0xbd50ab7b	-0.050944787
12	0xbd70d176	-0.058793508
13	0x3bec562a	0.00721242
14	0x3d58571e	0.052817456
15	0xbd152fd0	-0.03642255
16	0x3c0525f7	0.008126727
17	0x3c15dabd	0.00914639
18	0xbd9b023d	-0.07568786
19	0x3dade645	0.08491186
20	0xbca2dc17	-0.019880338
21	0x3d5c00f5	0.05371185
22	0xbc94fc1f	-0.018186627
23	0xbd693878	-0.05693862
24	0x3da31c25	0.079643525
25	0x3cdfa525	0.027300427
26	0xbab2fcf7	-0.0013655712
27	0x3bcd5b8e	0.0062670177
28	0x3d266764	0.040625945
29	0xbce7fa72	-0.028317664
30	0xbc1f273f	-0.009713947
31	0xbc8edb11	-0.017438443
32	0x3cf97834	0.030452825
33	0x3a093453	0.0005233932
34	0x3d6a6277	0.05722281
35	0x3b43a294	0.0029851543
36	0xbc7e9ddd	-0.015540567
37	0xbcfc6104	-0.03080798
38	0x3d9475b5	0.07249013
39	0x3cb091f0	0.021553963
40	0xbd97cc89	-0.07412059
41	0x3c219992	0.009863274
42	0xbd97406a	-0.07385333
43	0xbda91e7d	-0.08257768
44	0x3aa48289	0.001255111
45	0xbd9f9907	-0.077928595
46	0xbcc88867	-0.024479104
47	0xbb79b33a	-0.0038101212
48	0xbd560530	-0.05225104
49	0x3c52b186	0.012859708
50	0xbd8ec789	-0.06971652
51	0x3cfa2ebf	0.030539868
52	0xbd4f37e4	-0.05059041
53	0x3d60511f	0.054764863
54	0x3d7c4dda	0.061597683
55	0xbcdb3b1d	-0.026761586
56	0xbc269547	-0.010167426
57	0x3d6cebb2	0.057841964
58	0x3cdd3490	0.027002603
59	0xbcf605a8	-0.030031994
60	0xbcdcea87	-0.0269673
61	0x3cd374bf	0.025812505
62	0xbc9cfb06	-0.019162666
63	0xbc33a0de	-0.010963647
64	0x3d627763	0.055289637
65	0xbba6ceb4	-0.005090559
66	0xbdc8c411	-0.09803022
67	0xbc5c8da1	-0.013461501
68	0xbcd86c18	-0.02641873
69	0x3e075a36	0.13218006
70	0x3d979a13	0.07402434
71	0x3cdd562b	0.027018627
72	0x3d4f1368	0.050555617
73	0x3d875929	0.06608803
74	0x3d46fb1f	0.04857933
75	0xbd186884	-0.03720905
76	0xbd9fb50b	-0.07798203
77	0x3d3bad26	0.045819424
78	0x3db5ef79	0.088835664
79	0x3d8ddfb3	0.06927433
80	0x3d4ce7ba	0.05002568
81	0xbca4b92e	-0.020107832
82	0x3d8fd39e	0.07022785
83	0x3d6bcdbf	0.05756926
84	0x3d6f8e4b	0.05848531
85	0x3cc5f267	0.024163438
86	0xbca6ca9e	-0.020360287
87	0x3d172ea0	0.0369097
88	0x3e12d2f5	0.14338286
89	0x3d60b824	0.05486311
90	0xbdc897b1	-0.09794558
91	0x3d88f289	0.06686885
92	0xbc82c4a6	-0.01596291
93	0xbcbb4fc1	-0.022865178
94	0x3d9093ad	0.07059417
95	0xbdadbb65	-0.08483008
96	0xbd057b1e	-0.032588117
97	0xbd47a3f0	-0.048740327
98	0x3d41d303	0.047320377
99	0x3d973a3f	0.073841564
100	0xbcd018cb	-0.025402447
101	0xbd10f060	-0.03538549
102	0x3d541faf	0.05178803
103	0x3d26edf3	0.04075427
104	0x3c5b6916	0.013391754
105	0xbb42d53c	-0.0029729148
106	0xbc6daf17	-0.014507077
107	0x3d63ccb3	0.05561514
108	0x3d50388c	0.050835177
109	0x3cb38e36	0.021918397
110	0x3d5eaa32	0.05436153
111	0x3d13f405	0.036121387
112	0x3d17b320	0.03703606
113	0x3c4c8346	0.01248247
114	0x39c643fe	0.0003781616
115	0x3d25d4ba	0.040486075
116	0x3d8d16c2	0.06889106
117	0xbcb2dc71	-0.02183363
118	0x3ae6160f	0.0017554181
119	0x3cad4210	0.021149665
120	0x3cb0a489	0.021562831
121	0x3df75d33	0.12078323
122	0x3b62b48d	0.003459248
123	0x3d39f6cf	0.04540139
124	0x3dbbf3ce	0.091773614
125	0x3c722e5b	0.01478156
126	0x3d13ee2e	0.036115818
127	0xbcabd37f	-0.020974873
128	0xbd7d9a77	-0.061914887
129	0x3d6adf10	0.057341635
130	0x3d086cc0	0.033306837
131	0xbda0e6bd	-0.0785651
132	0xbc8b9448	-0.01703848
133	0x3d57b42d	0.052662063
134	0x3cd31320	0.025765955
135	0xbbddfed2	-0.0067747617
136	0x3d87f180	0.06637859
137	0x3dac544b	0.08414515
138	0x3bab1643	0.0052211597
139	0xbd8ab87f	-0.06773471
140	0xbd6bbf82	-0.057555683
141	0x3da1676c	0.07881054
142	0x3d57ce41	0.052686933
143	0x3d18ca97	0.03730258
144	0x3cddfcb1	0.027098032
145	0xbbc80294	-0.006103823
146	0x3d5f95c6	0.054586194
147	0x3c382bbf	0.011240899
148	0x3d9bd7db	0.076095305
149	0xbad73902	-0.0016420188
150	0xbd5236de	-0.051321857
151	0x3cb7a8e9	0.02241941
152	0x3ce493b4	0.027902462
153	0x3d25c6c5	0.040472765
154	0x3ae68d13	0.0017589651
155	0x3cb9d693	0.022685325
156	0x3df09b1d	0.117483355
157	0xbd963719	-0.07334728
158	0xbd2fdbc7	-0.042934205
159	0x3cdcbb73	0.026944852
160	0xbccad7cd	-0.024761105
161	0xbd191b05	-0.037379283
162	0xbbb2821d	-0.0054476396
163	0x3d5ede85	0.05441143
164	0x3ddcd69d	0.10783122
165	0xbd220706	-0.03955748
166	0x3ddafc31	0.10692633
167	0x3c87d7c5	0.01658238
168	0x3d80a79b	0.06281968
169	0xbbcbf874	-0.0062246863
170	0x3d59e4e2	0.053196795
171	0x3d5dbf3f	0.054137465
172	0xbb3bcc52	-0.002865572
173	0x3d803e1e	0.06261848
174	0xbd4c39d9	-0.049859855
175	0xbda2054d	-0.07911167
176	0x3da3449c	0.079720706
177	0x3c76ac80	0.015055776
178	0x3d00d441	0.03145242
179	0x3d0611e1	0.032731894
180	0x3d333ba0	0.043758035
181	0xbc9231ea	-0.017846067
182	0x3c9a3f9c	0.01882916
183	0x3dba86dd	0.091077544
184	0x3c6a96b2	0.014318155
185	0xbd34efb8	-0.044173926
186	0x3d6e865f	0.058233615
187	0xbc89c297	-0.01681642
188	0x3c99e1e1	0.018784465
189	0xbc0d63cc	-0.00862975
190	0xbcf5fb9f	-0.030027209
191	0x3d73f41b	0.05955897
192	0xbab25045	-0.0013604244
193	0xbc82e7f6	-0.015979748
194	0x3de7e01d	0.11322043
195	0xbd64541e	-0.055744283
196	0x3d09fb4b	0.033686917
197	0xbd6da081	-0.058014397
198	0x3d8eb559	0.06968183
199	0x3d6da060	0.058014274
200	0xbd5b6a6c	-0.05356829
201	0x3d34533e	0.0440247
202	0xbd85f14f	-0.065401666
203	0x3c67d53c	0.01414996
204	0x3cf07181	0.029350998
205	0x3c18bd31	0.0093224505
206	0xbde1c62e	-0.11024128
207	0xb9b9ea35	-0.00035460448
208	0x3da5aa3c	0.0808911
209	0xbcebb345	-0.028772006
210	0xbc96b4df	-0.018396793
211	0x3c9a424c	0.018830441
212	0x3cc973cd	0.02459135
213	0x3c776a94	0.015101094
214	0xbd98446d	-0.07434926
215	0xbd5959cc	-0.053064153
216	0x3bec1d16	0.0072056158
217	0xbd70195d	-0.05861794
218	0xbcff7908	-0.031185642
219	0x3d89ee14	0.06734863
220	0x3d1e73b4	0.03868456
221	0xbd2e7026	-0.04258742
222	0xbd80632b	-0.06268915
223	0xbcf83bac	-0.030301891
224	0xbc97ea62	-0.01854438
225	0xbc1fca0b	-0.009752761
226	0x3c2a6039	0.010398918
227	0xbd811743	-0.06303265
228	0xbd3f70e5	-0.046738524
229	0x3c8ee3d3	0.01744262
230	0xbc142649	-0.009042331
231	0x3d245ee0	0.040129542
232	0x3c99e8ec	0.018787824
233	0x3d6e4c43	0.058178198
234	0x3c8e8b76	0.017400485
235	0xbc523c83	-0.01283181
236	0x3c5e3bd6	0.013564071
237	0xbcad7346	-0.02117313
238	0xbc1ded0c	-0.009639036
239	0x39f1b6e0	0.00046103355
240	0x3c99ebf1	0.018789263
241	0xbcf5f3ba	-0.030023444
242	0xbd0fdcab	-0.035122555
243	0xbc887e67	-0.016661836
244	0x3d3a71a9	0.04551855
245	0x3d956f93	0.07296672
246	0xbcccfe22	-0.025023524
247	0x3ce90b85	0.028447876
248	0xbd92eae2	-0.071737066
249	0xbd58f062	-0.052963622
250	0x3daabc21	0.08336664
251	0x3daa6bb2	0.083213225
252	0xbcf285e0	-0.029604852
253	0x3dbaf8c1	0.09129477
254	0x3c44a7cc	0.0120028965
255	0xbcca0b49	-0.024663584

network_body._body_endoder.seq_layers.0.bias f4 [128]
0	0xbd5ada81	-0.053431038
1	0xbd7783fc	-0.060428604
2	0x3d8e823a	0.069584325
3	0x3d7328a0	0.059364915
4	0x3d87f4cc	0.06638488
5	0x3d65ca2f	0.05610102
6	0x3d87a92b	0.06624063
7	0xbd92f34a	-0.0717531
8	0xbd8b0243	-0.06787541
9	0x3d802f8d	0.062590696
10	0xbd8cce92	-0.06875338
11	0xbd8ac978	-0.06776708
12	0xbd7e2f55	-0.062056858
13	0xbd98e391	-0.0746528
14	0x3d406859	0.046974514
15	0xbd521f0c	-0.05129914
16	0x3d6e674d	0.058203984
17	0xbd856f0a	-0.0651532
18	0x3d80f017	0.062957935
19	0x3d77cdd5	0.06049903
20	0xbd873804	-0.06602481
21	0xbd8c4544	-0.06849149
22	0x3c896121	0.016769947
23	0x3d821ebd	0.06353519
24	0xbd90157d	-0.070353486
25	0x3c9dede6	0.019278478
26	0x3d056e83	0.032576095
27	0x3d85d0c0	0.065339565
28	0x3d976514	0.07392326
29	0x3d60c218	0.054872602
30	0xbd892043	-0.066956066
31	0x3d8221cd	0.06354103
32	0xbd83a184	-0.06427291
33	0xbd897289	-0.06711299
34	0xbd8e78c8	-0.06956631
35	0xbd91c083	-0.07116797
36	0x3d7af4d1	0.06126863
37	0xbd647a24	-0.055780545
38	0xbd82f8ce	-0.06395112
39	0x3d860c39	0.065453
40	0x3d80c5ed	0.06287751
41	0xbd3526a6	-0.04422631
42	0x3d7b8403	0.061405193
43	0xbd071c58	-0.032986015
44	0xbd80a479	-0.06281371
45	0xbd5e8f02	-0.0543356
46	0x3d911cff	0.07085609
47	0x3d897438	0.0671162
48	0x3ceb23de	0.028703626
49	0x3d5a262a	0.053259052
50	0x3d87d80d	0.06633005
51	0xbd7fb6ab	-0.062430065
52	0x3d8ebf26	0.069700524
53	0xbcce5f14	-0.025191821
54	0x3d8759df	0.066089384
55	0x3d884c79	0.06655211
56	0x3d8a8951	0.06764472
57	0xbd8c4ef0	-0.06850994
58	0xbd81c712	-0.06336798
59	0x3d44fbe5	0.048091788
60	0x3d7f7153	0.062363934
61	0x3d9c9bea	0.07646926
62	0x3d817026	0.06320219
63	0x3d8fe686	0.07026391
64	0x3d9377a1	0.07200552
65	0xbd8b49cd	-0.06801186
66	0xbd8bdc64	-0.068291456
67	0xbd938a11	-0.072040685
68	0x3daad5f0	0.083415866
69	0x3d94e7dd	0.07270787
70	0xbd912626	-0.07087354
71	0xbd80f48a	-0.06296642
72	0xbd91411a	-0.07092495
73	0x3d8b2186	0.067935035
74	0xbcf76412	-0.030199084
75	0x3c1f6111	0.009727732
76	0xbd8be0da	-0.068299964
77	0xbd8e0676	-0.06934826
78	0x3d6cbc51	0.05779678
79	0x3d9ab383	0.075537704
80	0x3d6e99cc	0.05825214
81	0xbd894cb6	-0.067040846
82	0xbd84b07c	-0.06478974
83	0x3d7b6250	0.061373055
84	0x3d85cec2	0.065335765
85	0x3d3359d2	0.04378683
86	0xbd9236fe	-0.07139395
87	0xbd245f47	-0.040129926
88	0x3d41d573	0.0473227
89	0x3d941cd9	0.07232065
90	0xbd86bdd9	-0.06579179
91	0x3d344033	0.044006538
92	0x3d612796	0.054969393
93	0xbd65a63a	-0.05606673
94	0x3d8394e5	0.06424884
95	0x3d95ed6b	0.073206745
96	0x3d73ebd8	0.05955109
97	0x3d58c396	0.0529209
98	0xbd09cbeb	-0.033641737
99	0x3d73cfae	0.05952423
100	0x3d58316d	0.05278151
101	0x3d88c829	0.066788025
102	0xbd55a8db	-0.052162986
103	0xbd061013	-0.032730173
104	0x3d7d3b3f	0.06182408
105	0xbd7bdcb5	-0.06148978
106	0xbd847905	-0.06468395
107	0xbd65e378	-0.056125134
108	0x3d807f01	0.06274224
109	0x3d936798	0.07197493
110	0xbd834d76	-0.06411259
111	0xbd84309b	-0.06454583
112	0xbd856f34	-0.06515351
113	0x3d92fecc	0.07177505
114	0x3d67f330	0.056628406
115	0x3d879900	0.06620979
116	0x3d7e09c2	0.062021025
117	0x3d8722f0	0.06598461
118	0xbd099ded	-0.033597875
119	0x3d8568a3	0.065140985
120	0xbd759305	-0.059954662
121	0xbd8d1842	-0.068893924
122	0x3d961749	0.0732866
123	0xbd6d9c5d	-0.058010448
124	0xbd4d43ff	-0.050113674
125	0x3d86d0df	0.06582808
126	0x3d868ad5	0.06569449
127	0xbd5254d4	-0.05135043

network_body._body_endoder.seq_layers.2.weight f4 [128, 128]
0	0x3d2e79eb	0.04259674
1	0x3d6e799b	0.05822144
2	0xbd45b8fb	-0.048272114
3	0xbd893d8d	-0.06701193
4	0xbdfaa883	-0.12239172
5	0xbe2dbb2d	-0.16965933
6	0xbe38010d	-0.17969151
7	0x3dc592c6	0.096471354
8	0x3b0b1fb4	0.0021228613
9	0xbc920691	-0.017825397
10	0x3d2e5693	0.042563032
11	0xbbcd3af9	-0.0062631336
12	0xbc8cbdd2	-0.017180357
13	0x3e30903a	0.17242518
14	0xbd5fa61a	-0.054601766
15	0xba2fb2bb	-0.0006702353
16	0xbe7ad3e6	-0.24494895
17	0xbd8171f5	-0.06320564
18	0xbe2df8d9	-0.16989459
19	0xbdc19e79	-0.094540544
20	0xbc7f1808	-0.015569694
21	0x3e19ca84	0.1501866
22	0xbd86202c	-0.06549105
23	0xbe87545c	-0.2643155
24	0x3e6a671f	0.228909
25	0xbe1a1e85	-0.15050705
26	0x3c4150c7	0.011799044
27	0xbbbab2be	-0.0056975773
28	0xbde5cd28	-0.11220771
29	0x3ca33da5	0.019926855
30	0xbcb5aa3c	-0.0221759
31	0xbd820b74	-0.06349841
32	0x3d2fd6ca	0.04292945
33	0x3d523d19	0.0513278
34	0x3e667781	0.22506525
35	0x3d50ac3f	0.050945517
36	0xbd913736	-0.07090609
37	0xbcaded32	-0.021231268
38	0x3d0a6a68	0.033792883
39	0xbd4a4a4c	-0.04938726
40	0x3c62f7f6	0.013853064
41	0xbcca9fae	-0.024734344
42	0xbccf47ff	-0.025302885
43	0xbd1904e4	-0.03735818
44	0x3d9a587b	0.075364076
45	0x3cbd9cab	0.023145994
46	0xbc8ee6eb	-0.017444095
47	0xbe2efb87	-0.17088138
48	0xbe181d9d	-0.14855047
49	0x3d97627d	0.07391832
50	0xbda50860	-0.08058238
51	0x3df14489	0.1178065
52	0x3c9c218e	0.019058969
53	0x3d8a0d0a	0.06740768
54	0xbd484820	-0.04889691
55	0xbe27bc7d	-0.16380496
56	0xbe430047	-0.19043075
57	0xbd840e51	-0.06448043
58	0xbdcd9f22	-0.10040118
59	0xbcad085b	-0.021122148
60	0xbe28a275	-0.16468222
61	0xbdaa2fbd	-0.083098866
62	0x3dc28924	0.09498814
63	0xbd9eb958	-0.07750195
64	0xbd98be83	-0.07458212
65	0xbcc4475f	-0.023959814
66	0x3d34176e	0.043967657
67	0xbe0f3651	-0.13985564
68	0x3d93b413	0.07212081
69	0xbd711264	-0.05885543
70	0x3d74cd07	0.05976584
71	0x3dddf315	0.1083738
72	0x3d0eaba2	0.03483165
73	0x3d19db10	0.03756243
74	0x3e0d6ef0	0.1381185
75	0xbdcd681a	-0.100296214
76	0x3dfee87d	0.12446687
77	0x3df667e4	0.12031534
78	0xbdecfc96	-0.115716144
79	0x3d03b8c4	0.032158628
80	0x3d014b4c	0.03156595
81	0x3e1b1419	0.15144385
82	0x3e271897	0.16317974
83	0xbd493c2a	-0.049129643
84	0xbe1675c4	-0.14693362
85	0x3d0a2802	0.03372956
86	0x3da6beb8	0.081418455
87	0xbc6f068e	-0.014588965
88	0xbc862547	-0.016375197
89	0xbd3c4c43	-0.045971166
90	0xbd034b0b	-0.03205399
91	0xbd213a80	-0.03936243
92	0xbe19c259	-0.15015544
93	0xbd73b116	-0.059495054
94	0xbd42cbd9	-0.047557686
95	0xbdbbc004	-0.091674834
96	0xbba127b1	-0.0049180617
97	0xbd83c5c6	-0.06434207
98	0x3d71ca08	0.059030563
99	0xbc048d0f	-0.008090272
100	0x3c1a38ef	0.009412988
101	0x3d0a2274	0.033724263
102	0xbd43b1fa	-0.047777154
103	0x3d1f10be	0.038834326
104	0xbdb0cbc6	-0.08632617
105	0x3e059e02	0.13048556
106	0x3d9e5c04	0.07732394
107	0x3e08a539	0.13344277
108	0xbe2e759a	-0.17037049
109	0xbdc82309	-0.097723074
110	0x3df38193	0.11889949
111	0x3dcdb192	0.100436345
112	0x3c8c946a	0.017160613
113	0x3c49f33e	0.01232606
114	0xbdea9957	-0.114550285
115	0xbe1d3387	-0.15351687
116	0xbcaef48a	-0.02135684
117	0xbd1dfb37	-0.038569655
118	0xbd778031	-0.060424987
119	0x3c179a74	0.009253133
120	0xbdd8fd69	-0.10595209
121	0x3ddcb8af	0.10777413
122	0xbe0f34be	-0.13984963
123	0x3d96dcad	0.07366309
124	0x3d8a278b	0.067458235
125	0x3d04fa82	0.032465465
126	0xbe0cb8b1	-0.13742329
127	0x3e5cb28e	0.21552488
128	0x3dcc3ead	0.09972892
129	0xbe728bba	-0.23686114
130	0xbcc556fd	-0.02408933
131	0x3dc98a71	0.09840859
132	0xbd819157	-0.063265495
133	0x3d5bba0c	0.053644225
134	0x3d7ab7c4	0.06121041
135	0x3e40cb14	0.18827468
136	0x3b098e87	0.0020989494
137	0x3c370b18	0.011172079
138	0x3da25c29	0.079277344
139	0x3d29c72e	0.04144972
140	0xbd666354	-0.05624707
141	0xbdc9e8c6	-0.09858851
142	0xbd93f4ef	-0.07224452
143	0x3e00d1ef	0.12580083
144	0xbd448cf7	-0.047985997
145	0x3dbc7aed	0.09203134
146	0x3cccc99a	0.024998475
147	0xbdae5c59	-0.08513708
148	0x3de14d7e	0.110011086
149	0xbdb12b24	-0.086508065
150	0x3b9bf393	0.004759261
151	0x3b9da17b	0.0048105097
152	0x3d85f4fd	0.065408684
153	0xbde4846a	-0.111580685
154	0xbc78d570	-0.015187606
155	0xbe35fb73	-0.17771702
156	0xbd8c1b23	-0.068411134
157	0xbe1999b1	-0.15000035
158	0x3dafe3f9	0.08588404
159	0xbb975b6c	-0.0046190526
160	0xbda165f3	-0.078807734
161	0x3e269f4d	0.16271706
162	0xbddc9954	-0.107714325
163	0x3db24337	0.087042265
164	0x3c7e7ecd	0.015533161
165	0xbd3fd006	-0.046829246
166	0x3b108736	0.0022053248
167	0xbdffa060	-0.12481761
168	0xbd8e2e00	-0.069423676
169	0x3d0725b4	0.03299494
170	0xbd9ab90b	-0.075548254
171	0x3c8afe37	0.016966922
172	0x3def84a4	0.11695221
173	0xbdaa1f39	-0.083067365
174	0xbdc1b366	-0.09458046
175	0xbbbd89dc	-0.0057842564
176	0xbbc19927	-0.0059081498
177	0xbdea8668	-0.11451417
178	0xbdb8d450	-0.090248704
179	0x3e5d9bee	0.21641514
180	0xbd9b05de	-0.075694785
181	0xbd44cf8d	-0.0480495
182	0xbe1b1f57	-0.15148674
183	0x3ad8a7b6	0.0016529474
184	0xbca3abaa	-0.019979317
185	0x3d9051cd	0.07046852
186	0xbd627d2b	-0.05529515
187	0x3c43d625	0.0119529115
188	0x3d548012	0.05187995
189	0xbe4c77c1	-0.19967557
190	0xbce8a3da	-0.028398443
191	0xbd43133d	-0.04762577
192	0xbe3845f3	-0.17995434
193	0x3cbeebc8	0.023305789
194	0x3e2725ce	0.16323015
195	0x3d506f66	0.050887488
196	0xbe19411c	-0.14966244
197	0xbc985de4	-0.018599458
198	0xbd0770be	-0.033066504
199	0x3da7d70f	0.08195316
200	0xbd8fffd4	-0.07031217
201	0x3d9e359f	0.07725071
202	0xbd01b9f5	-0.031671483
203	0xbc1b029a	-0.0094610695
204	0x3ddf5bf7	0.10906213
205	0x3cf4aa7d	0.029866451
206	0xbde746a1	-0.11292768
207	0x3d422bc7	0.04740503
208	0x3d4918e9	0.04909602
209	0x3dddacc9	0.10823972
210	0x3de371a7	0.11105662
211	0xbd1855bf	-0.03719115
212	0xbdecc59c	-0.115611285
213	0x3dbe7557	0.092997245
214	0x3b9c6a7a	0.004773435
215	0x3d0d7fea	0.034545816
216	0x3dad0a7e	0.08449267
217	0xbe2e652b	-0.1703078
218	0x3b9cda2f	0.0047867517
219	0x3b436408	0.0029814262
220	0x3e011837	0.12606893
221	0xbe00366e	-0.12520763
222	0xbd3aa25d	-0.045564998
223	0xbe6c816d	-0.23096247
224	0x3d1ec295	0.038759787
225	0x3d942591	0.07233728
226	0xbda97feb	-0.082763515
227	0x3d9c9089	0.076447554
228	0xbdcebdd0	-0.100947976
229	0xbde50add	-0.11183713
230	0xbc060df5	-0.008182039
231	0x3d00a9b5	0.031411845
232	0xbc3c10ae	-0.011478586
233	0x3d22c2f7	0.039736714
234	0x3be3b0bc	0.0069485586
235	0x3d95cef8	0.07314867
236	0xbe178729	-0.14797653
237	0xbcef5f1c	-0.029220156
238	0x3e10294f	0.14078258
239	0x3beea28d	0.007282561
240	0x3d7df0a2	0.061997063
241	0xbc8e4ccb	-0.017370602
242	0x3dd2f140	0.10299921
243	0xbdd1d5a8	-0.1024583
244	0xbb6aacd0	-0.003580857
245	0xbd1e76e5	-0.038687605
246	0xbce8f4e4	-0.028437085
247	0xbdcccadf	-0.09999632
248	0x3d650729	0.05591503
249	0xbd9922ab	-0.074773155
250	0x3d4e0d5c	0.05030571
251	0x3d895702	0.067060485
252	0x3e122ff1	0.142761
253	0x3e096405	0.1341706
254	0xbcb5b310	-0.02218011
255	0x3d431909	0.047631297

network_body._body_endoder.seq_layers.2.bias f4 [128]
0	0xbd389242	-0.045061357
1	0xbd837276	-0.06418316
2	0x3d83dc63	0.0643852
3	0xbd7e859d	-0.062139142
4	0x3d7c1e12	0.061552115
5	0x3d5331f1	0.0515613
6	0x3d42ea00	0.04758644
7	0xbd84f568	-0.0649212
8	0xbd33138b	-0.04371981
9	0xbd6caece	-0.057783894
10	0x3d6f47e0	0.058418155
11	0xbd851d62	-0.06499745
12	0x3d582a67	0.052774813
13	0x3d611eab	0.054960888
14	0xbd749c78	-0.059719533
15	0xbd7aca5c	-0.06122814
16	0x3d7e8daa	0.06214682
17	0xbd843d26	-0.06456976
18	0x3d75d522	0.060017712
19	0x3d805eff	0.06268119
20	0xbd3d945e	-0.046284072
21	0xbd5e9001	-0.05433655
22	0x3d8f977a	0.07011314
23	0x3d1faecc	0.03898506
24	0xbd8877b5	-0.06663457
25	0x3d8590d2	0.06521763
26	0x3d4b9a28	0.04970756
27	0x3d7f393f	0.062310454
28	0x3d861617	0.06547182
29	0xbd62a2c3	-0.055331003
30	0xbd32abf8	-0.043621033
31	0x3d526f98	0.051375955
32	0xbd82e060	-0.063904524
33	0x3d743ec9	0.05963019
34	0x3d310603	0.043218624
35	0xbd3fb318	-0.046801656
36	0x3d8658f8	0.06559938
37	0x3d8a98df	0.06767439
38	0x3d3d72e7	0.046252158
39	0xbd86a110	-0.06573689
40	0xbd6210d7	-0.05519184
41	0xbd59f2d0	-0.05321008
42	0xbd0f8f06	-0.035048507
43	0x3d3c6ddb	0.046003204
44	0x3d895885	0.06706337
45	0xbd28d485	-0.0412183
46	0xbd2ded9d	-0.042462934
47	0x3d82d32e	0.063879356
48	0x3d93fadd	0.07225583
49	0xbd7d8c37	-0.061901297
50	0x3d0daf57	0.034591045
51	0x3d56eddc	0.052472934
52	0x3d5774a5	0.052601475
53	0x3d8a555b	0.067545615
54	0x3d8d3291	0.068944104
55	0xbd848811	-0.06471265
56	0x3d8a62be	0.06757115
57	0xbd7078c4	-0.05870892
58	0x3da27778	0.07932943
59	0xbd8be9e9	-0.06831724
60	0x3d78220c	0.060579345
61	0x3d7c48dd	0.061592925
62	0x3d7e27b6	0.06204959
63	0xbc1ddf2e	-0.00963573
64	0x3d4a7701	0.049429897
65	0x3d843ad5	0.06456534
66	0xbd332e1b	-0.04374514
67	0xbd62aacb	-0.055338662
68	0xbd8c7a45	-0.068592586
69	0xbcd99971	-0.026562424
70	0x3d742992	0.059609957
71	0xbd82a94b	-0.06379946
72	0x3d753491	0.059864584
73	0xbd856882	-0.06514074
74	0x3d854f5b	0.065092765
75	0xbd888e30	-0.06667745
76	0x3d609c8d	0.0548368
77	0xbd6b447a	-0.05743835
78	0x3d8726fb	0.06599232
79	0x3d61c809	0.05512241
80	0xbd8c5443	-0.06852009
81	0x3d5763d6	0.052585445
82	0xbd5c4066	-0.053772353
83	0x3d781616	0.060567938
84	0xbcabf6e3	-0.020991748
85	0x3d24be40	0.0402205
86	0xbd3a7781	-0.045524124
87	0xbd6777a0	-0.056510568
88	0xbd1fb0c1	-0.038986925
89	0x3d43e213	0.047823023
90	0x3d76da6d	0.0602669
91	0x3d6debf7	0.05808636
92	0x3d7866c7	0.06064489
93	0xbd504805	-0.050849933
94	0xbd75e257	-0.060030308
95	0xbd67919c	-0.05653535
96	0x3d616e06	0.055036567
97	0x3d5a4d3d	0.053296316
98	0xbd797f93	-0.06091268
99	0x3d847fc2	0.0646968
100	0xbd278ea2	-0.04090751
101	0x3d4af1b0	0.049546897
102	0xbd5588f3	-0.052132558
103	0xbd6ca630	-0.057775676
104	0xbd6f1ee3	-0.058379065
105	0xbd8a3791	-0.0674888
106	0xbd5f2f1e	-0.054488294
107	0x3d707ab4	0.05871077
108	0x3d7efc39	0.062252257
109	0x3caf2203	0.021378523
110	0xbd46f2da	-0.048571445
111	0x3cf3ca1a	0.029759455
112	0xbd510303	-0.051028263
113	0x3da5b7b5	0.0809168
114	0x3d814f57	0.06313961
115	0xbd6f81b0	-0.05847329
116	0x3d7a099e	0.061044328
117	0xbcdf506d	-0.02726003
118	0xbd487e72	-0.048948713
119	0x3d992e64	0.074795514
120	0x3d7d632d	0.06186216
121	0x3cb9bfc1	0.022674443
122	0x3d775640	0.06038499
123	0xbd729494	-0.059223726
124	0x3d748132	0.059693523
125	0xbd82ba92	-0.06383242
126	0x3d85fca7	0.0654233
127	0x3d977f38	0.07397312

action_model._discrete_distribution.branches.0.weight f4 [3, 128]
0	0x3daf9443	0.085732006
1	0x3d679264	0.056536093
2	0xbdbcf96e	-0.092272624
3	0x3da30b01	0.07961083
4	0xbdc3f093	-0.0956737
5	0xbd7e609c	-0.062103853
6	0xbd7f948a	-0.062397517
7	0x3d8129c1	0.06306792
8	0x3d0be66e	0.0341553
9	0x3dcfb8b5	0.10142652
10	0xbd984ecc	-0.07436904
11	0x3d66e008	0.056365997
12	0xbd8d38bc	-0.06895587
13	0xbdb5cba1	-0.0887673
14	0x3dc57562	0.096415296
15	0x3dac76bd	0.08421085
16	0xbdb36f45	-0.08761457
17	0x3d33cb1f	0.043894883
18	0xbd80a346	-0.06281142
19	0xbdb74fbd	-0.08950756
20	0x3d5d2332	0.053988643
21	0x3d6a3074	0.057175115
22	0xbdc9f373	-0.098608874
23	0xbd7f3ab6	-0.06231185
24	0x3daf2d50	0.085535645
25	0xbdabf38e	-0.08396064
26	0xbd9dcc83	-0.07705023
27	0xbdc6ea77	-0.09712689
28	0xbdafa856	-0.085770294
29	0x3dc10695	0.094250835
30	0x3d26a5fe	0.040685646
31	0xbdb50080	-0.08837986
32	0x3de27d30	0.11059034
33	0xbdda5568	-0.10660821
34	0xbd5cc507	-0.053898837
35	0x3da88b5f	0.08229708
36	0xbda48fb6	-0.08035223
37	0xbdc28a34	-0.094990164
38	0xbd4a3e41	-0.049375776
39	0x3d8d2c5b	0.06893226
40	0x3dbaa6f4	0.09113875
41	0x3d59a521	0.053135995
42	0x3d3c9248	0.046037942
43	0xbd61aef5	-0.055098493
44	0xbdc27bf3	-0.09496298
45	0x3d986fc5	0.07443193
46	0x3d94084b	0.07228144
47	0xbdc04eff	-0.09390067
48	0xbdb586a4	-0.08863571
49	0x3dacc67c	0.084362954
50	0xbd272f46	-0.040816568
51	0xbd87411a	-0.06604214
52	0xbd9b58d2	-0.075853005
53	0xbdaafc52	-0.083489075
54	0xbdbc0016	-0.09179704
55	0x3dbb2f3f	0.09139871
56	0xbda5e275	-0.08099834
57	0x3da615a3	0.081095956
58	0xbdd5480a	-0.10414131
59	0x3d9b1e15	0.07574097
60	0xbd9f5736	-0.07780306
61	0xbda863ff	-0.08222198
62	0xbdc5a265	-0.09650115
63	0x3ceea78d	0.029132629
64	0xbdb1729b	-0.086644374
65	0xbdaaede2	-0.08346154
66	0x3db9edeb	0.090785824
67	0x3da25e8b	0.07928189
68	0x3d77121f	0.060320016
69	0x3d4bdf4c	0.0497735
70	0xbd83f535	-0.06443254
71	0x3d676d72	0.05650086
72	0xbd888dfe	-0.06667708
73	0x3d88a01a	0.06671162
74	0xbd8ed1db	-0.069736205
75	0x3db6c9b6	0.08925192
76	0xbdcc7ef2	-0.099851504
77	0x3d4cf20f	0.050035533
78	0xbdcc7c84	-0.09984687
79	0xbd9b242c	-0.075752586
80	0x3d8a9e3a	0.067684606
81	0xbda75ce7	-0.081720166
82	0x3d9eeef0	0.077604175
83	0xbd8ef684	-0.06980613
84	0x3d453f47	0.04815605
85	0xbd3ccf75	-0.046096284
86	0x3da8dffb	0.08245846
87	0x3d57b536	0.05266305
88	0x3d6fc00e	0.058532767
89	0xbda032a9	-0.07822163
90	0xbdcd64b7	-0.100289755
91	0xbd95c856	-0.07313602
92	0xbda49200	-0.0803566
93	0x3d5fcd6d	0.05463927
94	0x3d6f18a0	0.058373094
95	0x3d7cbda1	0.06170428
96	0xbd9a3391	-0.07529367
97	0xbd89c8f4	-0.06727782
98	0x3d5c0117	0.053711977
99	0xbd921dd3	-0.07134595
100	0x3dc01dff	0.09380721
101	0xbd482023	-0.048858773
102	0x3db03961	0.08604694
103	0x3d568780	0.052375317
104	0x3d9b8d44	0.07595304
105	0x3d856426	0.065132424
106	0x3d48d606	0.049032234
107	0xbdb34119	-0.08752651
108	0xbd9a37de	-0.07530187
109	0xbd187cbe	-0.03722834
110	0x3db0af89	0.08627231
111	0xbd484756	-0.048896156
112	0x3da07f2d	0.07836757
113	0xbd8db300	-0.06918907
114	0xbdb43609	-0.08799369
115	0x3da6b518	0.0814001
116	0xbd93e1a6	-0.072207734
117	0x3ce44e8d	0.027869487
118	0x3d65bb54	0.056086853
119	0xbdef7b25	-0.1169341
120	0xbdab7ff2	-0.08374013
121	0xbd28eb61	-0.0412401
122	0xbd961925	-0.07329015
123	0x3d0c6bd2	0.034282513
124	0xbdbfc067	-0.0936287
125	0x3d878c46	0.06618552
126	0xbdb2760a	-0.087139204
127	0xbdbe5f79	-0.09295554
128	0xbd8a9ab9	-0.06767792
129	0xbd517930	-0.051140964
130	0x3daf3afd	0.08556173
131	0xbd84827b	-0.064702
132	0x3d8324d9	0.064035125
133	0x3d45519e	0.04817354
134	0x3c45be5e	0.012069313
135	0xbd423407	-0.0474129
136	0xbd225d22	-0.0396396
137	0xbdb0bd9c	-0.08629915
138	0x3d8e7b31	0.06957091
139	0xbd640b3d	-0.05567478
140	0x3d2698c4	0.040673032
141	0x3d051de3	0.032499205
142	0xbd88b502	-0.066751495
143	0xbd8ce5f2	-0.06879796
144	0x3ca921a2	0.02064592
145	0xbd8dc545	-0.06922392
146	0x3d7746f9	0.06037042
147	0x3d92eebf	0.071744435
148	0xbd23f307	-0.04002669
149	0xbd20788e	-0.03917747
150	0x3d24492e	0.040108852
151	0x3d64b159	0.055833194
152	0xbd924b11	-0.07143224
153	0x3d8c76cd	0.06858597
154	0x3d550595	0.052007277
155	0x3cc2a404	0.02375985
156	0x3d2f3c37	0.042782035
157	0xbd4a7708	-0.049429923
158	0xbc0e1d1d	-0.008673933
159	0x3cd70a60	0.026250064
160	0xbd9e2021	-0.07720972
161	0x3d44eaee	0.04807561
162	0x3d868c53	0.065697335
163	0xbd7401ec	-0.059572145
164	0x3d889dfb	0.066707574
165	0x3d1d21c8	0.038362294
166	0x3d8e349e	0.0694363
167	0xbd569139	-0.05238459
168	0xbda737e8	-0.0816496
169	0xbccdb6df	-0.025111614
170	0xbc65a501	-0.014016391
171	0x3d70d91a	0.058800794
172	0x3da560d5	0.0807511
173	0xbd0c18aa	-0.03420321
174	0xbd86a31d	-0.0657408
175	0x3d262a3e	0.04056763
176	0x3ced0972	0.028935168
177	0xbd891e0b	-0.06695183
178	0x3bae6a13	0.0053227036
179	0x3da28319	0.07935161
180	0x3d45fe11	0.048338
181	0x3d6bc856	0.057564102
182	0x3d8b57c4	0.06803849
183	0xbd867058	-0.065643966
184	0x3d96e202	0.07367326
185	0xbd6314ec	-0.055439875
186	0x3d08c327	0.033389237
187	0xbcf9d6f9	-0.030498015
188	0x3da0597d	0.078295685
189	0x3db66e4f	0.089077584
190	0x3d92e741	0.071730144
191	0xbc339686	-0.010961181
192	0xba3fc08a	-0.00073147623
193	0x3dad7ee0	0.08471465
194	0xbd31e0d1	-0.043427292
195	0xbd8bb73b	-0.06822058
196	0xbd4d1566	-0.050069235
197	0xbd499c65	-0.049221415
198	0x3d0cf318	0.03441152
199	0xbd7b1665	-0.061300654
200	0x3d9cc254	0.07654253
201	0xbd42e7e5	-0.047584433
202	0x3d9946ba	0.07484193
203	0xbd729558	-0.059224457
204	0x3d634e72	0.055494733
205	0xbd7a6b50	-0.061137497
206	0x3dac4467	0.08411484
207	0x3d746c33	0.0596735
208	0xbd736ef4	-0.059431985
209	0x3d9e7a10	0.07738125
210	0xbd544f46	-0.051833414
211	0x3dae3729	0.08506615
212	0xbd534a9f	-0.051584836
213	0x3d78c2d0	0.060732663
214	0xbd733d14	-0.05938442
215	0xbd325143	-0.04353453
216	0xbd7fe2d4	-0.06247218
217	0x3da53f44	0.080687076
218	0x3d904298	0.07043952
219	0x3db01b9a	0.085990146
220	0x3d7bf1f4	0.06151004
221	0xbd3566b5	-0.044287402
222	0xbd553c07	-0.0520592
223	0xbd465821	-0.04842389
224	0x3c283bc7	0.010268158
225	0x3d833c2f	0.064079635
226	0xbd79a5de	-0.0609492
227	0x3d15c609	0.036565814
228	0xbd3e0e3e	-0.0464003
229	0x3d87be9c	0.06628153
230	0xbda95a20	-0.08269143
231	0xbd3bff37	-0.04589769
232	0xbd673a4c	-0.05645208
233	0xbd766b6e	-0.060161047
234	0xbd37c934	-0.044869617
235	0x3da3d0da	0.0799882
236	0x3d31b569	0.043385897
237	0x3d8e3815	0.069442905
238	0xbd5341c8	-0.051576406
239	0x39a6e784	0.0003183448
240	0xbd858f55	-0.06521479
241	0x3cf17bd1	0.029477986
242	0x3d3a2a48	0.04545048
243	0xbd55aaf9	-0.052165005
244	0x3d9028da	0.07039042
245	0xbcf8475a	-0.03030746
246	0xbd2dd8f8	-0.042443246
247	0x3c4c6505	0.012475257
248	0x3da5d259	0.08096761
249	0x3b72d58e	0.0037053558
250	0x3c96bf22	0.018401686
251	0xbd5c25de	-0.05374705
252	0x3d1ee581	0.03879309
253	0xbd361b18	-0.044459432
254	0x3d920a0b	0.07130822
255	0x3c90d6f7	0.017680628

action_model._discrete_distribution.branches.0.bias f4 [3]
0	0xbd9bac5c	-0.07601234
1	0x3d550638	0.052007884
2	0x3c2ca0b9	0.010536366

action_model._discrete_distribution.branches.1.weight f4 [2, 128]
0	0x3d0b9e3d	0.034086455
1	0xbb23a6ab	-0.0024971168
2	0xbc8bf790	-0.01708582
3	0x3af454cc	0.0018640994
4	0xbc7162a5	-0.014732991
5	0xbc7eb0b2	-0.015545057
6	0xbc95dbc6	-0.018293273
7	0xbc470d1e	-0.0121491235
8	0xbceaf210	-0.028679878
9	0x3c64a2a3	0.013954791
10	0xbb28a2f3	-0.002573189
11	0xbc3b8932	-0.011446284
12	0xbcb4591a	-0.022015143
13	0xbc9f107f	-0.019417046
14	0x3c8517f3	0.016246771
15	0x3c419414	0.01181509
16	0xbcf3c932	-0.029759023
17	0xbc29cbea	-0.010363558
18	0xbc651796	-0.013982674
19	0xbcce31eb	-0.025170287
20	0xbcb9c908	-0.022678867
21	0x3bdedb84	0.0068010706
22	0xbb6cb600	-0.0036119223
23	0xbce263a3	-0.027635401
24	0x3b258dc0	0.0025261492
25	0xbc3575bb	-0.011075432
26	0xbc4bcf91	-0.012439624
27	0xbc824ac8	-0.0159048
28	0x3a595664	0.0008290766
29	0x3bf7bf6c	0.007560661
30	0xbc08fd83	-0.008361223
31	0xbc9a36fe	-0.01882505
32	0xbb13bf6d	-0.0022544519
33	0xba54e900	-0.0008121878
34	0xbbbe7b45	-0.0058130347
35	0x3cfdf74a	0.031001706
36	0xbc0cfea8	-0.008605637
37	0xbbfaccf8	-0.0076538287
38	0xbca79390	-0.020456105
39	0x39cbf642	0.00038902654
40	0x3b3bfff2	0.002868649
41	0xbc8af721	-0.016963543
42	0xbbbd8b5f	-0.0057844366
43	0xbc81e678	-0.015856966
44	0xbc493a20	-0.0122819245
45	0x3b9a88db	0.0047160215
46	0x3cacb59b	0.02108269
47	0xbc5f267c	-0.013620015
48	0x3bd77654	0.006575385
49	0x39ec9568	0.00045124744
50	0xbcc2a32c	-0.023759447
51	0xbca1a4ab	-0.01973184
52	0xbb43dbc8	-0.0029885639
53	0xbc3e69f7	-0.011621944
54	0xbc06058b	-0.0081800325
55	0x3b93edea	0.0045144456
56	0xbc1be127	-0.00951413
57	0x3c156c1f	0.009120016
58	0xbbb8c87d	-0.0056391344
59	0xbc6fe1fe	-0.014641283
60	0xbc30c7c5	-0.010789816
61	0xbb840317	-0.0040286887
62	0xbcce7c84	-0.025205858
63	0x398658de	0.00025624683
64	0xbc98df56	-0.018661182
65	0xbb948103	-0.004531981
66	0x3c1e5b41	0.009665311
67	0x3b202970	0.0024438761
68	0xbc24c254	-0.010056097
69	0x3b81462b	0.0039451323
70	0x3a4f5916	0.0007909698
71	0xbb3a555a	-0.002843222
72	0xbc12e597	-0.008965871
73	0xbbc41f99	-0.005985212
74	0x3b80cbc0	0.003930539
75	0x3c1911ce	0.009342624
76	0xbcaf75a2	-0.021418396
77	0xbb9c3052	-0.0047665024
78	0xbc5aac19	-0.013346695
79	0x3bef028f	0.007294006
80	0xbbf4a7db	-0.007466299
81	0xbd10cc97	-0.035351362
82	0xbc32d5f5	-0.010915269
83	0xbcbd1bb4	-0.023084499
84	0x3ce7f360	0.028314292
85	0xbc316c67	-0.010829068
86	0x3c2abefe	0.010421513
87	0x3aa2b631	0.0012413916
88	0x3c96e33c	0.0184189
89	0xbc73d2e5	-0.014881824
90	0xbca7ec72	-0.020498488
91	0xbc466d60	-0.012111038
92	0xbbd3d707	-0.0064648422
93	0x3b0dfefd	0.0021666877
94	0xbadbb891	-0.0016763379
95	0x3c0126e4	0.007882807
96	0xbcc0c2e6	-0.023530435
97	0xbc7f26e4	-0.015573237
98	0x3c140734	0.0090349205
99	0xbc69235f	-0.0142296245
100	0x3c99341a	0.018701602
101	0xbc417d92	-0.011809723
102	0x3c940ca2	0.01807243
103	0x3b81cf04	0.0039614458
104	0xb9f8dea5	-0.0004746813
105	0xba7d0d55	-0.0009653171
106	0xbc3de502	-0.011590244
107	0xbca78479	-0.02044891
108	0x3b9108c2	0.004426093
109	0xbc91f5b4	-0.017817356
110	0x3c967756	0.01836745
111	0xbcd0b29f	-0.025475798
112	0x3d0c44cf	0.03424531
113	0xbcc9ff0d	-0.02465775
114	0xbc84f248	-0.01622881
115	0xbba57286	-0.0050490526
116	0xbc82f79f	-0.015987216
117	0xbbe9c82d	-0.0071344585
118	0xbb6b6996	-0.0035921088
119	0xbcca08b7	-0.024662359
120	0xbc86fb58	-0.016477272
121	0xbc887b5b	-0.016660383
122	0xbc5b1dbc	-0.013373788
123	0xbb6145ee	-0.0034373957
124	0xbbf6501d	-0.0075168745
125	0xbcb8fce8	-0.022581533
126	0xbc97be10	-0.018523246
127	0xbc43b805	-0.011945729
128	0xbc404481	-0.011735083
129	0x3bcbecd3	0.0062233
130	0x3cd86c0d	0.02641871
131	0xbbc828db	-0.006108386
132	0x3b794625	0.0038036194
133	0x3adb61fd	0.0016737577
134	0x3d04e9e5	0.03244962
135	0x3bde3f6a	0.006782462
136	0x398bf528	0.00026694802
137	0xbc84e3ba	-0.01622187
138	0x3c87cbb3	0.016576624
139	0xbc08d514	-0.008351583
140	0xba18c223	-0.00058272685
141	0xbbe5ec63	-0.007016705
142	0xbc6ecc1b	-0.01457503
143	0xbb835cf7	-0.004008885
144	0x3cbce2c7	0.023057355
145	0xbc070af0	-0.008242354
146	0x3bd4fb38	0.006499674
147	0x3c2f03cf	0.01068206
148	0x3c680071	0.0141602615
149	0x3b5a9851	0.0033354948
150	0x3b71daf6	0.0036904193
151	0x3cf62531	0.030047031
152	0xbc11dfd6	-0.008903464
153	0x3c89a75a	0.016803432
154	0x3c978266	0.018494796
155	0x3cfddab0	0.030988067
156	0x3c8e2080	0.017349482
157	0xbc984548	-0.018587723
158	0x3be21734	0.0068997387
159	0x3c1e38e6	0.00965712
160	0xbc110825	-0.008852039
161	0x3c144b47	0.009051151
162	0x3cdb9c02	0.026807789
163	0xbc677813	-0.014127749
164	0xbbe594fa	-0.007006285
165	0xbc231bb0	-0.009955332
166	0x39f0c645	0.0004592409
167	0x3bbe5397	0.0058083045
168	0xbccf3220	-0.025292456
169	0xbc21b3a9	-0.0098694945
170	0xbb8be4e8	-0.004269231
171	0xbb8feb82	-0.0043920884
172	0x3c882bf9	0.01662253
173	0xbab847c6	-0.0014059476
174	0xbcba5cc4	-0.022749312
175	0x3bf6c08a	0.0075302767
176	0x3c1619c9	0.009161421
177	0xbc57c7c7	-0.013170189
178	0x3c674cc9	0.014117428
179	0x3cab7459	0.020929502
180	0xbadd0ee6	-0.0016865402
181	0x3b044859	0.0020184724
182	0x3c244746	0.010026759
183	0xbb2bb9c9	-0.0026203266
184	0x3c3469a4	0.011011515
185	0xba9637f9	-0.0011460773
186	0x3bf77aed	0.0075524957
187	0xbb6fd759	-0.0036596863
188	0x3cbb9752	0.022899304
189	0x3c3058d8	0.0107633695
190	0x3c80236c	0.01564189
191	0x3b3374c0	0.002738282
192	0x3cb5db21	0.022199215
193	0x3c8a74d8	0.016901419
194	0xbcf9570d	-0.030437017
195	0xbcbe45b2	-0.023226593
196	0x3c1ffcf8	0.009764902
197	0xbc784f2b	-0.015155594
198	0x3c8a863a	0.016909707
199	0x3ba9ab5d	0.005177899
200	0x3c5670ba	0.0130884
201	0xbbcc8567	-0.0062414887
202	0x3c816a36	0.015797716
203	0xb989f61a	-0.00026314036
204	0x3cb6ac30	0.022298902
205	0x3c27dccb	0.010245512
206	0x3c5ce463	0.013482186
207	0x3c04fd6e	0.008117063
208	0xbb0ce26a	-0.0021497258
209	0x3cb34d4e	0.021887448
210	0x3c35d916	0.011099121
211	0x3c11d20c	0.008900177
212	0xbcbc422a	-0.022980768
213	0x3c8cbc92	0.017179761
214	0xbd0be59c	-0.03415452
215	0x3cc0a38c	0.023515485
216	0xbca80e54	-0.020514645
217	0x3d248e59	0.040174816
218	0x3c50b344	0.012738053
219	0x3cb8acbc	0.022543304
220	0xbabc071e	-0.0014345383
221	0x3a817c05	0.000987888
222	0x3ceade73	0.028670525
223	0x3b69e76f	0.0035690924
224	0x3ccdb6e2	0.02511162
225	0x3ccd5166	0.025063228
226	0x3bbbe2f3	0.0057338416
227	0x3c01f664	0.007932279
228	0xbc8a4fcc	-0.016883753
229	0x3cae347c	0.02126526
230	0xbcbe0102	-0.02319384
231	0x3b28ff3d	0.00257869
232	0xbc23b026	-0.0099907275
233	0x3b37c15f	0.0028038842
234	0xbbbe757d	-0.0058123455
235	0x3c6c2b77	0.01441466
236	0xb9508622	-0.00019886394
237	0x3cd3b1fe	0.02584171
238	0xbb9246b1	-0.0044639935
239	0x3c7ea861	0.015543074
240	0xbc024554	-0.007951099
241	0x3caecbe7	0.021337463
242	0xbab9a570	-0.0014163684
243	0xbcb37a7a	-0.021908987
244	0x3c9d0c41	0.019170882
245	0x3aeb904a	0.0017972079
246	0x3c7b317b	0.015331621
247	0x3b53bd23	0.003230878
248	0x3c7d788d	0.015470636
249	0x3cc5f27c	0.024163477
250	0x3c306e61	0.010768504
251	0x3c554d75	0.0130189555
252	0x3b446359	0.0029966442
253	0xbc243584	-0.010022525
254	0x3c0b5fef	0.008506759
255	0x3cdaa882	0.026691679

action_model._discrete_distribution.branches.1.bias f4 [2]
0	0x3ca23be3	0.019803947
1	0xbca23bec	-0.019803964

onnx::Div_78 f4 [405]
0	0x3b395a1a	0.0028282464
1	0x3ab95a49	0.0014141287
2	0x3ab95a49	0.0014141287
3	0x3b928774	0.0044717137
4	0x3b928774	0.0044717137
5	0x3b395a1a	0.0028282464
6	0x3ab95a49	0.0014141287
7	0x3ab95a49	0.0014141287
8	0x3b928774	0.0044717137
9	0x3b928774	0.0044717137
10	0x3b395a1a	0.0028282464
11	0x3ab95a49	0.0014141287
12	0x3ab95a49	0.0014141287
13	0x3b928774	0.0044717137
14	0x3b928774	0.0044717137
15	0x3b395a1a	0.0028282464
16	0x3ab95a49	0.0014141287
17	0x3ab95a49	0.0014141287
18	0x3b928774	0.0044717137
19	0x3b928774	0.0044717137
20	0x3b395a1a	0.0028282464
21	0x3ab95a49	0.0014141287
22	0x3ab95a49	0.0014141287
23	0x3b928774	0.0044717137
24	0x3b928774	0.0044717137
25	0x3b395a1a	0.0028282464
26	0x3ab95a49	0.0014141287
27	0x3ab95a49	0.0014141287
28	0x3b928774	0.0044717137
29	0x3b928774	0.0044717137
30	0x3b395a1a	0.0028282464
31	0x3ab95a49	0.0014141287
32	0x3ab95a49	0.0014141287
33	0x3b8b027f	0.004242241
34	0x3b8b0e1c	0.0042436253
35	0x3b395a1a	0.0028282464
36	0x3ab95a49	0.0014141287
37	0x3ab95a49	0.0014141287
38	0x3b928774	0.0044717137
39	0x3b928774	0.0044717137
40	0x3b395a1a	0.0028282464
41	0x3ab95a49	0.0014141287
42	0x3ab95a49	0.0014141287
43	0x3b8b027f	0.004242241
44	0x3b8b0919	0.004243028
45	0x3b395a1a	0.0028282464
46	0x3ab95a49	0.0014141287
47	0x3ab95a49	0.0014141287
48	0x3b928774	0.0044717137
49	0x3b928774	0.0044717137
50	0x3b395a1a	0.0028282464
51	0x3ab95a49	0.0014141287
52	0x3ab95a49	0.0014141287
53	0x3b8b027f	0.004242241
54	0x3b8b06c4	0.00424275
55	0x3b395a1a	0.0028282464
56	0x3ab95a49	0.0014141287
57	0x3ab95a49	0.0014141287
58	0x3b928774	0.0044717137
59	0x3b928774	0.0044717137
60	0x3b395a1a	0.0028282464
61	0x3ab95a49	0.0014141287
62	0x3ab95a49	0.0014141287
63	0x3b8b027f	0.004242241
64	0x3b8b057e	0.004242598
65	0x3b395a1a	0.0028282464
66	0x3ab95a49	0.0014141287
67	0x3ab95a49	0.0014141287
68	0x3b928774	0.0044717137
69	0x3b928774	0.0044717137
70	0x3b395a1a	0.0028282464
71	0x3ab95a49	0.0014141287
72	0x3ab95a49	0.0014141287
73	0x3b8b027f	0.004242241
74	0x3b8b04ba	0.004242507
75	0x3b395a1a	0.0028282464
76	0x3ab95a49	0.0014141287
77	0x3ab95a49	0.0014141287
78	0x3b928774	0.0044717137
79	0x3b928774	0.0044717137
80	0x3b395a1a	0.0028282464
81	0x3ab95a49	0.0014141287
82	0x3ab95a49	0.0014141287
83	0x3b8b027f	0.004242241
84	0x3b8b043d	0.0042424486
85	0x3b395a1a	0.0028282464
86	0x3ab95a49	0.0014141287
87	0x3ab95a49	0.0014141287
88	0x3b928774	0.0044717137
89	0x3b928774	0.0044717137
90	0x3b395a1a	0.0028282464
91	0x3ab95a49	0.0014141287
92	0x3ab95a49	0.0014141287
93	0x3b8b027f	0.004242241
94	0x3b8b03e6	0.004242408
95	0x3b395a1a	0.0028282464
96	0x3ab95a49	0.0014141287
97	0x3ab95a49	0.0014141287
98	0x3b928774	0.0044717137
99	0x3b928774	0.0044717137
100	0x3b395a1a	0.0028282464
101	0x3ab95a49	0.0014141287
102	0x3ab95a49	0.0014141287
103	0x3b8b027f	0.004242241
104	0x3b8b03a8	0.004242379
105	0x3b395a1a	0.0028282464
106	0x3ab95a49	0.0014141287
107	0x3ab95a49	0.0014141287
108	0x3b928774	0.0044717137
109	0x3b928774	0.0044717137
110	0x3b395a1a	0.0028282464
111	0x3ab95a49	0.0014141287
112	0x3ab95a49	0.0014141287
113	0x3b8b027f	0.004242241
114	0x3b8b037b	0.0042423583
115	0x3b395a1a	0.0028282464
116	0x3ab95a49	0.0014141287
117	0x3ab95a49	0.0014141287
118	0x3b928774	0.0044717137
119	0x3b928774	0.0044717137
120	0x3b395a1a	0.0028282464
121	0x3ab95a49	0.0014141287
122	0x3ab95a49	0.0014141287
123	0x3b8b027f	0.004242241
124	0x3b8b0359	0.0042423424
125	0x3b395a1a	0.0028282464
126	0x3ab95a49	0.0014141287
127	0x3ab95a49	0.0014141287
128	0x3b928774	0.0044717137
129	0x3b928774	0.0044717137
130	0x3b395a1a	0.0028282464
131	0x3ab95a49	0.0014141287
132	0x3ab95a49	0.0014141287
133	0x3b8b027f	0.004242241
134	0x3b8b033e	0.00424233
135	0x3b395a1a	0.0028282464
136	0x3b39599a	0.0028282166
137	0x3ab95a49	0.0014141287
138	0x3b75315a	0.003741345
139	0x3b7d9b07	0.003869714
140	0x3b395a1a	0.0028282464
141	0x3ab95a49	0.0014141287
142	0x3ab95a49	0.0014141287
143	0x3b8b027f	0.004242241
144	0x3b8b0329	0.00424232
145	0x3b395a1a	0.0028282464
146	0x3b39599a	0.0028282166
147	0x3ab95a49	0.0014141287
148	0x3b75315a	0.003741345
149	0x3b7c9048	0.0038538147
150	0x3b395a1a	0.0028282464
151	0x3ab95a49	0.0014141287
152	0x3ab95a49	0.0014141287
153	0x3b8b027f	0.004242241
154	0x3b8b0319	0.0042423126
155	0x3b395a1a	0.0028282464
156	0x3b2084a0	0.0024493113
157	0x3ab95a49	0.0014141287
158	0x3b75315a	0.003741345
159	0x3b7a348e	0.0038178298
160	0x3b395a1a	0.0028282464
161	0x3ab95a49	0.0014141287
162	0x3ab95a49	0.0014141287
163	0x3b8b027f	0.004242241
164	0x3b8b030c	0.0042423066
165	0x3b395a1a	0.0028282464
166	0x3b2084a0	0.0024493113
167	0x3ab95a49	0.0014141287
168	0x3b75315a	0.003741345
169	0x3b7a2c99	0.0038173555
170	0x3b395a1a	0.0028282464
171	0x3ab95a49	0.0014141287
172	0x3ab95a49	0.0014141287
173	0x3b8b027f	0.004242241
174	0x3b8b0301	0.0042423015
175	0x3b395a1a	0.0028282464
176	0x3b031031	0.0019998665
177	0x3ab95a49	0.0014141287
178	0x3b75315a	0.003741345
179	0x3b78a9af	0.0037942936
180	0x3b395a1a	0.0028282464
181	0x3ab95a49	0.0014141287
182	0x3ab95a49	0.0014141287
183	0x3b8b027f	0.004242241
184	0x3b8b02f8	0.0042422973
185	0x3b395a1a	0.0028282464
186	0x3b031031	0.0019998665
187	0x3ab95a49	0.0014141287
188	0x3b75315a	0.003741345
189	0x3b78df78	0.0037974995
190	0x3b395a1a	0.0028282464
191	0x3ab95a49	0.0014141287
192	0x3ab95a49	0.0014141287
193	0x3b8b027f	0.004242241
194	0x3b8b02f1	0.004242294
195	0x3b395a1a	0.0028282464
196	0x3ab95a49	0.0014141287
197	0x3ab95a49	0.0014141287
198	0x3b63012a	0.0034638145
199	0x3b65a1aa	0.0035038986
200	0x3b395a1a	0.0028282464
201	0x3ab95a49	0.0014141287
202	0x3ab95a49	0.0014141287
203	0x3b8b027f	0.004242241
204	0x3b8b02ec	0.0042422917
205	0x3b395a1a	0.0028282464
206	0x3ab95a49	0.0014141287
207	0x3ab95a49	0.0014141287
208	0x3b63012a	0.0034638145
209	0x3b6579dd	0.0035015263
210	0x3b395a1a	0.0028282464
211	0x3ab95a49	0.0014141287
212	0x3ab95a49	0.0014141287
213	0x3b8b027f	0.004242241
214	0x3b8b02e7	0.0042422893
215	0x3b395a1a	0.0028282464
216	0x3ab95a49	0.0014141287
217	0x3ab95a49	0.0014141287
218	0x3b4f39e4	0.00316202
219	0x3b53e5aa	0.0032332935
220	0x3b395a1a	0.0028282464
221	0x3ab95a49	0.0014141287
222	0x3ab95a49	0.0014141287
223	0x3b8b027f	0.004242241
224	0x3b8b02e3	0.0042422875
225	0x3b395a1a	0.0028282464
226	0x3ab95a49	0.0014141287
227	0x3ab95a49	0.0014141287
228	0x3b4f39e4	0.00316202
229	0x3b53c55d	0.0032313683
230	0x3b395a1a	0.0028282464
231	0x3ab95a49	0.0014141287
232	0x3ab95a49	0.0014141287
233	0x3b8b027f	0.004242241
234	0x3b8b02e1	0.0042422866
235	0x3b395a1a	0.0028282464
236	0x3ab95a49	0.0014141287
237	0x3ab95a49	0.0014141287
238	0x3b2084a5	0.0024493125
239	0x3b2de883	0.0026536293
240	0x3b395a1a	0.0028282464
241	0x3ab95a49	0.0014141287
242	0x3ab95a49	0.0014141287
243	0x3b8b027f	0.004242241
244	0x3b8b02df	0.0042422856
245	0x3b395a1a	0.0028282464
246	0x3ab95a49	0.0014141287
247	0x3ab95a49	0.0014141287
248	0x3b2084a5	0.0024493125
249	0x3b2db752	0.0026506972
250	0x3b395a1a	0.0028282464
251	0x3ab95a49	0.0014141287
252	0x3ab95a49	0.0014141287
253	0x3b8b027f	0.004242241
254	0x3b8b02de	0.004242285
255	0x3b395a1a	0.0028282464

onnx::Div_81 f4 [13]
0	0x3ab95a49	0.0014141287
1	0x3ab95a49	0.0014141287
2	0x3ab95a49	0.0014141287
3	0x3ab95a49	0.0014141287
4	0x3ab95a49	0.0014141287
5	0x3ab95a49	0.0014141287
6	0x3ab95a49	0.0014141287
7	0x3ab95a49	0.0014141287
8	0x3ab95a49	0.0014141287
9	0x3ab95a49	0.0014141287
10	0x3ab95a49	0.0014141287
11	0x3ab95a49	0.0014141287
12	0x3ab95a49	0.0014141287
