Assets/Training/results/run_3/PlayerAgentBehavior/PlayerAgentBehavior-1948.onnx (onnx, 286675 bytes, 11 tensors)

65 f4 [412]
000000 bc 21 3d 42 54 dd 6c 43 53 8f b9 3c 05 1e df 40
       47.282944 236.86456 0.02265135 6.9724145
000010 cc 54 bd 40 53 8f b9 3c 53 8f b9 3c 53 8f b9 3c
       5.916601 0.02265135 0.02265135 0.02265135
000020 06 a6 16 41 07 1f 2b 3e 53 8f b9 3c e5 18 c2 40
       9.415533 0.16711055 0.02265135 6.065539
000030 e3 0b 69 3e 53 8f b9 3c 8c 6c f3 40 ed f4 3a 3e
       0.2275844 0.02265135 7.6070004 0.18257494
000040 53 8f b9 3c be ad 83 40 32 c6 41 3e 53 8f b9 3c
       0.02265135 4.114959 0.18923262 0.02265135
000050 58 17 09 41 fa 6e 21 3e 53 8f b9 3c e0 0f 43 41
       8.568199 0.1576499 0.02265135 12.191376
000060 d8 a5 cc 3e 53 8f b9 3c a7 49 34 41 46 74 a6 3e
       0.3997028 0.02265135 11.267982 0.32510585
000070 53 8f b9 3c 65 ee c5 40 e3 0b 69 3e 53 8f b9 3c
       0.02265135 6.185351 0.2275844 0.02265135
000080 f7 df 3d 3f dd 73 45 3e 53 8f b9 3c 07 76 ed 40
       0.7416987 0.1928248 0.02265135 7.4206576
000090 ed f4 3a 3e 53 8f b9 3c 8b b5 1e 41 95 52 d5 3e
       0.18257494 0.02265135 9.919322 0.41664568
0000a0 53 8f b9 3c 6c c8 50 41 63 7b a3 3e 53 8f b9 3c
       0.02265135 13.048931 0.31930074 0.02265135
0000b0 52 90 13 40 fd 4a 6a 3e 53 8f b9 3c 29 ac 63 41
       2.3056836 0.22880168 0.02265135 14.229531
0000c0 78 c0 20 3f 53 8f b9 3c 5b 94 46 41 de 31 6a 3e
       0.62793684 0.02265135 12.41122 0.22870585
0000d0 53 8f b9 3c 6a b9 66 41 33 57 21 3f 53 8f b9 3c
       0.02265135 14.420267 0.6302368 0.02265135
0000e0 48 24 65 41 d8 ed 21 3f 53 8f b9 3c 55 8b 9e 40
       14.321358 0.63253546 0.02265135 4.9545083
0000f0 27 5e 48 3e 53 8f b9 3c 54 7e 55 41 79 c1 06 3f
       0.19567166 0.02265135 13.343342 0.52638966
000100 53 8f b9 3c c0 fc 5f 40 b1 39 08 3f 53 8f b9 3c
       0.02265135 3.4998016 0.5321303 0.02265135
000110 49 f3 0d 41 f1 40 23 3e 53 8f b9 3c 1a 26 28 41
       8.871896 0.15942742 0.02265135 10.509302
000120 ce 98 34 3e 53 8f b9 3c 83 82 f1 40 ed f4 3a 3e
       0.17636415 0.02265135 7.5471816 0.18257494
000130 53 8f b9 3c 53 44 68 41 d8 ed 21 3f 53 8f b9 3c
       0.02265135 14.516681 0.63253546 0.02265135
000140 1e e8 35 41 b1 a3 d5 3e 53 8f b9 3c 9a 4c 0b 41
       11.369169 0.4172645 0.02265135 8.706202
000150 b0 73 9b 3e 53 8f b9 3c 55 8b 9e 40 b4 11 41 3d
       0.303617 0.02265135 4.9545083 0.047136024
000160 53 8f b9 3c 16 07 e6 40 ed f4 3a 3e 53 8f b9 3c
       0.02265135 7.188365 0.18257494 0.02265135
000170 54 e8 4d 41 d8 74 79 3e 53 8f b9 3c 18 0e 62 41
       12.869221 0.24360979 0.02265135 14.128441
000180 78 c0 20 3f 53 8f b9 3c c3 2a 1b 41 c4 3c 2f 3e
       0.62793684 0.02265135 9.69794 0.17113024
000190 53 8f b9 3c 09 d0 57 41 d3 04 20 3f 53 8f b9 3c
       0.02265135 13.48829 0.6250736 0.02265135
0001a0 37 4e 97 40 1f 5a 31 3d 53 8f b9 3c 2c 5a 32 41
       4.7282977 0.043298837 0.02265135 11.147015
0001b0 df b6 65 3e 53 8f b9 3c 1b 9f 24 41 79 4b 33 3e
       0.22433041 0.02265135 10.288844 0.1750926
0001c0 53 8f b9 3c 0a 84 53 41 57 86 d4 3e 53 8f b9 3c
       0.02265135 13.219736 0.41508743 0.02265135
0001d0 44 c4 c9 40 e3 0b 69 3e 53 8f b9 3c 05 ba 0e 41
       6.305208 0.2275844 0.02265135 8.920415
0001e0 f1 40 23 3e 53 8f b9 3c 11 4d 20 40 b0 eb 62 3e
       0.15942742 0.02265135 2.5047038 0.2216022
0001f0 53 8f b9 3c 34 73 76 40 4c e9 9b 3e 53 8f b9 3c
       0.02265135 3.8507814 0.3045143 0.02265135
000200 4f db 44 41 97 b7 9f 3e 53 8f b9 3c 93 2d 40 41
       12.303542 0.31194755 0.02265135 12.0111265
000210 f9 4d 01 3f 53 8f b9 3c ef ca e7 40 ed f4 3a 3e
       0.505096 0.02265135 7.243522 0.18257494
000220 53 8f b9 3c b6 dc 1d 41 ee 7e d5 3e 53 8f b9 3c
       0.02265135 9.8663845 0.41698402 0.02265135
000230 ba 2c 21 41 ef b0 30 3e 53 8f b9 3c c9 45 3c 41
       10.07342 0.17254995 0.02265135 11.767037
000240 52 be 00 3f 53 8f b9 3c 70 88 0a 41 56 b2 8d 3e
       0.50290406 0.02265135 8.65831 0.27675122
000250 53 8f b9 3c 2c 8b 38 41 35 2e 00 3f 53 8f b9 3c
       0.02265135 11.5339775 0.50070506 0.02265135
000260 6d 3a 08 41 91 9c 1f 3e 53 8f b9 3c 29 2b ce 40
       8.514264 0.15587069 0.02265135 6.4427686
000270 e3 0b 69 3e 53 8f b9 3c 37 4e 97 40 27 5e 48 3e
       0.2275844 0.02265135 4.7282977 0.19567166
000280 53 8f b9 3c ab 00 d2 40 e3 0b 69 3e 53 8f b9 3c
       0.02265135 6.5625815 0.2275844 0.02265135
000290 bc f0 18 41 07 1f 2b 3e 53 8f b9 3c 3a c4 eb 40
       9.558773 0.16711055 0.02265135 7.3677034
0002a0 ed f4 3a 3e 53 8f b9 3c 5e 1b 0c 41 56 b2 8d 3e
       0.18257494 0.02265135 8.756681 0.27675122
0002b0 53 8f b9 3c 44 3a 46 41 af e4 24 3e 53 8f b9 3c
       0.02265135 12.389225 0.16102861 0.02265135
0002c0 a8 9d 38 41 1e c6 cd 3e 53 8f b9 3c 48 52 62 41
       11.53849 0.40190214 0.02265135 14.145088
0002d0 42 39 0e 3f 53 8f b9 3c d3 b3 24 41 6a 66 82 3d
       0.5555612 0.02265135 10.293902 0.0636719
0002e0 53 8f b9 3c 8d 46 f3 40 6c 89 85 3d 53 8f b9 3c
       0.02265135 7.602362 0.06520352 0.02265135
0002f0 39 f5 34 41 60 8b 82 3e 53 8f b9 3c 4b c9 36 41
       11.309869 0.2549696 0.02265135 11.424144
000300 f5 8f b0 3e 53 8f b9 3c 04 89 ed 40 6c 89 85 3d
       0.3448483 0.02265135 7.4229755 0.06520352
000310 53 8f b9 3c e0 29 33 41 2e 95 2b 3e 53 8f b9 3c
       0.02265135 11.197723 0.16756126 0.02265135
000320 0b 61 3c 41 91 86 cb 3e 53 8f b9 3c 50 4e 97 40
       11.773692 0.39751104 0.02265135 4.7283096
000330 6e c3 18 3d 53 8f b9 3c 9c 18 60 41 42 39 0e 3f
       0.03729575 0.02265135 14.006008 0.5555612
000340 53 8f b9 3c 85 9d 9e 40 6e c3 18 3d 53 8f b9 3c
       0.02265135 4.9567285 0.03729575 0.02265135
000350 6d 3f 40 41 c9 e5 ce 3e 53 8f b9 3c 41 27 21 41
       12.015485 0.40409687 0.02265135 10.072083
000360 b9 db 84 3d 53 8f b9 3c c4 52 42 41 bb ce b2 3e
       0.06487221 0.02265135 12.145206 0.34923348
000370 53 8f b9 3c 2c ce 64 41 47 cf 0d 3f 53 8f b9 3c
       0.02265135 14.300335 0.55394405 0.02265135
000380 96 38 44 41 bd 8b 82 3e 53 8f b9 3c 21 1a 69 41
       12.263815 0.25497237 0.02265135 14.568879
000390 6e 99 0f 3f 53 8f b9 3c da 59 6b 41 46 5e 0f 3f
       0.5609349 0.02265135 14.709436 0.56003225
0003a0 53 8f b9 3c d1 c1 9e 40 0e ef 04 3e 53 8f b9 3c
       0.02265135 4.961159 0.12981817 0.02265135
0003b0 83 82 f1 40 6c 89 85 3d 53 8f b9 3c e6 e7 e5 40
       7.5471816 0.06520352 0.02265135 7.184558
0003c0 6c 89 85 3d 53 8f b9 3c 68 60 97 40 97 68 09 3e
       0.06520352 0.02265135 4.7305183 0.13418804
0003d0 53 8f b9 3c 9e c4 eb 40 6c 89 85 3d 53 8f b9 3c
       0.02265135 7.367751 0.06520352 0.02265135
0003e0 16 b9 e7 40 6c 89 85 3d 53 8f b9 3c cf 3a 28 41
       7.2413435 0.06520352 0.02265135 10.514358
0003f0 6a 66 82 3d 53 8f b9 3c 93 fa 66 41 7b fb 0c 3f
       0.0636719 0.02265135 14.436175 0.5507123

action_model._discrete_distribution.branches.0.bias f4 [3]
000000 83 57 b7 ba e6 24 37 bb fd e7 2a 3b
       -0.0013987873 -0.0027945577 0.0026078217

action_model._discrete_distribution.branches.0.weight f4 [3, 128]
000000 56 46 c2 ba 26 2a 0e bc b2 f9 d3 3b 42 cb 6c 3b
       -0.0014821987 -0.008677041 0.006468975 0.0036131893
000010 10 6c 66 bc 11 a6 ac 3b 0f 5e 4f bc 46 bf 0e bc
       -0.01406385 0.00526882 -0.012656703 -0.008712595
000020 32 ef 21 bc 44 46 e2 b7 bb 16 be 3a 55 56 15 bb
       -0.009883689 -2.697402e-05 0.0014502624 -0.0022787054
000030 f3 de 33 3c 5a c9 4e 3b 07 94 a7 ba e2 c7 5c 3c
       0.010978448 0.003155312 -0.0012785204 0.01347539
000040 e3 8d fe 3b 81 48 09 3c 4c fd 68 3b e3 68 42 3c
       0.007768379 0.008379103 0.0035551367 0.011865827
000050 26 be 46 bb e5 f9 71 3c 0d 1d 05 ba 2c a4 07 3c
       -0.003032574 0.014769052 -0.0005077876 0.008278888
000060 17 1e 7f 3c 14 7c 29 3c 8f 93 8b bc 47 13 73 bc
       0.015571139 0.010344524 -0.017038135 -0.014836139
000070 66 00 20 ba 6c c4 03 ba 71 81 cc bb c2 90 18 bc
       -0.0006103575 -0.00050265226 -0.0062410166 -0.009311857
000080 89 83 2b bb 5b ba b2 3a 23 b2 2f 3c 37 3f 20 3c
       -0.002617093 0.001363586 0.010723623 0.009780697
000090 51 e3 da 3c 37 f0 4e 3c 7f bb 02 3b c7 08 e3 3b
       0.026719721 0.012630514 0.0019948182 0.0069285366
0000a0 9e b2 08 3c 78 42 67 3c 21 57 8f 3c 86 3e 85 bc
       0.008343367 0.0141149685 0.017497601 -0.016265165
0000b0 15 42 3b bc 6e 3f cd ba 6b a3 81 bc 2b ec 08 3c
       -0.011429329 -0.0015659162 -0.015824994 0.008357088
0000c0 53 8e 63 3a 6c 78 ca bc ab cb 42 3c 8a a4 26 bc
       0.0008680571 -0.024715625 0.011889379 -0.010171065
0000d0 69 c7 bf 3c a5 3c fe bb d8 ea 8e bc a0 3b 44 3c
       0.023410516 -0.0077586942 -0.017445967 0.011977106
0000e0 78 a0 8e 3b d8 97 6d ba 19 2f 36 3a 5d 09 03 bb
       0.0043526255 -0.0009063459 0.0006949767 -0.0019994595
0000f0 2b 09 8b ba 1d a5 a8 bb 66 4c a1 ba e1 69 3b 3c
       -0.0010607591 -0.005146636 -0.0012306094 0.011438818
000100 25 35 c3 39 bd df d7 ba d3 ce b4 bb ca ed 56 bc
       0.00037232894 -0.0016469877 -0.0055178194 -0.013118217
000110 95 aa 6c 3b ad 30 ce 3b 9d 20 3a 3c 57 52 bb ba
       0.0036112417 0.0062924237 0.011360315 -0.0014291507
000120 ed 62 35 bc 24 19 8d 3c 57 ff 91 3b 4b 06 04 3c
       -0.011070949 0.017223902 0.0044554877 0.008058141
000130 58 78 5b 3b 6e be 6c bc 00 56 49 3c 22 e9 d1 3b
       0.0033488479 -0.014449699 0.01228857 0.0064059654
000140 eb b1 d6 bb 57 09 1f bb cf f7 18 3c c6 96 60 3b
       -0.006551971 -0.0024267042 0.009336426 0.0034269555
000150 d2 fe 6a bb 56 7d 3a ba bd 9f 90 ba 1e 47 45 3c
       -0.003585745 -0.00071140134 -0.0011033934 0.012040881
000160 7c 64 cb 3b 36 76 a1 3c e3 51 ef 3b 90 86 b3 ba
       0.006207047 0.019709688 0.007303463 -0.0013696719
000170 c7 36 a4 bc 9c 64 41 bc b9 c4 5b 3a b8 07 6c 3b
       -0.020045651 -0.011803772 0.0008383501 0.0036015343
000180 77 7a 93 3b ac 5d a3 ba b3 5d 93 ba f7 86 7b 3b
       0.004500683 -0.001246383 -0.0011243135 0.0038380006
000190 4f 81 48 bc 7d 53 18 3c 5a 1a 70 bc 4d 4b 65 3c
       -0.012237861 0.009297249 -0.01465472 0.013995004
0001a0 b3 c8 42 bc 7a 03 19 3b 17 7a 83 3b 03 8a fd 3b
       -0.011888671 0.002334802 0.004012357 0.0077373995
0001b0 27 75 95 3b 11 01 8a bb 37 c8 81 bb d0 79 c9 3c
       0.004561085 -0.004211553 -0.003960635 0.024594218
0001c0 08 20 dc bb e1 17 0b 3c 8c e7 dc bb 5c c5 f2 ba
       -0.0067176856 0.00848958 -0.0067414697 -0.0018521952
0001d0 23 ef 3d bc de 33 bf 3b ed 49 e1 bb fc f3 0d bc
       -0.011592659 0.0058350405 -0.0068752677 -0.008664127
0001e0 f5 4f bd 3b df 2b ca bb 4c 5f a3 bc 6f b6 b9 bb
       0.005777354 -0.0061697806 -0.019942902 -0.0056674997
0001f0 e5 76 56 3c 1a b0 8c bb 43 db 80 3a 70 6f 26 3c
       0.01308987 -0.004293454 0.000983097 0.010158405
000200 96 1e 9a bb ca 00 e1 3b 38 15 08 bc 54 05 1a ba
       -0.004703353 0.006866549 -0.00830584 -0.0005875428
000210 f2 dc 2b 3b 7c dd 1d 3b 7e 76 b6 3b 83 08 09 3c
       0.0026224223 0.0024088314 0.0055683246 0.008363846
000220 44 b7 66 3b 0c b7 01 3c f0 87 45 bc 5c 70 9e 3b
       0.003520445 0.007917177 -0.012056336 0.0048351716
000230 c2 ad 8c 3b 7f 38 42 bc 5e c1 56 bb fd 33 88 39
       0.0042931745 -0.01185429 -0.0032769064 0.00025978676
000240 23 27 32 3c 8f 74 ee ba 44 fd 50 3a 5d ca 11 3b
       0.010873589 -0.0018192696 0.000797231 0.0022245862
000250 0d f8 56 3c 44 38 21 bc dd 5d e0 3a 27 a3 57 3b
       0.013120663 -0.009840075 0.0017117817 0.0032903643
000260 8a c9 99 bc be b4 68 3a 29 3a a8 ba 0c 51 bd bb
       -0.01877286 0.00088770303 -0.0012834716 -0.005777484
000270 48 1c 48 3c c2 18 97 bb f6 d4 e6 ba 9d 91 8e bb
       0.012213774 -0.0046111057 -0.0017611075 -0.0043508545
000280 5c ef a0 ba 3a 0d 8a bb d7 af 2f 3b 48 38 dc 3b
       -0.0012278366 -0.0042130025 0.002680769 0.0067205764
000290 3d 5b 19 3c 03 9f 08 bb ba ef 81 bc d4 5f 39 bb
       0.009360132 -0.0020846731 -0.01586138 -0.0028285878
0002a0 89 eb 23 ba 67 05 ad bb c5 c6 70 3c da 30 63 bb
       -0.0006253054 -0.005280185 0.014695828 -0.003466657
0002b0 71 98 cc bb 39 e1 1f ba 28 e1 70 3b 57 ac b8 3b
       -0.0062437584 -0.00060989294 0.0036755297 0.005635779
0002c0 3d b7 12 bc a4 99 83 3b 14 9b 83 ba 8b ee 84 bc
       -0.00895482 0.004016118 -0.0010040724 -0.016227027
0002d0 b8 6f b3 bb e7 9a 79 bc fc 24 fe bb 22 72 17 bc
       -0.0054759644 -0.0152346855 -0.0077558737 -0.00924352
0002e0 04 76 e2 ba aa 31 5f bb 72 2f 11 3c 05 b9 6e bc
       -0.0017277603 -0.0034056702 0.0088614095 -0.014570479
0002f0 5c cb 84 3c 27 97 29 3c a6 be 8c bb ee 80 3a bb
       0.01621025 0.010350979 -0.004295188 -0.0028458196
000300 24 5c 49 3c 87 88 a1 3b 06 5c 1b bc 41 25 cc bc
       0.012290034 0.0049296054 -0.009482389 -0.024920108
000310 c2 0c 71 3b 17 de ea 3b 5a 05 a1 bc c2 85 cb 3b
       0.0036781286 0.0071675885 -0.019655872 0.0062110135
000320 d3 95 a7 ba df 90 81 3c 61 ad 2b 3c e9 0b 60 bc
       -0.001278574 0.01581615 0.0104783485 -0.013674715
000330 9a 3b b4 3b 23 c1 78 3c 2b e6 a1 bb 50 c4 33 3c
       0.005500269 0.015182766 -0.0049407682 0.0109720975
000340 7e 96 db bb 46 83 2f 3b 2b 69 a6 bb ee 23 f1 3a
       -0.0067012897 0.0026781126 -0.005078455 0.0018397549
000350 d0 09 46 bc 66 64 6b 3c b9 76 43 bb ee 6d f2 bb
       -0.0120873 0.014367199 -0.0029825403 -0.0073983585
000360 1f 5c 71 ba f8 b1 b3 3b 5c e2 fa 3b 9a 01 94 bb
       -0.00092071475 0.005483862 0.0076563787 -0.0045167925
000370 95 75 55 3b cf 75 d1 3b fe 4d 80 39 59 8e c8 b9
       0.0032571305 0.0063922177 0.0002447217 -0.0003825303
000380 e2 30 17 3b 03 33 54 bc dc 92 a9 bb 15 51 09 bc
       0.0023069908 -0.012951615 -0.0051749777 -0.008381148
000390 e6 da 40 3b db b4 16 bb 16 39 43 3b 8a ba 2c bc
       0.0029427349 -0.0022995982 0.0029788665 -0.010542521
0003a0 23 9c 6c bb 47 8a 25 bb 34 3f 87 bb e8 17 9e 3c
       -0.0036103807 -0.0025259422 -0.0041274074 0.019298509
0003b0 ed 63 01 bb 5b 54 51 bc bd 0a 9b bb 74 c8 9c b9
       -0.0019743398 -0.01277646 -0.0047315047 -0.00029903988
0003c0 75 05 13 bb 4b f4 54 3a bf a0 dc ba 40 62 aa ba
       -0.0022433673 0.00081235607 -0.0016832574 -0.0012999251
0003d0 0b e6 73 3b 1c a9 66 3c 55 e6 a4 3b c1 28 4a bb
       0.0037215974 0.014078405 0.0050323405 -0.0030847045
0003e0 47 51 96 3b 0d a3 92 ba 27 42 a8 bb c0 1c 22 3c
       0.0045873257 -0.0011187509 -0.005134839 0.00989455
0003f0 aa be a5 3b cc 5c 3a 3c dc cf 6a bb b9 13 71 bc
       0.0050581293 0.011374664 -0.003582946 -0.014714175

action_model._discrete_distribution.branches.1.bias f4 [2]
000000 3a 43 57 bc 3d 43 57 3c
       -0.013138587 0.013138589

action_model._discrete_distribution.branches.1.weight f4 [2, 128]
000000 78 d0 7a bc 9f b1 4b bb b2 22 9b 3c 78 2c 49 3c
       -0.015308492 -0.0031081212 0.018937442 0.012278669
000010 d0 da 57 3c ad 05 24 bc 7e bb 38 bc 2b 00 01 bc
       0.013174728 -0.010011119 -0.01127517 -0.007873575
000020 42 97 f4 3c 08 b7 8a 3b ea d9 86 ba bf ac 6e bc
       0.029857282 0.004233245 -0.0010288332 -0.014567553
000030 4a 18 b4 bb 89 9f 7e 3c 8c 59 ce ba c3 ab 98 bc
       -0.0054960595 0.015540966 -0.001574324 -0.01863659
000040 81 ce 13 3c 6a 9d 46 bc 6f 1a 71 bc 78 7e a3 3b
       0.009021402 -0.012122491 -0.014715775 0.0049894415
000050 b9 b4 02 bc 02 88 bb bc 86 09 8f 3c 0c 2b 89 3b
       -0.007977658 -0.022892002 0.017460596 0.00418604
000060 93 bd 5f bc 5c 3b ab bb 9a 14 96 3b 11 3b 41 bc
       -0.013656038 -0.005225582 0.0045800926 -0.011793868
000070 8d ff f9 3a 34 fe 70 3c dd c9 c2 3b 85 25 87 3c
       0.0019073352 0.014709044 0.005944474 0.016497383
000080 b7 c9 a5 bc eb c7 bb 3a 6d 18 04 3b 94 c8 90 bb
       -0.020237787 0.0014326548 0.002015616 -0.004418442
000090 26 21 e0 3b 69 4b bf 3b 64 8c 5d 3c da 7c ee 3b
       0.006839889 0.005837847 0.013522241 0.007278067
0000a0 92 f8 cc bc b4 b7 89 bc 50 d3 9c 3b 28 21 52 3c
       -0.025020871 -0.01681123 0.0047859326 0.012825288
0000b0 08 05 14 3c 0e 45 b3 3b 5a cc 16 bc 7e fe b8 3c
       0.009034403 0.0054708784 -0.009203995 0.022582289
0000c0 84 03 6a bb ce 30 55 bc ea 8b 2b 3c cf 67 0d bb
       -0.0035707662 -0.013012124 0.01047037 -0.0021576767
0000d0 2b 3f 69 bc dd 1c bc 3c 62 48 ed bc 3d 8a 87 39
       -0.014236252 0.022962982 -0.028965179 0.00025852202
0000e0 75 c4 3d bb fe 3b 2b 3b b3 43 97 bb 15 f4 4b 3c
       -0.002895621 0.0026128287 -0.0046162247 0.01244833
0000f0 81 0c 4a bc e4 94 a0 3b 08 f8 25 bc 0a 9f 92 bb
       -0.012332083 0.0049005616 -0.010129936 -0.0044745253
000100 e4 91 13 3c 01 f5 4b 3a 47 04 02 bc 31 91 f1 bb
       0.009006951 0.0007780344 -0.00793559 -0.0073720445
000110 ad b2 7a 3c c5 ab be 39 79 ab 82 bc d2 5e 52 3c
       0.015301389 0.00036367602 -0.015950905 0.01283999
000120 9a a3 83 ba c3 13 ae bb 16 75 a5 bb 2e d4 8f 3c
       -0.0010043264 -0.0053124144 -0.005049358 0.01755723
000130 44 80 05 bc b6 ce 0e 3c 85 c4 8c 3b d8 b9 13 bb
       -0.008148257 0.008716276 0.004295888 -0.0022541191
000140 c2 29 24 bb ad ff 4e bc 35 a2 45 bb 01 7b 2b 3c
       -0.0025049304 -0.0126342 -0.0030156497 0.010466338
000150 6d b0 08 bc 7d 5e 85 3b d6 8a 8f 3c be d5 fa bb
       -0.008342844 0.004070102 0.017522257 -0.0076548746
000160 e8 dc 5a 3c e8 38 71 3c 76 62 2b ba 87 80 92 3c
       0.013358332 0.01472304 -0.0006537804 0.017883552
000170 eb 0e 3b ba 80 7d 82 bc 58 c5 61 3c e4 23 22 bc
       -0.0007135707 -0.015928984 0.013779961 -0.009896252
000180 90 fe b5 3a 0d 56 9e bb d8 e2 49 bc 07 8a 28 bb
       0.001388507 -0.0048320354 -0.01232215 -0.0025717036
000190 c1 0e 24 3c 89 40 fd bb 04 c5 5a ba 55 d4 40 bc
       0.010013283 -0.0077286405 -0.00083453977 -0.011769374
0001a0 ce fc 1f 3c 61 96 35 bc 7f f6 b6 3c a5 be 51 3c
       0.009764863 -0.011083216 0.022334335 0.012801801
0001b0 0e d7 cf 3b 13 5e a9 bc ff 63 e0 3a 9d 65 55 3c
       0.006342775 -0.02067474 0.0017119645 0.013024715
0001c0 c2 f3 51 bc 44 90 b0 3c a9 09 2d bc e9 76 33 3b
       -0.012814464 0.021553166 -0.010561385 0.0027384108
0001d0 2a e1 ea 3b b8 b7 40 bc 20 6f 36 bc 29 17 15 bb
       0.007167955 -0.011762552 -0.011134893 -0.00227494
0001e0 92 a0 88 bc 62 4f a5 ba 2e 3d 5e bc bb 39 fa 3b
       -0.016678128 -0.0012612159 -0.013564391 0.0076362765
0001f0 a5 53 c9 3c cd 41 40 3c b4 fc f5 bb 7b ab 61 bb
       0.024576018 0.011734438 -0.007506931 -0.0034434486
000200 71 53 89 3c b4 08 95 3c ce 62 92 bc b3 1f 57 3c
       0.01676342 0.018192627 -0.01786938 0.013130116
000210 84 df e1 bb 4e f9 0e 3c 93 81 3c bb e5 46 fb ba
       -0.0068931 0.008726431 -0.0028763756 -0.0019170908
000220 3b 62 c3 38 f0 7c 9d 3c 46 77 74 ba a7 c5 47 3b
       9.3166214e-05 0.019224614 -0.00093256345 0.00304828
000230 dd f7 5a 3b aa 4d 35 3a 1f 09 4d bb 95 03 33 3c
       0.0033411898 0.0006916175 -0.0031285954 0.010926147
000240 f7 07 0a 3c 0a 90 3f 3c 78 e2 23 3c b6 e9 a4 bb
       0.0084247505 0.011692056 0.010002725 -0.0050327433
000250 83 98 ef 3a f7 48 19 bc fb 85 ae 3b 4a 1a 09 bc
       0.0018279705 -0.009355775 0.0053260303 -0.008368084
000260 4c 68 13 bc e1 4f 0c 3c e4 21 a7 bc 4a 94 12 3c
       -0.008997034 0.0085639665 -0.020401902 0.008946488
000270 43 da 5e bc 1a 17 2c bb ab e3 a2 bb 79 e9 a2 ba
       -0.013601842 -0.0026258887 -0.004970988 -0.0012429199
000280 b3 2f 17 bb 99 a1 45 ba 4b fd 31 3b 65 d8 fc 3b
       -0.0023069202 -0.00075390335 0.002715903 0.007716226
000290 bb 95 a0 3b 56 6b 4a 3b 03 37 c2 ba 3c e9 03 bb
       0.0049006618 0.003088673 -0.001481742 -0.0020128032
0002a0 97 bf 86 3c 31 6c d1 3c 15 63 97 3b 8e b7 e8 bb
       0.016448779 0.025564285 0.004619966 -0.0071019595
0002b0 21 a8 ff b9 5f 40 a1 bc 37 08 d8 3b 15 d5 e7 bb
       -0.00048762656 -0.019684015 0.006592776 -0.007074962
0002c0 6f 56 cd 3b b4 f9 57 3c 55 57 0a bc 98 0e 99 b7
       0.006266407 0.013182092 -0.008443673 -1.8245817e-05
0002d0 9d e9 93 bb ad d9 bd bb 7a c4 ef 3b 20 0b 42 3a
       -0.004513933 -0.0057937712 0.007317123 0.00074021704
0002e0 f8 4f 80 3b a9 6a 6d bc 70 b6 14 3c e4 43 47 bc
       0.003915783 -0.014490762 0.0090767 -0.0121621825
0002f0 b9 59 13 3c 56 5f 06 3c 2e f9 83 ba 7a 00 17 bc
       0.0089935595 0.008201441 -0.0010068768 -0.009216422
000300 12 f8 cc bb 8e c2 4e 3c 72 fd 0d bc 7f 0d f4 ba
       -0.006255158 0.012619628 -0.008666383 -0.0018619745
000310 5e 85 7e bb cd f9 c0 3b d1 e5 72 3c 83 02 88 bc
       -0.0038836817 0.0058891536 0.0148253 -0.01660276
000320 26 0e 60 3c 57 dd 71 3c 43 9e bf bb 60 f4 38 3b
       0.013675248 0.014762244 -0.0058477237 0.002822183
000330 c4 1c 83 3c 66 9e 62 bb b1 e6 dd bb cc 8a d4 ba
       0.016004927 -0.0034579276 -0.0067718853 -0.0016215681
000340 35 48 62 bb ce 24 5b bb 61 82 ba 3b 5c be 7c bc
       -0.0034527902 -0.0033438685 0.005691812 -0.015426245
000350 26 f5 51 3c 7e 79 b3 bb 15 6d 13 bc dd 4e cb bb
       0.012814796 -0.0054771295 -0.008998175 -0.0062044696
000360 6a 4b 0b bc 55 44 73 3c 06 c5 2a 3c 92 05 f3 ba
       -0.008501867 0.014847835 0.010422951 -0.0018541089
000370 ed 05 7c ba 6e 86 c8 3a f4 3d 6e 3b 1b cb 01 3b
       -0.000961392 0.0015298852 0.0036352845 0.0019804898
000380 9a 21 b8 3b 7f 33 c3 3c 87 9a bd 3a 4d fb c0 3c
       0.00561924 0.023828266 0.0014465608 0.02355733
000390 c6 a3 95 3b c8 38 0d bc 4d 45 a5 3a df d3 77 3c
       0.0045666425 -0.008619495 0.0012609154 0.015126198
0003a0 0d 4e 82 bc d3 21 cf bb 4d 7f 2a bc 55 e7 e2 3b
       -0.015906358 -0.006321171 -0.010406327 0.0069245496
0003b0 73 33 bd bb 01 b3 67 bb ee a0 f4 bb e7 62 11 bb
       -0.0057739555 -0.0035354497 -0.0074654734 -0.0022184195
0003c0 11 3b 76 3c 98 ba 0d bc 15 9d 9f bc 29 0b c1 bb
       0.015028731 -0.008650444 -0.019484082 -0.005891223
0003d0 62 5c 93 bc 0c b7 c4 bb 0c 46 44 3a f8 7c 07 3c
       -0.017988387 -0.006003266 0.00074872444 0.008269541
0003e0 74 98 2d bc 8a 26 76 bc 62 fc 2e 3c 34 d7 16 bc
       -0.01059543 -0.015023837 0.01068029 -0.009206582
0003f0 25 73 31 bb 16 3f 24 bc 9b c3 6d bb fe c1 86 bc
       -0.0027076688 -0.0100248065 -0.003627992 -0.016449925

discrete_action_output_shape f4 [1, 2]
000000 00 00 40 40 00 00 00 40
       3.0 2.0

network_body._body_endoder.seq_layers.0.bias f4 [128]
000000 f0 06 08 3c 89 2d 59 bc f2 1a 7d 3c d5 4c 9b bb
       0.008302435 -0.013255485 0.015448319 -0.0047393837
000010 7a 91 fb bb 2e 66 44 bc cf 7e b7 bb 58 cc ce 3a
       -0.0076772543 -0.011987252 -0.0055998336 0.0015777452
000020 23 4a 03 bb 61 92 50 3c ad 3a 30 bc b6 85 5f bc
       -0.0020033203 0.012730212 -0.010756177 -0.013642719
000030 9b 7f d9 ba 15 03 ad 3b f1 5d 29 39 75 02 33 bc
       -0.0016593816 0.0052799084 0.00016152092 -0.010925879
000040 e8 7a d6 bb 5c b3 99 3c 74 33 3e 3b 5c d8 53 3c
       -0.0065454133 0.018762283 0.0029022368 0.012930002
000050 5f c9 29 bc f3 6b 84 ba 06 58 a4 3b 4d 21 c7 bb
       -0.010362952 -0.0010102972 0.005015376 -0.006076968
000060 48 52 05 bc f3 ee 43 bc b8 01 e1 3b 84 62 f7 bb
       -0.008137293 -0.011958825 0.00686666 -0.007549586
000070 91 83 37 bb c4 20 10 bc f9 71 45 bc e0 a5 90 39
       -0.0028002004 -0.008796874 -0.012051099 0.00027589407
000080 9c ba b2 ba d8 2c e6 bb 27 90 62 3c 60 83 a0 3b
       -0.0013635936 -0.0070243888 0.013828314 0.0048984736
000090 7c d9 86 3c b4 17 66 bb cc 56 29 3c 7c f0 c6 3a
       0.016461127 -0.0035109343 0.010335635 0.0015177871
0000a0 50 ff 47 3c 09 57 01 3c 26 4f 34 3b 2e ff 4a bc
       0.012206867 0.007894286 0.0027512996 -0.012389941
0000b0 35 d7 8f bb 2b f3 b3 3b a2 66 19 bb e2 3b 29 bc
       -0.0043896683 0.0054916344 -0.0023407121 -0.010329219
0000c0 57 71 b7 ba 6f 26 69 3c 50 00 60 bc a6 8d 9c 3b
       -0.001399557 0.014230355 -0.0136719495 0.004777628
0000d0 49 db f5 bb cd a2 0e 3c bf 59 7e ba a4 bf 47 bc
       -0.0075029475 0.008705807 -0.0009702704 -0.012191687
0000e0 7c 9f 01 bc 04 6f c5 bb 10 ca f5 bb 51 fa 37 3c
       -0.007911559 -0.006025197 -0.0075008944 0.011229114
0000f0 fe e3 3f 3c 2b 8e 3f 3c ce 88 f3 b9 3c ff 82 39
       0.011712072 0.01169161 -0.000464505 0.00024985697
000100 1d 81 00 bc ac 87 3b bc f1 9e 01 3c a9 be 07 3c
       -0.007843283 -0.011445921 0.00791143 0.008285203
000110 56 c9 46 bc b4 15 ff 3b 03 2b 7f ba fb 06 5f 3c
       -0.012132963 0.0077845696 -0.0009733887 0.013612504
000120 fd 57 83 3c fe a9 a3 bb 1d d0 e6 3b 4c a0 2a 3c
       0.016033167 -0.00499463 0.007043852 0.010414194
000130 45 20 b3 bb b3 3a 99 3b aa 6d a3 bb 8c 24 13 bc
       -0.0054664933 0.004676187 -0.004987438 -0.008980881
000140 7b 51 33 bb 13 6a 26 3c 84 88 49 bb b5 a0 76 3c
       -0.0027361799 0.010157126 -0.0030751536 0.015052964
000150 72 7b 13 3c f3 49 08 bc f7 ac 04 bc c5 2a 6a 3b
       0.0090016 -0.008318412 -0.008097879 0.003573106
000160 00 c6 6d 3c 68 6a 59 3c 27 bc 89 3a 65 d4 24 bc
       0.014512539 0.013269998 0.0010508344 -0.010060404
000170 f1 f6 4a bc 66 ab ed ba c0 42 49 bc aa 98 22 bc
       -0.012387977 -0.0018132746 -0.012283981 -0.009924093
000180 57 25 60 3c 10 b3 6a 3c 95 0c f8 bb 1b 84 97 3b
       0.0136807775 0.014324918 -0.0075698593 0.0046239025
000190 74 75 4a 3b 19 f3 08 bc 6b 2e d5 3b e9 c8 db bb
       0.0030892761 -0.00835874 0.0065057776 -0.0067073
0001a0 6e 10 49 3c e0 1a 2c bc 8e e0 0a bb 5b b3 9c 3b
       0.012271984 -0.010504454 -0.0021190974 0.004782123
0001b0 c1 13 65 39 a6 b8 09 3b 2a 2b e8 38 79 f5 e4 bb
       0.00021846501 0.00210146 0.00011070662 -0.0069872704
0001c0 de df 62 3b 34 ed f6 bb da df 2e 3b 14 55 22 3b
       0.0034618299 -0.007535601 0.002668372 0.0024769949
0001d0 32 66 8e ba c7 b1 63 3b 90 e5 03 bc 86 3d f9 bb
       -0.0010864197 0.0034743415 -0.008050337 -0.007606211
0001e0 8c 84 54 3c 66 09 f5 3b d4 45 84 bb d6 6f de 3b
       0.012971055 0.007477927 -0.0040366445 0.006788234
0001f0 00 03 75 bc fe 08 e0 bb d5 25 8f bb da 12 d1 bb
       -0.014954329 -0.0068370095 -0.0043685236 -0.006380421

network_body._body_endoder.seq_layers.0.weight f4 [128, 412]
000000 35 58 09 bd d5 12 ee 3b 07 8c 62 3d 6e 68 b2 ba
       -0.033531386 0.0072654285 0.05530932 -0.0013611445
000010 0b 6b 8a 3c 05 05 cd bd b7 32 9c 3d a0 ca cd 3c
       0.016896745 -0.10010723 0.076268606 0.025121033
000020 0c 97 97 3c fc 69 b8 3d 78 88 26 bc a3 c8 ed 3c
       0.018504642 0.0900459 -0.010164373 0.029026335
000030 8d b8 b9 3b d7 23 09 bd 4a 24 8e bd df d0 bd 3d
       0.005667752 -0.033481445 -0.06940515 0.092683546
000040 67 79 31 3c 40 20 df bc d5 88 0c 3e 10 01 ad 3c
       0.010832167 -0.027237058 0.13724072 0.02111867
000050 95 ca ad bd f6 7c 32 3d f2 4e 6a 3d 72 4e 8e 3d
       -0.08485905 0.043576203 0.057204194 0.06948556
000060 42 47 67 bd 2b 9c e0 3c 05 7d 00 bd af 43 73 3d
       -0.05646444 0.027418217 -0.031369228 0.05939072
000070 44 f4 88 3c b9 6f 80 bd 21 31 e0 bd 61 03 d9 bb
       0.016718037 -0.062713094 -0.109468706 -0.0066227173
000080 a3 80 1c bd 47 1c 0f 3d 3f 34 52 bd 6b 22 0d ba
       -0.038208615 0.034939077 -0.051319357 -0.0005383852
000090 b6 2e 0d 3d 71 7b 68 3c a7 3c 1c bc a7 c2 82 bc
       0.034468375 0.014189587 -0.009535945 -0.015961958
0000a0 67 84 c9 3c 78 fe 99 3d 97 17 8d bd f6 df 31 3d
       0.024599267 0.07519239 -0.06889265 0.043426476
0000b0 74 6c 2e 3d 34 e2 91 3d 79 4d 11 3d 5c 8d 3c 3b
       0.042583898 0.07123223 0.035474274 0.002877078
0000c0 18 b5 ec 3c bf ef e6 bb d0 de 44 3d ad 9f 5d 3d
       0.028894946 -0.007047623 0.048064053 0.054107357
0000d0 fd a4 d8 3a 24 ed 8e 3d 9c e6 38 3d 37 2e ca bc
       0.0016528663 0.06978825 0.0451418 -0.02468024
0000e0 56 41 d9 bb af 9e 96 3c d2 b9 71 bd 04 77 1d bd
       -0.006630103 0.018386213 -0.059015103 -0.03844358
0000f0 57 8f 19 bd 5b 79 cc 3d 53 bd f3 3c aa 74 8c bc
       -0.037490215 0.09984084 0.029753363 -0.017145474
000100 34 c3 83 3d 10 f8 86 bd f5 f5 55 bd 4f a6 75 bd
       0.064337164 -0.06590283 -0.052236516 -0.059973057
000110 f7 8a 61 3d ca fc 78 bb b5 67 8f 3d b4 84 ed 3d
       0.055064168 -0.003799247 0.070022024 0.11597577
000120 b1 bd c0 3d fa a1 c8 bd bb b8 b3 bd 1e 6b 67 bd
       0.09411181 -0.097965196 -0.08775469 -0.05649864
000130 66 04 8b bd 33 71 ee 3d 80 da 66 3d b3 c6 06 3c
       -0.06787948 0.11642685 0.05636072 0.0082260845
000140 7c 31 55 bd e5 87 d6 ba 1c e3 c5 3c b0 72 6a 3d
       -0.052049145 -0.0016367404 0.024156146 0.05723828
000150 95 96 f7 bc be d9 1a 3c f7 01 2c bd bb 2f 06 3d
       -0.03022317 0.009451328 -0.04199406 0.032760363
000160 49 a0 1b bd 18 ba 2f 3b a7 54 47 bb a9 aa e3 bd
       -0.037994657 0.0026813801 -0.0030415447 -0.11116535
000170 33 1c 9f bb c6 10 89 3b 6b 9c 20 bd 9b ba f9 3c
       -0.0048556565 0.0041829078 -0.03921167 0.030484488
000180 93 dd 94 3d 22 45 bd 3c c8 14 8f 3d 06 97 44 bc
       0.072688244 0.023104254 0.069863856 -0.011998897
000190 07 8c 94 3c 08 4a 3c bd a9 e4 9b 3c 0e 91 65 3d
       0.018133176 -0.04596904 0.019029932 0.056046538
0001a0 73 fa 06 bd ae 55 41 3d 9d 16 81 bd 01 ad 29 3b
       -0.03295369 0.04720085 -0.06303141 0.0025890472
0001b0 5b 62 81 3d ef 7e 1a 3d a5 11 70 3d 0f f0 23 3e
       0.06317588 0.03771871 0.058610577 0.16009544
0001c0 c2 c0 02 bd 0f 3c b8 3d 55 65 bb 3c c5 bc 82 bc
       -0.03192211 0.0899583 0.022875467 -0.015959153
0001d0 42 85 08 3d 24 42 78 3d 3d 34 05 bb 19 65 8c bb
       0.03333021 0.06060995 -0.0020325326 -0.0042845127
0001e0 96 ef dc bd 5d 40 59 3d 8d 10 1b bd d1 2a cd bc
       -0.10787885 0.053039897 -0.03785758 -0.02504483
0001f0 09 8e 2a bd f4 d6 4a 3c 57 56 d0 3a 22 c2 42 3d
       -0.04163936 0.01238035 0.0015894872 0.04754842
000200 53 97 6e 3d 94 16 0d bd b3 93 e0 bc 5f 56 8f 3b
       0.058249783 -0.03444536 -0.027414178 0.00437431
000210 52 32 b1 bc 2f ae 92 bd 64 e9 58 3a 29 16 28 3c
       -0.02163044 -0.07162129 0.0008274524 0.01025919
000220 d9 ed 31 3d 55 d6 99 3d bd 07 50 bd 27 e4 af bd
       0.04343972 0.07511584 -0.05078863 -0.085884385
000230 65 1e 26 3b 39 09 d8 3c 0b 02 0f 3d 3d 8a 99 bd
       0.0025347706 0.026371585 0.034914058 -0.0749707
000240 bf 52 67 3c 68 73 89 bb 78 9f 97 bd 70 c4 82 bd
       0.014118849 -0.0041946657 -0.07403463 -0.06385124
000250 f5 f9 1e 3d f5 19 c2 3c 16 2e b5 3d 9e df 93 3d
       0.038812596 0.023694018 0.08846681 0.07220386
000260 ee e5 21 3d 73 80 5c 3d f3 5e ad bc 77 3f 6a bb
       0.03952592 0.053833436 -0.02116344 -0.0035743394
000270 0e 1d 70 3d 82 c3 30 3c da 58 9f bc 9c 73 88 3d
       0.05862146 0.0107888 -0.019451547 0.06662676
000280 cd eb 80 3d ea a9 f0 ba e1 e2 93 3c d3 96 42 3c
       0.062949754 -0.0018361185 0.01805252 0.01187678
000290 99 34 51 3d 51 a1 af bb be 87 2a 3d 8c 45 76 bd
       0.05107555 -0.0053598066 0.04163336 -0.06012492
0002a0 f4 34 18 bc a9 f2 c6 3c c0 62 a8 3d 5d 6e af bd
       -0.009289969 0.024285631 0.0822196 -0.08565972
0002b0 4a b6 b0 bd 39 69 a0 3a ae 9b ec 3d fc 64 55 3d
       -0.08628519 0.001223839 0.11553131 0.05209826
0002c0 11 2b 3a bc ad 61 2c 3d e3 7a 43 bd a0 b5 12 3c
       -0.011362807 0.04208534 -0.047724616 0.008954436
0002d0 10 8c cd 3c f2 ea 0e 3d 2e 78 f5 3c d4 3b ef 3c
       0.025091201 0.03489203 0.029964533 0.029203333
0002e0 dd bb 6d 3d a4 ad 7b bc ce b7 e1 bd 87 a1 81 bc
       0.05804049 -0.015361223 -0.11021386 -0.015824093
0002f0 0a e7 ee bd d5 68 4a 3d a1 15 0d 3d 7f ad 3f 3d
       -0.11665161 0.049416382 0.034444455 0.04679632
000300 ac f0 9e bc e3 6a 1e 3d 54 04 94 3c 0f ff 71 3d
       -0.01940187 0.038676154 0.01806847 0.059081133
000310 16 fc af 3b 1a 42 16 3b 35 4a 0c 3d 8e ca f1 bc
       0.005370627 0.0022927583 0.034250457 -0.02951553
000320 e3 d9 05 3d b3 ef 09 3c 32 3d 9e 3d 7c 80 fc 3c
       0.032678496 0.008418965 0.07726516 0.030822985
000330 a9 4b 81 3c a9 05 85 bc 7a fc 47 3d 2d eb 04 bd
       0.015783148 -0.01623805 0.048824765 -0.032450844
000340 70 94 01 3c dd 5c e0 bc d0 b6 93 bc b0 5d 27 3d
       0.007908925 -0.02738803 -0.018031508 0.04086083
000350 0a 05 a6 3d 44 ec c6 bc 40 25 df 3c d1 84 11 bd
       0.0810643 -0.024282582 0.027239442 -0.035527054
000360 ff 47 5f 3b e9 b0 c5 3b a6 92 8d 3d d2 f8 02 3d
       0.0034070013 0.006033052 0.069127366 0.031975575
000370 a1 66 0a bc d8 f9 45 bd a1 3d e9 bc a4 97 cc 3d
       -0.00844732 -0.048333973 -0.02847177 0.09989861
000380 18 f3 32 3d f1 6a af bc e5 3e 34 be 92 35 80 3d
       0.043688864 -0.021413298 -0.17602117 0.06260218
000390 90 13 ad 3b 3a ec 3a bb fa a7 48 3d f8 2e 00 3e
       0.005281873 -0.002852215 0.04898832 0.12517917
0003a0 6f 2b bd bb 6b a6 cc 3d 7d e2 88 bd 39 66 cf bb
       -0.005773 0.09992679 -0.06683824 -0.0063293246
0003b0 85 c8 22 3c 58 6e 6d bd da e2 e2 bb 30 2a 88 3d
       0.009935503 -0.05796656 -0.0069240155 0.066486716
0003c0 26 ed 05 3e 78 83 d5 bb f3 72 d4 3c 1a 79 5d 3d
       0.13078746 -0.0065159164 0.025933718 0.05407057
0003d0 10 05 8e bd 2a cb 08 3d d3 b6 01 bc 7f 0e 78 3d
       -0.06934559 0.033396877 -0.007917124 0.0605607
0003e0 13 2b ce bb bb 73 d5 bd ce 41 28 bc 50 ed 52 3c
       -0.006291756 -0.104224645 -0.010269595 0.0128739625
0003f0 09 81 91 3d d6 68 58 bc 48 11 37 bc 78 2e c2 bc
       0.0710469 -0.013208589 -0.011173554 -0.023703799

network_body._body_endoder.seq_layers.2.bias f4 [128]
000000 42 bd da 3a 89 96 f1 3b c2 01 33 bc e2 bf 0e bb
       0.0016688483 0.0073726815 -0.010925712 -0.0021781852
000010 94 a7 2b bc fc 47 b4 3b 18 d0 01 3c 31 90 a0 3a
       -0.010476965 0.0055017453 0.007923149 0.0012250004
000020 b9 51 4f bc 5f 61 5e 3a 5d 1a 59 ba 49 e1 2a 3c
       -0.012653762 0.00084831374 -0.00082818215 0.010429689
000030 f7 98 d6 b9 be 91 11 bc 20 db 1d bc 53 b4 91 3c
       -0.00040931228 -0.008884845 -0.009634763 0.01778618
000040 d4 e7 60 bb 33 6a 29 3c 29 57 79 3c 11 a8 2a bc
       -0.0034317868 0.010340261 0.0152185345 -0.010416047
000050 90 ef 1d 3b 46 2e e6 3b 3a bf 5f bc db 84 f7 bb
       0.002409909 0.007024559 -0.013656432 -0.0075536794
000060 54 62 38 b9 d6 a6 f8 3b 45 38 16 bc e5 32 23 3c
       -0.00017584238 0.007588248 -0.009168689 0.009960865
000070 9b 6b 0f bc 18 7c 56 bc c2 90 27 bc bd be 40 bc
       -0.0087536825 -0.01309111 -0.010227384 -0.011764226
000080 0b 88 9c 3a d4 64 4c bc 7b e0 14 bb d1 78 47 3c
       0.00119424 -0.012475211 -0.0022716809 0.012174801
000090 be 2f a7 bb d1 b4 8a bb b2 06 de bb b5 ec b8 bb
       -0.005102127 -0.004232981 -0.0067757005 -0.005643452
0000a0 0d c4 81 3c 97 bd 77 3c c5 71 ed 3a 13 21 83 bc
       0.015840555 0.015120885 0.0018115571 -0.016006982
0000b0 6b 9f 68 bb 04 38 4c bc 0c 96 5a 3b 09 6a fc bb
       -0.003549541 -0.012464527 0.0033353595 -0.00770307
0000c0 ea cd a4 3b d7 72 0d 3c 89 42 ea bb da fc fc 3b
       0.0050294297 0.008633337 -0.007149045 0.007720572
0000d0 b5 75 1d 3b b0 3d 0a bc 0a 59 13 3c 41 bf 90 ba
       0.0024026458 -0.008437559 0.008993397 -0.0011043326
0000e0 6f 3f 37 b9 ec 0c 2e bc 6f 46 ff 3a 49 f0 03 bc
       -0.00017475871 -0.010623198 0.0019475947 -0.008052894
0000f0 69 ed fa 3b d5 fd 6e 3a 6c 2c 5c 3c 55 ad 0a bc
       0.007657696 0.00091168034 0.013438325 -0.008464177
000100 fe 4b c6 bb 8c a3 dc 3b 51 8a fa 3b fc 63 b2 3b
       -0.0060515394 0.0067333635 0.007645883 0.005444048
000110 c8 55 23 bc 45 6d 30 3b 57 d7 62 3c 42 49 34 bc
       -0.009969182 0.0026920598 0.013845286 -0.011003794
000120 3c 06 38 3c 6d fe 24 3c 3d f5 c9 bb a1 4c f6 bb
       0.011231955 0.010070425 -0.006163268 -0.007516459
000130 e9 32 38 3c d4 2a 37 bb 3c a8 ec bb 0f e8 29 bc
       0.011242607 -0.0027949112 -0.0072222035 -0.0103702685
000140 cf 93 08 3b 78 d0 43 3c 3b 9e de 3b 25 18 10 bc
       0.0020840054 0.011951558 0.006793765 -0.008794819
000150 4c ab 52 3c 4c 7e 23 bc 23 f2 2b bc e3 5b ad 3a
       0.012858223 -0.009978842 -0.010494742 0.0013226237
000160 96 3f 44 bc 0e 23 ec 39 27 64 0b 3c 80 c9 2a bc
       -0.011978051 0.00045039546 0.008507765 -0.010424018
000170 78 cf 23 bb c6 1e 8b 3b ce 73 83 bb 75 a8 44 3c
       -0.0024995487 0.004245612 -0.0040116077 0.012003054
000180 9e 7c b6 ba f2 08 54 3c 0d b5 91 3c a9 6d 5e 3c
       -0.0013922637 0.012941586 0.017786527 0.01357595
000190 1d 82 5d bb 56 6e 99 bb 34 2a 97 bb 09 5b 45 3c
       -0.0033799477 -0.0046823425 -0.0046131853 0.01204563
0001a0 6a ca 1d bc 77 49 a1 3b ec e5 2a bc 7c d4 a1 bb
       -0.009630779 0.004922088 -0.010430794 -0.00493866
0001b0 72 78 0b bc 89 96 2b 3c 89 39 63 bc ce 71 b7 bb
       -0.008512603 0.010472902 -0.013868698 -0.0055982834
0001c0 cf 0c 6c 3c cd 44 5d bc 3f 7c 64 bc 7e d6 11 bc
       0.014407351 -0.013505173 -0.013945638 -0.008901237
0001d0 ec 5b 49 bc df c0 2b 3a ff 28 f9 3b 53 27 91 ba
       -0.012289982 0.00065518724 0.007603764 -0.0011074342
0001e0 9b 08 e9 3b cb 2e 7c bc 7c 46 1b 3c 21 c0 1e bc
       0.0071116216 -0.015392016 0.009477254 -0.009689362
0001f0 2b 76 f5 bb 78 14 01 bc 6a 89 2a 3b 48 f7 97 bb
       -0.0074908934 -0.007878415 0.0026021847 -0.0046376325

network_body._body_endoder.seq_layers.2.weight f4 [128, 128]
000000 da 8c 82 bd 75 3f 1b 3e ef 4e 74 3d fa 51 02 3d
       -0.063745216 0.15160926 0.05964559 0.03181646
000010 05 33 94 3c b8 22 b6 3c 14 d5 be 3d 8e ee 8d 3d
       0.018090734 0.022233352 0.09317985 0.06930266
000020 d6 39 c4 3d 3e 73 e4 3d 43 42 e1 3d 4f 4e 0b 3e
       0.09581344 0.11154793 0.109989665 0.13604091
000030 ed 85 02 3c 3d 33 13 bd f6 6c dc 3d a7 bf 99 3d
       0.007966501 -0.035937537 0.1076297 0.07507258
000040 5c 09 c0 ba 37 5f 28 3d 5f 01 2a 3d f0 7f 9b 3d
       -0.0014651227 0.04110643 0.041505214 0.075927615
000050 3a a4 98 3d 99 18 23 3d f2 ca d8 bd b8 7c 29 bd
       0.07453199 0.03981838 -0.10585584 -0.041378707
000060 74 18 1b 3e 92 1a 0e bd 80 5b 2d 3d 79 d8 e5 3b
       0.15146047 -0.03469331 0.04232359 0.007014331
000070 15 f9 9c 3b 47 d0 ed bd 41 3b 06 3e 19 72 0d 3d
       0.004790435 -0.116119914 0.13108541 0.03453264
000080 8d bd 2a bb 13 89 19 bd 0d 4c 24 3e 2b 32 d3 bd
       -0.0026052922 -0.03748424 0.16044636 -0.10312303
000090 cd 00 95 3c c7 72 fa bd 22 c2 c8 3d d8 23 86 bb
       0.018188858 -0.12228923 0.09802653 -0.0040936284
0000a0 bd 90 f1 bd ed e6 6e bd 0c 98 15 3e 7d f5 1f bc
       -0.11795185 -0.058325697 0.14608783 -0.009763119
0000b0 8e e4 1e 3e c5 80 b5 3c 4d b2 24 3d ec fe 43 bd
       0.15516874 0.022156129 0.040209103 -0.047850534
0000c0 1d 18 ab bc a0 6c 07 3e 9a 00 35 3d 5d ce 3b 3e
       -0.020885522 0.13225031 0.044190027 0.1834044
0000d0 62 20 8a bd c9 1c 50 bc 04 af d5 3d 2b 93 54 3d
       -0.06744458 -0.012702175 0.10433772 0.051898163
0000e0 d4 bc a2 bd f7 9a ca 3c 85 61 13 3e b1 16 a7 bc
       -0.07946172 0.024732096 0.1439267 -0.020396562
0000f0 28 20 b8 3c c6 e3 25 3d 3b 83 1d be e9 36 2d bb
       0.02247627 0.040500425 -0.15382092 -0.0026430434
000100 3c 90 e3 3d ab 57 e0 3d 2e 19 6c 3d e1 c3 a2 bd
       0.11111495 0.10954221 0.0576412 -0.07947517
000110 8f c6 a6 3d 96 ff 50 bd 7f cf 7e bd e7 aa 18 bd
       0.08143341 -0.051024996 -0.062209602 -0.03727236
000120 04 8f 01 3e 4e 53 59 3c dd bf 31 be ae 76 8d 3b
       0.12652212 0.01326449 -0.17358346 0.0043171262
000130 1e 7f 70 3b 15 c3 cf 3d 5e 88 bc 3d 28 4a b7 3d
       0.0036696861 0.10144631 0.092056975 0.08949691
000140 8c f4 75 bc 6e 3f 86 3d f9 66 1a 3d e2 77 c2 3b
       -0.015011918 0.06555067 0.03769586 0.0059347013
000150 1f fa c4 3d 0e 66 41 3c 8a e8 86 be e7 3e c1 3d
       0.09618019 0.011804117 -0.26349288 0.09435826
000160 54 a9 48 be f3 ad d7 bc 25 cf 3d 3d fe cd 23 3e
       -0.19595844 -0.026328063 0.046340127 0.15996549
000170 0d 62 d1 bd d8 f5 62 3d 81 b9 69 3d 6c f6 2a bd
       -0.1022378 0.055410236 0.057061676 -0.041738912
000180 b1 48 f0 3d 2a 89 73 3b e9 13 d8 3d 03 fa 5d bd
       0.11732615 0.0037160614 0.105506726 -0.054193508
000190 29 c9 25 be a5 92 41 be ef 20 45 bd 4b ac 2a 3e
       -0.16190018 -0.18903597 -0.04812711 0.16667287
0001a0 3b 79 e1 bd 0c 1c 82 bd 93 c6 b4 bd b8 b3 d3 bb
       -0.11009451 -0.06353006 -0.088269375 -0.006460633
0001b0 36 1b c8 bd 8a e0 1d 3d 6c 4f ce bd 46 b0 cf bd
       -0.09770815 0.038544215 -0.10073742 -0.10141043
0001c0 0a a4 87 3d 43 6d 21 3d 6e b5 9d 3d c3 e1 59 bc
       0.06623085 0.03941084 0.077006206 -0.013298455
0001d0 d1 d4 64 bc bb 44 22 3d ee 67 b0 bd db dc 39 bd
       -0.013966755 0.039616328 -0.08613573 -0.04537664
0001e0 c3 d1 8b 3d 57 09 30 be 27 c8 0c 3e f5 58 04 3e
       0.06827118 -0.17191063 0.13748227 0.1292456
0001f0 d5 21 e6 bc 10 32 59 3d 91 d3 48 3e 17 11 13 3e
       -0.028092304 0.05302626 0.19611956 0.14361988
000200 40 1e 43 be 7f fb b7 3c 86 f6 3c 3d 91 73 22 be
       -0.19054508 0.02245879 0.04613354 -0.15864398
000210 ab 8b 16 be 55 49 02 be 67 04 95 bd a3 c2 a3 ba
       -0.14701717 -0.12723286 -0.0727623 -0.0012493919
000220 5f 9b 05 be 7f f6 0b 3e df 4c cf bc 22 4d 08 be
       -0.1304755 0.1366825 -0.02530521 -0.13310674
000230 8d 53 b5 bd 69 58 71 3c 2f 98 b7 3d 55 d7 95 bd
       -0.08853827 0.014730551 0.089645736 -0.07316462
000240 8f 8b 8d bd 0a 3b 83 bd ea 46 55 3d aa 6c f3 bc
       -0.06911384 -0.06407745 0.052069582 -0.029714901
000250 23 50 4c be 6b f5 a2 3d 2f 0a 65 3a b5 73 04 bd
       -0.19952445 0.07956966 0.0008737174 -0.03233691
000260 ef 5d e1 bd f7 8c db bd e6 09 53 bc b5 59 07 3d
       -0.110042445 -0.10720246 -0.012880778 0.033044536
000270 3d 54 07 3c 60 9f 8d bd c4 1c 2e 3d 0a ef 6d bc
       0.00825983 -0.06915164 0.0425079 -0.014522323
000280 fa 3a 21 3e 00 fd c9 3d b8 d7 52 3c 10 3f 7d 3d
       0.15745154 0.09862709 0.012868814 0.06182772
000290 1f 1b 09 3e f7 a5 e8 3a f1 2e 33 3c b5 a9 55 be
       0.13389252 0.0017749657 0.010936485 -0.2086552
0002a0 d6 43 af 3b 30 ed de 3d 26 3c ad 3d 93 fc ef 3d
       0.005348663 0.10885084 0.08458738 0.117180966
0002b0 4c f3 4c 3c 38 7e 09 3e 2a 33 31 3d ca a6 08 bd
       0.012509178 0.13427055 0.043261684 -0.033362187
0002c0 57 5f 44 3d 57 54 54 3e 9b 90 0f bd 8f f8 03 be
       0.047942486 0.20735298 -0.035050016 -0.12887786
0002d0 50 b2 c3 bd 09 10 b4 bc 7d 4a 4b bd 2c 5d 4d 3d
       -0.09555495 -0.021980302 -0.049631584 0.050137684
0002e0 cb 28 01 be f1 67 a4 3a 21 98 25 be 9d 21 8b 3d
       -0.12613218 0.0012543184 -0.16171314 0.067935206
0002f0 93 b6 8c 3d 47 b6 d3 3b b1 72 ff 3d 1d bc 6e 3d
       0.06870761 0.006460938 0.124730475 0.058284868
000300 10 00 9a 3c 5a ce 9f 3d d9 a9 36 bd e8 79 0a 3d
       0.018798858 0.0780303 -0.044595573 0.033807665
000310 31 86 80 be 93 c8 1a bd f0 8a d0 3b 6f bd c9 3c
       -0.2510238 -0.03778894 0.006364219 0.024626462
000320 48 9c 0a be f8 c5 08 be 32 fc 27 bd 5a 33 10 3e
       -0.13536179 -0.13356769 -0.041011997 0.14082089
000330 c9 24 96 bd ef 4c a8 bc a2 a0 b7 bd ce 67 19 3c
       -0.07331235 -0.020544497 -0.08966185 0.009363128
000340 f9 fd 47 bd 46 1c 0c bc 3e 4c 92 bc bd 64 84 bd
       -0.04882619 -0.008551663 -0.01785862 -0.06464527
000350 67 37 41 3d 8c d8 94 bd 0e fa aa b9 31 9d 7d 3d
       0.047171976 -0.072678655 -0.00032611232 0.061917488
000360 80 cd b8 3d 31 5b 60 3c 3c 9a 20 bb a8 5a b5 3d
       0.09023571 0.013693617 -0.0024505993 0.08855182
000370 72 30 bd 3c 05 fe 1f bd a9 bc 11 3d c0 0a fc 3d
       0.02309439 -0.03906061 0.03558031 0.12306738
000380 99 2c 16 3e 3c 9c 41 3e 91 c1 50 bd 77 01 4a 3d
       0.1466545 0.18907255 -0.05096585 0.049317803
000390 95 02 0c be aa 68 da 3d 71 67 91 3d 6b 0b b3 bc
       -0.1367286 0.10664494 0.07099808 -0.02185603
0003a0 6e 51 83 3c 3a 99 ad bd 5e 83 e6 bc 08 2b 5b bd
       0.01603004 -0.08476491 -0.028138813 -0.053507835
0003b0 54 c7 f2 3c 78 87 4c 3e 23 ac d1 3d ce b4 46 3c
       0.029636063 0.19973552 0.102379106 0.012128068
0003c0 ed fe 37 3d 62 1a db bd 1e fd 57 bc 50 82 76 3d
       0.04492085 -0.106983915 -0.013182906 0.06018287
0003d0 dd f7 df 3c 1b a7 f5 3d 19 89 91 3c b8 19 8c 3d
       0.02733987 0.119947635 0.017765569 0.06840843
0003e0 05 a6 2e bd c5 d4 c1 bc 6e ef 92 3d 34 e1 57 3e
       -0.042638797 -0.023661027 0.07174574 0.21082002
0003f0 84 af c9 3d 8e 97 be 3b 4d f5 7e bd 2c dd 1a 3d
       0.0984793 0.0058164066 -0.062245656 0.037808582

network_body.observation_encoder.processors.0.normalizer.running_mean f4 [412]
000000 e2 36 c8 c1 51 b7 cd 43 00 00 00 00 1a 40 f8 be
       -25.026798 411.43216 0.0 -0.48486406
000010 d8 77 d8 40 00 00 00 00 00 00 00 00 00 00 00 00
       6.7646294 0.0 0.0 0.0
000020 f6 c7 cf 43 a4 d7 e9 40 00 00 00 00 8e da 85 43
       415.5622 7.3075733 0.0 267.70746
000030 fc ea 1f 41 00 00 00 00 d1 de a7 43 5f de ff 40
       9.994869 0.0 335.74075 7.995895
000040 00 00 00 00 b3 9d 35 43 c9 ab 04 41 00 00 00 00
       0.0 181.61601 8.29194 0.0
000050 02 15 bd 43 a8 58 dc 40 00 00 00 00 05 85 06 44
       378.16412 6.8858223 0.0 538.0784
000060 a5 e7 8c 41 00 00 00 00 9a a9 f8 43 14 06 65 41
       17.613108 0.0 497.325 14.313984
000070 00 00 00 00 7e 7f 88 43 fc ea 1f 41 00 00 00 00
       0.0 272.99603 9.994869 0.0
000080 b3 e1 02 c2 24 3a 07 41 00 00 00 00 4c c2 a3 43
       -32.72041 8.4516945 0.0 327.51794
000090 5f de ff 40 00 00 00 00 5f e6 da 43 3b e5 92 41
       7.995895 0.0 437.79977 18.361929
0000a0 00 00 00 00 70 fb 0f 44 a4 ea 60 41 00 00 00 00
       0.0 575.9287 14.057285 0.0
0000b0 97 84 cb 42 ff c7 20 41 00 00 00 00 4e 02 1d 44
       101.758965 10.048827 0.0 628.036
0000c0 19 93 dd 41 00 00 00 00 09 f2 08 44 6f b6 20 41
       27.696825 0.0 547.7818 10.044539
0000d0 00 00 00 00 1a 1d 1f 44 d4 62 de 41 00 00 00 00
       0.0 636.4547 27.798256 0.0
0000e0 f7 05 1e 44 90 32 df 41 00 00 00 00 b1 ab 5a 43
       632.0932 27.899689 0.0 218.67067
0000f0 4b 40 09 41 00 00 00 00 11 3b 13 44 ea b0 b9 41
       8.578197 0.0 588.9229 23.211384
000100 00 00 00 00 f6 76 1a 43 ee b7 bb 41 00 00 00 00
       0.0 154.46469 23.46481 0.0
000110 f2 c8 c3 43 79 e2 de 40 00 00 00 00 67 eb e7 43
       391.5699 6.9651456 0.0 463.83908
000120 75 06 f7 40 00 00 00 00 f8 8c a6 43 5f de ff 40
       7.719538 0.0 333.10132 7.995895
000130 00 00 00 00 be 2d 20 44 90 32 df 41 00 00 00 00
       0.0 640.7147 27.899689 0.0
000140 f1 e4 fa 43 6d 1d 93 41 00 00 00 00 f3 20 c0 43
       501.7886 18.389368 0.0 384.25742
000150 69 cf 55 41 00 00 00 00 b1 ab 5a 43 a1 87 e9 3f
       13.363137 0.0 218.67067 1.8244516
000160 00 00 00 00 e2 a1 9e 43 5f de ff 40 00 00 00 00
       0.0 317.2647 7.995895 0.0
000170 be ff 0d 44 58 49 2b 41 00 00 00 00 b0 e4 1b 44
       567.996 10.705406 0.0 623.57324
000180 19 93 dd 41 00 00 00 00 e0 03 d6 43 bd 91 ef 40
       27.696825 0.0 428.03027 7.4865403
000190 00 00 00 00 5d d4 14 44 ff 8f dc 41 00 00 00 00
       0.0 595.3182 27.57031 0.0
0001a0 d4 af 50 43 f2 78 d0 3f 00 00 00 00 7e fe f5 43
       208.68683 1.628691 0.0 491.98822
0001b0 86 9b 1d 41 00 00 00 00 80 0d e3 43 df 36 f5 40
       9.85047 0.0 454.10547 7.662948
0001c0 00 00 00 00 f5 dd 11 44 2e 58 92 41 00 00 00 00
       0.0 583.4681 18.293056 0.0
0001d0 6c 24 8b 43 fc ea 1f 41 00 00 00 00 17 db c4 43
       278.28455 9.994869 0.0 393.71164
0001e0 79 e2 de 40 00 00 00 00 25 16 dd 42 9d ab 1b 41
       6.9651456 0.0 110.54325 9.729398
0001f0 00 00 00 00 f9 f4 29 43 d7 71 56 41 00 00 00 00
       0.0 169.95692 13.402793 0.0
000200 be c1 07 44 68 b5 5b 41 00 00 00 00 ce 87 04 44
       543.0272 13.731789 0.0 530.12195
000210 5d 2a b2 41 00 00 00 00 c0 d9 9f 43 5f de ff 40
       22.270685 0.0 319.70117 7.995895
000220 00 00 00 00 b3 bb d9 43 0c 04 93 41 00 00 00 00
       0.0 435.4664 18.376976 0.0
000230 96 4c de 43 b2 97 f1 40 00 00 00 00 80 d6 01 44
       444.59833 7.5497675 0.0 519.35156
000240 a3 63 b1 41 00 00 00 00 15 12 bf 43 af c7 42 41
       22.17365 0.0 382.14127 12.173751
000250 00 00 00 00 73 88 fe 43 e9 9c b0 41 00 00 00 00
       0.0 509.066 22.076616 0.0
000260 6a e4 bb 43 d3 ce d9 40 00 00 00 00 a3 2d 8e 43
       375.7845 6.806497 0.0 284.35654
000270 fc ea 1f 41 00 00 00 00 d4 af 50 43 4b 40 09 41
       9.994869 0.0 208.68683 8.578197
000280 00 00 00 00 92 d2 90 43 fc ea 1f 41 00 00 00 00
       0.0 289.64508 9.994869 0.0
000290 5e f1 d2 43 a4 d7 e9 40 00 00 00 00 6e 97 a2 43
       421.88568 7.3075733 0.0 325.18304
0002a0 5f de ff 40 00 00 00 00 14 3e c1 43 af c7 42 41
       7.995895 0.0 386.485 12.173751
0002b0 00 00 00 00 f7 b3 08 44 1d 2b e1 40 00 00 00 00
       0.0 546.81195 7.036513 0.0
0002c0 4a a1 fe 43 5e ae 8d 41 00 00 00 00 c7 13 1c 44
       509.26007 17.71014 0.0 624.309
0002d0 f3 ff c3 41 00 00 00 00 7a 2a e3 43 c9 16 28 40
       24.499975 0.0 454.33185 2.6263907
0002e0 00 00 00 00 d6 c4 a7 43 1b b6 2c 40 00 00 00 00
       0.0 335.53778 2.6986148 0.0
0002f0 96 95 f9 43 ce 57 33 41 00 00 00 00 71 1b fc 43
       499.16864 11.208937 0.0 504.2144
000300 1f ff 72 41 00 00 00 00 4a cf a3 43 1b b6 2c 40
       15.187285 0.0 327.61945 2.6986148
000310 00 00 00 00 29 1c f7 43 dd 7b ea 40 00 00 00 00
       0.0 494.22 7.32762 0.0
000320 20 e9 01 44 eb 20 8c 41 00 00 00 00 d5 af 50 43
       519.6426 17.516073 0.0 208.68684
000330 59 63 a7 bf 00 00 00 00 ea 8a 1a 44 f3 ff c3 41
       -1.3077193 0.0 618.17053 24.499975
000340 00 00 00 00 be c4 5a 43 59 63 a7 bf 00 00 00 00
       0.0 218.76852 -1.3077193 0.0
000350 40 94 04 44 14 75 8e 41 00 00 00 00 58 45 de 43
       530.3164 17.807167 0.0 444.54175
000360 f7 b5 2b 40 00 00 00 00 a5 02 06 44 fd 19 76 41
       2.6829813 0.0 536.0413 15.381345
000370 00 00 00 00 54 ca 1d 44 c3 6d c3 41 00 00 00 00
       0.0 631.1614 24.428595 0.0
000380 ff 51 07 44 c5 57 33 41 00 00 00 00 a6 c0 20 44
       541.2812 11.208928 0.0 643.01013
000390 ff e5 c5 41 00 00 00 00 12 4e 22 44 1f 94 c5 41
       24.737303 0.0 649.21985 24.697325
0003a0 00 00 00 00 da f6 5a 43 7f 89 b4 40 00 00 00 00
       0.0 218.96426 5.641784 0.0
0003b0 f8 8c a6 43 1b b6 2c 40 00 00 00 00 73 8c 9e 43
       333.10132 2.6986148 0.0 317.09726
0003c0 1b b6 2c 40 00 00 00 00 e6 c8 50 43 2a cd ba 40
       2.6986148 0.0 208.78476 5.8375444
0003d0 00 00 00 00 6c 97 a2 43 1b b6 2c 40 00 00 00 00
       0.0 325.18298 2.6986148 0.0
0003e0 8f cd 9f 43 1b b6 2c 40 00 00 00 00 60 08 e8 43
       319.60593 2.6986148 0.0 464.06543
0003f0 c9 16 28 40 00 00 00 00 0f 4a 1f 44 67 49 c2 41
       2.6263907 0.0 637.15717 24.285841
