Assets/Training/results/run_3/PlayerAgentBehavior/PlayerAgentBehavior-274395.onnx (onnx, 224882 bytes, 11 tensors)

discrete_act_size_vector f4 [1, 2]
00000000: 0000 4040 0000 0040
3.0 2.0

network_body.observation_encoder.processors.0.normalizer.running_mean f4 [284]
00000000: 174f a040 4708 4a40 0000 0000 f9b1 503f
00000010: cabe 13bf 938a 0f3b 0000 0000 0000 0000
00000020: 9cfb e742 a310 1b41 0000 0000 ed78 9f43
00000030: 9990 0041 0000 0000 391f 8943 196f 1f41
00000040: 0000 0000 ae57 8d43 8f84 1f41 0000 0000
00000050: 763b 0d44 1b4b 2a41 0000 0000 d657 fb43
00000060: b214 9341 0000 0000 3b6a 1b44 83cb db41
00000070: 0000 0000 c92a 8b43 edfe 1f41 0000 0000
00000080: eac4 2943 c1f7 5441 0000 0000 83b9 9143
00000090: 3beb 2041 0000 0000 9c65 a043 9b50 0241
000000a0: 0000 0000 4564 c343 b8dc e140 0000 0000
000000b0: eb68 e243 81be fb40 0000 0000 0aab c643
000000c0: 46ab e540 0000 0000 a22f a643 291f 0341
000000d0: 0000 0000 c720 6243 7044 1240 0000 0000
000000e0: 587a 0144 c7e7 b041 0000 0000 9038 0744
000000f0: 6875 5c41 0000 0000 f904 3943 9bfe 0841
00000100: 0000 0000 c2e8 dc43 eefd f540 0000 0000
00000110: 447c 5e43 06f9 0841 0000 0000 71ba cf43
00000120: 1c46 ea40 0000 0000 a7ab 0f44 eb2a 6241
00000130: 0000 0000 32bb 0644 1ac0 8d41 0000 0000
00000140: 4351 1144 9812 9241 0000 0000 1672 be43
00000150: 2090 4141 0000 0000 824c c043 06d6 4041
00000160: 0000 0000 5458 1e44 9fe4 db41 0000 0000
00000170: af6e ff43 b64f b041 0000 0000 eb9f a943
00000180: 3ead 0241 0000 0000 7893 1d44 e2dc dd41
00000190: 0000 0000 3c78 e743 fdf2 fa40 0000 0000
000001a0: 3efc 1e44 4b2f dc41 0000 0000 ddde a743
000001b0: 0936 0041 0000 0000 d06d be43 75f1 df40
000001c0: 0000 0000 8526 0444 7519 b141 0000 0000
000001d0: 45bf f443 2d4b 1d41 0000 0000 2435 d843
000001e0: d0ac 9141 0000 0000 f1a2 f543 ac5e 6441
000001f0: 0000 0000 dcf8 a243 7293 0141 0000 0000
00000200: 3015 d743 85ab f540 0000 0000 b2ff d642
00000210: 7846 2241 0000 0000 38aa d243 1353 ed40
00000220: 0000 0000 4238 1444 7d99 da41 0000 0000
00000230: e6d1 8743 0767 2141 0000 0000 ff1d db43
00000240: fcca 9241 0000 0000 07ad 1244 08ef b841
00000250: 0000 0000 c1bb c043 6a32 5641 0000 0000
00000260: 01d4 b442 7c52 8341 0000 0000 9d95 3b43
00000270: cd95 6941 0000 0000 4a44 e243 a465 9d41
00000280: 0000 0000 3b43 1044 8d27 8941 0000 0000
00000290: 193b ae43 242c a440 0000 0000 361e 9a43
000002a0: 21f6 9840 0000 0000 a685 ac43 3d4e 8f40
000002b0: 0000 0000 78ad d843 df24 3941 0000 0000
000002c0: 7084 0344 5c71 8341 0000 0000 487c 1644
000002d0: b506 a641 0000 0000 fadf c243 3d01 1441
000002e0: 0000 0000 c54c 8e43 3085 943f 0000 0000
000002f0: c8b9 fa43 4152 7841 0000 0000 ecf4 b443
00000300: 1c8f 4d41 0000 0000 ab1b c543 07a4 0841
00000310: 0000 0000 2691 d043 46c6 c940 0000 0000
00000320: f7bb cb43 a319 3040 0000 0000 27b5 a043
00000330: 392c 9140 0000 0000 2d7a b343 abf8 7f40
00000340: 0000 0000 b556 9e43 d11d e63e 0000 0000
00000350: 6dd5 5943 253b 4240 0000 0000 8daa 8f43
00000360: 6c8a 8240 0000 0000 440d a743 ad54 4040
00000370: 0000 0000 b98f c743 d43a 3d40 0000 0000
00000380: da85 ef43 70b4 fc40 0000 0000 d2a0 1044
00000390: 13ea 9841 0000 0000 9298 0a44 d45b 9741
000003a0: 0000 0000 30b2 fe43 bfcb 8241 0000 0000
000003b0: f7dd fa43 a8bd 3541 0000 0000 154d 0f44
000003c0: 1bd7 8841 0000 0000 4fe0 1b44 848b c041
000003d0: 0000 0000 7a34 0d44 14fd a141 0000 0000
000003e0: ec4b ca43 1bb0 0c41 0000 0000 3623 ff43
000003f0: 7ea0 7a41 0000 0000 2fda 1144 74f6 6441
5.0096545 3.1567552 0.0 0.81521565 -0.57712996 0.0021902665 0.0 0.0
115.991425 9.691562 0.0 318.94473 8.035302 0.0 274.24393 9.964623
0.0 282.685 9.969863 0.0 564.9291 10.643336 0.0 502.68622
18.385105 0.0 621.65985 27.474371 0.0 278.33426 9.999738 0.0
169.7692 13.310487 0.0 291.4493 10.057429 0.0 320.79382 8.144679
0.0 390.78336 7.058193 0.0 452.81967 7.867005 0.0 397.33624
7.1771574 0.0 332.37213 8.195107 0.0 226.12804 2.285427 0.0
517.9116 22.113173 0.0 540.8838 13.778664 0.0 185.01942 8.56216
0.0 441.81842 7.6872473 0.0 222.48541 8.560797 0.0 415.45657
7.3210583 0.0 574.68207 14.135478 0.0 538.9249 17.7188 0.0
581.2697 18.259079 0.0 380.8913 12.097687 0.0 384.59772 12.052252
0.0 633.3801 27.486631 0.0 510.86472 22.038921 0.0 339.24936
8.167295 0.0 630.3042 27.732853 0.0 462.93933 7.8421617 0.0
635.9413 27.523092 0.0 335.74112 8.013192 0.0 380.8579 6.9982247
0.0 528.60187 22.13743 0.0 489.4943 9.830853 0.0 432.41516
18.209381 0.0 491.27298 14.273113 0.0 325.9442 8.098497 0.0
430.16553 7.6771874 0.0 107.499405 10.142204 0.0 421.32983 7.416391
0.0 592.879 27.324945 0.0 271.63983 10.087653 0.0 438.23434
18.349113 0.0 586.70355 23.116714 0.0 385.46683 13.387308 0.0
90.41407 16.415276 0.0 187.58443 14.599072 0.0 452.5335 19.67463
0.0 577.0505 17.144312 0.0 348.4617 5.1303883 0.0 308.23602
4.780045 0.0 345.04413 4.4783006 0.0 433.35522 11.571502 0.0
526.06934 16.430351 0.0 601.9419 20.753275 0.0 389.74982 9.250302
0.0 284.59976 1.1603146 0.0 501.45142 15.5200815 0.0 361.91345
12.847439 0.0 394.21616 8.540046 0.0 417.13397 6.3054533 0.0
407.46848 2.7515647 0.0 321.41525 4.5366483 0.0 358.9545 3.9995525
0.0 316.6774 0.44944623 0.0 217.8337 3.03486 0.0 287.33243
4.079397 0.0 334.10364 3.0051682 0.0 399.12283 2.9567156 0.0
479.04572 7.897026 0.0 578.5128 19.114294 0.0 554.3839 18.919838
0.0 509.3921 16.349485 0.0 501.7341 11.358803 0.0 573.2044
17.105032 0.0 623.5048 24.068123 0.0 564.81995 20.248573 0.0
404.59314 8.7929945 0.0 510.2751 15.664183 0.0 583.4091 14.310169

network_body._body_endoder.seq_layers.0.weight f4 [128, 284]
00000000: f2f6 b13d f07d ed3d 25bc 533c 129e 673d
00000010: 357e ab3d 607b 003e 5f48 b23c 5785 8b3d
00000020: ef5e a9bc 6ed7 ea3c 1c33 853b 8142 d43c
00000030: 5c5e a63c 2096 94bd e88a 96bd 1642 313c
00000040: c51e 75bd 0942 b03d 7038 3abc d852 233d
00000050: eca7 a8bd 17dc 84bd 1181 7abd 4699 65bd
00000060: 5c5f c7bb dace 5ebd 00e4 ddbd 10c9 563c
00000070: a63a dd3d 2250 1ebd 62d0 1dbe 3234 ba3c
00000080: 393d 473b bb52 1abd 8403 8a3d ef20 59bd
00000090: f322 2fbc 348c ab3c 2c09 be3c 0945 353d
000000a0: f87d c23c 7794 2bbc 942f a93b 00ba cebd
000000b0: de62 8a3d b8ed a33d 87db 023c 4aa7 033d
000000c0: 8df6 9d3c bc15 ae3d 9137 803c 2e2f 02bc
000000d0: b8cf 1a3d 3605 c63a 9224 a73a ff2a 213b
000000e0: e35f 993b 3d4b 583c dee8 48bd 3bad 663b
000000f0: 11b6 74bd c22e 393d 9aa3 e93b f701 dfbc
00000100: 5d1d bb3c 3b55 afbd 43fc c4bb 40fe 6ebd
00000110: e438 91bc a710 3f3d adc2 103d 5e31 fbbc
00000120: b537 82bd 3855 853d bf68 4ebc 971d 893c
00000130: df05 213d 03df 7abd 2726 99bb db1e edbc
00000140: f22a b13d 6273 e73c b3de 3dbd 7e32 403d
00000150: 2eae 8abd 9561 343d 2b3e 6abc 925c 1c3c
00000160: d26e ce3c 8513 66bd e74a 603c bf28 20bd
00000170: bad9 a8bd b0a1 0f3d 6ddf babd 55c2 be3c
00000180: d7ec 41bd f771 873d 1352 c5bc cfe7 91bd
00000190: 7038 21bd a45a 91bd 75ff 86bc 791f 483d
000001a0: 8ebb c5bd fb42 42bd bab2 efbc 65ac 743d
000001b0: 7263 d03c a50b 24bd ed18 ba3d 9c98 a63d
000001c0: a57d b2bb 1fb8 373d 29ef 3dbd 9472 043c
000001d0: ca75 e2bc fa7e 88bc c78f e63b 94f2 cc3c
000001e0: 41a7 3c3e aa0b 14bc ae05 e33b 2de4 103d
000001f0: 1a39 e6bb 72e6 c63c fffb 95bc 2293 803d
00000200: f9bf 45bd a808 76bc 232c 073d c234 d73d
00000210: d7b8 be3c 062d 15be 6343 a73c 2923 8c3c
00000220: e37d 96bc 87bc aebc 9319 55bd aafa 08bd
00000230: 9d34 03bd 0c11 ba3c ea7b c139 6d27 123d
00000240: 5d94 9bbd a815 a73d 07e4 51bb f47f 6fbd
00000250: f31f 5f3c e243 64bb e019 8a3b 7663 9bbd
00000260: db3f 8f3d 9606 c73d 1347 8abd eacc 0c3d
00000270: afcb ab3d 8384 1d3b d47d 17bc bfc0 243d
00000280: 31a6 b0bd 31d5 6b3d bc18 873c 6900 b4bd
00000290: 7da2 d03c 994d 623d c1cb 7c3d d48f 03be
000002a0: 01f4 663d 6819 633d 4cf9 a2bd cc7a cfbc
000002b0: dc68 c7bc 33e4 ce3c 1330 103d fe08 36bb
000002c0: 6bcc 2fbd 7664 c9bd ff05 fd3d 76bf 393d
000002d0: 9e39 d4bc 273e 09be dd6e 693d a9f0 f8bc
000002e0: 4426 003c 045e 1f39 eb44 0abc 7037 72bd
000002f0: 85a1 dfbd 8303 22bd 1ebf 113e a03b bfbd
00000300: f9e8 c0bd 4745 d1bb 7215 c9bd 51ff 1e3d
00000310: 88ff bbbd 7d89 b2bb a2e3 cd3d ad1e b2bc
00000320: 8e26 9b3c edc1 293d 6544 073d bed1 c5bd
00000330: f379 bbbc 86f5 59bd 2e24 8b3d 469c a5bd
00000340: 882a c2bb 7dcf a0bd 22d1 24be fe13 06ba
00000350: d513 ce3d 24e4 a53c 6614 43bb 7f09 943d
00000360: 1b61 b43d 2eee 893d 9a53 993c 26a5 aa3b
00000370: 470f 67bd 4734 babd 8f43 87bd 6786 43bd
00000380: 9b3d dd3c 56f5 27bd b858 f8bd 6d40 093c
00000390: 168e 3bbd 3c57 093d 51dc 03bc 9738 703a
000003a0: 3146 803b c2c7 24bc 1302 ebbd fdfd 3d3d
000003b0: adc3 ebbd 280d 393d 188c 223d fc1b 963c
000003c0: 9915 98bc 5fda 153b afc7 10bd 7bd5 303c
000003d0: 9cd8 91bd fce6 a3bc 26ed a53d 46fa 42bd
000003e0: 13d3 06bd b747 e53a d78b a03d 5c7c 73bd
000003f0: 8c7e 4fbd f7c9 04bc 89ad f0bd 0642 47bc
0.08689679 0.11596286 0.012923275 0.056547232 0.083736815 0.12547064 0.021763025 0.06812542
-0.02067515 0.028667178 0.0040649306 0.025910618 0.020308666 -0.072551966 -0.07350713 0.010818979
-0.059843797 0.08606345 -0.011365995 0.039873928 -0.082351536 -0.06487291 -0.061158244 -0.056054376
-0.006084366 -0.054396488 -0.10834503 0.0131094605 0.10802202 -0.03865064 -0.15411523 0.022729967
0.0030401482 -0.037676554 0.06738952 -0.053009924 -0.010689485 0.020940877 0.023197733 0.04425529
0.023741707 -0.0104724085 0.0051631425 -0.100940704 0.06757139 0.08004326 0.00798691 0.03214196
0.019282604 0.08500239 0.015651496 -0.007945819 0.037795752 0.0015107754 0.0012751988 0.0024592278
0.00468062 0.013201532 -0.049050204 0.0035198468 -0.059743945 0.045210607 0.0071300985 -0.027222617
0.02284115 -0.08561178 -0.0060115173 -0.05834794 -0.017727323 0.04664674 0.035341907 -0.030663189
-0.063582815 0.06510395 -0.012598216 0.016737742 0.03931224 -0.061247837 -0.0046737376 -0.028945377
0.08650769 0.028253261 -0.04635496 0.046923153 -0.067715034 0.044038374 -0.014297049 0.009543555
0.025199328 -0.05617096 0.013689733 -0.03910136 -0.08244653 0.035066307 -0.09124646 0.023286024
-0.04734501 0.06613534 -0.024086988 -0.07124292 -0.039360464 -0.070973665 -0.016479233 0.04885814
-0.09654914 -0.04742716 -0.029260028 0.05973472 0.025438044 -0.040050168 0.090867855 0.08134577
-0.005447107 0.044853326 -0.04637066 0.008083958 -0.027644057 -0.01666211 0.0070361826 0.025018014
0.18423177 -0.009035984 0.0069281673 0.035373855 -0.00702585 0.024279807 -0.018308638 0.06278063
-0.048278783 -0.015016712 0.033001076 0.1050811 0.023281498 -0.14567956 0.020417875 0.01710661
-0.018370574 -0.021330131 -0.052026343 -0.033442177 -0.032032598 0.022713207 0.00036904152 0.03568213
-0.075966574 0.081584275 -0.0032026784 -0.058471635 0.013618457 -0.00348305 0.0042145103 -0.0758733
0.06994601 0.09718053 -0.067518376 0.03437511 0.08388459 0.0024035282 -0.009246308 0.04022288
-0.086254485 0.057576362 0.016491286 -0.08789141 0.025468105 0.055249784 0.061717752 -0.12847835
0.056385044 0.05544415 -0.07957706 -0.025327109 -0.024341993 0.025255298 0.035202097 -0.0027776356
-0.042919558 -0.098336145 0.12354659 0.045348607 -0.02590638 -0.13402615 0.056990493 -0.030388193
0.007821623 0.00015198445 -0.008439283 -0.0591349 -0.10919479 -0.03955413 0.14233062 -0.093375444
-0.09419436 -0.0063864323 -0.098185435 0.038817707 -0.09179598 -0.005448519 0.10053183 -0.021743143
0.018939283 0.041444708 0.03302421 -0.09659146 -0.022885298 -0.053212665 0.0679401 -0.080864474
-0.0059254803 -0.07852075 -0.16095403 -0.00051146734 0.100623764 0.020250387 -0.0029766797 0.07228374
0.08807584 0.06734882 0.018716622 0.0052076755 -0.056411054 -0.09092002 -0.06604683 -0.047735598
0.027006915 -0.041005455 -0.12126297 0.008377177 -0.0457898 0.03353046 -0.008048133 0.0009163706
0.0039146175 -0.010057392 -0.11475005 0.0463848 -0.115119316 0.045178562 0.039684385 0.01832389
-0.018564986 0.0022865755 -0.035346683 0.010793085 -0.07121393 -0.020007603 0.08101873 -0.04760196
-0.03291614 0.0017492686 0.07839172 -0.05944477 -0.050657794 -0.008104793 -0.11751849 -0.012161737

network_body._body_endoder.seq_layers.0.bias f4 [128]
00000000: 4390 3dbd 57fa 213c b555 343d 1500 513c
00000010: e358 dd3c 13d9 4abc ddd4 efbc 32ad 793b
00000020: 02a6 383d 9fe8 c73c f539 773c fb3b f73c
00000030: 39f6 b83c e6e0 ef3b 92f9 823c 9571 75bc
00000040: 6171 3cbd bf78 ce3c f27c 063d 5c57 b6bc
00000050: b966 a03c 0678 c1ba dd64 7b3b bd19 093d
00000060: b1ba cc3c f628 83bb 0830 cebb 5ab6 debb
00000070: ab34 753c f714 8ebb 817c 2f3c d160 653c
00000080: a44e 04bc 22b4 be3c cd5f bbba a111 44bc
00000090: e40e db3c 9fcc 103d 2831 503c 58d7 5d3c
000000a0: c149 f53c cb3f 69bb 5458 bfbb f6b5 353c
000000b0: d5fc 1f3d 8e10 ae3c e4cb aebb bbea 85bc
000000c0: 1aa2 a93c b966 503d 0513 1f3d 5294 eb3a
000000d0: 9d9a 353b ee53 013d 46cf 063d f2ee 05bd
000000e0: 4710 113d e7bd 6abb 21f1 25bb d669 ed3c
000000f0: bdf6 783c 873e d5bc b5f1 e03b e044 91bc
00000100: 2e89 073b 28f7 cf3c 0e2e ea3c 7771 5d3d
00000110: 105d fe3c 3c8f edbb 9011 6f3a 8d89 993c
00000120: b8aa 8f3c c850 253d f128 3a3c 35a7 d13c
00000130: d6ae 843c ea51 07bd 5b91 50bd 3506 e63c
00000140: 2d5d 2a3d 206b bbba ba3e 29bc 5a13 2539
00000150: df12 023d 49d5 0d3d 7436 963b 5dd2 da3c
00000160: 55e8 e03b bf3c 74bb 56b3 2b3c 1b35 853c
00000170: 8ac9 c1bc af7f 84bc ef4e 333c c12a a13c
00000180: 2f2e 14bd 1e7f d6ba 5b1c 05bd 04c3 063b
00000190: b5f2 b03c 4df8 bf3c 8c2a 9b3c 02d7 52bc
000001a0: 5c39 d13c 4c30 043d a1b5 fd3c b102 103d
000001b0: 7a58 eb3c 7ca4 fd3c 4a1e 2e3b 7718 98bc
000001c0: b585 d73c 2882 9c3a 6290 b2bc bd08 853d
000001d0: 5bca a3bc 085b 3f3b 8000 fd3c 65c2 f53b
000001e0: abde 893c bf31 c8bb b1cd 033b 41d9 113d
000001f0: a7b6 cebc 491e bfbc fb15 f63b 6254 903c
-0.046280157 0.009886346 0.04402705 0.012756367 0.027019924 -0.012380856 -0.029276306 0.0038097617
0.045080192 0.024402915 0.015089502 0.030179968 0.022578346 0.007320511 0.015988145 -0.014980693
-0.046006564 0.02520406 0.032834 -0.022258453 0.019580232 -0.0014760501 0.003835968 0.03347181
0.024991365 -0.0040026857 -0.006292347 -0.0067966403 0.01496617 -0.0043359953 0.010710836 0.014000134
-0.00807539 0.023279253 -0.0014295519 -0.011967094 0.026740499 0.035351392 0.012707032 0.0135401115
0.029942395 -0.0035591002 -0.005839387 0.011090746 0.03905948 0.021248128 -0.0053343643 -0.01634728
0.020707179 0.050879214 0.038836498 0.001797328 0.0027710565 0.031574182 0.032912515 -0.03269858
0.035415914 -0.0035818757 -0.0025320726 0.02898113 0.015195546 -0.026030792 0.006864751 -0.017733037
0.002068113 0.025386408 0.028586414 0.054063287 0.031050235 -0.007249741 0.00091197435 0.018742347
0.01753746 0.040360242 0.0113623 0.025592426 0.01619665 -0.033037104 -0.05091987 0.028079132
0.041592766 -0.0014298894 -0.010329897 0.00015742835 0.031756278 0.034627233 0.004584128 0.026711637
0.0068636336 -0.0037267653 0.010479769 0.016260674 -0.023655672 -0.016174166 0.010944112 0.019673707
-0.036176857 -0.0016364788 -0.032497745 0.0020563016 0.021600107 0.023433829 0.018941186 -0.012868645
0.025540046 0.032272622 0.030970396 0.035158817 0.028728712 0.030962221 0.0026568347 -0.018566353
0.026308874 0.0011940645 -0.021797363 0.06495807 -0.019993952 0.0029198546 0.030884027 0.0074999803
0.01682981 -0.006109446 0.0020111615 0.03560758 -0.02523358 -0.02332987 0.0075099445 0.017618362

network_body._body_endoder.seq_layers.2.weight f4 [128, 128]
00000000: 5e39 d2bd a510 2d3d cb50 d03d 13c8 0d3d
00000010: 7c77 77be 265d 91bc 57f1 e9bb 5520 5b3d
00000020: ad29 213d 2974 59bd 9f14 1cbd 7339 ee3c
00000030: 451b afbb 014f f5bb a92c e2bd 1c4d 913b
00000040: f97e 713d b66d f038 417f b43d 50c0 25bc
00000050: 292c c13d d3a2 93bd a226 8e3c e6f4 f93c
00000060: fd6a e33d c1b3 44bd 0c2e 82bd c1d6 0ebe
00000070: f2b3 84bd 68bf 19bd a6f2 78bd 970b 3cbd
00000080: c761 353d 21a4 10bd 0482 38be c828 19be
00000090: 819a 883b 7032 67bd 2ceb b03d ce77 7d3c
000000a0: 54b0 6d3d 7798 b9bd 2f97 e13d acfb 1ebc
000000b0: 001b a3bd 6b02 c5bd 7040 50bd 79a7 77bd
000000c0: bc4b 85bd c300 45bd a1e1 54bd 47db bebc
000000d0: 1ad5 2c3e 08ad b2bc ce68 113e bbc5 e53d
000000e0: b084 f5bc e98c 87bd 6560 b53d e948 86bc
000000f0: 0fdd bcbd 2eb9 a4bd d58b 14be 6caa 793c
00000100: 4501 d63d 5200 1f3d 2b53 563e dec0 643d
00000110: db26 c3bd 732e 223d 094b 18be 5d17 01bd
00000120: f294 31be 159f 703b b206 703c 433c 913d
00000130: da6e 06bc bbd2 c03c 9529 22bd 57a9 cb3d
00000140: 2ed3 ae3d 89e3 013e 82af df3d 2929 3b3d
00000150: e696 53bd 3c8b 07bd f64e bc3b 380a a8bd
00000160: c40d 4b3d f2a4 aabd ed03 2d3e 5205 c3bd
00000170: 9b1a 133e 74ef 00bd 6ffe 303d d0fe 44bc
00000180: 4882 ebbd 4dda 513d af76 fbbd 3868 263d
00000190: 96eb cf3d 48c6 83bc e78f a8bd e035 a63d
000001a0: c885 b23d 79ac 35be bee4 c93d 3fa2 0abd
000001b0: fc48 54bd 801d e53c 374e 283d aac6 28bd
000001c0: 59ec 16be 2ab0 793c ca5a e93d 33e2 86bd
000001d0: 010c f53d a96d 02be 87de 53bc dc88 9f3d
000001e0: c8d0 033e 21c2 b7bd 94b9 3cbb 822c 31be
000001f0: 8b46 673d d8ec ba3d a01e 963d 0eb8 013e
00000200: b794 973d 545b 49bd 8ada 243e 8325 483d
00000210: b0eb cdbd a450 cabc 51d4 aebd 8bad c8bd
00000220: 2cbd adbb 77d9 333d 7e77 c53d f5d3 9e3d
00000230: d4f4 2fbe 8ca8 703e 3d5f 373c 6e33 a43b
00000240: ada5 243e 387b aa3c 12f6 41be 6085 c63d
00000250: 0529 0cbb 3a33 113e 4ce7 08bd 47e2 c03d
00000260: b15b bebd 7eee 26be e667 9abd 4043 393e
00000270: 9af3 dd3c 84ce 7f3d 12ec 833d 7aaa c13b
00000280: 7423 2dbd d0a0 27bd 9baa 5f3d 04c8 a73d
00000290: 85b0 49bd 716b c1bd 3c35 b8bd dc65 8f3d
000002a0: 6ea1 013d b81e 403b ad57 37bd 471f ab3d
000002b0: dfd3 433d f7da 99be 1ff9 3abe 0f05 bfbd
000002c0: 0bbd 9cbd b09a 9abd 1816 5fbd 7874 23bd
000002d0: b335 93bc 7989 9e3c d66c 4dbd 2e3c 14bc
000002e0: f17c 09bd 05d1 83bd cb72 c3bc 03c4 1e3d
000002f0: b664 a33d b345 9d3d 27b7 a43b fa43 1dbb
00000300: 8bb4 223e e365 59bd 3d09 06be 12f6 f83d
00000310: 35e5 103c 59c4 1ebd ca67 e13d 9dcc 77bd
00000320: 7386 6bbd ad3a 9bbd 2eac c63d 8153 2ebd
00000330: 375b 0a3d 9dff e0bc 1820 443c 8118 233e
00000340: dc95 1f3d 1b62 59bd 23f9 65bd c305 4f3d
00000350: 5799 f3bd 15e4 cf37 eab3 963d b198 ac3d
00000360: 9ea5 35be 170b b7bd f1c0 46bc 2e0f a43d
00000370: b719 a0bd 8b61 233c 2fcf 0c3d 41d6 d83d
00000380: 6dd7 14bc f385 b23c 2144 2dbd 0506 993d
00000390: 5c26 dabd 1f53 883d e140 153e 6440 15be
000003a0: 319a 803e 0bd5 b2bd 67d4 a63d 4d76 223d
000003b0: 9afd 83bc 0d0f 12bd 37ab 143e c0f3 36be
000003c0: f0ee af3d d7dc 1b3d a7e7 94bd 3513 7cbd
000003d0: 1e5f 11bd 354a 193d 888a edbb ea5c 18bd
000003e0: e4ce 35bc 708d a2bd ac6e fdbc bdc6 47bd
000003f0: a908 89bd 5f28 563c fb93 b0bd 416c 02bd
-0.10264848 0.0422522 0.1017166 0.034614634 -0.24166673 -0.017744612 -0.0071393657 0.05349763
0.039346386 -0.053089295 -0.038105603 0.029080128 -0.005343827 -0.0074862246 -0.110436745 0.004434241
0.05895898 0.00011464527 0.08813334 -0.010116652 0.09432251 -0.07208791 0.017352406 0.030512284
0.11104391 -0.04802299 -0.06356439 -0.1394911 -0.06479634 -0.037536055 -0.060778283 -0.04590949
0.0442827 -0.035312776 -0.18018347 -0.14956963 0.004168809 -0.056444585 0.086386055 0.015470458
0.058029488 -0.090622835 0.11015164 -0.009703558 -0.07964134 -0.09619602 -0.050842702 -0.06046245
-0.06508586 -0.04809643 -0.05197299 -0.023297919 0.16878167 -0.021811023 0.14200136 0.11219355
-0.029970497 -0.06618673 0.088562764 -0.016392188 -0.09221851 -0.08043133 -0.14506467 0.015238386
0.10449461 0.038818665 0.20930164 0.055847995 -0.095288955 0.03959508 -0.14872374 -0.03151642
-0.17341974 0.0036715914 0.014650034 0.07091572 -0.00820514 0.023537984 -0.039590437 0.099444084
0.08536373 0.12684454 0.10922147 0.04569355 -0.05165758 -0.03309177 0.0057467176 -0.08205074
0.049573675 -0.08332242 0.16896029 -0.09522499 0.14365618 -0.03147836 0.043211397 -0.012023643
-0.114994586 0.05123358 -0.122784965 0.040626734 0.10152356 -0.016085759 -0.08230572 0.081157446
0.08716923 -0.17741574 0.09858082 -0.033846136 -0.051827416 0.027968168 0.041090216 -0.041205086
-0.14738597 0.015239755 0.1139427 -0.06586113 0.1196518 -0.12737145 -0.012931473 0.07789776
0.12872612 -0.08972574 -0.0028797137 -0.17302135 0.05646376 0.091272056 0.0733006 0.12667868
0.07401412 -0.049159363 0.16098991 0.0488639 -0.100547194 -0.024696656 -0.0853659 -0.09798726
-0.005302092 0.043908563 0.09641932 0.07755271 -0.17183238 0.23501796 0.01119214 0.0050110137
0.16078825 0.020810708 -0.18941525 0.09693408 -0.0021386754 0.14179698 -0.033423707 0.09418159
-0.092948325 -0.16301915 -0.07539348 0.1809206 0.027093697 0.062452808 0.06441511 0.005910215
-0.04227014 -0.040924847 0.05460606 0.08192447 -0.049240608 -0.09444321 -0.08994529 0.0700185
0.031648092 0.0029315185 -0.04476135 0.08355575 0.047809478 -0.3004987 -0.18259095 -0.09327137
-0.076532446 -0.075490355 -0.05446443 -0.039905995 -0.017969942 0.019352661 -0.050152622 -0.009047551
-0.03356642 -0.06436352 -0.023858448 0.03876115 0.079781935 0.0767931 0.0050267163 -0.0023996816
0.15889184 -0.053075682 -0.13089462 0.12156309 0.00884371 -0.03876147 0.11006124 -0.06049787
-0.057501268 -0.07579551 0.097008094 -0.042560104 0.033778396 -0.027465636 0.011970542 0.15927316
0.038961276 -0.053072076 -0.0561458 0.050542604 -0.11894482 2.4782532e-05 0.07358535 0.08427561
-0.17738959 -0.08937662 -0.012130962 0.08010708 -0.07817405 0.0099719865 0.034377273 0.10587741
-0.009084565 0.021792388 -0.0423013 0.07471851 -0.10651848 0.06656479 0.1457553 -0.14575344
0.2511764 -0.08732041 0.08145981 0.0396636 -0.016112138 -0.035658885 0.14518438 -0.17866421
0.085904956 0.038052406 -0.07270747 -0.061541755 -0.0354911 0.037424285 -0.00724918 -0.037197985
-0.01109669 -0.07937133 -0.030936562 -0.048773516 -0.06691105 0.013071149 -0.08621975 -0.03184152

network_body._body_endoder.seq_layers.2.bias f4 [128]
00000000: 2a57 ebb9 f6bb 6b3c 699b 133c fe84 c938
00000010: f9c7 f839 c7c1 013d 3075 91bb d830 bdbc
00000020: 8986 3f3c 7a4c 2fbc e961 043c 5126 223d
00000030: 30c0 033d afd6 1d3c c896 9b3b 4818 00bc
00000040: a34e 033d bcad e4bc 112f fcbc 7ee2 f5bb
00000050: e8b0 dfbb 8b27 8abb 7509 cc3c 6bf9 123c
00000060: 0a34 733c bdcd aa3c 3be3 0ebc bb4d 823c
00000070: 6206 5c3c 8322 863c e63c e73c 500f 6e3c
00000080: bc7f 603c 0270 663d 115d 4d3d c436 fb3c
00000090: d9be b13c eb56 ab3c 13b2 3b3d a1c2 57bb
000000a0: 1b41 a23c 9f92 773a 1015 993c 0434 30ba
000000b0: c804 383c 8d4a 85bb 6054 193b 85b3 d33c
000000c0: 578a 053d 5b60 d7bc e2ae 273d 41d0 edba
000000d0: 4bdb 0e3b 0f34 a83c 4f3c 083d 1a27 42bc
000000e0: 7422 91bb 2881 6b3c 3948 133c d27d 4e3b
000000f0: 7216 943c b38a 13bc 183b d53c 7aba f6bb
00000100: c4f4 7cbc c1a3 feba e2d8 933b 0ab0 8cbc
00000110: 21da 6bbc 2825 1d3d 74d0 e5bb b38e f73c
00000120: 7384 ff3b 78c4 1ebc 3b06 adba e74a 783c
00000130: 03bb e4b8 3daf d63b aa8b fbbc 16ba c93b
00000140: 6afc 6abc b9ab ee3c 9bec 1dbc 0418 063d
00000150: d7b5 393d d934 d4bc 74cd 14bc 5103 35bc
00000160: d120 44bc 6830 05bd c9c9 1d3d 1cb6 4cbc
00000170: 7fdb 7d3c e92e 463d d543 50bc 0509 9c3c
00000180: 5b03 253c 270e a5bc 1ad2 04bd a5df a2b8
00000190: af69 6b3b 3b9c 023d 2754 52bc fb92 f5bb
000001a0: 96e3 163c 77ce 343d cafa ff3b d281 5d3d
000001b0: 7a13 863a 7673 8b3c 784c 81bc c80b b73c
000001c0: eea8 82bb dbec 813b d2b7 b83c ea0a 223d
000001d0: 5233 08bd 3824 ba3c b7f6 0dbc 3afb 0abc
000001e0: 5bce 9ebc d531 ac3c 18e6 9abb ab98 f138
000001f0: 7615 a9ba e7ba c93c 4493 853c 7b06 9e3c
-0.00044887635 0.014388075 0.009009221 9.6091986e-05 0.00047451237 0.03167894 -0.0044390187 -0.02309458
0.0116897905 -0.010699386 0.008079984 0.039587323 0.032165706 0.009633704 0.004748199 -0.007818289
0.032057416 -0.027914874 -0.030784162 -0.0075038066 -0.006826509 -0.0042161397 0.024906853 0.008970599
0.01484395 0.020850057 -0.008721168 0.015906205 0.013429256 0.016373878 0.02822728 0.014530018
0.013702329 0.056259163 0.050137583 0.030665763 0.021697449 0.02091547 0.04582412 -0.0032922404
0.019806435 0.00094441505 0.018686801 -0.0006721618 0.011231609 -0.004067725 0.0023396239 0.025842438
0.032602634 -0.026291063 0.040938266 -0.001814373 0.002179819 0.020532636 0.03326064 -0.011850143
-0.004429156 0.014374055 0.008989387 0.00315081 0.018077109 -0.009005236 0.026029155 -0.007529554
-0.015439216 -0.0019427465 0.0045119384 -0.017173786 -0.014395268 0.038365513 -0.007013375 0.030219411
0.0077977716 -0.0096903965 -0.0013200709 0.015154577 -0.00010906721 0.0065516517 -0.030706245 0.0061562164
-0.014342407 0.029134618 -0.009638931 0.032737747 0.04533943 -0.025904106 -0.009082187 -0.011048154
-0.011970715 -0.032516867 0.038522515 -0.01249459 0.0154942265 0.04838458 -0.012711485 0.01904727
0.010071601 -0.02014835 -0.03242693 -7.766419e-05 0.0035921147 0.031887274 -0.012837446 -0.007494328
0.009209534 0.044142213 0.007811879 0.054078884 0.0010229193 0.01702283 -0.015783533 0.022344485
-0.003987423 0.003965003 0.02254859 0.03956119 -0.033252068 0.022722349 -0.008664778 -0.008482749
-0.019385507 0.021019856 -0.0047271363 0.00011520212 -0.0012900073 0.024625255 0.016305573 0.0192902

action_model._discrete_distribution.branches.0.weight f4 [3, 128]
00000000: 984a b0bc 764e 88bc b0bb 003d 2d9e b23c
00000010: a30f 993c 9f97 10bd 3cd5 d43c 9c40 9c3c
00000020: fa7d 4abc 41c9 8cbc f03e 603a b627 76bc
00000030: 618b ebba fa5c 63bb 1efc 1f3d 3b80 4e3c
00000040: 4d39 95bc 2fdd 27bb f5ef 48bc 541c ecba
00000050: 1aac 90bc ca92 483d 24b2 043d c37e e13c
00000060: 0e9c 86bc c42a 27bd db30 a1bb c3cd 923c
00000070: c7d2 863c 8527 2a3d e827 143c c29a 383d
00000080: 3c61 36bc 00af d93c 7dae c93c eb4b 8ebc
00000090: 0782 8fbb 725b ecbc ce1b 8a3c 9534 533c
000000a0: d414 10bd e3f7 a4bb 3ee1 a0bc 1fae 78bb
000000b0: 1465 b7bc 5549 f43c 91e2 a7bb 65b1 42bd
000000c0: d72c 93bc 8f72 70bb 0ee3 aabb d3db c93c
000000d0: fbf3 d4bc ad12 1cbd dbbf bc3c e161 8d3c
000000e0: d276 923c 0eb9 683d f2d7 c8bc d0ae 3dbc
000000f0: 5ab5 2a3c a31a c83a d2f5 043d 0f27 c4bc
00000100: 88f6 8abc 88d9 5bbc 38c6 2abd c9da a63c
00000110: d4ee 80ba 15c8 5fbd 420c 09bd 475a 30bc
00000120: 02f5 223c a056 583c 0438 d3bc 5e4b 143d
00000130: 0bc6 39ba e205 a1bc 3481 b6bb 6292 2bbd
00000140: e099 53bc 6310 cfbc 40a4 9dbb f5d8 37bc
00000150: 8aa9 393c 82bb 61bc 7bde bd3c dc3b 303d
00000160: 0eed 0fbc f55a 583c 52d8 7ebc 08a4 80bc
00000170: efc7 9ebc 3c04 66bb 962f 83bb 3ee4 28bd
00000180: 1017 0dbb 6ee6 e6bb 720e b8bb a149 c2bb
00000190: f5d7 183c 12a2 0e3d 1e08 0b3c 78b9 8b3c
000001a0: 73d7 473d 1d10 02bd 79d5 233b f5fe d0bc
000001b0: 7561 71bc 4f22 0e39 77e1 703c 6367 febc
000001c0: e95a 6dbc 3c25 4abc 4989 733d 077a 68bc
000001d0: cdef 6dbb aad8 d0bc 6555 743b ef89 d1bb
000001e0: a4b7 00ba 9cc9 1cbd 98a9 4cbc d2a6 8d3c
000001f0: 7873 1fbc 3b5d adbc 1958 82bc 76e8 86bc
00000200: 92ab 883b 262a 613b 7e61 b4bc 6c72 9bbc
00000210: 8501 183c cbc8 293d 7ac4 5bbc 1fa5 7cbc
00000220: e1d8 513d eeb5 8c3c d5c8 413c faf2 373d
00000230: 8bd3 b53c 7499 af3c beea 9fbb 5b11 cbbb
00000240: c85b 2f3d 7571 51bd 519a 97bb 8953 c1bc
00000250: a600 be3c fa0c 8bbc cb10 883c dc04 263c
00000260: 791e af3c ba41 443d 817e 21bb c230 8d3c
00000270: 9886 653c 8c4d 1dbb 548c 383d dd32 aabc
00000280: 7253 8fbc 2ea4 3b3d 374f 5a3b 6512 1e3d
00000290: 6096 c73c 29ce 163d efd4 0c3d 90ae c9bc
000002a0: cbdb 643d c0b6 2e3c 5485 883c ac25 29bc
000002b0: 2058 f93c 8712 1fbd c0d6 f4ba fcf2 583d
000002c0: ec90 033d 4f38 92bc f643 1b3d f502 033c
000002d0: 0a59 883c b8db 483d 90fd 913c cb1c f2bc
000002e0: b78f e8bc b032 9f3c 51a1 de3c d4ae bfbc
000002f0: b4f2 bb3c 610b 38bc 6894 6a3c 66ab babc
00000300: 5c79 f2bc 821a 96bc 913f 113d 907b e3bc
00000310: 8976 dbbc d7f7 713d 0a46 903c e004 df3c
00000320: 086c dbbb c119 bdbc ae24 2639 f01a 4fbc
00000330: 93d4 6abc 0f28 ae3c c357 8bbc f8b1 283d
00000340: 44b8 2bbb d681 3c3d 0946 84bb 5f79 d33c
00000350: 38e1 383c 453d c8bc 08da f9bc f23c 14bd
00000360: 2772 9c3c 6a07 81bc 9f3a 303d 8cd3 e2bb
00000370: f59b c0bb cdc3 e53c eb91 3d3c 40b9 c83c
00000380: 25c8 b23c 5e25 373d 72f1 bcbc 8332 683a
00000390: 2c9c d9bc cc0d 35bc de19 43bc 2ac4 18bc
000003a0: 8708 60bd 0865 a03d b9fa a43c ddeb 6b3d
000003b0: 6200 4c3c 8e82 d63c 8888 1bbc ae54 523d
000003c0: 476c 5ebc 0092 943b e13e 82b9 b70f 423d
000003d0: 2911 c1bc 876a 503d 4cd1 c23a 0578 02bd
000003e0: 8313 683c 7cb2 383d c59f 71bc 323f 963b
000003f0: b3fa aabc 6883 4c3d de6b d23c fedd 083d
-0.021519944 -0.016638976 0.031428993 0.02180394 0.018684214 -0.035300847 0.025980584 0.019073777
-0.012359137 -0.01718581 0.00085543003 -0.015024116 -0.0017970615 -0.003469287 0.039058797 0.012603815
-0.0182158 -0.0025614013 -0.012264241 -0.0018013814 -0.01766019 0.048968114 0.03239645 0.027526265
-0.016431835 -0.04081227 -0.004919154 0.01792038 0.016457928 0.041541595 0.0090427175 0.045069464
-0.011131581 0.026572704 0.024619335 -0.017370185 -0.004379514 -0.028852198 0.016858961 0.0128909545
-0.035176113 -0.005034433 -0.019638654 -0.003794558 -0.022387065 0.029820124 -0.0051234444 -0.047532458
-0.017965717 -0.0036689376 -0.0052150553 0.024640953 -0.025995245 -0.038103748 0.023040703 0.017258586
0.017878924 0.056817107 -0.024517033 -0.011577323 0.010419214 0.0015266727 0.032460995 -0.023944406
-0.016963258 -0.013418563 -0.041692942 0.020367997 -0.0009836801 -0.054634172 -0.033458956 -0.010763711
0.00994611 0.013204247 -0.025783546 0.03620469 -0.00070867006 -0.019656125 -0.0055696014 -0.04188765
-0.012915105 -0.025276368 -0.00481084 -0.01122116 0.011331925 -0.0137776155 0.023177376 0.043025836
-0.008784546 0.01320528 -0.0155545045 -0.015703216 -0.019382445 -0.0035097739 -0.0040034754 -0.041233294
-0.002152864 -0.0070465123 -0.0056169564 -0.0059291874 0.009328832 0.03482253 0.008485822 0.017056212
0.048789453 -0.031753648 0.0024999066 -0.025512198 -0.014732708 0.00013554956 0.0147021925 -0.031055158
-0.014487007 -0.012337979 0.059457097 -0.01418925 -0.0036306262 -0.025493938 0.0037282344 -0.006394617
-0.0004910177 -0.038278207 -0.012491606 0.01729146 -0.00973212 -0.02116262 -0.015911149 -0.016468268
0.0041708434 0.0034357398 -0.022019144 -0.018975459 0.009277706 0.041451257 -0.013413543 -0.015420227
0.051232222 0.017176595 0.011827667 0.044909455 0.022195598 0.021435477 -0.0048802784 -0.0061971373
0.04281214 -0.05113359 -0.0046265502 -0.023599403 0.023193669 -0.016973961 0.01660957 0.0101329945
0.021376835 0.047914244 -0.0024642053 0.017235164 0.01400914 -0.002400252 0.045055702 -0.020776207
-0.017495845 0.04581087 0.0033311376 0.03859176 0.024363697 0.036817703 0.034382757 -0.02461937
0.055873673 0.010663688 0.016665138 -0.010323923 0.03043753 -0.03883603 -0.0018679723 0.052966103
0.03212063 -0.017849116 0.03790661 0.0079963105 0.01664402 0.049037665 0.017821103 -0.029554745
-0.028388841 0.01943335 0.027176531 -0.023398794 0.022942878 -0.011233182 0.014317609 -0.022786807
-0.029598884 -0.018323187 0.035461012 -0.02776888 -0.02678992 0.05907425 0.017611522 0.027224004
-0.006696228 -0.02308357 0.00015844658 -0.0126407 -0.014332908 0.021259336 -0.017009621 0.04118535
-0.002620236 0.04602226 -0.004036669 0.02581471 0.011284165 -0.024443278 -0.030499473 -0.036190934
0.0190974 -0.015750606 0.043024655 -0.006922191 -0.0058779665 0.028047467 0.011570434 0.024502397
0.021823952 0.04471337 -0.023064349 0.00088576245 -0.026563726 -0.011050653 -0.011908023 -0.009324113
-0.054695632 0.0783177 0.020139085 0.057597984 0.012451263 0.0261853 -0.009493001 0.051350288
-0.01357562 0.004534006 -0.0002484238 0.047378268 -0.023567753 0.050882842 0.0014863401 -0.03185274
0.014164808 0.04509209 -0.014747565 0.00458517 -0.020871496 0.049930006 0.0256862 0.033414833

action_model._discrete_distribution.branches.0.bias f4 [3]
00000000: 5a8c 80bb d283 863c 27c0 71bc
-0.003922981 0.016420279 -0.014755285

action_model._discrete_distribution.branches.1.weight f4 [2, 128]
00000000: 27fb 10bc def5 463d e59e 0fbc 6c7c 2f3d
00000010: b7b5 1fbd 6eed 0ebc 2956 4e3d ef02 0f3c
00000020: 8eba 163d b20c a0b9 9b30 dfbc c976 dcbc
00000030: 0a49 c4b8 0951 a1bc cf0c 03bc 82dc b3b9
00000040: 8c01 4c3b e049 993c b2a5 053d cf09 543d
00000050: 810c fc3c 6d8d 06bc 72c0 7dbc dbfb 1ebc
00000060: f8d5 82bc 6453 913c 0355 6c3d e572 e1bb
00000070: bb13 2abc 4111 14bd 0b3c 18bd 74db f6bc
00000080: 5688 b4bc ec0e 7ebc 8a77 87bc 9da1 0bbc
00000090: aef0 bf3b c2cd b0bc e5c2 25bc 75a4 a13b
000000a0: 4aa2 b13c d425 473d 9e52 0a3d 4f52 633d
000000b0: 1c43 133d 6dbf 443d d336 f03a 532a f5bb
000000c0: 9319 56bd 576e 473b 98b3 22bd 4faf 0f3d
000000d0: b55e 903c ab9e 4b3c e92e cebc 0a63 d339
000000e0: 315a 20bb 4497 13bd e26a 2a3d b355 673d
000000f0: d7f4 10bd 9b28 133d 7dc1 dbbb ba23 0ebc
00000100: 9790 5dbc 9afa 15bc eece 4f3c d253 75ba
00000110: 6dc3 33bc 6254 a53c ea93 5d3c 84af 493a
00000120: 0645 053d ab8d 993c ef7f 90bc a636 8a3a
00000130: 2347 de3c 78a0 d9bb c8df 2a3a 127b ca3c
00000140: 3919 513c c7f1 413d 086d febc 66e6 0fbd
00000150: 0053 cebb b055 d33c 9d94 d4ba 1167 043d
00000160: 80d1 483d e79b 1e3c b9fe 143b f854 51bc
00000170: 2441 a1bc 29c8 b53c 45cf 953b 09c4 a43c
00000180: 9a14 8bbc d43b f23c e2ab 7ebb 2701 1fbd
00000190: 4deb 04bd caa1 8cbc d711 e23b 7506 15bd
000001a0: 152f 863d 74fa e83c f852 02bd 86ef 023c
000001b0: 2c52 b7bc 706c 853c 8106 ce3c bc08 38bb
000001c0: 8d39 b93c 2bd5 cabc a21b 65bc d3c7 3cbd
000001d0: d49e 473c e691 eb3b f7d3 93bc 5a12 533c
000001e0: 65fc c33a c726 acbb 9a6f 853b 67ad 7dbb
000001f0: 2d7d 8dbb 5826 aabc 5e77 133c 9bac 023d
00000200: 371c 773c 2617 16bd 39ea afba 8eaa 46bd
00000210: fd8f e53c 607f a3bc 6c0d 17bd 3d74 a8bc
00000220: 96e9 ccbc 335b a738 9627 7c3c 347b d53c
00000230: e11b 383c e571 b43c f325 143a c967 823b
00000240: fc7f 803c 6725 b8bc 0b81 06bd 5246 5bbd
00000250: abf4 c8bc 3ad4 4e3b 6d85 dd3b efb3 133c
00000260: 100d 613c 577a c5bc d1e9 40bd 51df 3b3c
00000270: 6033 b63c c32f db3c 94d7 fa3c d4c4 703c
00000280: abe5 d13c 33ff f6ba a3a3 fd3c 8166 123c
00000290: 6fe0 9fbc a999 9fbb 01c7 8f3c 9a56 12bc
000002a0: 72c6 d7bc cac6 58bc b420 6abd 983d 3cbd
000002b0: a8f2 41bd 4760 48bd bd76 acbb a09c 74bc
000002c0: e849 463d 2e18 91bb 0271 033d 8913 36bd
000002d0: 223b bcbc 925e 2e3c b74e 5ebb 405b cebc
000002e0: 8608 8dba f91e d33b e568 4cbd e435 3fbd
000002f0: ee7d 873c ffbd 19bd 0cb3 66ba 5a28 dfba
00000300: 2109 00bc 77ad 7d3c 3d10 9fbc 4607 4cb9
00000310: ecfe 133b 2f5f 94bc bcb0 3abc 498e 9abb
00000320: 1984 1fbd 6ece e0bc a692 573c 1b94 ab3b
00000330: 7316 0dbd 7700 663c 7b1a 303c 343a f1bc
00000340: f350 a2bc ab83 42bd a65f 013d 610d 173d
00000350: 9906 9a3c 213d dcbc 0be2 3dbb aefd ebbc
00000360: 8b54 10bd 9d1a 6aba 83a0 d93b 0e5f a23b
00000370: ad6c 853c 4af6 cebc 6980 413c 114a bfbc
00000380: b8cf a33c 9cf0 ecbc 0856 2dbc f212 fb3c
00000390: 80f0 883c 74cc bb3c 18ea aabc 7613 2f3d
000003a0: 7d70 21bd f677 a2bc 363b 8d3c 95f1 1abc
000003b0: 9f03 dd3c c4d1 d3bc 9967 c3bc df8e fb3b
000003c0: f6bb fcbc 8266 783c 9bc4 633c 3d59 de3c
000003d0: 8c6e 34bc 597b a8bc 72c8 733c 5cbc cdbb
000003e0: 8f5d 3e3c 1480 f43a c5a7 893b 8d22 803c
000003f0: e136 ddbb 5688 c63c 7ec3 d9bc e2ae 41bd
-0.008848942 0.04857432 -0.008765911 0.042843267 -0.038991656 -0.0087236 0.050375137 0.008728727
0.036799006 -0.00030527037 -0.027244857 -0.02691211 -9.359613e-05 -0.01969196 -0.007998659 -0.00034305832
0.0031128852 0.018711984 0.032628722 0.051767167 0.030767681 -0.0082124295 -0.015487777 -0.009703602
-0.015971169 0.017739959 0.05769826 -0.0068801516 -0.010380681 -0.036149267 -0.037166636 -0.03013394
-0.022037666 -0.015506487 -0.016536493 -0.008522418 0.0058575487 -0.021582488 -0.010117267 0.004932935
0.02168383 0.04862006 0.033770196 0.055498417 0.035952672 0.04803412 0.0018326886 -0.007481852
-0.052270483 0.0030430758 -0.039722055 0.035079297 0.017623285 0.012427966 -0.025168853 0.00040318846
-0.002446782 -0.03603293 0.041605838 0.056478214 -0.035389747 0.035927396 -0.006706415 -0.00867551
-0.013523242 -0.009153986 0.012683613 -0.00093584985 -0.010971886 0.020181838 0.013524035 0.00076936954
0.03253653 0.01874431 -0.017639128 0.0010544851 0.02713353 -0.006641444 0.00065183314 0.024716888
0.012762361 0.047349717 -0.03105785 -0.035131834 -0.0062965155 0.025797695 -0.0016218607 0.032324854
0.04902792 0.009680725 0.0022734834 -0.012776606 -0.019684382 0.02219017 0.0045718276 0.020113008
-0.016977597 0.029569544 -0.0038859774 -0.03881946 -0.032450963 -0.01716699 0.0068990993 -0.03638311
0.06551949 0.028439738 -0.031817406 0.007991677 -0.02237805 0.016287059 0.025149586 -0.0028081378
0.02261045 -0.02475985 -0.013983639 -0.046089005 0.012183864 0.0071890233 -0.018045409 0.012882793
0.0014952539 -0.005253646 0.004072142 -0.0038708092 -0.0043179006 -0.020770237 0.009000627 0.03190289
0.015082411 -0.03664317 -0.0013421244 -0.048502497 0.02802276 -0.019958198 -0.036878034 -0.02056324
-0.025013726 7.980168e-05 0.015390297 0.026059724 0.011237116 0.022026965 0.0005651407 0.0039796573
0.015686028 -0.022478772 -0.03283791 -0.05353386 -0.02453073 0.0031559602 0.0067602904 0.0090150675
0.0137360245 -0.024106188 -0.047097985 0.011466817 0.022241294 0.026756173 0.030620374 0.014695365
0.02562221 -0.0018844366 0.030961817 0.008935572 -0.019516198 -0.0048706126 0.017550947 -0.00893178
-0.026339743 -0.013230989 -0.057160094 -0.045957178 -0.047350556 -0.048919942 -0.005263178 -0.01492992
0.048410326 -0.0044279313 0.032090195 -0.044452224 -0.022977415 0.0106426645 -0.003392143 -0.025189996
-0.0010759986 0.006442901 -0.049904723 -0.046682253 0.01653954 -0.03753471 -0.0008800484 -0.0017025576
-0.0078146765 0.015483252 -0.019416923 -0.00019457666 0.0022582365 -0.018111793 -0.011394676 -0.0047166687
-0.038944338 -0.027442183 0.013157522 0.0052361614 -0.034445237 0.014038197 0.010748501 -0.029446699
-0.01981399 -0.04748885 0.031585358 0.036877993 0.018801974 -0.026884617 -0.0028973843 -0.028807487
-0.035236876 -0.0008930357 0.006641449 0.004955179 0.016287172 -0.025263924 0.0118104005 -0.023350747
0.019996509 -0.028923325 -0.0105795935 0.030648682 0.016716242 0.02292464 -0.020863578 0.04274317
-0.039413918 -0.019832592 0.017240148 -0.009457012 0.026979266 -0.02585686 -0.02385311 0.0076769437
-0.030851346 0.0151611585 0.013901855 0.027142162 -0.011012685 -0.02056663 0.014879333 -0.0062785577
0.011618986 0.0018653893 0.004200908 0.015641475 -0.006750927 0.024234932 -0.026582476 -0.047285922

action_model._discrete_distribution.branches.1.bias f4 [2]
00000000: d144 ff39 f045 ffb9
0.00048688662 -0.00048689498

onnx::Div_68 f4 [284]
00000000: 5e87 3c41 4476 3f40 2d38 fa3a 0ad5 dd40
00000010: a721 1541 eca4 3f3d 2d38 fa3a 2d38 fa3a
00000020: b6d1 2042 88b7 a33e 2d38 fa3a dc2a dc40
00000030: 9c22 873e 2d38 fa3a fc96 0441 0942 873e
00000040: 2d38 fa3a 89d8 5841 63ae 663e 2d38 fa3a
00000050: ac5b c841 8afd 003f 2d38 fa3a f21d 9c40
00000060: d690 dd3d 2d38 fa3a 9b76 8541 87e3 e13f
00000070: 2d38 fa3a b761 603f 442f 9d3c 2d38 fa3a
00000080: 67a6 bb41 43fe 403f 2d38 fa3a 6104 6641
00000090: 5fcf 4f3f 2d38 fa3a 42ee d541 5de7 8e3f
000000a0: 2d38 fa3a e485 0142 e1f8 373f 2d38 fa3a
000000b0: 9624 1342 6703 f33f 2d38 fa3a 52bc d041
000000c0: 8150 f93f 2d38 fa3a aacd 0d42 d3d5 ef3f
000000d0: 2d38 fa3a a51d 5b42 ee8a 5b40 2d38 fa3a
000000e0: 587c f241 3534 b23f 2d38 fa3a 9a4c f441
000000f0: 3245 823f 2d38 fa3a b200 1842 91e5 fd3f
00000100: 2d38 fa3a 2457 db41 63b5 bd3f 2d38 fa3a
00000110: b540 e041 20ba 2e3e 2d38 fa3a eeaf 1041
00000120: 505b 9c3d 2d38 fa3a d6d1 bb41 4a7c b63f
00000130: 2d38 fa3a 578d 2341 f5ab 753f 2d38 fa3a
00000140: 53b9 a141 538f ee3e 2d38 fa3a 03bd 7641
00000150: f187 7b3f 2d38 fa3a b60b 8741 00c0 843f
00000160: 2d38 fa3a 26d3 f241 c5ef 1b40 2d38 fa3a
00000170: 178c 4141 e50c 983f 2d38 fa3a d5af e041
00000180: 89ba ea3f 2d38 fa3a 6e6e 9a41 3728 f33f
00000190: 2d38 fa3a 43a9 d841 7a26 f83f 2d38 fa3a
000001a0: 91d8 2942 f1c6 3d40 2d38 fa3a fcc5 9441
000001b0: 8f88 343e 2d38 fa3a 575d a441 2fcd 893f
000001c0: 2d38 fa3a 4e6e c241 d71e 9b3f 2d38 fa3a
000001d0: d100 af41 efbd 8b3e 2d38 fa3a f1ab f641
000001e0: 4d9b aa3f 2d38 fa3a 1bc3 3c42 82cb de3e
000001f0: 2d38 fa3a 20a8 c941 5331 3c3f 2d38 fa3a
00000200: ea86 6541 a091 c03f 2d38 fa3a 2ca9 3242
00000210: badb 933f 2d38 fa3a f72e 1a41 cfad 853f
00000220: 2d38 fa3a 3b01 a441 5424 0440 2d38 fa3a
00000230: d0f1 e541 bfff 953f 2d38 fa3a 1bc6 1441
00000240: 3c9b 2f3f 2d38 fa3a c7fb a441 8123 843f
00000250: 2d38 fa3a ddb0 3a41 940c 833f 2d38 fa3a
00000260: 3c11 b142 b6e6 0541 2d38 fa3a 7562 e041
00000270: 8081 e940 2d38 fa3a 7a6c 4e43 91df 1641
00000280: 2d38 fa3a 3d57 4742 af00 0b41 2d38 fa3a
00000290: 9c90 2543 04d2 8340 2d38 fa3a e0bb a342
000002a0: 2ff2 2840 2d38 fa3a 48d9 0642 8741 0940
000002b0: 2d38 fa3a b3d4 ba42 3072 eb40 2d38 fa3a
000002c0: 185f 8141 604f b03f 2d38 fa3a 6701 6442
000002d0: cee2 9b40 2d38 fa3a 5308 5743 2f73 4b41
000002e0: 2d38 fa3a 6772 8042 018f 0b40 2d38 fa3a
000002f0: 6f0e 0b43 4046 2a41 2d38 fa3a 8761 5543
00000300: 2430 1a41 2d38 fa3a 9bcc 2f43 5ccd 4940
00000310: 2d38 fa3a 23e0 d142 ec30 8940 2d38 fa3a
00000320: 95eb 8b42 cbc0 b73f 2d38 fa3a f68d f642
00000330: 6d65 1d40 2d38 fa3a a42e ec42 c71a 1e40
00000340: 2d38 fa3a 2512 ea42 0143 2240 2d38 fa3a
00000350: 928d 1342 4211 7040 2d38 fa3a 12c0 8742
00000360: a2f0 ef3f 2d38 fa3a 9932 0a42 cea3 1640
00000370: 2d38 fa3a 3aad 7e42 02d3 0a40 2d38 fa3a
00000380: 81c9 fb41 b5fc 8e40 2d38 fa3a d112 8242
00000390: d6c0 cf40 2d38 fa3a 145c 8c42 16c2 9640
000003a0: 2d38 fa3a c1e5 0342 1514 0040 2d38 fa3a
000003b0: 1627 d641 7951 a340 2d38 fa3a 561e a342
000003c0: 5738 0741 2d38 fa3a 32f4 4242 7ec7 2a40
000003d0: 2d38 fa3a 35d4 6042 60ca 8040 2d38 fa3a
000003e0: beec d042 634b ed40 2d38 fa3a 0c7e 1f43
000003f0: 8698 2d41 2d38 fa3a e5b8 7242 e5af 0b41
11.783049 2.9915934 0.0019090228 6.9322557 9.320716 0.04678814 0.0019090228 0.0019090228
40.204796 0.3197596 0.0019090228 6.880232 0.26393592 0.0019090228 8.286861 0.26417568
0.0019090228 13.552865 0.22527461 0.0019090228 25.044762 0.5038687 0.0019090228 4.8786554
0.10818641 0.0019090228 16.682913 1.7647561 0.0019090228 0.876491 0.019187577 0.0019090228
23.456251 0.7538797 0.0019090228 14.376069 0.811758 0.0019090228 26.741337 1.1164356
0.0019090228 32.380753 0.71864134 0.0019090228 36.78573 1.8985413 0.0019090228 26.091953
1.9477693 0.0019090228 35.450844 1.8737129 0.0019090228 54.77895 3.4303546 0.0019090228
30.310715 1.3922182 0.0019090228 30.537403 1.0177367 0.0019090228 38.00068 1.9835683
0.0019090228 27.41755 1.482098 0.0019090228 28.031595 0.17063189 0.0019090228 9.042952
0.07634604 0.0019090228 23.477459 1.425668 0.0019090228 10.222007 0.9596551 0.0019090228
20.21549 0.46593723 0.0019090228 15.421145 0.98254305 0.0019090228 16.880718 1.0371094
0.0019090228 30.3531 2.4365094 0.0019090228 12.096702 1.1878935 0.0019090228 28.085855
1.8338176 0.0019090228 19.30392 1.8996648 0.0019090228 27.082647 1.9386742 0.0019090228
42.46149 2.9652674 0.0019090228 18.596672 0.17630218 0.0019090228 20.545576 1.0765742
0.0019090228 24.30386 1.2118787 0.0019090228 21.875399 0.27293345 0.0019090228 30.833956
1.3328644 0.0019090228 47.190533 0.4351464 0.0019090228 25.207092 0.7351276 0.0019090228
14.345438 1.5044441 0.0019090228 44.665207 1.155143 0.0019090228 9.636466 1.0443667
0.0019090228 20.5006 2.0647173 0.0019090228 28.743073 1.1718673 0.0019090228 9.298366
0.68596244 0.0019090228 20.622938 1.0323335 0.0019090228 11.6681795 1.0238214 0.0019090228
88.53366 8.368826 0.0019090228 28.048075 7.297058 0.0019090228 206.42374 9.429582
0.0019090228 49.835194 8.687667 0.0019090228 165.56488 4.1193867 0.0019090228 81.86694
2.6397817 0.0019090228 33.71219 2.1446245 0.0019090228 93.41543 7.357689 0.0019090228
16.171432 1.3774223 0.0019090228 57.00137 4.871436 0.0019090228 215.03252 12.715621
0.0019090228 64.22344 2.1806033 0.0019090228 139.05638 10.642151 0.0019090228 213.38097
9.636753 0.0019090228 175.79924 3.1531591 0.0019090228 104.93777 4.287222 0.0019090228
69.96012 1.4355711 0.0019090228 123.27727 2.4593155 0.0019090228 118.091095 2.4703844
0.0019090228 117.03544 2.5353396 0.0019090228 36.888252 3.7510533 0.0019090228 67.87514
1.874531 0.0019090228 34.54941 2.3537478 0.0019090228 63.669167 2.169129 0.0019090228
31.47339 4.468348 0.0019090228 65.03675 6.4922895 0.0019090228 70.17984 4.711192
0.0019090228 32.97437 2.0012257 0.0019090228 26.769085 5.1036954 0.0019090228 81.55925
8.451255 0.0019090228 48.738472 2.668426 0.0019090228 56.207233 4.024704 0.0019090228
104.46239 7.4154525 0.0019090228 159.49237 10.849737 0.0019090228 60.68056 8.730443
