Assets/Training/results/run_3/PlayerAgentBehavior/PlayerAgentBehavior-0.onnx (onnx, 224429 bytes, 10 tensors)

discrete_act_size_vector f4 [1, 2]
0	0x40400000	3.0
1	0x40000000	2.0

network_body.observation_encoder.processors.0.normalizer.running_mean f4 [284]
0	0x00000000	0.0
1	0x00000000	0.0
2	0x00000000	0.0
3	0x00000000	0.0
4	0x00000000	0.0
5	0x00000000	0.0
6	0x00000000	0.0
7	0x00000000	0.0
8	0x00000000	0.0
9	0x00000000	0.0
10	0x00000000	0.0
11	0x00000000	0.0
12	0x00000000	0.0
13	0x00000000	0.0
14	0x00000000	0.0
15	0x00000000	0.0
16	0x00000000	0.0
17	0x00000000	0.0
18	0x00000000	0.0
19	0x00000000	0.0
20	0x00000000	0.0
21	0x00000000	0.0
22	0x00000000	0.0
23	0x00000000	0.0
24	0x00000000	0.0
25	0x00000000	0.0
26	0x00000000	0.0
27	0x00000000	0.0
28	0x00000000	0.0
29	0x00000000	0.0
30	0x00000000	0.0
31	0x00000000	0.0
32	0x00000000	0.0
33	0x00000000	0.0
34	0x00000000	0.0
35	0x00000000	0.0
36	0x00000000	0.0
37	0x00000000	0.0
38	0x00000000	0.0
39	0x00000000	0.0
40	0x00000000	0.0
41	0x00000000	0.0
42	0x00000000	0.0
43	0x00000000	0.0
44	0x00000000	0.0
45	0x00000000	0.0
46	0x00000000	0.0
47	0x00000000	0.0
48	0x00000000	0.0
49	0x00000000	0.0
50	0x00000000	0.0
51	0x00000000	0.0
52	0x00000000	0.0
53	0x00000000	0.0
54	0x00000000	0.0
55	0x00000000	0.0
56	0x00000000	0.0
57	0x00000000	0.0
58	0x00000000	0.0
59	0x00000000	0.0
60	0x00000000	0.0
61	0x00000000	0.0
62	0x00000000	0.0
63	0x00000000	0.0
64	0x00000000	0.0
65	0x00000000	0.0
66	0x00000000	0.0
67	0x00000000	0.0
68	0x00000000	0.0
69	0x00000000	0.0
70	0x00000000	0.0
71	0x00000000	0.0
72	0x00000000	0.0
73	0x00000000	0.0
74	0x00000000	0.0
75	0x00000000	0.0
76	0x00000000	0.0
77	0x00000000	0.0
78	0x00000000	0.0
79	0x00000000	0.0
80	0x00000000	0.0
81	0x00000000	0.0
82	0x00000000	0.0
83	0x00000000	0.0
84	0x00000000	0.0
85	0x00000000	0.0
86	0x00000000	0.0
87	0x00000000	0.0
88	0x00000000	0.0
89	0x00000000	0.0
90	0x00000000	0.0
91	0x00000000	0.0
92	0x00000000	0.0
93	0x00000000	0.0
94	0x00000000	0.0
95	0x00000000	0.0
96	0x00000000	0.0
97	0x00000000	0.0
98	0x00000000	0.0
99	0x00000000	0.0
100	0x00000000	0.0
101	0x00000000	0.0
102	0x00000000	0.0
103	0x00000000	0.0
104	0x00000000	0.0
105	0x00000000	0.0
106	0x00000000	0.0
107	0x00000000	0.0
108	0x00000000	0.0
109	0x00000000	0.0
110	0x00000000	0.0
111	0x00000000	0.0
112	0x00000000	0.0
113	0x00000000	0.0
114	0x00000000	0.0
115	0x00000000	0.0
116	0x00000000	0.0
117	0x00000000	0.0
118	0x00000000	0.0
119	0x00000000	0.0
120	0x00000000	0.0
121	0x00000000	0.0
122	0x00000000	0.0
123	0x00000000	0.0
124	0x00000000	0.0
125	0x00000000	0.0
126	0x00000000	0.0
127	0x00000000	0.0
128	0x00000000	0.0
129	0x00000000	0.0
130	0x00000000	0.0
131	0x00000000	0.0
132	0x00000000	0.0
133	0x00000000	0.0
134	0x00000000	0.0
135	0x00000000	0.0
136	0x00000000	0.0
137	0x00000000	0.0
138	0x00000000	0.0
139	0x00000000	0.0
140	0x00000000	0.0
141	0x00000000	0.0
142	0x00000000	0.0
143	0x00000000	0.0
144	0x00000000	0.0
145	0x00000000	0.0
146	0x00000000	0.0
147	0x00000000	0.0
148	0x00000000	0.0
149	0x00000000	0.0
150	0x00000000	0.0
151	0x00000000	0.0
152	0x00000000	0.0
153	0x00000000	0.0
154	0x00000000	0.0
155	0x00000000	0.0
156	0x00000000	0.0
157	0x00000000	0.0
158	0x00000000	0.0
159	0x00000000	0.0
160	0x00000000	0.0
161	0x00000000	0.0
162	0x00000000	0.0
163	0x00000000	0.0
164	0x00000000	0.0
165	0x00000000	0.0
166	0x00000000	0.0
167	0x00000000	0.0
168	0x00000000	0.0
169	0x00000000	0.0
170	0x00000000	0.0
171	0x00000000	0.0
172	0x00000000	0.0
173	0x00000000	0.0
174	0x00000000	0.0
175	0x00000000	0.0
176	0x00000000	0.0
177	0x00000000	0.0
178	0x00000000	0.0
179	0x00000000	0.0
180	0x00000000	0.0
181	0x00000000	0.0
182	0x00000000	0.0
183	0x00000000	0.0
184	0x00000000	0.0
185	0x00000000	0.0
186	0x00000000	0.0
187	0x00000000	0.0
188	0x00000000	0.0
189	0x00000000	0.0
190	0x00000000	0.0
191	0x00000000	0.0
192	0x00000000	0.0
193	0x00000000	0.0
194	0x00000000	0.0
195	0x00000000	0.0
196	0x00000000	0.0
197	0x00000000	0.0
198	0x00000000	0.0
199	0x00000000	0.0
200	0x00000000	0.0
201	0x00000000	0.0
202	0x00000000	0.0
203	0x00000000	0.0
204	0x00000000	0.0
205	0x00000000	0.0
206	0x00000000	0.0
207	0x00000000	0.0
208	0x00000000	0.0
209	0x00000000	0.0
210	0x00000000	0.0
211	0x00000000	0.0
212	0x00000000	0.0
213	0x00000000	0.0
214	0x00000000	0.0
215	0x00000000	0.0
216	0x00000000	0.0
217	0x00000000	0.0
218	0x00000000	0.0
219	0x00000000	0.0
220	0x00000000	0.0
221	0x00000000	0.0
222	0x00000000	0.0
223	0x00000000	0.0
224	0x00000000	0.0
225	0x00000000	0.0
226	0x00000000	0.0
227	0x00000000	0.0
228	0x00000000	0.0
229	0x00000000	0.0
230	0x00000000	0.0
231	0x00000000	0.0
232	0x00000000	0.0
233	0x00000000	0.0
234	0x00000000	0.0
235	0x00000000	0.0
236	0x00000000	0.0
237	0x00000000	0.0
238	0x00000000	0.0
239	0x00000000	0.0
240	0x00000000	0.0
241	0x00000000	0.0
242	0x00000000	0.0
243	0x00000000	0.0
244	0x00000000	0.0
245	0x00000000	0.0
246	0x00000000	0.0
247	0x00000000	0.0
248	0x00000000	0.0
249	0x00000000	0.0
250	0x00000000	0.0
251	0x00000000	0.0
252	0x00000000	0.0
253	0x00000000	0.0
254	0x00000000	0.0
255	0x00000000	0.0

network_body._body_endoder.seq_layers.0.weight f4 [128, 284]
0	0xbd04cfdb	-0.03242479
1	0x3d382004	0.044952407
2	0x3d685c5a	0.0567287
3	0xbd406fa2	-0.04698146
4	0xbd4a5f65	-0.04940738
5	0x3e027c02	0.12742618
6	0xbc27ad5c	-0.010234203
7	0xbc69feec	-0.0142819695
8	0xba967455	-0.0011478761
9	0xbd66d94c	-0.056359574
10	0x3d0057b7	0.03133365
11	0xbd99274f	-0.07478201
12	0x3d93e28f	0.07220947
13	0x3d1ea2a0	0.03872931
14	0xba9d28bc	-0.0011990289
15	0xbd450fe1	-0.048110846
16	0x3d39d234	0.04536648
17	0xbd373bb5	-0.044734675
18	0x3d15905b	0.03651462
19	0xbde6793e	-0.11253594
20	0xbb00fae0	-0.0019680783
21	0x3d999084	0.07498267
22	0x3d129112	0.03578288
23	0x3ad10b86	0.0015948869
24	0xbd2b58f8	-0.041832894
25	0x3d802e61	0.06258846
26	0x3d3a3b34	0.045466617
27	0xbc36e164	-0.011162136
28	0x3cb58b64	0.022161193
29	0x3d4ba32e	0.049716167
30	0x3d50eec7	0.051008966
31	0xbc9d2f10	-0.01918748
32	0xbd4e80c5	-0.050415773
33	0xbcb35899	-0.021892833
34	0x3c5d1c20	0.013495475
35	0xbd33d870	-0.043907583
36	0x3c552152	0.013008432
37	0xbdce0185	-0.100588836
38	0x3d8f1b2c	0.069876045
39	0xbc90a78a	-0.017658014
40	0xbc304763	-0.010759207
41	0xbdd988b9	-0.10621781
42	0xbce0bb28	-0.027432993
43	0x3aeb0598	0.0017930744
44	0x3c514346	0.012772387
45	0x3ce3bb8f	0.027799396
46	0x3d8aa423	0.06769588
47	0xbe1185b2	-0.14211157
48	0xbc45931a	-0.0120589975
49	0xbde5c820	-0.112198114
50	0xbda0a867	-0.0784462
51	0x3b9fab3a	0.0048727067
52	0xbca02e68	-0.019553378
53	0x3ce30b67	0.027715398
54	0x3d6de068	0.05807534
55	0xbcb54aeb	-0.02213045
56	0xbbc03d97	-0.005866717
57	0x3d71f7ce	0.059074216
58	0xbd83643a	-0.06415601
59	0x3d897157	0.06711071
60	0xbdcbac86	-0.099450156
61	0xbd62c71e	-0.055365674
62	0x3c902a74	0.017598368
63	0x3cdaaa18	0.026692435
64	0xbd2e607a	-0.042572476
65	0x3d720bfe	0.059093468
66	0xbd962a8d	-0.07332335
67	0xbbc4a765	-0.0060014003
68	0xbd447100	-0.047959328
69	0x3d714c87	0.058910873
70	0xbd93b539	-0.072123
71	0xbd139856	-0.03603395
72	0xbc636a83	-0.013880375
73	0xbd1d0928	-0.03833881
74	0xbd5997c4	-0.05312325
75	0xbca780cd	-0.02044716
76	0x3d41eb39	0.047343466
77	0xbd823ae6	-0.0635889
78	0x3df9fe14	0.12206665
79	0xbde84f1e	-0.113432154
80	0x3d4e6675	0.05039068
81	0x3d9f4ecb	0.077787004
82	0xbd5860fc	-0.052826867
83	0x3e2e18a1	0.17001583
84	0xbdd0d245	-0.10196356
85	0x3d526144	0.05136229
86	0x3d2d2af4	0.04227729
87	0x3e034f60	0.12823248
88	0x3ddb92c5	0.107213534
89	0xbdc33f72	-0.095335856
90	0xbdf7785d	-0.12083504
91	0x3d53ac26	0.051677845
92	0x3d1c4b5d	0.03815781
93	0xbcb58790	-0.022159368
94	0xbbc84d05	-0.006112697
95	0x3d7c4f61	0.06159914
96	0xbe278af1	-0.16361596
97	0xbd451e93	-0.04812486
98	0xbc9a703a	-0.018852342
99	0xbbec622e	-0.0072138524
100	0x3d9a5a8e	0.07536803
101	0xbcbf970e	-0.023387458
102	0xbe0bae01	-0.13640596
103	0x3c136a68	0.008997537
104	0xbb7c7216	-0.003852015
105	0x3d5c7bd6	0.053829037
106	0x3e172d73	0.14763431
107	0x3db98602	0.09058763
108	0xbe0031f4	-0.12519056
109	0xbde6a573	-0.11262026
110	0xbdaa7328	-0.083227456
111	0xbd299932	-0.041405864
112	0x3d2e50b8	0.04255745
113	0x3e057f7d	0.13036914
114	0xbcaa5a57	-0.02079503
115	0xbdbf192a	-0.093309715
116	0x3d13f91b	0.036126237
117	0xbd27f379	-0.041003678
118	0xbcc31850	-0.023815304
119	0x3da73667	0.08164673
120	0xbd8c6d23	-0.06856754
121	0xbd378b7f	-0.04481077
122	0x3d7cdd77	0.061734643
123	0xbdda2c0b	-0.10652932
124	0x3d900248	0.07031685
125	0xbd35cdd7	-0.044385757
126	0x3da8d5dd	0.08243916
127	0x3d71b024	0.05900587
128	0x3daf5090	0.08560288
129	0xbd90768f	-0.07053863
130	0xbd059a2d	-0.032617737
131	0x3d86ecfa	0.065881684
132	0x3d47c762	0.04877413
133	0x3d406f44	0.04698111
134	0xbd4f5740	-0.050620317
135	0xbd5535ea	-0.05205337
136	0x3de0c379	0.109747835
137	0xbdab9e35	-0.08379785
138	0x3d3c437f	0.045962807
139	0x3d54821d	0.0518819
140	0xbd08a9b9	-0.033364985
141	0x3d7d1130	0.06178397
142	0xbc914af0	-0.017735928
143	0x3d4e3de6	0.050352
144	0x3c3511f0	0.01105164
145	0x3c6b4879	0.014360541
146	0xbd300fb2	-0.04298372
147	0xbabf194b	-0.0014579681
148	0xbd6f379d	-0.058402646
149	0xbc4d7cf7	-0.012542001
150	0xbd7d557f	-0.061849114
151	0x3d972204	0.07379535
152	0xbcddb2fa	-0.027062882
153	0xbd8ad822	-0.06779505
154	0x3cc6df05	0.024276266
155	0xbd0385af	-0.032109912
156	0xbc3de8b3	-0.011591124
157	0x3dbf7fed	0.09350572
158	0x3ceaa871	0.028644772
159	0x3ce4bf96	0.027923387
160	0xbc8d3e9b	-0.017241767
161	0xbd25135b	-0.040301662
162	0x3da58683	0.08082297
163	0xbac0a19e	-0.0014696603
164	0x3d664189	0.056214843
165	0x3da6175f	0.081099264
166	0x3cae7c3d	0.021299476
167	0x3d8d955e	0.06913255
168	0x3bf1860c	0.007370716
169	0x3c0b1085	0.008487825
170	0x3e035d2d	0.12828512
171	0x3c0711e3	0.008244011
172	0x3d7a6da1	0.061139707
173	0x3d1fc846	0.039009355
174	0x3cbc2bc3	0.022970086
175	0x3da23250	0.079197526
176	0x3cdce170	0.026962966
177	0x3ce08cf8	0.02741097
178	0x3d0c87b9	0.034309123
179	0x3d8ad5ee	0.06779085
180	0x3c1f8a8d	0.009737623
181	0xbbfbf9b9	-0.0076896814
182	0xb9096f29	-0.00013106749
183	0x3d7546b8	0.059881896
184	0x3d245398	0.040118784
185	0x3c59bdc0	0.013289869
186	0x3d5bfa04	0.05370523
187	0xbd7612c9	-0.06007651
188	0x3d3527de	0.044227473
189	0x3cbb6e00	0.0228796
190	0x3dd6b53e	0.10483788
191	0xbd7057a0	-0.058677316
192	0x3cc0b87c	0.023525469
193	0xbdcd6be0	-0.10030341
194	0xbdafd207	-0.085849814
195	0xbd90c738	-0.07069248
196	0xbd7ac82a	-0.061226048
197	0xbd9a2b8f	-0.075278394
198	0x3b54363e	0.0032380964
199	0x3dcab260	0.098973036
200	0x3d417f4d	0.047240544
201	0x3d954ff9	0.07290644
202	0xbd9154b6	-0.070962355
203	0x3d87c26d	0.06628881
204	0x3cee331a	0.029077101
205	0xbdb3df22	-0.087827936
206	0x3d4f3e76	0.050596677
207	0x3cc0de98	0.023543641
208	0x3ccf2252	0.02528492
209	0x3d89fd0c	0.06737718
210	0x3d1c545e	0.038166396
211	0x3ddde419	0.10834522
212	0xbdd8f845	-0.10594229
213	0xbda70363	-0.08154943
214	0x3d32917a	0.04359577
215	0xbda1b64a	-0.07896097
216	0x3b2ee1e3	0.0026684932
217	0xbd3f83fb	-0.046756726
218	0x3d50af79	0.050948594
219	0x3d903477	0.07041257
220	0x3d3c32bb	0.045946818
221	0xbc8d0d02	-0.017218117
222	0xbca71703	-0.020396715
223	0xbda5be65	-0.080929555
224	0x3d991043	0.07473805
225	0x3d106c56	0.035259567
226	0xbe08a5ba	-0.1334447
227	0x3dea577f	0.1144247
228	0xbd0bc1f3	-0.03412051
229	0x3ca0b777	0.019618733
230	0xbe05bec8	-0.13061059
231	0xba1cb3f2	-0.00059777417
232	0xbd242271	-0.04007191
233	0x3c387719	0.011258864
234	0xbd287c20	-0.041134
235	0xbd966a7a	-0.073445275
236	0xbd13de4c	-0.03610067
237	0x3c819401	0.015817644
238	0x3dafd904	0.08586314
239	0x3c534d6f	0.01289688
240	0xbd517254	-0.051134422
241	0xbcdb26db	-0.026751926
242	0xbba6731a	-0.005079639
243	0x3bd6bd90	0.0065533593
244	0x3cc89f72	0.024490092
245	0x3a9d6519	0.0012008279
246	0x3d57de4f	0.052702244
247	0xbcc26a00	-0.023732185
248	0xbd50ce05	-0.050977726
249	0xbcc1e65b	-0.023669412
250	0x3dffc803	0.12489321
251	0xbb8ed23c	-0.004358558
252	0xbc8d0704	-0.01721526
253	0x3cf4e16a	0.029892642
254	0xbca669c6	-0.020314109
255	0xbd44ac32	-0.04801578

network_body._body_endoder.seq_layers.0.bias f4 [128]
0	0x00000000	0.0
1	0x00000000	0.0
2	0x00000000	0.0
3	0x00000000	0.0
4	0x00000000	0.0
5	0x00000000	0.0
6	0x00000000	0.0
7	0x00000000	0.0
8	0x00000000	0.0
9	0x00000000	0.0
10	0x00000000	0.0
11	0x00000000	0.0
12	0x00000000	0.0
13	0x00000000	0.0
14	0x00000000	0.0
15	0x00000000	0.0
16	0x00000000	0.0
17	0x00000000	0.0
18	0x00000000	0.0
19	0x00000000	0.0
20	0x00000000	0.0
21	0x00000000	0.0
22	0x00000000	0.0
23	0x00000000	0.0
24	0x00000000	0.0
25	0x00000000	0.0
26	0x00000000	0.0
27	0x00000000	0.0
28	0x00000000	0.0
29	0x00000000	0.0
30	0x00000000	0.0
31	0x00000000	0.0
32	0x00000000	0.0
33	0x00000000	0.0
34	0x00000000	0.0
35	0x00000000	0.0
36	0x00000000	0.0
37	0x00000000	0.0
38	0x00000000	0.0
39	0x00000000	0.0
40	0x00000000	0.0
41	0x00000000	0.0
42	0x00000000	0.0
43	0x00000000	0.0
44	0x00000000	0.0
45	0x00000000	0.0
46	0x00000000	0.0
47	0x00000000	0.0
48	0x00000000	0.0
49	0x00000000	0.0
50	0x00000000	0.0
51	0x00000000	0.0
52	0x00000000	0.0
53	0x00000000	0.0
54	0x00000000	0.0
55	0x00000000	0.0
56	0x00000000	0.0
57	0x00000000	0.0
58	0x00000000	0.0
59	0x00000000	0.0
60	0x00000000	0.0
61	0x00000000	0.0
62	0x00000000	0.0
63	0x00000000	0.0
64	0x00000000	0.0
65	0x00000000	0.0
66	0x00000000	0.0
67	0x00000000	0.0
68	0x00000000	0.0
69	0x00000000	0.0
70	0x00000000	0.0
71	0x00000000	0.0
72	0x00000000	0.0
73	0x00000000	0.0
74	0x00000000	0.0
75	0x00000000	0.0
76	0x00000000	0.0
77	0x00000000	0.0
78	0x00000000	0.0
79	0x00000000	0.0
80	0x00000000	0.0
81	0x00000000	0.0
82	0x00000000	0.0
83	0x00000000	0.0
84	0x00000000	0.0
85	0x00000000	0.0
86	0x00000000	0.0
87	0x00000000	0.0
88	0x00000000	0.0
89	0x00000000	0.0
90	0x00000000	0.0
91	0x00000000	0.0
92	0x00000000	0.0
93	0x00000000	0.0
94	0x00000000	0.0
95	0x00000000	0.0
96	0x00000000	0.0
97	0x00000000	0.0
98	0x00000000	0.0
99	0x00000000	0.0
100	0x00000000	0.0
101	0x00000000	0.0
102	0x00000000	0.0
103	0x00000000	0.0
104	0x00000000	0.0
105	0x00000000	0.0
106	0x00000000	0.0
107	0x00000000	0.0
108	0x00000000	0.0
109	0x00000000	0.0
110	0x00000000	0.0
111	0x00000000	0.0
112	0x00000000	0.0
113	0x00000000	0.0
114	0x00000000	0.0
115	0x00000000	0.0
116	0x00000000	0.0
117	0x00000000	0.0
118	0x00000000	0.0
119	0x00000000	0.0
120	0x00000000	0.0
121	0x00000000	0.0
122	0x00000000	0.0
123	0x00000000	0.0
124	0x00000000	0.0
125	0x00000000	0.0
126	0x00000000	0.0
127	0x00000000	0.0

network_body._body_endoder.seq_layers.2.weight f4 [128, 128]
0	0x3c779535	0.015111257
1	0x3cd65991	0.026165755
2	0x3e0c2c7b	0.13688843
3	0x3d9466d4	0.072461754
4	0xbdbe5f3b	-0.092955075
5	0xbdd82b9b	-0.10555192
6	0x3bccc1c1	0.006248683
7	0x3d905247	0.07046943
8	0x3dad29ea	0.0845526
9	0x3d46f062	0.04856909
10	0x3d8ef0b9	0.06979508
11	0x3de85448	0.113442004
12	0x3da57e95	0.08080784
13	0x3dfc1a30	0.12309682
14	0xbdf01eb7	-0.117246084
15	0x3e06700d	0.13128681
16	0x3c9142e4	0.017732091
17	0x3dbddb88	0.09270388
18	0x3c84a3f7	0.016191466
19	0x3d97fff1	0.07421864
20	0xbc489b36	-0.012244036
21	0xbe5a789e	-0.21335074
22	0x3d42d7d0	0.047569096
23	0xbd8f68cc	-0.0700241
24	0xbc11408c	-0.008865487
25	0x3d185e02	0.037199028
26	0xbd0e4c8b	-0.034740966
27	0x3d744b4c	0.05964212
28	0x3d3379ba	0.04381726
29	0xbdc3f23e	-0.095676884
30	0x3d9b7c26	0.07592039
31	0x3abcccc4	0.0014404287
32	0xbd8058b9	-0.062669225
33	0x3e20eaf2	0.15714625
34	0xbc24eed4	-0.010066707
35	0xbe1de65e	-0.1541991
36	0x3d3cadec	0.046064302
37	0xbd08a466	-0.033359908
38	0xbd4de502	-0.050267227
39	0xbc24872c	-0.010041993
40	0x3d9a7985	0.07542709
41	0x3ba81ed8	0.00513063
42	0x3dddf158	0.10837048
43	0xbc5eccae	-0.013598604
44	0x3e13a22d	0.14417334
45	0xbd01895e	-0.031625144
46	0x3e179286	0.14801988
47	0x3d92d18d	0.07168875
48	0xbd0b513b	-0.034013014
49	0xbdb5952c	-0.08866343
50	0xbdefa58b	-0.11701497
51	0xbd5d4d54	-0.054028824
52	0xbd9d4cc4	-0.076806575
53	0x3c7d64ad	0.0154658975
54	0x3c315d09	0.010825404
55	0xbc80ec86	-0.015737783
56	0xbda6732f	-0.08127438
57	0x3d92bc31	0.07164801
58	0x3e0fe83c	0.14053434
59	0xbd842d57	-0.064539604
60	0x3d66e8cd	0.05637436
61	0x3e05c5ba	0.13063708
62	0xbd39bcc7	-0.045346048
63	0x3d9f21fb	0.07770153
64	0xbe171e70	-0.14757705
65	0x3dfd3e54	0.12365404
66	0xbda34a25	-0.07973126
67	0x3c43d617	0.011952898
68	0x3dd28f37	0.10281222
69	0xba69ee04	-0.0008923712
70	0x3d5f0937	0.054452147
71	0x3df3a718	0.11897105
72	0x3d8d1b26	0.06889944
73	0x3d0b8635	0.034063537
74	0x3d080704	0.033209816
75	0x3ccb8b24	0.02484662
76	0xbe00f8a0	-0.12594843
77	0xbb37ab1d	-0.0028025575
78	0xbdfdf1a1	-0.12399603
79	0xbdda5d88	-0.10662371
80	0xbd190347	-0.03735664
81	0x3bfe285a	0.007756275
82	0x3e029fa7	0.12756215
83	0xbc6e9b6f	-0.014563425
84	0x3d105033	0.035232734
85	0xbd4dab3f	-0.05021214
86	0x3c81ca71	0.015843602
87	0xbd9a0a33	-0.075214766
88	0xbdf300e5	-0.11865405
89	0x3d8b2ec9	0.06796033
90	0x3d998f33	0.07498016
91	0x3e0945e5	0.13405569
92	0xbd3f2020	-0.046661496
93	0xbd7416ce	-0.05959206
94	0x3be380a8	0.0069428273
95	0xbe6c1588	-0.23055089
96	0xbd7ce10d	-0.061738063
97	0x3e27c28d	0.16382809
98	0xbd1e4c12	-0.038646765
99	0x3bed6edb	0.007245881
100	0x3c01b244	0.007916037
101	0xbe588773	-0.2114542
102	0x3b2267f0	0.002478119
103	0x3ca40c5d	0.020025427
104	0xbdc09b70	-0.09404647
105	0xbdb4c65f	-0.08826899
106	0xbd9663b0	-0.07343233
107	0xbdb1841d	-0.08667777
108	0x3db3beaf	0.087766044
109	0x3de95cc6	0.11394648
110	0xbcc36973	-0.023853993
111	0x3df406c0	0.1191535
112	0xbddb321c	-0.10702917
113	0x3e10a81f	0.14126633
114	0x3d80ce60	0.06289363
115	0x3aa6b0a7	0.0012717441
116	0xbd1aa6b8	-0.03775665
117	0x3d82728c	0.06369504
118	0xbdde48ea	-0.10853751
119	0xbd81a611	-0.06330503
120	0x3e46c96b	0.19412772
121	0x3db30810	0.08741772
122	0x3df18a2e	0.11793934
123	0x3cdc4013	0.026886022
124	0xbdb06300	-0.08612633
125	0x3b80686d	0.0039186985
126	0x3d3753b7	0.04475757
127	0xbd9a6289	-0.07538325
128	0xbe05f61f	-0.13082169
129	0x3cd2322b	0.025658688
130	0x3bcde25c	0.0062830877
131	0x3dfd1ace	0.12358628
132	0x39505f12	0.00019871842
133	0xbe01acec	-0.1266362
134	0xbdb5b3c5	-0.08872179
135	0x3cd5698a	0.026051302
136	0x3dbed2d7	0.09317558
137	0x3da63e83	0.08117392
138	0xbd7067e9	-0.058692846
139	0xbd8d46d6	-0.068982765
140	0x3db3e4b4	0.08783856
141	0xbe581e67	-0.21105348
142	0x3c2c54b5	0.010518243
143	0xbca828e1	-0.020527305
144	0x3d6c9242	0.05775667
145	0x3da33822	0.07969691
146	0x3d1ca52d	0.03824346
147	0xbe5f963e	-0.21834657
148	0xbdf50eab	-0.11965688
149	0xbd93020e	-0.07178126
150	0xbdb7fca1	-0.08983732
151	0xbbf9b50f	-0.007620461
152	0xbc43f3b9	-0.0119599635
153	0xbd1a9b56	-0.037745796
154	0xbdd97264	-0.106175214
155	0x3c96a4d7	0.018389149
156	0x3d72eb21	0.059306268
157	0x3d47ec1e	0.048809163
158	0x3d7985dc	0.060918674
159	0xbd0545db	-0.032537322
160	0x3d995b1f	0.07488083
161	0x3e0404f5	0.12892516
162	0xbd11435d	-0.035464633
163	0x3de5a2b1	0.112126715
164	0x3db60bea	0.08888991
165	0xbdca7315	-0.098852314
166	0xbe9d89bf	-0.30769154
167	0x3c2f6ee4	0.010707591
168	0x3de94046	0.11389212
169	0x3e2a49db	0.16629736
170	0x3d8f2c99	0.06990928
171	0x3e092566	0.13393173
172	0xbaf298d1	-0.0018508678
173	0x3dbfcfd9	0.09365816
174	0xbd230ce1	-0.039807204
175	0x3dde6440	0.10858965
176	0x3985c044	0.00025510986
177	0x3d59bb00	0.053156853
178	0xbd96b40d	-0.07358561
179	0xbe06b2f0	-0.13154197
180	0x3cef0cc7	0.029180897
181	0xbd726970	-0.059182584
182	0x3d0652b3	0.032793712
183	0xbdd5ca91	-0.10439027
184	0x3d6143f3	0.054996442
185	0x3d2352a7	0.039873745
186	0xbd089a40	-0.03335023
187	0x3d92bc2b	0.071647964
188	0x3dc5a35d	0.096503
189	0x3e12ec54	0.14347965
190	0x3e1e8b31	0.15482785
191	0xbcb8f984	-0.022579916
192	0x3e0905e3	0.13381152
193	0xbb1ec03a	-0.0024223463
194	0x3d0c6b9b	0.034282308
195	0x3d68119a	0.05665741
196	0x3db67bdc	0.08910343
197	0x3d9f203a	0.077698186
198	0x3e0193a2	0.12653974
199	0x3cb63045	0.022239814
200	0x3d1fd52b	0.039021652
201	0xbb5eac9b	-0.0033977393
202	0xbde61bf0	-0.112357974
203	0xbdb2a4b0	-0.08722818
204	0x3cadf78c	0.021236204
205	0xbd1aeff4	-0.037826493
206	0x3cf439ce	0.02981272
207	0xbc0e5c9b	-0.008689071
208	0xbc3740c0	-0.011184871
209	0xbd5f3fa4	-0.05450405
210	0x3d6a197e	0.057153217
211	0x3de8d987	0.11369615
212	0xbd53bebf	-0.05169558
213	0xbd50e222	-0.050996907
214	0x3d868aec	0.06569466
215	0x3e84a2ac	0.2590536
216	0x3cee21eb	0.029068908
217	0xb9ccacef	-0.00039038758
218	0x3cdfb62b	0.027308544
219	0x3ce78c94	0.028265275
220	0x3e76ffe3	0.2412105
221	0xbdc9c488	-0.098519385
222	0xbdb8f03b	-0.09030195
223	0xbdcd86d1	-0.1003548
224	0x3c6766f4	0.014123667
225	0xbd5007cc	-0.050788686
226	0x3e18a2dd	0.14905877
227	0x3d73b1ca	0.059495725
228	0xbc78c795	-0.015184303
229	0x3d89fac8	0.06737286
230	0x3cf3d015	0.029762307
231	0xbd981504	-0.074258834
232	0xbd73e075	-0.05954023
233	0xbd5e1f6b	-0.05422918
234	0xbddb5c18	-0.10710925
235	0xbba68a0b	-0.005082374
236	0xbc08b90f	-0.008344903
237	0xbd3124f5	-0.043248136
238	0xbd0e706b	-0.03477518
239	0xbe089288	-0.13337147
240	0xbdccd2d6	-0.10001151
241	0xbde960fe	-0.11395453
242	0x3e0fde74	0.14049703
243	0xbe12387f	-0.14279364
244	0x3d6a0c21	0.057140473
245	0xbd38647e	-0.04501771
246	0xbc5eb765	-0.013593529
247	0x3d4df103	0.050278675
248	0xbc495d00	-0.012290239
249	0xbdb907ac	-0.090346664
250	0xbdad7091	-0.08468736
251	0xbdbeb3cd	-0.09311638
252	0xbd0a9f76	-0.03384348
253	0xbdcf7789	-0.101302214
254	0xbdd2b152	-0.102877274
255	0x3cacbd83	0.02108646

action_model._discrete_distribution.branches.0.weight f4 [3, 128]
0	0x3c47fcf8	0.012206309
1	0xbc2fb7e0	-0.010724992
2	0xbabc3bf6	-0.0014361131
3	0xbbe5cfcd	-0.007013297
4	0xbb082f97	-0.002078032
5	0xbc9b45c5	-0.018954167
6	0x3c6cd365	0.014454697
7	0x3c29d733	0.010366249
8	0xbbded987	-0.0068008336
9	0x3c44e479	0.012017363
10	0x3b215498	0.0024617072
11	0x3bbceeb1	0.005765759
12	0x3bcd95b2	0.0062739486
13	0x3c1421e0	0.00904128
14	0xba761125	-0.000938671
15	0xbbd496e2	-0.006487713
16	0x3b33dd45	0.002744512
17	0xbc2e0070	-0.0106202215
18	0x3ba5412f	0.005043171
19	0x3b4649c7	0.0030256377
20	0xbca7eb11	-0.02049783
21	0x3a81149e	0.0009848063
22	0x3c4885b0	0.012238905
23	0x3ac28db4	0.0014843256
24	0x3bdc917a	0.0067312093
25	0xba05d0a7	-0.0005104639
26	0x3bc5c97b	0.0060359812
27	0x3b6076bb	0.0034250456
28	0xbbe98807	-0.0071268114
29	0x3c53fe5b	0.012939061
30	0x3a8e9ca1	0.0010880419
31	0x3c611f15	0.013740321
32	0xbc1b9712	-0.009496467
33	0xbbef66c2	-0.007305951
34	0x392c1f0e	0.00016414767
35	0x3cb56d55	0.02214686
36	0x3be32413	0.0069317906
37	0xbbe0a9d5	-0.006856183
38	0x3b7fbacb	0.003902125
39	0x3adc0062	0.0016784782
40	0xbba37eeb	-0.004989495
41	0x39a7aab2	0.000319799
42	0x3ae035ad	0.001710584
43	0x3b5f2ae8	0.0034052674
44	0xbbf8ae62	-0.0075891474
45	0xbaad91ab	-0.0013242265
46	0x395e117b	0.00021178082
47	0x3a8d4171	0.0010776949
48	0xbc3b9f02	-0.011451485
49	0xbc833694	-0.016017236
50	0x3c3ebdf3	0.011641967
51	0x3cbb51b1	0.022866102
52	0xbc2f27bb	-0.010690625
53	0x3b4b4353	0.003101547
54	0x3b3cc20c	0.0028802184
55	0x3be9fa32	0.0071404213
56	0x3b951ebe	0.004550784
57	0xbc720f6b	-0.014774184
58	0x3c51097f	0.012758612
59	0xbb8777e8	-0.004134167
60	0xbb553962	-0.0032535424
61	0xbae2b230	-0.0017295536
62	0xbbe3e7da	-0.006955129
63	0xbafc7697	-0.0019261417
64	0xb95489d5	-0.00020269242
65	0xbb9ce3cf	-0.004787899
66	0x3b53eb9b	0.0032336477
67	0x3ba5b15c	0.0050565433
68	0x3c5f0fd2	0.013614612
69	0x3c15e049	0.009147712
70	0xbb598e25	-0.0033196297
71	0xba1ab884	-0.0005902129
72	0xbbeb8080	-0.0071869493
73	0x3c0e6acd	0.0086924555
74	0x3bcb1a7f	0.006198227
75	0xbc286b93	-0.010279554
76	0xbb564b87	-0.0032698826
77	0x3ac21c07	0.0014809378
78	0xba3ee8a2	-0.000728259
79	0x3a9e63a4	0.0012084139
80	0x3c0e1090	0.008670941
81	0xbbdd9c8f	-0.006763048
82	0x3b313fe7	0.0027046145
83	0x3a9849e3	0.00116187
84	0x3bda5232	0.0066626305
85	0xbc11a94f	-0.008890464
86	0xbbbdc0b6	-0.005790795
87	0xbc0c3052	-0.008556442
88	0x3bfc64c0	0.00770244
89	0x3b0e8429	0.0021746254
90	0xbc0683ef	-0.008210166
91	0x3c2d4404	0.010575298
92	0xbb801689	-0.0039089364
93	0xbc396b67	-0.011317111
94	0x3bec45f2	0.0072104866
95	0x3ba9fe12	0.0051877582
96	0x3c32ac03	0.010905269
97	0x3b71f288	0.0036918242
98	0x3c7f9525	0.015599524
99	0x3b5454e8	0.003239924
100	0x3be1856f	0.0068823616
101	0x3ba3b504	0.004995944
102	0x3ba7f4ad	0.005125603
103	0x3c83341b	0.016016057
104	0xbb025577	-0.0019887367
105	0xbb876727	-0.0041321698
106	0xbb1f3305	-0.0024291885
107	0xbbb9a702	-0.005665661
108	0x3c326c33	0.0108900545
109	0x3b9dec9c	0.004819466
110	0xbc99db21	-0.018781247
111	0xbc3fab54	-0.011698563
112	0x3bd75392	0.0065712417
113	0x3c6c8c4d	0.014437747
114	0x3ba40a36	0.0050061
115	0x3b3b6ba6	0.00285981
116	0x3bc0737f	0.005873143
117	0x3cd940c3	0.026520139
118	0xbbc41236	-0.005983616
119	0xbc3fea94	-0.011713643
120	0xbb37fc6f	-0.0028074046
121	0x3c2e8ea7	0.010654128
122	0xbcaf7a2c	-0.02142056
123	0xbbbaa05a	-0.005695385
124	0xbbae681c	-0.0053224694
125	0xb977248f	-0.00023569375
126	0x3b8e5693	0.0043438165
127	0x3a91a0e7	0.0011110575
128	0x3c2c0307	0.010498769
129	0xbc25148c	-0.0100757
130	0x3b3791e7	0.0028010549
131	0xbc0e6910	-0.008692041
132	0x3bf28302	0.0074008713
133	0xbb69c580	-0.0035670698
134	0x3c7f94f7	0.015599481
135	0xbc374535	-0.011185934
136	0x3b9b308c	0.004736012
137	0x3c0f7b61	0.008757443
138	0x3b072659	0.0020622222
139	0xbb0774e8	-0.0020669047
140	0xbc02705d	-0.00796136
141	0x3bd9f822	0.006651894
142	0xba9707dc	-0.0011522728
143	0x3c8bce4f	0.017066149
144	0x3c101fbb	0.008796628
145	0xbbdd6382	-0.006756247
146	0x3b81c906	0.0039607314
147	0xbc3d0cab	-0.011538665
148	0xb92ead92	-0.00016658593
149	0xbbb0eeab	-0.005399545
150	0x3c47f9f6	0.012205591
151	0xbbc4ff83	-0.0060119047
152	0xbbb7d7af	-0.0056104283
153	0x3bd1429f	0.0063861157
154	0xbbf9810d	-0.007614261
155	0x3b5a7e0f	0.0033339297
156	0x399e2677	0.00030164767
157	0x3c18852b	0.0093090935
158	0x3b046af2	0.0020205346
159	0x3b869958	0.0041076355
160	0x3c405bfc	0.011740681
161	0x3c13e158	0.009025894
162	0xbac3d560	-0.001494091
163	0x3b498ab0	0.003075283
164	0xbbde1bc0	-0.0067782104
165	0x3bb410d1	0.0054951687
166	0xbb558fc8	-0.003258692
167	0xbc224a5f	-0.009905427
168	0xbc2732a8	-0.0102049485
169	0x3ba8e8cb	0.005154704
170	0x3aeb2147	0.0017938995
171	0xbb5b26e5	-0.003343993
172	0xbb56927f	-0.0032741127
173	0xbc06b8d9	-0.008222782
174	0x3be65f8b	0.0070304326
175	0x3b9ef8e5	0.004851448
176	0x3baf2b62	0.005345748
177	0xbc439c26	-0.011939084
178	0x3baeffcc	0.005340552
179	0xbc551edd	-0.013007847
180	0x3c1bba43	0.0095048575
181	0xbb8673ea	-0.0041031735
182	0xbb90fac4	-0.004424425
183	0x3c29e881	0.010370375
184	0x3b91c0f1	0.0044480492
185	0x3b505825	0.003179082
186	0x3c72f592	0.014829056
187	0xbb72b205	-0.0037032377
188	0x39fcc520	0.00048212055
189	0x3b478584	0.0030444572
190	0xbb95e9a9	-0.0045749736
191	0x3c8d0470	0.01721403
192	0xbb0ee5d3	-0.0021804466
193	0x3bf280eb	0.007400622
194	0xbc584917	-0.01320102
195	0xbae9c25a	-0.001783441
196	0xbbd353c3	-0.006449194
197	0x3c2f0e26	0.010684526
198	0x3c112422	0.008858712
199	0xbc8277e4	-0.015926309
200	0x3c77e5a5	0.015130435
201	0xbb0ec713	-0.0021786138
202	0xbc427982	-0.01186979
203	0xbc0a4056	-0.00843819
204	0xbb7b08f7	-0.0038304904
205	0x3bbd1a5c	0.0057709645
206	0x3bebc0c3	0.00719461
207	0xbc025167	-0.007953978
208	0x391cc16e	0.00014949378
209	0x3bb6cb33	0.0055784225
210	0x3aa05afb	0.0012234146
211	0xbc8ba14f	-0.017044691
212	0x3c6900cf	0.014221384
213	0x3b0ceba4	0.0021502757
214	0xbc1914e4	-0.00934336
215	0xbb10ee03	-0.0022114522
216	0x3aff292f	0.001946723
217	0x3c11fd5a	0.008910501
218	0x3c150dff	0.009097575
219	0xbc377aca	-0.011198709
220	0xbb4a784b	-0.0030894454
221	0x3b8c7aad	0.004287085
222	0xbb21066f	-0.0024570485
223	0xbc55250f	-0.013009324
224	0xba0bf612	-0.00053390965
225	0x3b89523a	0.0041907104
226	0x3bcc190a	0.006228571
227	0x3a35ec87	0.00069398474
228	0x3bb41a75	0.005496318
229	0x3b2a53a8	0.0025989804
230	0x3b02d0e5	0.0019960937
231	0x3aed6152	0.0018110669
232	0xbc681d3a	-0.014167124
233	0xbb08ba88	-0.0020863134
234	0x3c8e1396	0.017343324
235	0xbca5a261	-0.02021903
236	0x3a84eee9	0.0010142002
237	0xbb1cd7b3	-0.0023932278
238	0xbbf3b00b	-0.0074367574
239	0x3a4a8bec	0.00077265385
240	0xbb39a79d	-0.0028328665
241	0x3bc86ac7	0.0061162445
242	0xbc299cd2	-0.01035233
243	0x3aba8851	0.0014231299
244	0x3b5bbe93	0.003353034
245	0xbb479853	-0.0030455783
246	0x3ae9bd9d	0.0017832998
247	0xbac6f1c5	-0.0015178254
248	0x3b246240	0.0025082976
249	0xbc73fd88	-0.0148919895
250	0xbacc23c5	-0.0015574625
251	0x3b9c94b3	0.0047784685
252	0xbb81a3da	-0.0039563
253	0x39f48663	0.00046639433
254	0xbb2a7b12	-0.0026013297
255	0x3cc7a46b	0.024370393

action_model._discrete_distribution.branches.0.bias f4 [3]
0	0x00000000	0.0
1	0x00000000	0.0
2	0x00000000	0.0

action_model._discrete_distribution.branches.1.weight f4 [2, 128]
0	0xbbfa0118	-0.007629525
1	0xbc21794e	-0.009855581
2	0x3c526b4d	0.012842965
3	0x3c46ec60	0.012141317
4	0xbc7ae84f	-0.015314176
5	0xbc35680a	-0.011072168
6	0x3ae7cfe2	0.0017685855
7	0x3c003494	0.007825036
8	0x3c1677f9	0.009183877
9	0xbab8ffc7	-0.0014114314
10	0xbbb77a27	-0.0055992785
11	0xbc4f52cd	-0.012654019
12	0x391d9a13	0.00015030084
13	0x3bdef958	0.0068046264
14	0x3bd76bc3	0.0065741255
15	0xba2658b7	-0.0006345617
16	0x3afee273	0.0019446149
17	0x3b145ea3	0.0022639416
18	0xbbf8c97a	-0.0075923773
19	0xbbe63975	-0.0070258924
20	0xbc80acbf	-0.015707372
21	0x3b1cbc33	0.0023915886
22	0xbc3d1aac	-0.011542004
23	0xbc833436	-0.016016107
24	0xbc7039e3	-0.014662239
25	0xbbffe44d	-0.007809198
26	0x3b5ac94a	0.0033384138
27	0x3c87494b	0.016514441
28	0x3bbf78dd	0.0058432654
29	0xbc159eef	-0.009132131
30	0x3c1db95e	0.0096267145
31	0x3c0cdb8e	0.008597268
32	0xbc06157a	-0.008183831
33	0x3c0d3973	0.008619654
34	0x3a3b08fc	0.00071348227
35	0xbb5563ab	-0.0032560627
36	0xbac01825	-0.0014655633
37	0x3c643093	0.013927597
38	0x3c547af7	0.01296877
39	0xb9bb5b33	-0.00035735368
40	0x3952c678	0.00020101096
41	0xbad37d12	-0.0016135296
42	0x3b166622	0.002294906
43	0xbc2e11f2	-0.010624396
44	0xbb8d750e	-0.0043169325
45	0x3b338957	0.0027395093
46	0x3c5205eb	0.012818794
47	0xbbd9ffb2	-0.0066527957
48	0x3c030b04	0.007998232
49	0x3c0d4322	0.008621963
50	0x3aa75c55	0.0012768606
51	0x3ad071e7	0.0015903086
52	0x3b11ddfe	0.0022257562
53	0x3c526c47	0.012843198
54	0x3b67cb88	0.0035369117
55	0x3c2a1cb1	0.010382817
56	0xbbcd60b3	-0.006267631
57	0xbbfed0da	-0.007776362
58	0x3c1b1746	0.009465998
59	0xbb0e3e00	-0.0021704435
60	0xbb3f2fe0	-0.0029172823
61	0x3c0065bb	0.007836754
62	0x3aa12c9d	0.0012296621
63	0xbb030c77	-0.0019996443
64	0xbc947430	-0.018121809
65	0xbadf73cd	-0.0017048061
66	0xbc64fc02	-0.013976099
67	0x3c0af3dd	0.008480993
68	0xbace612f	-0.0015745516
69	0x3bf48ef0	0.0074633285
70	0xbc7e7683	-0.015531185
71	0x3c493f45	0.012283151
72	0xbbe3b3ea	-0.0069489377
73	0x3bd15fa5	0.0063895755
74	0x3c27c53e	0.010239897
75	0x3b950603	0.004547836
76	0x3ba3ea5d	0.0050023035
77	0x3c0ccdb2	0.008593963
78	0xbaa4cb71	-0.0012572837
79	0xb8ce162a	-9.826974e-05
80	0x3c0456ca	0.008077333
81	0xbc31a3db	-0.010842289
82	0xbc7d0a3b	-0.015444334
83	0xbb0aeb30	-0.0021197312
84	0x3ba56e6b	0.0050485632
85	0x3bc94c4c	0.0061431285
86	0xbbb665a7	-0.005566317
87	0x3b42f3ff	0.0029747484
88	0x3c381e6b	0.011237721
89	0x3b5348af	0.0032239368
90	0x3a3024ad	0.00067193323
91	0xbc939e5f	-0.018019853
92	0x3c21b128	0.0098688975
93	0x3b2c4388	0.002628537
94	0x394bf3f7	0.00019450473
95	0xbb84748a	-0.004042213
96	0xbbdf4978	-0.006814178
97	0x398a2421	0.0002634833
98	0x3c11ea17	0.008905909
99	0x3bd0454b	0.0063559166
100	0x3b33329c	0.0027343398
101	0xbb5c16c2	-0.00335829
102	0x3c10ad86	0.008830434
103	0x3adce98b	0.0016854269
104	0xbaab40a0	-0.0013065524
105	0x3bde5c1d	0.006785883
106	0x3c2512f0	0.010075316
107	0x3b912a23	0.004430072
108	0xbbb2a6fb	-0.0054520345
109	0xbc471bf9	-0.012152665
110	0xbc2c6576	-0.010522237
111	0x3b5afe3a	0.003341569
112	0xbbff64ed	-0.0077940137
113	0x3c1c4a17	0.009539149
114	0x3bbc27b7	0.005742039
115	0x3c3ce0d8	0.011528216
116	0xbc59cc35	-0.013293316
117	0x3ab04065	0.0013446925
118	0x3a738c2d	0.0009290602
119	0xbb6af55d	-0.0035851814
120	0xbbf525af	-0.007481299
121	0xbb98e43b	-0.004665879
122	0xbbde5630	-0.0067851767
123	0x3bf88355	0.0075840154
124	0x3c832d63	0.016012853
125	0xbc227516	-0.009915611
126	0x3be323e5	0.006931769
127	0x3bc611bd	0.006044595
128	0x3b101485	0.0021984887
129	0xbbca4c19	-0.0061736223
130	0x3ca47847	0.020076884
131	0x3bad9176	0.0052968813
132	0xbb894a88	-0.004189793
133	0x3b043fb6	0.0020179576
134	0xbbd2570d	-0.0064190687
135	0xbb9c7410	-0.004774578
136	0x3c115220	0.008869678
137	0xbb3190ee	-0.0027094441
138	0x3c7e6a90	0.015528336
139	0x3c6156e5	0.013753627
140	0xb951a485	-0.00019993082
141	0x3c5c4ea0	0.01344648
142	0xb8bfd846	-9.147874e-05
143	0xb9e8ad3d	-0.0004437956
144	0x3c9330dd	0.017967636
145	0xbbfa5715	-0.0076397755
146	0x3c9074e4	0.017633863
147	0xbbdf0f9f	-0.006807282
148	0x3c536d2a	0.012904445
149	0x3b4ef35d	0.0031578161
150	0xbc14fe13	-0.009093779
151	0x3cd38e78	0.02582477
152	0x3bbdfef1	0.0057982136
153	0x3bba88c0	0.0056925714
154	0xbb5480bb	-0.0032425362
155	0xbc26ae5d	-0.010173407
156	0xb9c9834c	-0.0003843553
157	0xbac942d6	-0.0015355002
158	0xbc7b3357	-0.015332065
159	0xbb988a0f	-0.0046551297
160	0xbc7fabaa	-0.015604893
161	0xbaba524c	-0.00142152
162	0x3a6b88aa	0.0008984903
163	0x3c1c2680	0.0095306635
164	0x3b9f04fc	0.004852889
165	0xbc4f162f	-0.012639566
166	0x3b43da9e	0.0029884945
167	0xbbec618d	-0.0072137774
168	0xbbd28bad	-0.006425342
169	0xbbea58d2	-0.0071517015
170	0xbc0cbb00	-0.008589506
171	0x3c02e752	0.007989721
172	0x3c08bcc2	0.008345785
173	0x3c1a72d1	0.009426788
174	0x3c4fcfe3	0.012683841
175	0xbab9e7d7	-0.0014183474
176	0xbb05b9d1	-0.0020404945
177	0xbbd91d6d	-0.0066258223
178	0x3b3a4463	0.002842211
179	0x3adf913d	0.0017056834
180	0x3b768a0b	0.00376189
181	0x3cb02702	0.021502975
182	0xbc28799c	-0.0102829
183	0xbbb78b33	-0.0056013106
184	0x3b9c2e45	0.004766258
185	0xbc1dba97	-0.009627006
186	0x3bd8d79b	0.006617499
187	0x3c15bbcb	0.009139012
188	0x3ba47210	0.00501848
189	0x3abf1ed7	0.0014581335
190	0xbb4e3825	-0.003146657
191	0xbbc3d581	-0.0059763794
192	0x3c458c67	0.0120574
193	0xbc3b2c3f	-0.011424123
194	0xba5af5cd	-0.0008352667
195	0xbbc86558	-0.0061155967
196	0xbbf18612	-0.0073707188
197	0xbb96c9eb	-0.004601707
198	0xbbf3ea27	-0.0074436846
199	0x3cc3743b	0.023859134
200	0x3c072294	0.00824799
201	0x3c2e8cf2	0.010653721
202	0xbc14bdec	-0.009078484
203	0x3ad52863	0.0016262647
204	0xbba44222	-0.0050127665
205	0x3aee683d	0.0018189024
206	0xbc2e19eb	-0.0106262965
207	0x3c913b3e	0.017728444
208	0xbb834015	-0.004005442
209	0xbc077e19	-0.00826981
210	0x3c39df3a	0.011344725
211	0xbbc12a1b	-0.005894912
212	0xbb877d13	-0.004134783
213	0x3c70b1b8	0.014690809
214	0x3bcfaa27	0.0063374224
215	0xbc7fe49f	-0.015618472
216	0x3bcc5655	0.0062358775
217	0xbc0e935b	-0.0087021245
218	0xbb866ffe	-0.004102706
219	0x3b95a20a	0.0045664357
220	0xbbcd6ba7	-0.0062689367
221	0x3c41044e	0.0117808115
222	0xbc89277f	-0.016742466
223	0x3bf22ef5	0.0073908516
224	0x3c640a7b	0.013918514
225	0x3c77dd0d	0.015128386
226	0xbaa31a66	-0.001244378
227	0x3b5edec0	0.003400728
228	0x3bb060ef	0.005382649
229	0xbc645b5f	-0.0139378
230	0x3b854ba2	0.004067854
231	0x3b760b55	0.0037543376
232	0xba1f30cd	-0.00060726405
233	0x3ca42d51	0.02004114
234	0x3c4b306f	0.012401684
235	0xbc1acf1b	-0.009448792
236	0x3b643bdd	0.003482572
237	0x3b8f9d24	0.0043827463
238	0x3b10aa52	0.0022074175
239	0xbcaa3b52	-0.02078024
240	0x3b200052	0.0024414253
241	0xbb9eb204	-0.0048429985
242	0xbb5fa952	-0.0034128022
243	0xbc322825	-0.010873829
244	0x3c400526	0.0117199775
245	0xbbee373f	-0.0072697694
246	0x3b52f5c5	0.0032189947
247	0x3c5b39a3	0.013380441
248	0x3c2befa7	0.010494149
249	0xb920d86a	-0.0001533941
250	0xbc664660	-0.014054865
251	0x3c2ed77f	0.010671495
252	0x3c27f973	0.010252344
253	0x3be5f9c5	0.0070183002
254	0xbc293117	-0.010326645
255	0x3ba62f4b	0.0050715557

action_model._discrete_distribution.branches.1.bias f4 [2]
0	0x00000000	0.0
1	0x00000000	0.0

onnx::Div_68 f4 [284]
0	0x3f800000	1.0
1	0x3f800000	1.0
2	0x3f800000	1.0
3	0x3f800000	1.0
4	0x3f800000	1.0
5	0x3f800000	1.0
6	0x3f800000	1.0
7	0x3f800000	1.0
8	0x3f800000	1.0
9	0x3f800000	1.0
10	0x3f800000	1.0
11	0x3f800000	1.0
12	0x3f800000	1.0
13	0x3f800000	1.0
14	0x3f800000	1.0
15	0x3f800000	1.0
16	0x3f800000	1.0
17	0x3f800000	1.0
18	0x3f800000	1.0
19	0x3f800000	1.0
20	0x3f800000	1.0
21	0x3f800000	1.0
22	0x3f800000	1.0
23	0x3f800000	1.0
24	0x3f800000	1.0
25	0x3f800000	1.0
26	0x3f800000	1.0
27	0x3f800000	1.0
28	0x3f800000	1.0
29	0x3f800000	1.0
30	0x3f800000	1.0
31	0x3f800000	1.0
32	0x3f800000	1.0
33	0x3f800000	1.0
34	0x3f800000	1.0
35	0x3f800000	1.0
36	0x3f800000	1.0
37	0x3f800000	1.0
38	0x3f800000	1.0
39	0x3f800000	1.0
40	0x3f800000	1.0
41	0x3f800000	1.0
42	0x3f800000	1.0
43	0x3f800000	1.0
44	0x3f800000	1.0
45	0x3f800000	1.0
46	0x3f800000	1.0
47	0x3f800000	1.0
48	0x3f800000	1.0
49	0x3f800000	1.0
50	0x3f800000	1.0
51	0x3f800000	1.0
52	0x3f800000	1.0
53	0x3f800000	1.0
54	0x3f800000	1.0
55	0x3f800000	1.0
56	0x3f800000	1.0
57	0x3f800000	1.0
58	0x3f800000	1.0
59	0x3f800000	1.0
60	0x3f800000	1.0
61	0x3f800000	1.0
62	0x3f800000	1.0
63	0x3f800000	1.0
64	0x3f800000	1.0
65	0x3f800000	1.0
66	0x3f800000	1.0
67	0x3f800000	1.0
68	0x3f800000	1.0
69	0x3f800000	1.0
70	0x3f800000	1.0
71	0x3f800000	1.0
72	0x3f800000	1.0
73	0x3f800000	1.0
74	0x3f800000	1.0
75	0x3f800000	1.0
76	0x3f800000	1.0
77	0x3f800000	1.0
78	0x3f800000	1.0
79	0x3f800000	1.0
80	0x3f800000	1.0
81	0x3f800000	1.0
82	0x3f800000	1.0
83	0x3f800000	1.0
84	0x3f800000	1.0
85	0x3f800000	1.0
86	0x3f800000	1.0
87	0x3f800000	1.0
88	0x3f800000	1.0
89	0x3f800000	1.0
90	0x3f800000	1.0
91	0x3f800000	1.0
92	0x3f800000	1.0
93	0x3f800000	1.0
94	0x3f800000	1.0
95	0x3f800000	1.0
96	0x3f800000	1.0
97	0x3f800000	1.0
98	0x3f800000	1.0
99	0x3f800000	1.0
100	0x3f800000	1.0
101	0x3f800000	1.0
102	0x3f800000	1.0
103	0x3f800000	1.0
104	0x3f800000	1.0
105	0x3f800000	1.0
106	0x3f800000	1.0
107	0x3f800000	1.0
108	0x3f800000	1.0
109	0x3f800000	1.0
110	0x3f800000	1.0
111	0x3f800000	1.0
112	0x3f800000	1.0
113	0x3f800000	1.0
114	0x3f800000	1.0
115	0x3f800000	1.0
116	0x3f800000	1.0
117	0x3f800000	1.0
118	0x3f800000	1.0
119	0x3f800000	1.0
120	0x3f800000	1.0
121	0x3f800000	1.0
122	0x3f800000	1.0
123	0x3f800000	1.0
124	0x3f800000	1.0
125	0x3f800000	1.0
126	0x3f800000	1.0
127	0x3f800000	1.0
128	0x3f800000	1.0
129	0x3f800000	1.0
130	0x3f800000	1.0
131	0x3f800000	1.0
132	0x3f800000	1.0
133	0x3f800000	1.0
134	0x3f800000	1.0
135	0x3f800000	1.0
136	0x3f800000	1.0
137	0x3f800000	1.0
138	0x3f800000	1.0
139	0x3f800000	1.0
140	0x3f800000	1.0
141	0x3f800000	1.0
142	0x3f800000	1.0
143	0x3f800000	1.0
144	0x3f800000	1.0
145	0x3f800000	1.0
146	0x3f800000	1.0
147	0x3f800000	1.0
148	0x3f800000	1.0
149	0x3f800000	1.0
150	0x3f800000	1.0
151	0x3f800000	1.0
152	0x3f800000	1.0
153	0x3f800000	1.0
154	0x3f800000	1.0
155	0x3f800000	1.0
156	0x3f800000	1.0
157	0x3f800000	1.0
158	0x3f800000	1.0
159	0x3f800000	1.0
160	0x3f800000	1.0
161	0x3f800000	1.0
162	0x3f800000	1.0
163	0x3f800000	1.0
164	0x3f800000	1.0
165	0x3f800000	1.0
166	0x3f800000	1.0
167	0x3f800000	1.0
168	0x3f800000	1.0
169	0x3f800000	1.0
170	0x3f800000	1.0
171	0x3f800000	1.0
172	0x3f800000	1.0
173	0x3f800000	1.0
174	0x3f800000	1.0
175	0x3f800000	1.0
176	0x3f800000	1.0
177	0x3f800000	1.0
178	0x3f800000	1.0
179	0x3f800000	1.0
180	0x3f800000	1.0
181	0x3f800000	1.0
182	0x3f800000	1.0
183	0x3f800000	1.0
184	0x3f800000	1.0
185	0x3f800000	1.0
186	0x3f800000	1.0
187	0x3f800000	1.0
188	0x3f800000	1.0
189	0x3f800000	1.0
190	0x3f800000	1.0
191	0x3f800000	1.0
192	0x3f800000	1.0
193	0x3f800000	1.0
194	0x3f800000	1.0
195	0x3f800000	1.0
196	0x3f800000	1.0
197	0x3f800000	1.0
198	0x3f800000	1.0
199	0x3f800000	1.0
200	0x3f800000	1.0
201	0x3f800000	1.0
202	0x3f800000	1.0
203	0x3f800000	1.0
204	0x3f800000	1.0
205	0x3f800000	1.0
206	0x3f800000	1.0
207	0x3f800000	1.0
208	0x3f800000	1.0
209	0x3f800000	1.0
210	0x3f800000	1.0
211	0x3f800000	1.0
212	0x3f800000	1.0
213	0x3f800000	1.0
214	0x3f800000	1.0
215	0x3f800000	1.0
216	0x3f800000	1.0
217	0x3f800000	1.0
218	0x3f800000	1.0
219	0x3f800000	1.0
220	0x3f800000	1.0
221	0x3f800000	1.0
222	0x3f800000	1.0
223	0x3f800000	1.0
224	0x3f800000	1.0
225	0x3f800000	1.0
226	0x3f800000	1.0
227	0x3f800000	1.0
228	0x3f800000	1.0
229	0x3f800000	1.0
230	0x3f800000	1.0
231	0x3f800000	1.0
232	0x3f800000	1.0
233	0x3f800000	1.0
234	0x3f800000	1.0
235	0x3f800000	1.0
236	0x3f800000	1.0
237	0x3f800000	1.0
238	0x3f800000	1.0
239	0x3f800000	1.0
240	0x3f800000	1.0
241	0x3f800000	1.0
242	0x3f800000	1.0
243	0x3f800000	1.0
244	0x3f800000	1.0
245	0x3f800000	1.0
246	0x3f800000	1.0
247	0x3f800000	1.0
248	0x3f800000	1.0
249	0x3f800000	1.0
250	0x3f800000	1.0
251	0x3f800000	1.0
252	0x3f800000	1.0
253	0x3f800000	1.0
254	0x3f800000	1.0
255	0x3f800000	1.0
