Assets/Training/results/run_3/PlayerAgentBehavior/PlayerAgentBehavior-2880.onnx (onnx, 239143 bytes, 13 tensors)

75 f4 [36]
0	0x3c989f57	0.018630667
1	0x3c989f57	0.018630667
2	0x3c989f57	0.018630667
3	0x3c989f57	0.018630667
4	0x3c989f57	0.018630667
5	0x3c989f57	0.018630667
6	0x3c989f57	0.018630667
7	0x3c989f57	0.018630667
8	0x3c989f57	0.018630667
9	0x3c989f57	0.018630667
10	0x3c989f57	0.018630667
11	0x3c989f57	0.018630667
12	0x3c989f57	0.018630667
13	0x3c989f57	0.018630667
14	0x3c989f57	0.018630667
15	0x3c989f57	0.018630667
16	0x3c989f57	0.018630667
17	0x3c989f57	0.018630667
18	0x3c989f57	0.018630667
19	0x3c989f57	0.018630667
20	0x3c989f57	0.018630667
21	0x3c989f57	0.018630667
22	0x3c989f57	0.018630667
23	0x3c989f57	0.018630667
24	0x3c989f57	0.018630667
25	0x3c989f57	0.018630667
26	0x3c989f57	0.018630667
27	0x3c989f57	0.018630667
28	0x3c989f57	0.018630667
29	0x3c989f57	0.018630667
30	0x3c989f57	0.018630667
31	0x3c989f57	0.018630667
32	0x3c989f57	0.018630667
33	0x3c989f57	0.018630667
34	0x3c989f57	0.018630667
35	0x3c989f57	0.018630667

78 f4 [284]
0	0x41408e9b	12.034816
1	0x436850f1	232.31618
2	0x3c989f57	0.018630667
3	0x40df1e3b	6.9724402
4	0x3f84540e	1.0338151
5	0x3c989f57	0.018630667
6	0x3c989f57	0.018630667
7	0x3c989f57	0.018630667
8	0x40f7d623	7.7448897
9	0x3e0cc215	0.13745911
10	0x3c989f57	0.018630667
11	0x409fa85c	4.9893017
12	0x3e3fb21e	0.1872029
13	0x3c989f57	0.018630667
14	0x40c83b6c	6.2572536
15	0x3e19c8ad	0.15017958
16	0x3c989f57	0.018630667
17	0x4058a0ed	3.3848221
18	0x3e1f6448	0.15565598
19	0x3c989f57	0.018630667
20	0x40e18868	7.047901
21	0x3e04ca14	0.12967712
22	0x3c989f57	0.018630667
23	0x41207382	10.0282
24	0x3ea8560f	0.32878157
25	0x3c989f57	0.018630667
26	0x41144c64	9.26865
27	0x3e88eb5b	0.26742062
28	0x3c989f57	0.018630667
29	0x40a2cfb6	5.0878553
30	0x3e3fb21e	0.1872029
31	0x3c989f57	0.018630667
32	0x3f1c2f39	0.61009556
33	0x3e226ae1	0.15861084
34	0x3c989f57	0.018630667
35	0x40c353c1	6.103974
36	0x3e19c8ad	0.15017958
37	0x3c989f57	0.018630667
38	0x41028c72	8.159288
39	0x3eaf78c4	0.34271824
40	0x3c989f57	0.018630667
41	0x412bbcd0	10.733597
42	0x3e86797b	0.26264557
43	0x3c989f57	0.018630667
44	0x3ff2c2fa	1.8965752
45	0x3e40b89a	0.1882042
46	0x3c989f57	0.018630667
47	0x413b4687	11.704719
48	0x3f043a95	0.5165189
49	0x3c989f57	0.018630667
50	0x41235837	10.209037
51	0x3e40a3eb	0.1881253
52	0x3c989f57	0.018630667
53	0x413dc928	11.86161
54	0x3f04b693	0.51841086
55	0x3c989f57	0.018630667
56	0x413c7beb	11.780253
57	0x3f05327c	0.5203016
58	0x3c989f57	0.018630667
59	0x408269bb	4.0754066
60	0x3e24d0bf	0.16095255
61	0x3c989f57	0.018630667
62	0x412f9cc1	10.97577
63	0x3eddb0d8	0.43298984
64	0x3c989f57	0.018630667
65	0x40383e81	2.878815
66	0x3ee01bc1	0.43771175
67	0x3c989f57	0.018630667
68	0x40e986de	7.2977133
69	0x3e06495c	0.13113922
70	0x3c989f57	0.018630667
71	0x410a503a	8.644587
72	0x3e148d72	0.14507082
73	0x3c989f57	0.018630667
74	0x40c6a858	6.20805
75	0x3e19c8ad	0.15017958
76	0x3c989f57	0.018630667
77	0x413f0e01	11.940919
78	0x3f05327c	0.5203016
79	0x3c989f57	0.018630667
80	0x4115a151	9.351884
81	0x3eafbb7b	0.34322724
82	0x3c989f57	0.018630667
83	0x40e52a56	7.161418
84	0x3e7fbd0e	0.24974462
85	0x3c989f57	0.018630667
86	0x408269bb	4.0754066
87	0x3d1ecf17	0.038771715
88	0x3c989f57	0.018630667
89	0x40bd3679	5.9128995
90	0x3e19c8ad	0.15017958
91	0x3c989f57	0.018630667
92	0x41295f56	10.585775
93	0x3e4d31aa	0.20038477
94	0x3c989f57	0.018630667
95	0x4139f1ed	11.621564
96	0x3f043a95	0.5165189
97	0x3c989f57	0.018630667
98	0x40ff451e	7.977187
99	0x3e1024da	0.14076558
100	0x3c989f57	0.018630667
101	0x41318520	11.095001
102	0x3f03a03b	0.5141637
103	0x3c989f57	0.018630667
104	0x4078ead8	3.8893337
105	0x3d11e15d	0.035615314
106	0x3c989f57	0.018630667
107	0x4112b4d2	9.169146
108	0x3e3cf471	0.18452622
109	0x3c989f57	0.018630667
110	0x41076975	8.463246
111	0x3e137b43	0.1440249
112	0x3c989f57	0.018630667
113	0x412dfc4a	10.874094
114	0x3eaed0c2	0.34143645
115	0x3c989f57	0.018630667
116	0x40a5f75d	5.1864457
117	0x3e3fb21e	0.1872029
118	0x3c989f57	0.018630667
119	0x40eacdcb	7.337621
120	0x3e06495c	0.13113922
121	0x3c989f57	0.018630667
122	0x4003dbac	2.0602827
123	0x3e3aa82a	0.18228212
124	0x3c989f57	0.018630667
125	0x404ab8a3	3.1675193
126	0x3e803f46	0.25048274
127	0x3c989f57	0.018630667
128	0x4121ed70	10.120468
129	0x3e8360b1	0.25659707
130	0x3c989f57	0.018630667
131	0x411e1435	9.879933
132	0x3ed4b90d	0.41547433
133	0x3c989f57	0.018630667
134	0x40beaa29	5.9582715
135	0x3e19c8ad	0.15017958
136	0x3c989f57	0.018630667
137	0x4101da16	8.115744
138	0x3eaf9d3d	0.3429965
139	0x3c989f57	0.018630667
140	0x410493a4	8.286045
141	0x3e1156fc	0.14193338
142	0x3c989f57	0.018630667
143	0x411addd3	9.679156
144	0x3ed3ccba	0.4136713
145	0x3c989f57	0.018630667
146	0x40e3e7a2	7.1220255
147	0x3e691bf8	0.22764575
148	0x3c989f57	0.018630667
149	0x4117cc97	9.487449
150	0x3ed2dfa6	0.41186255
151	0x3c989f57	0.018630667
152	0x40e01cfc	7.003538
153	0x3e034a6c	0.12821358
154	0x3c989f57	0.018630667
155	0x40a9964b	5.2995963
156	0x3e3fb21e	0.1872029
157	0x3c989f57	0.018630667
158	0x4078ead8	3.8893337
159	0x3e24d0bf	0.16095255
160	0x3c989f57	0.018630667
161	0x40acbda7	5.398151
162	0x3e3fb21e	0.1872029
163	0x3c989f57	0.018630667
164	0x40fb9b58	7.862713
165	0x3e0cc215	0.13745911
166	0x3c989f57	0.018630667
167	0x40c1eeef	6.0604167
168	0x3e19c8ad	0.15017958
169	0x3c989f57	0.018630667
170	0x40e67e81	7.2029424
171	0x3e691bf8	0.22764575
172	0x3c989f57	0.018630667
173	0x41230e1e	10.190947
174	0x3e07a2a0	0.1324563
175	0x3c989f57	0.018630667
176	0x4117dbcb	9.49116
177	0x3ea9432a	0.33059055
178	0x3c989f57	0.018630667
179	0x413a2a02	11.635256
180	0x3ee9f9f8	0.45698524
181	0x3c989f57	0.018630667
182	0x41077a7e	8.467405
183	0x3d5685dc	0.052373752
184	0x3c989f57	0.018630667
185	0x40c81c2b	6.2534385
186	0x3d5baeee	0.053633623
187	0x3c989f57	0.018630667
188	0x4114d984	9.303104
189	0x3e56c335	0.20972903
190	0x3c989f57	0.018630667
191	0x41165a89	9.397103
192	0x3e913be6	0.2836601
193	0x3c989f57	0.018630667
194	0x40c36362	6.1058817
195	0x3d5baeee	0.053633623
196	0x3c989f57	0.018630667
197	0x41135fad	9.210858
198	0x3e0d2344	0.13782984
199	0x3c989f57	0.018630667
200	0x411af43a	9.684626
201	0x3ea769bd	0.3269786
202	0x3c989f57	0.018630667
203	0x4078eb00	3.8893433
204	0x3cfb4eda	0.030677248
205	0x3c989f57	0.018630667
206	0x4138556e	11.520857
207	0x3ee9f9f8	0.45698524
208	0x3c989f57	0.018630667
209	0x408278b1	4.077233
210	0x3cfb4eda	0.030677248
211	0x3c989f57	0.018630667
212	0x411e22e9	9.883523
213	0x3eaa2fce	0.33239597
214	0x3c989f57	0.018630667
215	0x41048f23	8.2849455
216	0x3d5a912b	0.0533611
217	0x3c989f57	0.018630667
218	0x411fd7f5	9.990224
219	0x3e9314b1	0.28726724
220	0x3c989f57	0.018630667
221	0x413c3516	11.76296
222	0x3ee94b9d	0.455655
223	0x3c989f57	0.018630667
224	0x41216795	10.087789
225	0x3e56c3ce	0.20973131
226	0x3c989f57	0.018630667
227	0x413fbdd9	11.98385
228	0x3eec3d5b	0.4614056
229	0x3c989f57	0.018630667
230	0x4141976f	12.099471
231	0x3eebdc06	0.46066302
232	0x3c989f57	0.018630667
233	0x4082968a	4.0808764
234	0x3ddab163	0.10678365
235	0x3c989f57	0.018630667
236	0x40c6a858	6.20805
237	0x3d5baeee	0.053633623
238	0x3c989f57	0.018630667
239	0x40bd1cd1	5.9097676
240	0x3d5baeee	0.053633623
241	0x3c989f57	0.018630667
242	0x407908c3	3.8911598
243	0x3de20ded	0.110378124
244	0x3c989f57	0.018630667
245	0x40c1ef40	6.0604553
246	0x3d5baeee	0.053633623
247	0x3c989f57	0.018630667
248	0x40be9b74	5.956476
249	0x3d5baeee	0.053633623
250	0x3c989f57	0.018630667
251	0x410a6142	8.648745
252	0x3d5685dc	0.052373752
253	0x3c989f57	0.018630667
254	0x413dfec1	11.874696
255	0x3ee7ef32	0.4529968

action_model._discrete_distribution.branches.0.bias f4 [3]
0	0xbad07345	-0.0015903494
1	0xbbc0f972	-0.005889111
2	0x3bca9d4c	0.006183302

action_model._discrete_distribution.branches.0.weight f4 [3, 128]
0	0x3b146989	0.0022645912
1	0x3cf741b9	0.030182706
2	0x3bf0cb97	0.0073484886
3	0xbc7e1342	-0.015507521
4	0x3c95e809	0.01829912
5	0xbabee912	-0.001456531
6	0x3b3558f5	0.002767143
7	0x3b0c4c34	0.0021407725
8	0x3ad4fe3a	0.0016250082
9	0xbd02c6da	-0.03192792
10	0xbc0db2ad	-0.008648557
11	0x3be644ec	0.007027259
12	0xbca0d1f2	-0.01963136
13	0xbc2f710f	-0.010708108
14	0xbbf5a9c0	-0.0074970424
15	0xbb9a9767	-0.0047177556
16	0x3bcd03c5	0.006256553
17	0x3be4cddb	0.0069825477
18	0xbc5145c2	-0.012772979
19	0x3aa76fb3	0.0012774378
20	0xbc0d950c	-0.008641493
21	0x3cc5a26c	0.0241253
22	0x3c9d2560	0.01918286
23	0xba5f4a76	-0.00085178704
24	0xbc009d21	-0.007849962
25	0x3baee1b3	0.005336964
26	0xbc633109	-0.013866671
27	0x3ba4ca69	0.005029012
28	0x3c167f70	0.009185657
29	0xbbbe3500	-0.005804658
30	0xbc523e4e	-0.012832237
31	0xbca73b94	-0.020414151
32	0x3bb0c657	0.0053947377
33	0xba135fb7	-0.00056218676
34	0xbcd6ad63	-0.026205724
35	0x3c938611	0.018008264
36	0xbc590cef	-0.0132477125
37	0x3a12dd05	0.00056023925
38	0xbc563758	-0.013074718
39	0x3c66ac77	0.014079205
40	0x3ac140eb	0.0014744079
41	0x3ca76166	0.020432185
42	0x3bc08aea	0.005875935
43	0x3b7f2924	0.0038934434
44	0x3c35b0b7	0.011089495
45	0x3ab3c0db	0.0013714092
46	0xbc9af740	-0.018916726
47	0xbc2e9e8a	-0.010657916
48	0xbb987c6f	-0.0046535055
49	0x3ba179f5	0.0049278685
50	0x3ae58aef	0.0017512719
51	0xbc1ea9e6	-0.009684062
52	0xbb6a67ea	-0.0035767504
53	0xbbbcc1c6	-0.0057604043
54	0xbc39df05	-0.011344676
55	0xbcc66780	-0.024219275
56	0xbc1f3b57	-0.009718738
57	0xbc087392	-0.008328335
58	0xbc409ef5	-0.011756648
59	0xbc8604f5	-0.016359786
60	0xbc834894	-0.016025819
61	0x3ba9154b	0.005160009
62	0xbbfedf89	-0.0077781123
63	0xbbf62df3	-0.007512802
64	0xbc4b5e34	-0.0124125965
65	0xbb703d82	-0.0036657755
66	0xbc4c1fe6	-0.012458777
67	0xbc778a85	-0.015108709
68	0x39845862	0.00025242852
69	0xbc360061	-0.011108489
70	0xbca5e09b	-0.020248702
71	0xbcfc8c91	-0.030828746
72	0x39661f7c	0.00021946238
73	0xbbf53eba	-0.007484284
74	0x3ca7f409	0.020502107
75	0x3c69f4b3	0.014279532
76	0x3a943659	0.0011307701
77	0xbcca5bc4	-0.02470196
78	0x3cf3aeb9	0.0297464
79	0xbbfba7a1	-0.007679895
80	0x3acc5d64	0.0015591797
81	0x3c7852c8	0.015156455
82	0x3acba6d9	0.0015537395
83	0xbbd43c99	-0.0064769504
84	0x3c0d3d63	0.008620593
85	0x3c208f44	0.009799782
86	0x3b3f9980	0.002923578
87	0x3ca43f53	0.020049727
88	0xbc86783a	-0.01641475
89	0x3c984b13	0.018590486
90	0x3c0069a2	0.007837685
91	0x3c8dd7fa	0.0173149
92	0x3c436bee	0.011927588
93	0x3b69f3a8	0.003569821
94	0x3be15207	0.0068762335
95	0xbbc5d87f	-0.0060377712
96	0xbc61c4b7	-0.013779811
97	0x3c2b516b	0.010456423
98	0x3b49cea8	0.0030793343
99	0x3cfb1d55	0.030653635
100	0x3b8cc683	0.0042961254
101	0xbc9e820a	-0.019349117
102	0x3c3412d7	0.01099082
103	0xbc94733c	-0.018121354
104	0x3b3c173b	0.002870037
105	0x3bd87de6	0.006606805
106	0xbcc2bc59	-0.023771452
107	0x3c62d598	0.01384487
108	0x3c34b0d2	0.011028485
109	0xbc2e8643	-0.010652128
110	0xbcef620d	-0.029221559
111	0x3b39cf64	0.0028352374
112	0x3caa73e9	0.020807223
113	0xbc9db7bb	-0.019252649
114	0x3b9a0046	0.0046997396
115	0x3bc2646e	0.0059323823
116	0x3c7081aa	0.014679352
117	0xbc35e30c	-0.0111014955
118	0x3c0ac956	0.008470854
119	0xbca314d0	-0.019907385
120	0x3cdaeb39	0.026723491
121	0x3c3857ff	0.011251449
122	0x3c3ed416	0.011647245
123	0x3b2efdfc	0.002670168
124	0xbc262807	-0.010141379
125	0x3ccbcff7	0.024879439
126	0x3b7b1216	0.003831034
127	0xbc5d9e8a	-0.013526568
128	0x3a81f53c	0.0009915004
129	0x3c37696e	0.01119457
130	0x3bb324b8	0.0054670237
131	0xbcaeccd4	-0.021337904
132	0xbc180ef5	-0.00928091
133	0xbc55b5b1	-0.013043807
134	0xbb9b85ad	-0.00474616
135	0x3c71222e	0.014717622
136	0xbb531607	-0.0032209174
137	0xbb8ee3b0	-0.0043606386
138	0xb7e48f8e	-2.7246566e-05
139	0x3c7fe34b	0.015618156
140	0x3c1e6d58	0.009669624
141	0x3c4cdaa2	0.012503298
142	0x3c13cf45	0.009021585
143	0xbbb4e365	-0.0055202716
144	0x3ca4cead	0.020118082
145	0xbb9bab9a	-0.004750681
146	0xbc0773e8	-0.00826738
147	0xba29eef6	-0.00064824463
148	0xbca61c84	-0.02027727
149	0xbc0fdcce	-0.008780671
150	0xbb640452	-0.0034792614
151	0x3b5e152b	0.0033887129
152	0x3c12bf3f	0.008956729
153	0xbc4bbd75	-0.012435307
154	0xbbf93c0e	-0.007606036
155	0x3b8672b1	0.0041030277
156	0x3c7d739c	0.015469458
157	0x3b502a3b	0.0031763453
158	0xbc0164dd	-0.007897583
159	0x3bc1201f	0.0058937217
160	0x3c27e6e6	0.010247922
161	0x3b9de5bb	0.004818646
162	0x3bd9ba6c	0.0066445377
163	0xbb52ab46	-0.0032145544
164	0xbc17dd62	-0.00926909
165	0x3c97c09e	0.018524464
166	0x3cb83f87	0.02249123
167	0xbbc3da29	-0.0059769345
168	0xbbccd586	-0.00625104
169	0x3c70ba3e	0.014692841
170	0xba0d3ae5	-0.0005387499
171	0xbcc6d0f2	-0.024269555
172	0x3c117ee6	0.008880353
173	0x3c8f9ba9	0.01753028
174	0xbbf77cc6	-0.007552716
175	0xbc001ee5	-0.007819866
176	0xbc4e5c42	-0.012595238
177	0x3c96772a	0.018367369
178	0xbcb0f2c1	-0.02160013
179	0x395dad52	0.00021140769
180	0x3cf8ef15	0.03038744
181	0x3c8fedf1	0.017569514
182	0xb89c0e83	-7.441363e-05
183	0xbc1aa788	-0.009439357
184	0x3ba2c5d1	0.004967429
185	0xbc739a39	-0.0148683125
186	0x3c7c1d4f	0.015387847
187	0x3c933211	0.01796821
188	0xbc3d8e42	-0.011569561
189	0xbb76bec0	-0.0037650317
190	0xbbe362f1	-0.006939285
191	0x3c29a2ac	0.010353725
192	0xbb77f92a	-0.0037837722
193	0x3b1c139f	0.0023815406
194	0x3c6afb07	0.014342076
195	0xbadc96d9	-0.0016829624
196	0x3c307c8a	0.01077188
197	0xbc273248	-0.010204859
198	0xbc426ba7	-0.011866487
199	0x3c2276ea	0.009916047
200	0x3bc7eb0b	0.0061010174
201	0x3c69ae4f	0.01426275
202	0x3c4d184b	0.012517999
203	0xbbb6ca61	-0.0055783247
204	0x3c38c828	0.01127819
205	0xbb3e92e2	-0.0029079248
206	0x3c82d746	0.015971791
207	0xbb918e88	-0.00444204
208	0x3c1522e7	0.00910256
209	0x3b6f4764	0.0036511058
210	0xbc1d7ecf	-0.009612753
211	0xbbf98080	-0.0076141953
212	0x3caabb66	0.020841312
213	0xba0bf28b	-0.0005338571
214	0x3b8287ae	0.0039834594
215	0x3c370051	0.011169509
216	0xbaa6d102	-0.0012727084
217	0x3c41dc18	0.01183226
218	0x3b18db46	0.0023324057
219	0xbc5e83a0	-0.0135811865
220	0x3b001cdd	0.0019548454
221	0x3bec9cb9	0.0072208312
222	0xbbd184c3	-0.0063940003
223	0xbb8790a2	-0.0041371146
224	0xbba778c4	-0.005110832
225	0xbb94b939	-0.004538682
226	0xba368aad	-0.00069634133
227	0x3c204642	0.009782376
228	0x3c41144f	0.011784627
229	0x3b8adac5	0.004237505
230	0xbc22bb15	-0.009932299
231	0xbcbfb94d	-0.023403788
232	0xbc987550	-0.018610626
233	0x3c356460	0.011071295
234	0xbc00095c	-0.007814731
235	0x38d0e75f	9.961309e-05
236	0xbba49e85	-0.00502378
237	0xbc3f1e0f	-0.011664881
238	0xbc32cc92	-0.010913031
239	0xbc642cc5	-0.0139266895
240	0x3b9b24c4	0.0047346074
241	0xbc4edfd7	-0.01262661
242	0xbc661f22	-0.014045509
243	0x3c00f9c7	0.007872052
244	0x3c5b7a0c	0.013395797
245	0xba451123	-0.0007517507
246	0xbc4d9d2b	-0.012549679
247	0x3c363ef6	0.0111234095
248	0x3ca0ed05	0.01964427
249	0x3a1b490b	0.0005923665
250	0x3c70d9f8	0.014700405
251	0x3ac30a2e	0.0014880353
252	0xbc9ff34e	-0.019525196
253	0x3ba86e35	0.005140091
254	0xbbe54caf	-0.006997667
255	0xbad44968	-0.0016196193

action_model._discrete_distribution.branches.1.bias f4 [2]
0	0x3c2329e2	0.009958716
1	0xbc2329e5	-0.009958719

action_model._discrete_distribution.branches.1.weight f4 [2, 128]
0	0x3cda4925	0.026646206
1	0x3d144174	0.036195233
2	0xbd29753f	-0.04137158
3	0xbccc9544	-0.02497352
4	0xbd1086e6	-0.0352849
5	0xbcf7acfe	-0.030233856
6	0xbcadac60	-0.021200359
7	0xbc6c843a	-0.014435822
8	0xbd014be4	-0.031566516
9	0xbc9f494d	-0.019444132
10	0x3a9f427b	0.001215055
11	0xbcc76871	-0.024341794
12	0x3c97e65a	0.018542457
13	0x3cab462d	0.020907486
14	0x3c989e22	0.018630091
15	0x3cf49688	0.029856935
16	0x3d19a161	0.03750742
17	0x3beb5094	0.0071812365
18	0x3c812e97	0.015769286
19	0x3cd7eceb	0.026358088
20	0xbafccb29	-0.0019286621
21	0xbc83dd63	-0.016096776
22	0xbc6ca5ba	-0.014443809
23	0x3afe5e05	0.0019406682
24	0x3c44c588	0.012009986
25	0xbc3cc33a	-0.011521155
26	0x3bc64d1f	0.006051674
27	0xbd214639	-0.03937361
28	0xbcab9168	-0.020943359
29	0x3cf1c8f0	0.02951476
30	0x3c4af136	0.012386611
31	0xbc1beeeb	-0.009517412
32	0x3cb45669	0.02201386
33	0x3ce9db53	0.028546965
34	0x3bbdb1b4	0.005789006
35	0xbd130f20	-0.035903096
36	0x3b475ede	0.0030421535
37	0x3cd87e81	0.02642751
38	0x3ccdfdb0	0.025145382
39	0xbc33f55a	-0.010983789
40	0x37a98ad9	2.0211026e-05
41	0x3aee1526	0.0018164262
42	0x3c1fb96f	0.009748801
43	0x3c2a9e5a	0.0104137305
44	0x3c89f429	0.016840057
45	0xbc567142	-0.013088526
46	0x3c5377b8	0.012906961
47	0x3b8fce58	0.0043886118
48	0xbc675040	-0.014118254
49	0x38eb644c	0.00011224355
50	0x3bd8864e	0.0066078072
51	0x3c8f37ce	0.017482664
52	0x3c7bf7f5	0.015378942
53	0xbbc97904	-0.0061484594
54	0x3c04abbe	0.008097587
55	0x3cc33e84	0.02383352
56	0x3cb9c292	0.022675786
57	0xbca0db93	-0.019635951
58	0x3ce31da7	0.0277241
59	0x3c22e7df	0.009942978
60	0xbc3895a2	-0.011266144
61	0xbd025b77	-0.03182551
62	0x3c9df7c8	0.01928319
63	0x3cf1032f	0.029420463
64	0xbd0c91fb	-0.034318905
65	0xbc7aff4b	-0.015319656
66	0x3c1a286d	0.009409052
67	0x3c4fa2ac	0.012673061
68	0x3cc3c792	0.023898873
69	0xbce75d4a	-0.028242726
70	0xbc0ced45	-0.008601491
71	0x3cf9068f	0.030398635
72	0x3c2a9b8e	0.010413064
73	0x3d19ca91	0.037546698
74	0x3c2f1dd0	0.01068826
75	0x3987e23c	0.00025917764
76	0x3ca0d2c3	0.019631749
77	0x3cb76a41	0.022389533
78	0x3cb86a94	0.022511758
79	0x3c521eb0	0.012824699
80	0x3d12d78f	0.035850104
81	0xbcbd6b8f	-0.023122577
82	0x3cb37c33	0.021909809
83	0xbcef9ecc	-0.029250525
84	0x3c3b79a9	0.01144258
85	0xbc90187d	-0.017589802
86	0xbc5c4b98	-0.013445757
87	0xbc0e1d40	-0.008673966
88	0x3b6d1849	0.0036177805
89	0xba054096	-0.00050831714
90	0x3cadca2b	0.021214565
91	0xbcec4b28	-0.028844431
92	0x3caeacb7	0.021322591
93	0xbc92c1e0	-0.017914712
94	0x3cb6e40f	0.022325544
95	0x3b3c1236	0.0028697378
96	0xbc313de1	-0.010817976
97	0x3a95a596	0.0011417146
98	0x3d33b109	0.043870006
99	0x3b8e8b12	0.0043500746
100	0xbc1b1161	-0.009464593
101	0x3d0b3470	0.033985555
102	0xbcd0041d	-0.025392586
103	0x3c9b3241	0.018944861
104	0xbc49913b	-0.012302692
105	0x3c3e2a09	0.011606702
106	0x3c61ccd3	0.013781744
107	0xbd0dbd6c	-0.034604475
108	0xbd020c7e	-0.031750195
109	0xbc3accab	-0.011401336
110	0x3c5a62e7	0.013329244
111	0xbd21f146	-0.039536737
112	0xbc985043	-0.01859296
113	0x3a40a2d7	0.0007348484
114	0xbcea6aa1	-0.028615298
115	0x3d0f8873	0.035042237
116	0x3b107d50	0.0022047348
117	0x3c774b21	0.015093596
118	0xbcc89d47	-0.024489058
119	0x3c3fb7bb	0.01170152
120	0x3b6abda3	0.0035818599
121	0xbcdd4f90	-0.027015477
122	0x3cd8512f	0.026405899
123	0x3c91333a	0.017724622
124	0xbce57a2c	-0.028012358
125	0x3cee9234	0.02912245
126	0xbc8abb0d	-0.016934896
127	0x3cfd666b	0.030932626
128	0xbcbe776b	-0.023250302
129	0xbc8eba3d	-0.01742279
130	0x3c869460	0.016428173
131	0x3d13b46f	0.036060747
132	0x3ceaebe1	0.028676929
133	0x3c95598f	0.018231181
134	0x3c7d1bb5	0.0154485
135	0x3cd8e3b8	0.026475772
136	0x3d2eb60a	0.042654075
137	0x3bf0042f	0.0073247175
138	0x3c0b6525	0.008508001
139	0x3cb960ac	0.022629105
140	0xbce0f603	-0.027461058
141	0xbd1af39f	-0.03782999
142	0xbd1b9706	-0.037985824
143	0xbc8c8cd8	-0.017157003
144	0xbcb4a367	-0.022050573
145	0xbca4b662	-0.020106498
146	0xbcf331aa	-0.029686768
147	0xbca0a29a	-0.019608784
148	0x3c04df3e	0.008109866
149	0x3c196f29	0.009364882
150	0xbb2576f4	-0.0025247904
151	0xbcc3e940	-0.023914933
152	0xbc4f57a0	-0.012655169
153	0x3cb93b61	0.022611322
154	0x3c12f506	0.008969551
155	0x3c9a9bee	0.018873181
156	0x3d2ed311	0.042681757
157	0xbca0f179	-0.019646393
158	0xbc68e65f	-0.014215081
159	0x3bc5f4dc	0.0060411524
160	0xbcb21dd3	-0.021742737
161	0xbcb5a9e9	-0.022175746
162	0xbb37fb30	-0.0028073303
163	0x3ce73fde	0.028228696
164	0xbcf01235	-0.029305557
165	0xbccdc050	-0.025116116
166	0xbccc9e2c	-0.024977766
167	0x3d013bce	0.031551175
168	0x3c8876a7	0.01665814
169	0xbb558621	-0.0032581168
170	0x3ba64657	0.005074303
171	0xbc818780	-0.015811682
172	0xbca68025	-0.020324776
173	0x3c8c1ffe	0.017105099
174	0xbb4d174f	-0.003129441
175	0xbc4f4858	-0.012651525
176	0x3d027337	0.03184816
177	0x3c3f3610	0.011670604
178	0x3b1ef615	0.0024255563
179	0xbb8aaf62	-0.004232333
180	0xbd0ae5cb	-0.033910554
181	0x3bbf6d2e	0.0058418727
182	0xbce185b6	-0.027529579
183	0xbcf033a3	-0.029321497
184	0xbc98ddb7	-0.01866041
185	0x3c118823	0.008882555
186	0xbcc90c7f	-0.024542091
187	0xbc577304	-0.01314998
188	0xba7b13c9	-0.00095778384
189	0x3c6a0b22	0.014284881
190	0xbd009f8f	-0.031402167
191	0xbcf68510	-0.030092746
192	0x3c36e67f	0.011163353
193	0x3c08b5da	0.008344138
194	0x3c5b3165	0.013378476
195	0xbcbb67f8	-0.022876725
196	0xbd1c414d	-0.038148213
197	0x3ca2c084	0.01986719
198	0x3c83bfda	0.016082693
199	0xbd0f4625	-0.034979004
200	0xbcd1d318	-0.025613353
201	0xbcdfc8c5	-0.027317414
202	0xbc3ecd56	-0.011645636
203	0xbc841875	-0.016124943
204	0xbd04abf4	-0.03239055
205	0xbcb2eb8e	-0.021840837
206	0x3c05cfd4	0.008167226
207	0xbc7b6e57	-0.015346131
208	0xbcb97f80	-0.022643805
209	0x3cd0f00c	0.025505088
210	0xba6a85f4	-0.0008946352
211	0x3cbfffd5	0.02343742
212	0xbd00b5ab	-0.031423252
213	0xbc14f58a	-0.009091744
214	0x3bb8c6bf	0.0056389268
215	0x3ca626e1	0.02028221
216	0xbc4c49c6	-0.012468761
217	0xbba0392b	-0.0048896275
218	0xbc13a1e4	-0.009010766
219	0x3d25da96	0.040491663
220	0xbc9dafe1	-0.019248905
221	0x3cf385f3	0.029726958
222	0xbce24e25	-0.027625153
223	0x3c9e1235	0.019295791
224	0x3ab8ed1a	0.0014108748
225	0x3c9fb885	0.019497165
226	0xbd06804b	-0.032837193
227	0xbb1be1cf	-0.0023785715
228	0x3c39ea8d	0.011347425
229	0xbc81fdcb	-0.015868088
230	0x3c97e9aa	0.018544037
231	0xbcb0d4bf	-0.02158582
232	0x3d358e2c	0.04432504
233	0xbbfea0e1	-0.007770643
234	0xbc28d441	-0.0103045115
235	0xb9bea410	-0.0003636186
236	0x3d00f78e	0.031486087
237	0xbb39a775	-0.0028328572
238	0xbc4436c3	-0.011975947
239	0x3bc7d013	0.0060978024
240	0x3c12729f	0.008938461
241	0xbc989f11	-0.018630536
242	0x3cc45ac8	0.02396907
243	0xbd0382ef	-0.03210729
244	0xbc663dee	-0.014052851
245	0xbce880a9	-0.028381662
246	0x3d051905	0.032494564
247	0xbc4d6f20	-0.012538701
248	0xbb9163dc	-0.004436953
249	0x3d02c868	0.031929404
250	0xbd1a360f	-0.03764921
251	0xbccfc105	-0.025360594
252	0x3caf4d10	0.021399051
253	0xbc93eaa6	-0.018056225
254	0x3ca2766a	0.019831855
255	0xbcc3d874	-0.023906924

discrete_action_output_shape f4 [1, 2]
0	0x40400000	3.0
1	0x40000000	2.0

network_body._body_endoder.seq_layers.0.bias f4 [128]
0	0xbc1e9313	-0.00967862
1	0x3c3de817	0.011590979
2	0xbbf2e4ff	-0.0074125524
3	0xb9658c98	-0.00021891517
4	0x382e3772	4.153647e-05
5	0xbc33e16f	-0.0109790405
6	0xbc1df42c	-0.009640735
7	0x3ae8043b	0.0017701456
8	0x3c283954	0.010267574
9	0x3b301b0a	0.0026871585
10	0xbc154e94	-0.009112973
11	0x397ec93e	0.00024298296
12	0x3b79f79b	0.003814197
13	0x3c23d325	0.009999071
14	0x3c00be29	0.007857838
15	0xbab8409e	-0.0014057343
16	0x3c2aa44f	0.010415151
17	0x3c586dd9	0.0132097835
18	0x3b3890aa	0.0028162398
19	0xbc5649ba	-0.013079101
20	0xbb97b3e4	-0.004629599
21	0x3bd28673	0.006424719
22	0x3c1851e3	0.009296867
23	0x3c0551ac	0.008137148
24	0xbb8186ea	-0.0039528506
25	0x3ac146a1	0.001474578
26	0x3c0d9fb4	0.008644033
27	0x3c119cb9	0.008887463
28	0xbc12eb95	-0.0089673
29	0x3c0a748e	0.00845064
30	0xbc54e2f2	-0.012993561
31	0x3c483343	0.012219253
32	0xbbba0358	-0.005676668
33	0x3c1eccc7	0.009692377
34	0x3c8ecbf1	0.017431231
35	0xbc247e41	-0.010039867
36	0x3bd5a92e	0.006520412
37	0x3c8ccad3	0.017186558
38	0x3b44afe2	0.003001206
39	0xbc19fab6	-0.009398153
40	0xbc0f38ae	-0.008741541
41	0x3bc9c955	0.006158034
42	0x3c0fc27b	0.008774395
43	0x3b0fde42	0.0021952544
44	0xbc3b487c	-0.011430856
45	0xbb01416f	-0.001972284
46	0xbc27e5fd	-0.010247705
47	0x3b15f42b	0.002288113
48	0x3c4a2ddf	0.012340038
49	0xbb597eab	-0.0033187072
50	0xbb90b2fd	-0.0044158683
51	0x3ad194b6	0.0015989754
52	0xbc1f9f50	-0.009742573
53	0xba49c454	-0.00076967967
54	0x3b8857a2	0.0041608373
55	0xbc3d832a	-0.0115669165
56	0xbbede10b	-0.007259493
57	0xbc0a89ad	-0.008455676
58	0xbc27c02d	-0.010238689
59	0x3c8d79e0	0.017270029
60	0x3b79ffd5	0.0038146873
61	0x3b13385b	0.002246401
62	0x3b3e0f21	0.0029000717
63	0xbbd38d40	-0.0064560473
64	0xbbb898a0	-0.0056334287
65	0x39943d22	0.00028274307
66	0x3b1d50c7	0.0024004446
67	0xbc479cd7	-0.01218339
68	0x3bcd9bac	0.006274661
69	0xbc3a1a7d	-0.011358854
70	0xbc2c39d9	-0.010511839
71	0xbc24a5fc	-0.010049339
72	0x3c09da39	0.008413845
73	0xbb2a5a67	-0.0025993825
74	0xbb064ca0	-0.002049245
75	0xbbed1a87	-0.0072358283
76	0xbb975222	-0.0046179453
77	0xbc8c3ffb	-0.017120352
78	0xbb3d0337	-0.0028841028
79	0xbadde213	-0.0016928337
80	0xbb8abf23	-0.004234211
81	0xbc5c7fb6	-0.013458183
82	0x3b857771	0.0040730764
83	0xbb56fd4e	-0.003280479
84	0x3bfb6988	0.0076724924
85	0xbbcc8219	-0.006241095
86	0xbc6cc463	-0.014451119
87	0xbc01a480	-0.007912755
88	0xbb0b90cc	-0.0021296022
89	0xbc26491e	-0.010149268
90	0xba964ce0	-0.0011467002
91	0x3b206e54	0.0024479823
92	0x3b2055e6	0.0024465262
93	0x3bd034aa	0.0063539343
94	0x39fd3558	0.00048295665
95	0x3c2f294e	0.010691
96	0x3c291b1d	0.010321406
97	0x3c3def85	0.01159275
98	0xbbd9de20	-0.006648794
99	0x3c261d32	0.010138797
100	0xbbb5ccbb	-0.0055480874
101	0xbbd69e0c	-0.0065496024
102	0x3c4ab820	0.012373
103	0x3b93cf76	0.0045108153
104	0xbc11da9b	-0.008902217
105	0xbbcb8071	-0.00621038
106	0xbc2096a5	-0.009801541
107	0xbc570df2	-0.013125883
108	0x3c27c6d2	0.010240274
109	0x3c75c03a	0.014999444
110	0x3bcc6443	0.006237538
111	0x3c1bcc4a	0.0095091555
112	0xb90d3269	-0.00013465587
113	0x3c1d866c	0.009614568
114	0xbb3e4531	-0.002903294
115	0xbc08c949	-0.008348771
116	0x3c7c65c0	0.015405118
117	0x3c4fd9b1	0.012686179
118	0x3c2af8dc	0.010435309
119	0x3a83bc49	0.001005062
120	0xbc0994e3	-0.008397314
121	0x3c2d5ee3	0.010581705
122	0x3c137894	0.009000916
123	0x3c05dc8f	0.008170261
124	0x3c39bd19	0.011336588
125	0xbc3eed8d	-0.011653316
126	0x3c6bc8ea	0.014391163
127	0xbc535dc2	-0.012900772

network_body._body_endoder.seq_layers.0.weight f4 [128, 320]
0	0x3bb6a126	0.0055734096
1	0xbc0a0b61	-0.0084255645
2	0x3d28bbe7	0.041194823
3	0xbceb37f3	-0.028713202
4	0x3dcce6d3	0.10004964
5	0xbdd962f1	-0.10614575
6	0xbbc9127d	-0.006136237
7	0xbdc6e2b0	-0.09711206
8	0xbd4d3b50	-0.050105393
9	0x3d757922	0.059929974
10	0x3cb7a002	0.022415165
11	0xbbe34a4f	-0.0069363485
12	0x3d54d5ca	0.051961698
13	0x3cde3282	0.027123693
14	0xbcc29a5b	-0.023755243
15	0x3cf35acc	0.029706381
16	0xbcc4e546	-0.024035107
17	0x3da137a3	0.0787194
18	0xbb8ed3e1	-0.004358754
19	0xbd0b637f	-0.034030434
20	0xbd874e6a	-0.06606753
21	0xbd897fd8	-0.067138374
22	0xbd3e7f74	-0.046508268
23	0xbc7ce143	-0.015434566
24	0x3dee01b5	0.11621419
25	0xbc2ea1dd	-0.010658708
26	0x3d7a7f2a	0.06115643
27	0xbe197d3d	-0.14989181
28	0xbb216e80	-0.0024632514
29	0xbd813a3d	-0.06309936
30	0xbcd6e5ba	-0.026232589
31	0xb99b7a0f	-0.00029654845
32	0xbdc5e041	-0.09661914
33	0xbc2ec4d8	-0.010667048
34	0xbcfd9ec7	-0.0309595
35	0xbcd9f412	-0.02660564
36	0xbd5a4c1c	-0.05329524
37	0xbc6a16f3	-0.014287698
38	0x3c9c2beb	0.01906391
39	0xbc61915d	-0.013767567
40	0x3db0fede	0.08642362
41	0xbbe9c9ed	-0.007134667
42	0xbd3d2c7d	-0.046185005
43	0x3da5f2dc	0.081029624
44	0x3d78d465	0.06074943
45	0xbdc48668	-0.095959485
46	0xbdb5ad66	-0.08870964
47	0xbd6b5a27	-0.057459023
48	0x3cbe5963	0.023235982
49	0xbceb414e	-0.028717663
50	0x3d87199b	0.06596681
51	0x3c0d5563	0.008626315
52	0xbd0fb207	-0.03508189
53	0xbbe47a3e	-0.00697258
54	0xba3e2f7d	-0.0007255001
55	0x3d03cd5a	0.03217826
56	0xbd808e35	-0.06277124
57	0x3da3ce4f	0.079983346
58	0x3c7ed24e	0.01555307
59	0x39816584	0.00024680432
60	0x3d6cbd62	0.057797797
61	0x3d151985	0.03640129
62	0xbd074234	-0.03302212
63	0xbb269052	-0.0025415611
64	0xbcc8905d	-0.0244829
65	0x3d3bddc5	0.045865793
66	0xbdb27f57	-0.087156944
67	0x3d1b1c4a	0.037868775
68	0x3cd5f320	0.026116908
69	0x3cc4d3fb	0.024026861
70	0xbcf5a127	-0.02998407
71	0xbd6a6b10	-0.05723101
72	0xbdcab8bc	-0.098985165
73	0x3d91e2eb	0.07123359
74	0xbd256749	-0.040381704
75	0xbd2fed95	-0.042951185
76	0xbc9ebf3a	-0.019378293
77	0xbbea560f	-0.0071513723
78	0xbc9d6960	-0.019215286
79	0x3c228a08	0.0099206045
80	0xbd2d098c	-0.042245433
81	0xbe2fe50d	-0.1717722
82	0xbb2e5eed	-0.0026606873
83	0x3d302708	0.043005973
84	0xbde276cf	-0.11057817
85	0xbbef8b8b	-0.007310336
86	0x3d123b22	0.035700925
87	0x3cdf83c6	0.027284514
88	0x3cbf8a24	0.0233813
89	0x3da862eb	0.08221992
90	0x3cebd2a4	0.028786965
91	0x3cc562a7	0.024094893
92	0xbd1b6753	-0.037940335
93	0x3d7f9e60	0.062406898
94	0xbc01d6be	-0.007924734
95	0xbd54853f	-0.051884886
96	0xbd25b5c6	-0.040456556
97	0x3cd6e063	0.026230043
98	0xbd0c4623	-0.034246575
99	0x3c596684	0.013269071
100	0x3d2d22dd	0.042269576
101	0x3d988afb	0.074483834
102	0x3d1d540f	0.038410243
103	0xbd291e54	-0.04128869
104	0x3d1f58b8	0.03890297
105	0x3c08a745	0.008340661
106	0xbd50c068	-0.050964743
107	0xbcca22b3	-0.024674749
108	0xbd7cbcde	-0.061703555
109	0x3d4a2f0d	0.049361277
110	0xbd90b660	-0.07066035
111	0x3d8155f4	0.063152224
112	0xbdcc52c2	-0.09976722
113	0x3d1e7f51	0.038695637
114	0x3cd344eb	0.025789699
115	0xbd378874	-0.044807866
116	0xbce131e3	-0.027489608
117	0x3db0e8f0	0.08638179
118	0xbc08815f	-0.008331626
119	0xbd969959	-0.073534675
120	0x3d5b2b0e	0.053507857
121	0x3c6402be	0.013916669
122	0xbd087371	-0.03331322
123	0xbd9a1b67	-0.07524758
124	0xbd515c95	-0.051113684
125	0x3dba6bb0	0.09102571
126	0xbd6e6cda	-0.058209278
127	0x3db626fb	0.08894154
128	0x3d9dfb31	0.077139266
129	0x3d0a301b	0.033737283
130	0x3c155864	0.009115312
131	0x3c176cdd	0.009242264
132	0xbddaa4bb	-0.10675951
133	0x3cdde115	0.027084867
134	0x3cdfd6a3	0.027324026
135	0xbd2a0382	-0.04150725
136	0xbd018450	-0.031620324
137	0xbd7ba1c3	-0.061433565
138	0x3e106f4b	0.14104955
139	0x3df5632c	0.11981806
140	0x3d277a96	0.04088839
141	0xbd936ced	-0.0719851
142	0xbd0c5699	-0.034262273
143	0x3b2011ea	0.002442474
144	0x3bc81b5a	0.006106776
145	0x3d71ecb7	0.05906364
146	0xbd3456f5	-0.04402824
147	0xbc57f742	-0.013181509
148	0xbcca751a	-0.024714042
149	0xbdaeb906	-0.08531384
150	0x3e40a5fe	0.18813321
151	0xbdd3a50b	-0.10334214
152	0xbc81a8ff	-0.015827654
153	0xbd8ac342	-0.06775524
154	0xbd0c5b57	-0.034266796
155	0x3d005ccc	0.031338498
156	0xbd7bbe8c	-0.061461017
157	0xbda485bf	-0.080333225
158	0x3d8c0444	0.06836751
159	0x3d40eef6	0.04710289
160	0xbdde90fb	-0.108674966
161	0xbdb21118	-0.086946666
162	0x3ca10246	0.019654404
163	0xbd4207c4	-0.047370687
164	0xbd44bb45	-0.048030157
165	0x3c5b5ce9	0.013388851
166	0x3d942aa9	0.07234699
167	0xbddc3287	-0.10751825
168	0x3d785fbe	0.060638182
169	0xbbda1bf4	-0.0066561643
170	0xbd0059a0	-0.031335473
171	0x3d0fba6a	0.035089888
172	0xbb575edd	-0.003286294
173	0xbccea803	-0.025226599
174	0x3c451ed4	0.012031276
175	0x3c2cb959	0.010542237
176	0xbc37c862	-0.011217209
177	0x3cc8db6a	0.024518687
178	0xbc9ca58c	-0.019121908
179	0xbd168465	-0.036747355
180	0x3d49c722	0.049262173
181	0x3d3623eb	0.044467848
182	0xbd4b624e	-0.049654298
183	0xbd906882	-0.07051183
184	0xb9a84e70	-0.00032101898
185	0x3d575135	0.05256768
186	0x3da0cb3b	0.07851263
187	0x3c1385d4	0.009004075
188	0xbd94e5ab	-0.07270368
189	0x3d5a7a6e	0.053339414
190	0xbd59f322	-0.053210385
191	0xbb5741ea	-0.0032845684
192	0x3cc215df	0.02369207
193	0x3c8b9d68	0.01704283
194	0xbdd5fad1	-0.1044823
195	0xbce67dda	-0.028136183
196	0x3c3cc291	0.011520998
197	0xbd5e89e3	-0.054330718
198	0x3a8ebd25	0.001089011
199	0x3ce96ba4	0.02849371
200	0x3e0d7b3f	0.13816546
201	0xbd3bbad6	-0.045832478
202	0x3d17d43c	0.037067637
203	0xbd287059	-0.041122768
204	0x3d7882a4	0.060671464
205	0x3c8aa6ca	0.016925234
206	0xbd7d2aae	-0.06180828
207	0x3c513ca2	0.012770804
208	0x3dc04fdd	0.09390233
209	0xbdbc4e94	-0.09194675
210	0xbcfd64b7	-0.030931814
211	0xbd2c2544	-0.042027727
212	0xbcfd4699	-0.030917453
213	0xbdb862b3	-0.090032004
214	0xbd448cf8	-0.047986
215	0xbd9953bd	-0.07486675
216	0x3d891dad	0.06695113
217	0xbce48c8c	-0.02789905
218	0xbd1dab2e	-0.038493328
219	0xbac5cb19	-0.0015090435
220	0xbd0d5e3a	-0.03451369
221	0xbd780036	-0.060547076
222	0xbd835dd4	-0.06414381
223	0xbd5f8c0e	-0.054576926
224	0xbd649bbf	-0.055812594
225	0xbc74991d	-0.014929083
226	0x3d0fc694	0.03510149
227	0xbd867e40	-0.06567049
228	0xbd99b483	-0.07505133
229	0xbd1b31a5	-0.03788914
230	0xbda8a6d5	-0.08234946
231	0x3b1fff57	0.002441367
232	0xbd5626e7	-0.052283194
233	0xbcd24a99	-0.025670337
234	0xbd974986	-0.0738707
235	0x3d05df9c	0.032683954
236	0xbda02d3b	-0.07821127
237	0xbd26ad23	-0.04069246
238	0x3dd8d6c4	0.10587838
239	0xbd5be818	-0.05368814
240	0x3b3256d4	0.0027212398
241	0x3c3076e6	0.010770535
242	0xbd46bd6a	-0.048520483
243	0x3cf620f7	0.030045016
244	0xbd981c19	-0.07427234
245	0xbcd505ec	-0.0260038
246	0x3b4f35e6	0.003161782
247	0x3c0ffbc3	0.008788052
248	0xbcaf3d29	-0.021391468
249	0x3d5184e4	0.051152125
250	0x3d77b0ef	0.06047147
251	0xbe00b498	-0.12568891
252	0xbda7ef9f	-0.08200001
253	0xbd19278d	-0.037391234
254	0x3d2e66c0	0.04257846
255	0x3dbedcbf	0.09319448

network_body._body_endoder.seq_layers.2.bias f4 [128]
0	0x3be19b87	0.0068849954
1	0x3b258718	0.0025257524
2	0xbc2f54ae	-0.010701342
3	0xbb561f8e	-0.0032672617
4	0xbbe5e34e	-0.007015622
5	0xbc47636f	-0.012169703
6	0xbc19ebce	-0.009394599
7	0xbbdebdbf	-0.006797522
8	0xbbc814f5	-0.006106014
9	0xbc4a557d	-0.012349484
10	0xb8821b4c	-6.2039675e-05
11	0xbc3d13aa	-0.011540333
12	0x3c3ab7be	0.011396347
13	0x3c2b421f	0.010452776
14	0x3c32a950	0.010904625
15	0x3c14645b	0.00905713
16	0x3c34cf5d	0.011035767
17	0x3c100cda	0.008792127
18	0x3c00b358	0.007855259
19	0x3c788b4d	0.015169931
20	0xbafbfcfb	-0.0019225174
21	0xbb8fe1da	-0.0043909373
22	0xbb30569d	-0.0026907094
23	0x3c079409	0.00827504
24	0x3b86a7dc	0.004109366
25	0xbb99787b	-0.004683552
26	0xbaf145da	-0.0018407658
27	0xbc276fdb	-0.0102195395
28	0xbc2c3839	-0.010511451
29	0x3c6c306f	0.014415844
30	0x3c3e1284	0.011601094
31	0xbbe6f09a	-0.007047725
32	0x3acc4d63	0.0015587028
33	0x3b9aecc0	0.00472793
34	0x388358b8	6.263092e-05
35	0xbc458e70	-0.0120578855
36	0x3bc54ad6	0.006020884
37	0x3c0890e2	0.008335324
38	0x3bdc1697	0.00671656
39	0xbc3393ec	-0.01096056
40	0xbbfd7db5	-0.0077359327
41	0x3b657c2e	0.0035016644
42	0xba1ceec3	-0.0005986506
43	0x3c0a1960	0.008428901
44	0x3bd64db5	0.006540025
45	0xbc73b34b	-0.01487429
46	0x3bf196b7	0.007372703
47	0x3c10a7c7	0.008829064
48	0xbbe37fb1	-0.0069427122
49	0xbc3482a9	-0.01101748
50	0x3bfdf901	0.007750631
51	0x3ba1b444	0.0049348194
52	0x3c15bdcb	0.009139488
53	0xbc54b6d1	-0.01298304
54	0x3c4f1c24	0.012640987
55	0x3c538997	0.012911222
56	0x398fa99a	0.00027401448
57	0x3a242758	0.0006261966
58	0x3c3b502d	0.01143269
59	0x3b38a348	0.0028173495
60	0xbc1b3a37	-0.009474329
61	0xbb0551ce	-0.002034295
62	0x3c755761	0.014974446
63	0x3c86f438	0.016473874
64	0xbbca0e93	-0.006166288
65	0xbb6feb49	-0.0036608747
66	0xbc2075bc	-0.009793695
67	0x3c63098d	0.013857258
68	0x3bb603a5	0.0055546337
69	0xbbaeb3a1	-0.005331472
70	0x3b76ed7a	0.0037678168
71	0x3c268f99	0.010166072
72	0x3c32ebb4	0.010920454
73	0x3c6fcd42	0.01463634
74	0x3b2a8fd7	0.0026025677
75	0x3c5c4b28	0.013445653
76	0x3c5e5d58	0.01357206
77	0x3c27bea4	0.010238323
78	0x3bd0632a	0.0063594775
79	0x3b153404	0.00227666
80	0x3c5defc7	0.013545937
81	0xbc2a1914	-0.010381956
82	0x3c0995af	0.008397504
83	0xbc430052	-0.011901932
84	0x3c365e6f	0.011130913
85	0x3bfbcc00	0.007684231
86	0xbc0bae0d	-0.008525384
87	0xbc28a71d	-0.010293749
88	0x3a4e5060	0.0007870253
89	0x3b08ed55	0.0020893414
90	0x3cbc54c7	0.022989644
91	0xbc1d78d2	-0.009611325
92	0x3c3105fd	0.01080465
93	0xbc10c121	-0.008835108
94	0x3c271d40	0.010199845
95	0x384e9cca	4.926025e-05
96	0xbc494079	-0.012283438
97	0x38c5eeb8	9.438157e-05
98	0x3c202053	0.009773332
99	0xbb1ce1f2	-0.0023938385
100	0xbbe0a30b	-0.0068553737
101	0x3c69e752	0.0142763425
102	0xbc117694	-0.008878369
103	0x3c324fdb	0.010883297
104	0xbc44a118	-0.012001298
105	0xbb44d248	-0.0030032564
106	0x3be7d89b	0.007075382
107	0xbc580ed5	-0.01318713
108	0xbc35d6f4	-0.011098612
109	0x3b54a0e6	0.0032444536
110	0x3c0bdfbf	0.008537232
111	0xba5a4dc6	-0.0008327629
112	0xbb42ee40	-0.002974406
113	0x3b9c0180	0.004760921
114	0xbb3788f7	-0.0028005221
115	0x3c5a36fa	0.0133187715
116	0x3b857add	0.0040734843
117	0x3c468fbf	0.012119233
118	0xbc3c723a	-0.011501843
119	0x39b1b200	0.0003389269
120	0xba265b47	-0.0006345999
121	0xbc3ff65a	-0.01171645
122	0x3c2ed62f	0.010671183
123	0x3c8a98b0	0.01691851
124	0xbbe3242f	-0.0069318037
125	0x3b4825fb	0.0030540216
126	0xbc2682d2	-0.010163026
127	0x3c456d0e	0.012049926

network_body._body_endoder.seq_layers.2.weight f4 [128, 128]
0	0xbe68c556	-0.22731528
1	0x3c32221b	0.010872389
2	0x3c4fb7dc	0.012678113
3	0x3d039550	0.032124817
4	0xbc5439b7	-0.012953213
5	0xbdd812d8	-0.10550469
6	0x3e15ddb5	0.14635356
7	0xbe2ca492	-0.16859654
8	0x3e9dd62d	0.30827466
9	0x3bf0fcee	0.0073543703
10	0x3dc55af2	0.09636487
11	0x3d95caf5	0.073141016
12	0x3d9f6935	0.077837385
13	0x3a17a7d5	0.0005785202
14	0x3d9f1cef	0.077691905
15	0xbdb737e4	-0.08946207
16	0x3d895d50	0.06707251
17	0xbde3385f	-0.11094736
18	0xbcc2ea74	-0.023793437
19	0xbd089f43	-0.03335501
20	0x3d1985d1	0.037481133
21	0x3d000681	0.031256203
22	0x3dbe1f85	0.092833556
23	0x3da161eb	0.078800045
24	0x3d67872a	0.056525387
25	0xbd149d3e	-0.03628277
26	0x3e2ea880	0.17056465
27	0x3d17b814	0.037040785
28	0xbe7ac9b7	-0.2449101
29	0xbcbc233b	-0.022966018
30	0xbdd4d03f	-0.10391282
31	0x3e2dd46a	0.16975561
32	0x3bb37a69	0.005477239
33	0xbe61bbdf	-0.22044323
34	0x3d63d4ad	0.055622745
35	0xbe4b1eb6	-0.19835934
36	0x3d843043	0.06454518
37	0xbd79acc0	-0.060955763
38	0xbda60408	-0.08106238
39	0x3dae1f7d	0.085021
40	0x3e059aed	0.13047381
41	0xbd2988a8	-0.04139009
42	0x3d58de9e	0.05294668
43	0x3dc6eb29	0.09712822
44	0x3ca1b5d6	0.019740026
45	0xbde7775e	-0.11302064
46	0x3c24a2f2	0.010048615
47	0xbe54a331	-0.20765378
48	0xbda83602	-0.08213426
49	0xbc88bde0	-0.016692102
50	0x3d996153	0.07489266
51	0xbb88c37f	-0.0041736956
52	0xbd1a6f53	-0.037703823
53	0x3ce6e12c	0.028183542
54	0xbdf96343	-0.12177136
55	0xbe0d25dd	-0.13783975
56	0xbdaf994f	-0.08574163
57	0x3c7c2e4d	0.015391898
58	0x3d9adb44	0.07561353
59	0x3e0d57e8	0.13803065
60	0xbdce1c11	-0.10063947
61	0xbde10e7d	-0.109890915
62	0xbe97a5cb	-0.29618677
63	0x3cc35c3c	0.023847692
64	0x3da7331f	0.081640474
65	0xbcf013b6	-0.029306274
66	0xbde2b6c0	-0.11070013
67	0xbe07cb74	-0.13261205
68	0xbd780d4c	-0.060559556
69	0xbdb97827	-0.0905612
70	0x3c567e0e	0.013091577
71	0x3dcaf88a	0.09910686
72	0xbda7e51c	-0.08197996
73	0x3dcba8b0	0.09944284
74	0x3e06ef6e	0.13177273
75	0xbe3eaf05	-0.18621452
76	0xbd5a5dca	-0.0533121
77	0xbdb8e902	-0.09028818
78	0xbcb322bc	-0.021867149
79	0x3e0823ff	0.13294981
80	0xbcd6e852	-0.026233826
81	0x3d8cc600	0.06873703
82	0xbebf5e58	-0.37376666
83	0xbdd95c36	-0.10613291
84	0xbdaf9275	-0.08572856
85	0xbd163954	-0.036675766
86	0x3e28d6e4	0.16488224
87	0xbd3252a4	-0.043535843
88	0x3cdee29a	0.027207661
89	0xbdb1d149	-0.08682496
90	0xbdbe3588	-0.09287554
91	0x3d2a6d12	0.041607924
92	0x3e3b7e69	0.1830994
93	0xbce91c9f	-0.02845603
94	0xbc31ee31	-0.010860012
95	0xbdeb5773	-0.11491289
96	0xbe29d892	-0.16586521
97	0xbdd5622b	-0.10419115
98	0xbd28f2dd	-0.041247237
99	0xbe23de75	-0.1600283
100	0xbd24f338	-0.040271014
101	0x3d5ae27b	0.053438645
102	0x3da4d2ab	0.08047994
103	0x3da45163	0.08023336
104	0x3db06d89	0.08614642
105	0xbda1ffec	-0.07910141
106	0xbbcd7041	-0.006269485
107	0xbd9451ae	-0.07242142
108	0xbd540cb0	-0.051769912
109	0x3cf335a9	0.029688673
110	0x3c8aca7a	0.016942251
111	0xbc34cf6e	-0.011035783
112	0x39c2847a	0.00037101266
113	0xbe4646a3	-0.19362883
114	0xbda06ee8	-0.07833654
115	0xbe746f99	-0.23870696
116	0x3c92e92a	0.017933447
117	0x3cf7bcc6	0.030241381
118	0x3cf58843	0.029972201
119	0x3dd893d0	0.10575068
120	0xbbb12f42	-0.005407245
121	0xbd30e483	-0.043186676
122	0xbdca1254	-0.09866777
123	0x3e12d5e5	0.14339407
124	0x3d0886ba	0.03333161
125	0xbd8bdc1e	-0.068290934
126	0x3b21bf1e	0.0024680565
127	0xbe382552	-0.17982987
128	0xbe0d7e04	-0.13817602
129	0x3dea02eb	0.11426338
130	0x3ab420f2	0.0013742729
131	0x3db3c37d	0.08777521
132	0xbde6508f	-0.11245834
133	0x3dd3b89b	0.10337945
134	0x3ad2e297	0.0016089258
135	0xbd2778f9	-0.040886853
136	0xbda75cd0	-0.081719995
137	0xbd690f28	-0.05689922
138	0x3d220554	0.039555863
139	0xbe115ea4	-0.14196259
140	0xbd788acd	-0.060679246
141	0xbd6aa1c5	-0.05728318
142	0x3da83e91	0.082150586
143	0x3d760d3e	0.060071222
144	0xbd79d9b6	-0.06099864
145	0x3d20c44d	0.039249707
146	0x3cd6eb37	0.026235206
147	0xbd25805d	-0.04040562
148	0x3dc69650	0.096966386
149	0x3cdd914f	0.027046828
150	0x3dc4c19c	0.096072406
151	0x3d75367b	0.05986641
152	0x3b61818c	0.0034409491
153	0x3bc7478c	0.006081527
154	0xbdcfbb47	-0.10143142
155	0x3e0039b8	0.12522018
156	0xbd97d4dd	-0.07413647
157	0x3d0c1783	0.03420211
158	0xbdbadca5	-0.09124116
159	0x3d9303a1	0.071784265
160	0xbe0bd10a	-0.13653961
161	0xbdefe20f	-0.11713039
162	0x3d21ec55	0.039532024
163	0x3d8b1320	0.06790757
164	0xbb13dab3	-0.0022560775
165	0xbd4ff44b	-0.050770085
166	0x3debb2fa	0.115087464
167	0xbd0e9a0f	-0.03481489
168	0xbd10593d	-0.035241354
169	0x3d82623d	0.06366394
170	0xbd9d326b	-0.07675632
171	0xbd7b9570	-0.06142181
172	0xbdd5484f	-0.104141824
173	0x3c6987a0	0.014253527
174	0xbd342ccf	-0.043988045
175	0xbe01d787	-0.12679873
176	0x3cc49ebe	0.024001475
177	0x3dad24fa	0.08454318
178	0xbd2fb1ac	-0.04289405
179	0x3d14e3b8	0.036349982
180	0xbda2574e	-0.07926808
181	0xbddb21d1	-0.10699809
182	0x3cff65d8	0.031176493
183	0x3d503333	0.050830077
184	0x3e21e6ed	0.15810747
185	0xbc8bb705	-0.017055044
186	0xbd5a560f	-0.053304728
187	0x3d600334	0.054690555
188	0x3ca4ca59	0.020116018
189	0x3c395ed2	0.011314111
190	0xbd0cf051	-0.03440887
191	0xbda2160b	-0.079143606
192	0xb9148882	-0.00014165233
193	0x3d814c45	0.063133754
194	0xbd918f31	-0.0710739
195	0xbe6690d6	-0.22516188
196	0x3e1f1d6b	0.15538566
197	0xbd6b3f28	-0.057433277
198	0x3d89fd30	0.06737745
199	0xbddec1ff	-0.108768456
200	0x3d6ad8b1	0.05733556
201	0x3ccfe06c	0.025375567
202	0xbd9a7806	-0.07542424
203	0xbcfc00dd	-0.03076213
204	0xbd090151	-0.03344852
205	0x3d99c408	0.07508093
206	0xbd790c5b	-0.0608028
207	0xbdc4892a	-0.095964745
208	0xbd7ea14c	-0.062165543
209	0xbbb5097f	-0.0055248137
210	0x3d1c7c0a	0.03820423
211	0xbe0b4ea9	-0.13604225
212	0x3d9fa4f2	0.07795133
213	0xbe0a4081	-0.13501169
214	0x3d282440	0.041050196
215	0xbdd1fabe	-0.102529034
216	0xbd81bb6e	-0.063345775
217	0x3d9fff25	0.07812337
218	0x3d03ec22	0.032207616
219	0xbdfbe6dc	-0.12299892
220	0x3cb37f18	0.021911189
221	0x3d6ab050	0.05729705
222	0xbda8de88	-0.082455695
223	0xbd9b2162	-0.07574727
224	0xbd49ad10	-0.04923731
225	0xbd882436	-0.06647532
226	0x3d0791cb	0.033098023
227	0x3dfa68a5	0.122269906
228	0xbd3ebc56	-0.04656633
229	0x3dde36ab	0.10850271
230	0xbc9bc9a2	-0.019017044
231	0x3d2114c1	0.039326433
232	0xbb9a5942	-0.0047103474
233	0x3d92edaa	0.07174237
234	0xbcf396ea	-0.029735047
235	0xbd05d6d1	-0.032675568
236	0x3be83d2a	0.0070873694
237	0xbd5fc1cd	-0.054628182
238	0xbc921e34	-0.017836668
239	0x3bce4e30	0.006295942
240	0xbccdd550	-0.02512613
241	0x3db113d4	0.0864636
242	0xbbc6510b	-0.0060521415
243	0x3c8b1e12	0.016982112
244	0xbcde5215	-0.02713875
245	0xbe0b6499	-0.13612594
246	0x3e0f65bc	0.14003652
247	0x3db2ea39	0.08736081
248	0xbdcba62f	-0.099438064
249	0x3bcb429c	0.006203009
250	0x3d388e4b	0.045057576
251	0xbe272a0f	-0.16324638
252	0x3e10f09b	0.14154284
253	0xbd5ccb19	-0.053904627
254	0xbc4b1b05	-0.012396579
255	0x3dbe0ff3	0.09280386

network_body.observation_encoder.processors.0.normalizer.running_mean f4 [36]
0	0x00000000	0.0
1	0x00000000	0.0
2	0x00000000	0.0
3	0x00000000	0.0
4	0x00000000	0.0
5	0x00000000	0.0
6	0x00000000	0.0
7	0x00000000	0.0
8	0x00000000	0.0
9	0x00000000	0.0
10	0x00000000	0.0
11	0x00000000	0.0
12	0x00000000	0.0
13	0x00000000	0.0
14	0x00000000	0.0
15	0x00000000	0.0
16	0x00000000	0.0
17	0x00000000	0.0
18	0x00000000	0.0
19	0x00000000	0.0
20	0x00000000	0.0
21	0x00000000	0.0
22	0x00000000	0.0
23	0x00000000	0.0
24	0x00000000	0.0
25	0x00000000	0.0
26	0x00000000	0.0
27	0x00000000	0.0
28	0x00000000	0.0
29	0x00000000	0.0
30	0x00000000	0.0
31	0x00000000	0.0
32	0x00000000	0.0
33	0x00000000	0.0
34	0x00000000	0.0
35	0x00000000	0.0

network_body.observation_encoder.processors.1.normalizer.running_mean f4 [284]
0	0x411b7e30	9.7183075
1	0x43cabf66	405.4953
2	0x00000000	0.0
3	0x3f140999	0.57827145
4	0x415f87ad	13.970624
5	0x00000000	0.0
6	0x00000000	0.0
7	0x00000000	0.0
8	0x43cfd0cb	415.6312
9	0x40e9e195	7.308787
10	0x00000000	0.0
11	0x4385e03d	267.75186
12	0x411ff1c9	9.99653
13	0x00000000	0.0
14	0x43a7e5f3	335.79648
15	0x40ffe940	7.997223
16	0x00000000	0.0
17	0x4335a56d	181.6462
18	0x4104b170	8.29332
19	0x00000000	0.0
20	0x43bd1d0c	378.22693
21	0x40dc6205	6.8869653
22	0x00000000	0.0
23	0x44068abf	538.1679
24	0x418ceda1	17.61603
25	0x00000000	0.0
26	0x43f8b42f	497.40768
27	0x41650fd1	14.316361
28	0x00000000	0.0
29	0x4388854a	273.04132
30	0x411ff1c9	9.99653
31	0x00000000	0.0
32	0xc202e743	-32.72584
33	0x41073fe0	8.4530945
34	0x00000000	0.0
35	0x43a3c943	327.57236
36	0x40ffe940	7.997223
37	0x00000000	0.0
38	0x43daefad	437.87247
39	0x4192eb77	18.364973
40	0x00000000	0.0
41	0x44100190	576.0244
42	0x4160f435	14.059621
43	0x00000000	0.0
44	0x42cb8d3d	101.775856
45	0x4120ced3	10.050494
46	0x00000000	0.0
47	0x441d08fc	628.1404
48	0x41dd9c89	27.701433
49	0x00000000	0.0
50	0x4408f7de	547.8729
51	0x4120bd43	10.046206
52	0x00000000	0.0
53	0x441f23db	636.56024
54	0x41de6c49	27.802874
55	0x00000000	0.0
56	0x441e0cb0	632.19824
57	0x41df3c0c	27.90432
58	0x00000000	0.0
59	0x435ab4fb	218.70695
60	0x4109461e	8.579618
61	0x00000000	0.0
62	0x44134154	589.02075
63	0x41b9b8cc	23.215233
64	0x00000000	0.0
65	0x431a7d89	154.49037
66	0x41bbbfeb	23.46871
67	0x00000000	0.0
68	0x43c3d143	391.63486
69	0x40deebf3	6.9663024
70	0x00000000	0.0
71	0x43e7f542	463.91608
72	0x40f710f7	7.720821
73	0x00000000	0.0
74	0x43a6940b	333.1566
75	0x40ffe940	7.997223
76	0x00000000	0.0
77	0x4420348c	640.82104
78	0x41df3c0c	27.90432
79	0x00000000	0.0
80	0x43faef9b	501.87192
81	0x419323ae	18.392422
82	0x00000000	0.0
83	0x43c0291c	384.32117
84	0x4155d884	13.36536
85	0x00000000	0.0
86	0x435ab4fb	218.70695
87	0x3fe9918e	1.8247545
88	0x00000000	0.0
89	0x439ea8a2	317.31744
90	0x40ffe940	7.997223
91	0x00000000	0.0
92	0x440e05c6	568.0902
93	0x412b509f	10.707183
94	0x00000000	0.0
95	0x441beb50	623.67676
96	0x41dd9c89	27.701433
97	0x00000000	0.0
98	0x43d60cf9	428.10135
99	0x40ef9beb	7.487783
100	0x00000000	0.0
101	0x4414dab2	595.4171
102	0x41dc9962	27.574894
103	0x00000000	0.0
104	0x4350b8b4	208.7215
105	0x3fd081ce	1.6289613
106	0x00000000	0.0
107	0x43f608f2	492.0699
108	0x411da239	9.852105
109	0x00000000	0.0
110	0x43e31726	454.18085
111	0x40f5414b	7.6642203
112	0x00000000	0.0
113	0x4411e428	583.56494
114	0x41925e66	18.296093
115	0x00000000	0.0
116	0x438b2a56	278.33075
117	0x411ff1c9	9.99653
118	0x00000000	0.0
119	0x43c4e375	393.777
120	0x40deebf3	6.9663024
121	0x00000000	0.0
122	0x42dd1f89	110.56159
123	0x411bb23b	9.731013
124	0x00000000	0.0
125	0x4329fc32	169.98514
126	0x41567af7	13.405021
127	0x00000000	0.0
128	0x4407c784	543.11743
129	0x415bbec0	13.73407
130	0x00000000	0.0
131	0x44048d70	530.20996
132	0x41b231f1	22.274385
133	0x00000000	0.0
134	0x439fe08b	319.75424
135	0x40ffe940	7.997223
136	0x00000000	0.0
137	0x43d9c4f7	435.5388
138	0x41930a4a	18.380024
139	0x00000000	0.0
140	0x43de5608	444.67212
141	0x40f1a1f6	7.5510206
142	0x00000000	0.0
143	0x4401dc05	519.4378
144	0x41b16b2e	22.177334
145	0x00000000	0.0
146	0x43bf1a31	382.20462
147	0x4142cff8	12.175774
148	0x00000000	0.0
149	0x43fe9347	509.1506
150	0x41b0a46b	22.080282
151	0x00000000	0.0
152	0x43bbec65	375.84683
153	0x40d9d816	6.8076277
154	0x00000000	0.0
155	0x438e33b0	284.4038
156	0x411ff1c9	9.99653
157	0x00000000	0.0
158	0x4350b8b4	208.7215
159	0x4109461e	8.579618
160	0x00000000	0.0
161	0x4390d8ba	289.69318
162	0x411ff1c9	9.99653
163	0x00000000	0.0
164	0x43d2fa57	421.95578
165	0x40e9e195	7.308787
166	0x00000000	0.0
167	0x43a29e57	325.23703
168	0x40ffe940	7.997223
169	0x00000000	0.0
170	0x43c1464d	386.54922
171	0x4142cff8	12.175774
172	0x00000000	0.0
173	0x4408b9c7	546.9028
174	0x40e134b1	7.037682
175	0x00000000	0.0
176	0x43feac1f	509.3447
177	0x418db465	17.713083
178	0x00000000	0.0
179	0x441c1a6a	624.4127
180	0x41c40848	24.504044
181	0x00000000	0.0
182	0x43e33421	454.40726
183	0x40281dee	2.6268268
184	0x00000000	0.0
185	0x43a7cbf8	335.5935
186	0x402cbd73	2.699063
187	0x00000000	0.0
188	0x43f9a036	499.25165
189	0x41335f6e	11.210798
190	0x00000000	0.0
191	0x43fc2628	504.2981
192	0x41730973	15.189807
193	0x00000000	0.0
194	0x43a3d640	327.67383
195	0x402cbd73	2.699063
196	0x00000000	0.0
197	0x43f726ac	494.30212
198	0x40ea85d3	7.328836
199	0x00000000	0.0
200	0x4401eea9	519.72906
201	0x418c26e1	17.518984
202	0x00000000	0.0
203	0x4350b8b5	208.72151
204	0xbfa76a78	-1.3079367
205	0x00000000	0.0
206	0x441a917d	618.27325
207	0x41c40848	24.504044
208	0x00000000	0.0
209	0x435ace0a	218.80484
210	0xbfa76a78	-1.3079367
211	0x00000000	0.0
212	0x440499e5	530.4046
213	0x418e7b23	17.810125
214	0x00000000	0.0
215	0x43de4ec9	444.6155
216	0x402bbd43	2.6834266
217	0x00000000	0.0
218	0x44060857	536.1303
219	0x41762473	15.383899
220	0x00000000	0.0
221	0x441dd108	631.2661
222	0x41c37613	24.432653
223	0x00000000	0.0
224	0x440757be	541.371
225	0x41335f66	11.210791
226	0x00000000	0.0
227	0x4420c77b	643.1169
228	0x41c5ee68	24.74141
229	0x00000000	0.0
230	0x442254fa	649.32776
231	0x41c59c83	24.701422
232	0x00000000	0.0
233	0x435b002a	219.00064
234	0x40b4912b	5.6427207
235	0x00000000	0.0
236	0x43a6940b	333.1566
237	0x402cbd73	2.699063
238	0x00000000	0.0
239	0x439e9330	317.1499
240	0x402cbd73	2.699063
241	0x00000000	0.0
242	0x4350d1c4	208.8194
243	0x40bad51e	5.8385153
244	0x00000000	0.0
245	0x43a29e56	325.237
246	0x402cbd73	2.699063
247	0x00000000	0.0
248	0x439fd45b	319.65903
249	0x402cbd73	2.699063
250	0x00000000	0.0
251	0x43e8123d	464.1425
252	0x40281dee	2.6268268
253	0x00000000	0.0
254	0x441f50d1	637.26276
255	0x41c251a7	24.28987
