Assets/Training/results/run_2/PlayerAgentBehavior.onnx (onnx, 219971 bytes, 10 tensors)

81 f4 [284]
0	0x3f800000	1.0
1	0x3f800000	1.0
2	0x3f800000	1.0
3	0x3f800000	1.0
4	0x3f800000	1.0
5	0x3f800000	1.0
6	0x3f800000	1.0
7	0x3f800000	1.0
8	0x3f800000	1.0
9	0x3f800000	1.0
10	0x3f800000	1.0
11	0x3f800000	1.0
12	0x3f800000	1.0
13	0x3f800000	1.0
14	0x3f800000	1.0
15	0x3f800000	1.0
16	0x3f800000	1.0
17	0x3f800000	1.0
18	0x3f800000	1.0
19	0x3f800000	1.0
20	0x3f800000	1.0
21	0x3f800000	1.0
22	0x3f800000	1.0
23	0x3f800000	1.0
24	0x3f800000	1.0
25	0x3f800000	1.0
26	0x3f800000	1.0
27	0x3f800000	1.0
28	0x3f800000	1.0
29	0x3f800000	1.0
30	0x3f800000	1.0
31	0x3f800000	1.0
32	0x3f800000	1.0
33	0x3f800000	1.0
34	0x3f800000	1.0
35	0x3f800000	1.0
36	0x3f800000	1.0
37	0x3f800000	1.0
38	0x3f800000	1.0
39	0x3f800000	1.0
40	0x3f800000	1.0
41	0x3f800000	1.0
42	0x3f800000	1.0
43	0x3f800000	1.0
44	0x3f800000	1.0
45	0x3f800000	1.0
46	0x3f800000	1.0
47	0x3f800000	1.0
48	0x3f800000	1.0
49	0x3f800000	1.0
50	0x3f800000	1.0
51	0x3f800000	1.0
52	0x3f800000	1.0
53	0x3f800000	1.0
54	0x3f800000	1.0
55	0x3f800000	1.0
56	0x3f800000	1.0
57	0x3f800000	1.0
58	0x3f800000	1.0
59	0x3f800000	1.0
60	0x3f800000	1.0
61	0x3f800000	1.0
62	0x3f800000	1.0
63	0x3f800000	1.0
64	0x3f800000	1.0
65	0x3f800000	1.0
66	0x3f800000	1.0
67	0x3f800000	1.0
68	0x3f800000	1.0
69	0x3f800000	1.0
70	0x3f800000	1.0
71	0x3f800000	1.0
72	0x3f800000	1.0
73	0x3f800000	1.0
74	0x3f800000	1.0
75	0x3f800000	1.0
76	0x3f800000	1.0
77	0x3f800000	1.0
78	0x3f800000	1.0
79	0x3f800000	1.0
80	0x3f800000	1.0
81	0x3f800000	1.0
82	0x3f800000	1.0
83	0x3f800000	1.0
84	0x3f800000	1.0
85	0x3f800000	1.0
86	0x3f800000	1.0
87	0x3f800000	1.0
88	0x3f800000	1.0
89	0x3f800000	1.0
90	0x3f800000	1.0
91	0x3f800000	1.0
92	0x3f800000	1.0
93	0x3f800000	1.0
94	0x3f800000	1.0
95	0x3f800000	1.0
96	0x3f800000	1.0
97	0x3f800000	1.0
98	0x3f800000	1.0
99	0x3f800000	1.0
100	0x3f800000	1.0
101	0x3f800000	1.0
102	0x3f800000	1.0
103	0x3f800000	1.0
104	0x3f800000	1.0
105	0x3f800000	1.0
106	0x3f800000	1.0
107	0x3f800000	1.0
108	0x3f800000	1.0
109	0x3f800000	1.0
110	0x3f800000	1.0
111	0x3f800000	1.0
112	0x3f800000	1.0
113	0x3f800000	1.0
114	0x3f800000	1.0
115	0x3f800000	1.0
116	0x3f800000	1.0
117	0x3f800000	1.0
118	0x3f800000	1.0
119	0x3f800000	1.0
120	0x3f800000	1.0
121	0x3f800000	1.0
122	0x3f800000	1.0
123	0x3f800000	1.0
124	0x3f800000	1.0
125	0x3f800000	1.0
126	0x3f800000	1.0
127	0x3f800000	1.0
128	0x3f800000	1.0
129	0x3f800000	1.0
130	0x3f800000	1.0
131	0x3f800000	1.0
132	0x3f800000	1.0
133	0x3f800000	1.0
134	0x3f800000	1.0
135	0x3f800000	1.0
136	0x3f800000	1.0
137	0x3f800000	1.0
138	0x3f800000	1.0
139	0x3f800000	1.0
140	0x3f800000	1.0
141	0x3f800000	1.0
142	0x3f800000	1.0
143	0x3f800000	1.0
144	0x3f800000	1.0
145	0x3f800000	1.0
146	0x3f800000	1.0
147	0x3f800000	1.0
148	0x3f800000	1.0
149	0x3f800000	1.0
150	0x3f800000	1.0
151	0x3f800000	1.0
152	0x3f800000	1.0
153	0x3f800000	1.0
154	0x3f800000	1.0
155	0x3f800000	1.0
156	0x3f800000	1.0
157	0x3f800000	1.0
158	0x3f800000	1.0
159	0x3f800000	1.0
160	0x3f800000	1.0
161	0x3f800000	1.0
162	0x3f800000	1.0
163	0x3f800000	1.0
164	0x3f800000	1.0
165	0x3f800000	1.0
166	0x3f800000	1.0
167	0x3f800000	1.0
168	0x3f800000	1.0
169	0x3f800000	1.0
170	0x3f800000	1.0
171	0x3f800000	1.0
172	0x3f800000	1.0
173	0x3f800000	1.0
174	0x3f800000	1.0
175	0x3f800000	1.0
176	0x3f800000	1.0
177	0x3f800000	1.0
178	0x3f800000	1.0
179	0x3f800000	1.0
180	0x3f800000	1.0
181	0x3f800000	1.0
182	0x3f800000	1.0
183	0x3f800000	1.0
184	0x3f800000	1.0
185	0x3f800000	1.0
186	0x3f800000	1.0
187	0x3f800000	1.0
188	0x3f800000	1.0
189	0x3f800000	1.0
190	0x3f800000	1.0
191	0x3f800000	1.0
192	0x3f800000	1.0
193	0x3f800000	1.0
194	0x3f800000	1.0
195	0x3f800000	1.0
196	0x3f800000	1.0
197	0x3f800000	1.0
198	0x3f800000	1.0
199	0x3f800000	1.0
200	0x3f800000	1.0
201	0x3f800000	1.0
202	0x3f800000	1.0
203	0x3f800000	1.0
204	0x3f800000	1.0
205	0x3f800000	1.0
206	0x3f800000	1.0
207	0x3f800000	1.0
208	0x3f800000	1.0
209	0x3f800000	1.0
210	0x3f800000	1.0
211	0x3f800000	1.0
212	0x3f800000	1.0
213	0x3f800000	1.0
214	0x3f800000	1.0
215	0x3f800000	1.0
216	0x3f800000	1.0
217	0x3f800000	1.0
218	0x3f800000	1.0
219	0x3f800000	1.0
220	0x3f800000	1.0
221	0x3f800000	1.0
222	0x3f800000	1.0
223	0x3f800000	1.0
224	0x3f800000	1.0
225	0x3f800000	1.0
226	0x3f800000	1.0
227	0x3f800000	1.0
228	0x3f800000	1.0
229	0x3f800000	1.0
230	0x3f800000	1.0
231	0x3f800000	1.0
232	0x3f800000	1.0
233	0x3f800000	1.0
234	0x3f800000	1.0
235	0x3f800000	1.0
236	0x3f800000	1.0
237	0x3f800000	1.0
238	0x3f800000	1.0
239	0x3f800000	1.0
240	0x3f800000	1.0
241	0x3f800000	1.0
242	0x3f800000	1.0
243	0x3f800000	1.0
244	0x3f800000	1.0
245	0x3f800000	1.0
246	0x3f800000	1.0
247	0x3f800000	1.0
248	0x3f800000	1.0
249	0x3f800000	1.0
250	0x3f800000	1.0
251	0x3f800000	1.0
252	0x3f800000	1.0
253	0x3f800000	1.0
254	0x3f800000	1.0
255	0x3f800000	1.0

action_model._discrete_distribution.branches.0.weight f4 [1, 128]
0	0xbc33a2eb	-0.010964136
1	0x3893be4c	7.044952e-05
2	0xbb57a323	-0.0032903634
3	0xbb23e850	-0.0025010295
4	0xbbaf0fb2	-0.005342447
5	0xbb1447cb	-0.00226258
6	0x3b0f67a7	0.002188185
7	0x3bc79ffe	0.0060920706
8	0xbb75010f	-0.0037384664
9	0x3b16d6d3	0.0023016229
10	0x3c324fdb	0.010883297
11	0x3c4ea9d3	0.012613731
12	0xbc3f8a85	-0.0116907405
13	0xb9029b3d	-0.00012455597
14	0x3ae412b5	0.0017400595
15	0x3b0b4cce	0.0021255496
16	0x3c0c69ad	0.008570117
17	0xbbb5102f	-0.005525611
18	0x3ad5584a	0.0016276923
19	0x3c9d9057	0.019233866
20	0x3b872b6f	0.0041250507
21	0xbc19fb6f	-0.009398325
22	0x3c6fa01b	0.014625574
23	0x3c86e52e	0.016466703
24	0x3b428586	0.0029681637
25	0xbc7a39e2	-0.015272589
26	0x3be4dabb	0.0069840825
27	0xbc227b24	-0.009917054
28	0xbb4dd9cd	-0.0031410337
29	0xbc7a12b3	-0.015263247
30	0x3b0ab221	0.0021163302
31	0xbbf83d47	-0.007575664
32	0x38379783	4.3771706e-05
33	0xbba30377	-0.0049747783
34	0x3ca1ba17	0.019742055
35	0xbc6b624f	-0.0143667
36	0xbcca685f	-0.024707971
37	0xbcae0267	-0.02124138
38	0xbc4031a8	-0.011730589
39	0x3a8b959a	0.0010649443
40	0x3b27751b	0.0025551978
41	0xbc107044	-0.008815829
42	0xb8fc0aed	-0.000120183315
43	0xbbb94c5c	-0.0056548547
44	0x3b968496	0.004593442
45	0xbb94c27b	-0.0045397854
46	0xbc6a9d0d	-0.01431967
47	0xbc8b9b44	-0.01704181
48	0x3b9f9a93	0.0048707216
49	0xbbcf7b2d	-0.0063318224
50	0xbbcf6ecf	-0.006330348
51	0x3a7798b2	0.00094450556
52	0x3cb96363	0.0226304
53	0xbb36cd27	-0.0027893276
54	0x3c3e447b	0.011613007
55	0x3b9f380e	0.004858977
56	0xbc300eb7	-0.010745696
57	0x3bbb7e37	0.005721833
58	0x3b96cfc7	0.0046024057
59	0x3c656a75	0.014002432
60	0x3c179d74	0.009253848
61	0xbb7448b8	-0.003727479
62	0xbba154ff	-0.0049234624
63	0xbc50eb65	-0.012751435
64	0x3baef932	0.005339765
65	0x3c11766a	0.00887833
66	0xbb923ab0	-0.0044625625
67	0x3b6d7238	0.003623141
68	0xbaa87d16	-0.0012854661
69	0xbbc9bb44	-0.006156357
70	0xbb65c2ab	-0.0035058658
71	0x3bc15ab7	0.0059007066
72	0x3bdafea3	0.006683187
73	0x3c47b633	0.012189436
74	0xba2c611e	-0.0006575751
75	0xbb5aa068	-0.003335977
76	0xbc09523f	-0.008381425
77	0xbbcd1238	-0.0062582754
78	0x3b8dc673	0.0043266355
79	0x3c21ada7	0.009868062
80	0x3bc7b640	0.006094724
81	0xb9872e8e	-0.00025783892
82	0xbb3e754d	-0.0029061616
83	0xbb933387	-0.0044922265
84	0xbb99446d	-0.0046773464
85	0xbac80419	-0.001526001
86	0xbbdbb8f8	-0.0067053996
87	0xbbb8f330	-0.0056442246
88	0x3c0b7ff0	0.008514389
89	0xba40d64c	-0.00073561515
90	0xbba04223	-0.0048906966
91	0xbbff2c40	-0.0077872574
92	0xbc4858ca	-0.0122282
93	0xbc46fe71	-0.0121456245
94	0x3c4d6ab5	0.012537648
95	0xbc62bf15	-0.013839503
96	0xbc459831	-0.012060211
97	0x39e5a36b	0.0004380004
98	0x3b7942bb	0.003803416
99	0xbc6e423d	-0.01454216
100	0xbbc5aa19	-0.00603224
101	0xb9b4107f	-0.00034344566
102	0x3c1d1790	0.009588137
103	0x3bcea87a	0.006306705
104	0x3c1eae60	0.009685129
105	0xbb296247	-0.0025845931
106	0x3a7eae05	0.0009715262
107	0x3c55da8d	0.013052595
108	0x3c0d4827	0.0086231595
109	0xbb3278d7	-0.002723267
110	0x3b9c3d60	0.0047680587
111	0xbace0498	-0.0015717922
112	0xbc51429f	-0.012772231
113	0xbc91510a	-0.017738838
114	0xbc714a0f	-0.01472713
115	0xb9f7bc7b	-0.0004725194
116	0x3c419579	0.011815422
117	0x3ce2aaca	0.02766933
118	0xbc6061c7	-0.013695187
119	0x3a3f2458	0.00072914874
120	0x3b0d03e4	0.0021517212
121	0xbbbe78d5	-0.005812744
122	0x3c94585a	0.018108536
123	0x3a85817c	0.0010185684
124	0xbc25dcbb	-0.010123427
125	0x3a643213	0.00087049714
126	0xb9fae8d2	-0.0004785718
127	0xbb3bb588	-0.0028642137

action_model._discrete_distribution.branches.1.weight f4 [1, 128]
0	0xbc7c8e70	-0.015414819
1	0xbc78093a	-0.0151389185
2	0x3b853ae0	0.0040658563
3	0x3b92385c	0.004462285
4	0xbb51baab	-0.0032002132
5	0xbbb7156f	-0.005587272
6	0x3bb15c2b	0.0054125986
7	0x3bf7b743	0.0075596883
8	0x3c331cd9	0.010932171
9	0xba4e0eb5	-0.0007860468
10	0xbbc10de5	-0.005891549
11	0xbbadedb8	-0.0053078793
12	0x3c2807bc	0.01025575
13	0x3bf9fc25	0.007628935
14	0x3c5c8017	0.013458273
15	0xbc24809a	-0.010040427
16	0x3c46fba9	0.012144961
17	0xba33021a	-0.0006828621
18	0x3b848feb	0.0040454767
19	0xba3111b1	-0.00067546504
20	0x3bf3f4a5	0.0074449354
21	0x3c018a11	0.007906453
22	0x3c39f5ce	0.011350108
23	0xbb9431e3	-0.0045225485
24	0x3b1e7b0c	0.0024182228
25	0x3c0c9662	0.008580776
26	0x3c4d8990	0.0125450045
27	0xbb39ff6c	-0.0028381003
28	0xbafa65b7	-0.00191038
29	0x3c9d9b13	0.019238984
30	0xbc28aa7e	-0.010294555
31	0x3b928093	0.0044708936
32	0x3be453b0	0.006967984
33	0xbb1742d5	-0.0023080606
34	0xba3f751f	-0.0007303524
35	0xbabac933	-0.0014250636
36	0x3c2cfcf0	0.010558352
37	0xbc84566b	-0.016154489
38	0xbc3187c1	-0.010835589
39	0x3bc67e91	0.0060575684
40	0xbb30003d	-0.002685561
41	0x3cce6de3	0.025198882
42	0xbc86239b	-0.0163744
43	0xbb4f9abd	-0.0031677925
44	0xbc66788b	-0.014066826
45	0x3b94b804	0.004538538
46	0xbb8dfd5b	-0.004333181
47	0xbc65baf8	-0.014021628
48	0xbc5cbe25	-0.013473068
49	0xbc0775ed	-0.008267862
50	0xbc0397b3	-0.008031773
51	0x3c059822	0.008153947
52	0xbc488a74	-0.012240041
53	0xbc5ec06a	-0.01359568
54	0x3c3df9d3	0.011595207
55	0x3c31d830	0.010854766
56	0x3b209a49	0.0024506024
57	0x3a275547	0.0006383252
58	0x3b8adb09	0.004237537
59	0xbb332f8b	-0.002734157
60	0xbc49b01e	-0.012310056
61	0x3be909ba	0.007111755
62	0xbb1650bf	-0.0022936312
63	0x3c860bb7	0.016363008
64	0xbafa11fa	-0.0019078844
65	0x39f4b180	0.00046671554
66	0xbc1e4861	-0.009660811
67	0x3c818ed7	0.015815182
68	0x3b242d4b	0.002505141
69	0x3b1a3aa2	0.0023533483
70	0x3b53e402	0.0032331948
71	0xbc44fc34	-0.012023021
72	0x3a46ae1c	0.0007579045
73	0x3bf436b5	0.0074528106
74	0xbb9c3cac	-0.004767975
75	0xbc3e3aea	-0.011610726
76	0xbc881b0d	-0.016614461
77	0x3bd5bd47	0.0065228078
78	0xba151c47	-0.00056881126
79	0xbbee8558	-0.0072790794
80	0x3b940a97	0.004517864
81	0x3bdae68d	0.006680316
82	0x39de4b80	0.00042399392
83	0xbab910d8	-0.00141194
84	0x3c503e42	0.012710156
85	0xbbcd4ee7	-0.0062655094
86	0xbc171977	-0.00922238
87	0x3b005de0	0.0019587204
88	0xbc22cab7	-0.009936026
89	0x3bf285d2	0.0074012065
90	0xbb90da85	-0.004420581
91	0xbb96edc1	-0.004605979
92	0xba101172	-0.00054957636
93	0xbc3e4e1f	-0.011615305
94	0xbbd8b275	-0.0066130706
95	0x3c5638ff	0.013075112
96	0x3c6633ab	0.014050405
97	0x3c8860bd	0.01664769
98	0x3c71c085	0.014755373
99	0x39ab9b49	0.00032731358
100	0xbabcd9e3	-0.0014408197
101	0xbb3cd0d1	-0.0028810988
102	0x3a87dc27	0.0010365293
103	0x3ae513c5	0.0017477205
104	0xbc7fd5bd	-0.015614924
105	0x3a6d8aaf	0.0009061498
106	0x3bfe9fc7	0.007770512
107	0x3bb450c4	0.005502792
108	0x3c4070fb	0.011745687
109	0x3bf6cbfd	0.0075316415
110	0xba8dd673	-0.0010821357
111	0xbbd01493	-0.006350109
112	0x3be0226a	0.00684004
113	0xbb9ba561	-0.0047499393
114	0xbcb62093	-0.02223233
115	0x3bbc9d2b	0.0057560406
116	0x3a0bb58e	0.0005329483
117	0x3c45a47c	0.012063142
118	0x39afad38	0.0003350766
119	0x3bc17d12	0.005904802
120	0x3c524f72	0.012836324
121	0x3c0f742f	0.008755728
122	0x3a814b6d	0.0009864398
123	0x3c310729	0.01080493
124	0x3ca315a0	0.019907773
125	0x3bb547c1	0.0055322354
126	0x3c4819b3	0.012213158
127	0x3c6e4a38	0.014544062

action_model._discrete_distribution.branches.2.weight f4 [1, 128]
0	0xbbdd242f	-0.006748698
1	0xbbd36dbf	-0.0064522917
2	0xbb1d4711	-0.0023998658
3	0x3afc12b8	0.0019231653
4	0xbb87683a	-0.004132298
5	0xbaf4e6ea	-0.001868454
6	0xb90de650	-0.00013532606
7	0xbaa77e2e	-0.0012778693
8	0x3c686e87	0.014186508
9	0x3bdbd2b2	0.0067084664
10	0xbb5f5a82	-0.0034081046
11	0x3c03514a	0.008014986
12	0x3c370a6f	0.011171921
13	0x3b627400	0.0034554005
14	0x3a505d83	0.00079485046
15	0x3b9594ff	0.004564881
16	0xbc1ba4af	-0.009499713
17	0xbc8328df	-0.0160107
18	0xbbb2e70e	-0.005459673
19	0x3c674b0f	0.014117016
20	0xbc81c7c8	-0.015842333
21	0xbb9b0012	-0.004730233
22	0x3bc40e31	0.005983137
23	0x3bcc9d2e	0.006244323
24	0xbcab9147	-0.020943297
25	0x3b8f4fba	0.004373518
26	0xbba2a58d	-0.004963583
27	0x3c24a4eb	0.010049085
28	0x3c353e53	0.0110622225
29	0x3bbe5b93	0.0058092563
30	0xbb2be3e2	-0.0026228358
31	0xbc2645ba	-0.01014846
32	0xbc58a442	-0.013222756
33	0xbc95eacb	-0.018300435
34	0x38d2cd98	0.00010051875
35	0xbaf76818	-0.0018875627
36	0xbbaef67f	-0.005339443
37	0xbc877851	-0.016536864
38	0xbc5bf275	-0.0134245055
39	0x3ad7410f	0.0016422587
40	0xbbdfb78b	-0.0068273
41	0x3c45892f	0.012056633
42	0xbaafa56b	-0.0013400739
43	0xbc0c17a9	-0.008550563
44	0x3b1eae95	0.0024212946
45	0x3c18c6e7	0.009324766
46	0xbc0f26c7	-0.008737273
47	0x3c0bfe29	0.008544483
48	0xbb69ec07	-0.0035693662
49	0x3b0577f4	0.0020365687
50	0x3a7869e0	0.0009476226
51	0xbba9566e	-0.005167774
52	0xba898736	-0.0010492567
53	0xbc2518b6	-0.010076692
54	0x3aee77ca	0.0018193659
55	0xbbfb08db	-0.0076609678
56	0xbc77b777	-0.015119425
57	0xbc8449e9	-0.016148524
58	0xbba76114	-0.005108008
59	0x3c0d1ec8	0.008613296
60	0xbb273513	-0.0025513812
61	0xb9a99ce7	-0.00032351093
62	0xbc2ad4d8	-0.0104267225
63	0xbad77d1d	-0.0016440485
64	0xb80accf7	-3.3092652e-05
65	0xbbf7a698	-0.0075577013
66	0xbb640262	-0.003479146
67	0xb9f016f2	-0.00045793463
68	0x3b9bdd6d	0.0047566206
69	0xbb8ea0f4	-0.004352683
70	0xbac6d6e9	-0.0015170249
71	0x3c082323	0.0083091585
72	0x3b835579	0.004007992
73	0x3c44f365	0.01202092
74	0x3b9d95d3	0.00480912
75	0xbc920748	-0.017825738
76	0xbc7440e2	-0.014908047
77	0xbaa8b41f	-0.0012871063
78	0x3c19b46b	0.009381394
79	0xbc0d4ad9	-0.008623802
80	0x3aa4c13f	0.0012569799
81	0x3c7d2070	0.015449628
82	0x3c2d5c19	0.01058104
83	0x3b56c4e3	0.0032771162
84	0xb959211b	-0.00020707065
85	0x3c65d8e8	0.014028765
86	0xbbd75a70	-0.0065720603
87	0x3baa54c4	0.005198093
88	0xbb62b83a	-0.003459467
89	0x3abb19fb	0.001427471
90	0x3b703085	0.0036650014
91	0x3bf28237	0.0074007767
92	0x3bcf9de2	0.00633596
93	0xbc16b08e	-0.009197367
94	0x3a5a47fb	0.0008326766
95	0x3b17657e	0.0023101266
96	0x3c0399ab	0.008032243
97	0x3b229c1f	0.0024812294
98	0xbbbaa20a	-0.005695586
99	0x3b7a939d	0.0038234957
100	0xbc93c52e	-0.018038359
101	0x3c32ee83	0.010921123
102	0x3aa8b207	0.0012870439
103	0xbcab24c7	-0.02089156
104	0x3b863f4f	0.0040969024
105	0xbac16883	-0.0014755878
106	0x3bad4d2b	0.00528874
107	0xba8521af	-0.0010157133
108	0x3bf6550f	0.007517464
109	0xbb8f6dbe	-0.004377096
110	0x3c14eefa	0.00909018
111	0xbc2f7e7f	-0.010711311
112	0x3b1ecc39	0.0024230613
113	0xbc13de07	-0.009025103
114	0x3b54ee75	0.0032490764
115	0xbc098b9f	-0.008395105
116	0x3c6dde50	0.014518335
117	0x3ba065d2	0.0048949504
118	0x3bbc670c	0.005749589
119	0x3b5be11a	0.003355092
120	0xba5ce830	-0.00084269326
121	0x3c09c368	0.008408405
122	0x3b3f9077	0.0029230395
123	0xbb8dda5c	-0.004329009
124	0xbb028772	-0.0019917157
125	0xbc034337	-0.008011631
126	0x3a4297de	0.00074231427
127	0x3cd8151b	0.026377251

discrete_action_output_shape f4 [1, 3]
0	0x3f800000	1.0
1	0x3f800000	1.0
2	0x3f800000	1.0

network_body._body_endoder.seq_layers.0.bias f4 [128]
0	0x00000000	0.0
1	0x00000000	0.0
2	0x00000000	0.0
3	0x00000000	0.0
4	0x00000000	0.0
5	0x00000000	0.0
6	0x00000000	0.0
7	0x00000000	0.0
8	0x00000000	0.0
9	0x00000000	0.0
10	0x00000000	0.0
11	0x00000000	0.0
12	0x00000000	0.0
13	0x00000000	0.0
14	0x00000000	0.0
15	0x00000000	0.0
16	0x00000000	0.0
17	0x00000000	0.0
18	0x00000000	0.0
19	0x00000000	0.0
20	0x00000000	0.0
21	0x00000000	0.0
22	0x00000000	0.0
23	0x00000000	0.0
24	0x00000000	0.0
25	0x00000000	0.0
26	0x00000000	0.0
27	0x00000000	0.0
28	0x00000000	0.0
29	0x00000000	0.0
30	0x00000000	0.0
31	0x00000000	0.0
32	0x00000000	0.0
33	0x00000000	0.0
34	0x00000000	0.0
35	0x00000000	0.0
36	0x00000000	0.0
37	0x00000000	0.0
38	0x00000000	0.0
39	0x00000000	0.0
40	0x00000000	0.0
41	0x00000000	0.0
42	0x00000000	0.0
43	0x00000000	0.0
44	0x00000000	0.0
45	0x00000000	0.0
46	0x00000000	0.0
47	0x00000000	0.0
48	0x00000000	0.0
49	0x00000000	0.0
50	0x00000000	0.0
51	0x00000000	0.0
52	0x00000000	0.0
53	0x00000000	0.0
54	0x00000000	0.0
55	0x00000000	0.0
56	0x00000000	0.0
57	0x00000000	0.0
58	0x00000000	0.0
59	0x00000000	0.0
60	0x00000000	0.0
61	0x00000000	0.0
62	0x00000000	0.0
63	0x00000000	0.0
64	0x00000000	0.0
65	0x00000000	0.0
66	0x00000000	0.0
67	0x00000000	0.0
68	0x00000000	0.0
69	0x00000000	0.0
70	0x00000000	0.0
71	0x00000000	0.0
72	0x00000000	0.0
73	0x00000000	0.0
74	0x00000000	0.0
75	0x00000000	0.0
76	0x00000000	0.0
77	0x00000000	0.0
78	0x00000000	0.0
79	0x00000000	0.0
80	0x00000000	0.0
81	0x00000000	0.0
82	0x00000000	0.0
83	0x00000000	0.0
84	0x00000000	0.0
85	0x00000000	0.0
86	0x00000000	0.0
87	0x00000000	0.0
88	0x00000000	0.0
89	0x00000000	0.0
90	0x00000000	0.0
91	0x00000000	0.0
92	0x00000000	0.0
93	0x00000000	0.0
94	0x00000000	0.0
95	0x00000000	0.0
96	0x00000000	0.0
97	0x00000000	0.0
98	0x00000000	0.0
99	0x00000000	0.0
100	0x00000000	0.0
101	0x00000000	0.0
102	0x00000000	0.0
103	0x00000000	0.0
104	0x00000000	0.0
105	0x00000000	0.0
106	0x00000000	0.0
107	0x00000000	0.0
108	0x00000000	0.0
109	0x00000000	0.0
110	0x00000000	0.0
111	0x00000000	0.0
112	0x00000000	0.0
113	0x00000000	0.0
114	0x00000000	0.0
115	0x00000000	0.0
116	0x00000000	0.0
117	0x00000000	0.0
118	0x00000000	0.0
119	0x00000000	0.0
120	0x00000000	0.0
121	0x00000000	0.0
122	0x00000000	0.0
123	0x00000000	0.0
124	0x00000000	0.0
125	0x00000000	0.0
126	0x00000000	0.0
127	0x00000000	0.0

network_body._body_endoder.seq_layers.0.weight f4 [128, 284]
0	0x3d74f452	0.059803315
1	0xbd4bb1e0	-0.04973018
2	0xbd38fe2c	-0.045164272
3	0x3d74ef43	0.05979849
4	0x3c9edaf1	0.019391509
5	0x3cc7f487	0.024408592
6	0xbd921ed7	-0.071347885
7	0x3df57a21	0.11986185
8	0xbd776927	-0.060403015
9	0x3c81c0dd	0.015839035
10	0x3ca4e7ea	0.020130116
11	0x3da99a4c	0.08281383
12	0x3ca82222	0.020524088
13	0xbd8182eb	-0.06323799
14	0xbd85fee6	-0.06542759
15	0x3e1e9a8f	0.15488647
16	0x3dcbaad0	0.09944689
17	0x3d8c9dfc	0.06866071
18	0xbd15ab48	-0.0365403
19	0x3c85c0e2	0.016327325
20	0x3c743b4f	0.014906718
21	0x3874e482	5.8386948e-05
22	0x3c41af12	0.011821525
23	0x3d54dfe3	0.051971328
24	0xbd1151aa	-0.03547827
25	0xbb86f592	-0.0041186297
26	0xbc02d267	-0.007984734
27	0x3caf00ac	0.021362625
28	0xbd1f129e	-0.038836114
29	0xbdc157ac	-0.0944055
30	0xbabcc622	-0.001440231
31	0x3d2df876	0.04247328
32	0x3d0140fc	0.031556115
33	0x3cd1741c	0.02556806
34	0x3d070d29	0.032971535
35	0x3d0c7bca	0.034297742
36	0xbc86b51a	-0.016443778
37	0xbdd7ab9d	-0.105307795
38	0x3aaeef70	0.0013346504
39	0x3cf59342	0.029977445
40	0xbdc67f88	-0.096922934
41	0x3ca015d1	0.019541653
42	0x3d139307	0.036028888
43	0x3da2852d	0.079355575
44	0x3df378f5	0.11888305
45	0x3c8da675	0.017291287
46	0x3d657a97	0.056025114
47	0x3b53779a	0.0032267333
48	0xbd961915	-0.07329003
49	0x3b00e791	0.0019669274
50	0x3d9403c7	0.07227283
51	0x3d3dfc6a	0.0463833
52	0x3d21ce66	0.039503478
53	0xbcb5ed64	-0.022207923
54	0xbd8d73c0	-0.06906843
55	0x3d4bdc92	0.0497709
56	0x3c8c1f30	0.017104715
57	0xbd5747cd	-0.05255871
58	0xbd76552a	-0.060139813
59	0xbc876352	-0.016526852
60	0x3cc3afba	0.023887504
61	0xbd555c84	-0.052090183
62	0xbcc12ab2	-0.023579929
63	0x3cc543ef	0.024080245
64	0xbce1c0d4	-0.027557768
65	0x3dab48ac	0.083634704
66	0xbd4f2b38	-0.050578326
67	0x3ab9ac07	0.0014165648
68	0x3d90315b	0.07040664
69	0xb89ade99	-7.384754e-05
70	0x3b2fac1a	0.0026805461
71	0x3de00170	0.10937774
72	0xbc8df623	-0.017329281
73	0xbd8464f5	-0.064645685
74	0x3d843a89	0.06456477
75	0x3d6c29cb	0.057657044
76	0x3c9dc2c6	0.019257914
77	0x3d6d9e6a	0.058012404
78	0xbc27b41f	-0.010235815
79	0xbd8438e5	-0.06456164
80	0xbb3ef8ab	-0.0029139917
81	0x396a725e	0.00022358584
82	0x3c9c09c1	0.01904762
83	0x3d6f0e70	0.058363378
84	0xbdee7056	-0.1164252
85	0xbcb32f6e	-0.021873202
86	0xbcbb6179	-0.022873627
87	0x3d86aeb7	0.06576293
88	0xbc6f6a37	-0.014612726
89	0xbdaa4b3d	-0.08315132
90	0xbdde374d	-0.108503915
91	0xbd6caf93	-0.057784628
92	0x3c756f9b	0.014980222
93	0x3d4340e3	0.047669303
94	0xba935382	-0.0011240097
95	0x3e02073f	0.12698077
96	0xbc28f272	-0.01031171
97	0xbda48659	-0.08033437
98	0xbd66fe73	-0.056395005
99	0xbac93a8b	-0.001535253
100	0x3b1efd41	0.0024259838
101	0x3d29ebe2	0.04148472
102	0xbca924e6	-0.020647477
103	0x3a14506f	0.00056577375
104	0x3d7ce64f	0.061743077
105	0xba3dcfdf	-0.0007240753
106	0x3b9bc5de	0.004753812
107	0x3cc1521f	0.023598729
108	0xbd9c4fe3	-0.07632425
109	0xbd39a809	-0.045326266
110	0x3d4ead73	0.050458383
111	0xbdba75b4	-0.09104481
112	0x3dca59f0	0.098804355
113	0xbccea33d	-0.025224322
114	0x3d892415	0.06696335
115	0x3d56ba8e	0.052424006
116	0xbd0b1414	-0.033954695
117	0x3cde8821	0.02716452
118	0xbda57fff	-0.08081054
119	0xbcae16e6	-0.021251153
120	0xbc4d21d0	-0.012520269
121	0xbc5c1eda	-0.01343509
122	0xbddef971	-0.10887421
123	0x3bf78865	0.0075541013
124	0x3cccbe5a	0.02499311
125	0x3d104dfd	0.035230625
126	0xbc599e1d	-0.013282326
127	0xbd8c267a	-0.06843276
128	0xbc3329ce	-0.01093526
129	0xbcefa032	-0.029251192
130	0xbd3b9bdd	-0.04580294
131	0xbd0e8a79	-0.034800027
132	0xbd8d4b9d	-0.06899188
133	0x3a017265	0.00049380056
134	0xbdabd586	-0.08390336
135	0x3dcf8942	0.10133602
136	0xbd17ed72	-0.03709168
137	0xbd872818	-0.06599444
138	0x3d41f6c5	0.04735448
139	0x3cfcfc69	0.030882077
140	0xbd4260e5	-0.047455687
141	0x3d377c7a	0.044796444
142	0x3da2755f	0.07932543
143	0xbd5251ac	-0.05134742
144	0xbc813a0b	-0.015774747
145	0xbcd68614	-0.02618698
146	0x3b6c3268	0.0036040787
147	0xbba3543a	-0.004984406
148	0xba1f23cb	-0.0006070702
149	0xbd1db815	-0.038505632
150	0x3cfce481	0.030870678
151	0x3d07066d	0.032965112
152	0xbd8be31b	-0.06830426
153	0xbdfc96bc	-0.12333438
154	0x3d85907c	0.06521699
155	0x3d412934	0.047158435
156	0xbdce2942	-0.10066463
157	0x3e0e90d6	0.13922438
158	0xbdcd07fd	-0.10011289
159	0x3e3365fc	0.17519373
160	0xbd0cb20b	-0.034349483
161	0xba0303f6	-0.00049978436
162	0xbd47649b	-0.04867993
163	0xbd5067a9	-0.050880108
164	0xbca2f5d7	-0.019892616
165	0xbd95b6ad	-0.07310233
166	0xbd0777e6	-0.03307333
167	0xba4a3e15	-0.00077149394
168	0xbd19a9fa	-0.037515618
169	0x3a8bbfd9	0.0010662033
170	0xbdac89bf	-0.084247105
171	0xbd5cf992	-0.053948946
172	0x3db62d18	0.0889532
173	0x3d48d644	0.049032465
174	0x3cd51268	0.026009753
175	0xbb8c291c	-0.0042773616
176	0xbd0f22e2	-0.034945376
177	0xbc7fb855	-0.015607913
178	0xbbfceed3	-0.0077188998
179	0x3ddf6d80	0.10909557
180	0x3c96dd5b	0.018416097
181	0xbd6519d9	-0.055932853
182	0xbb9276a5	-0.00446971
183	0x3b17148c	0.0023053018
184	0xbcdf55b9	-0.027262555
185	0x3d427440	0.047474146
186	0xbd6efcc6	-0.058346532
187	0xbd200e1f	-0.039075967
188	0xbd53e9c7	-0.05173662
189	0xbc149cf5	-0.009070625
190	0xbcc38904	-0.023869045
191	0xbc262692	-0.010141032
192	0x3d5fea54	0.054666832
193	0xbcbc7566	-0.023005199
194	0x3c3d7f44	0.011565987
195	0x3df1097a	0.11769386
196	0x3dd0b0d3	0.101899765
197	0xbd117f7b	-0.035521965
198	0x3d7be668	0.06149903
199	0xbb468114	-0.003028934
200	0xbccb5212	-0.024819408
201	0x3ce8f200	0.028435707
202	0x3ac0b969	0.0014703694
203	0x3debcf49	0.11514146
204	0x3d6893ff	0.056781765
205	0xbd771b5a	-0.06032882
206	0xbcaa8bb7	-0.020818574
207	0xbc8f5448	-0.017496243
208	0x3cb14caa	0.021643002
209	0x3c0454dc	0.008076873
210	0x3d8240b8	0.0636
211	0xbd129b77	-0.035792794
212	0xbd4fa101	-0.050690655
213	0xbd94c51a	-0.07264157
214	0xbb6685c9	-0.0035174957
215	0x3cec4c81	0.028845074
216	0xbc8af2cc	-0.016961478
217	0x3d19aff0	0.037521303
218	0x3c833ee1	0.016021194
219	0xbda41311	-0.08011449
220	0xbcd41691	-0.025889667
221	0xbc686e9e	-0.014186529
222	0xbda93996	-0.08262937
223	0xbdb68dbd	-0.08913753
224	0x3d16c8f8	0.036812752
225	0xbde5523b	-0.11197325
226	0xbd362412	-0.044467993
227	0x3c35759a	0.011075402
228	0xbe01fd6e	-0.12694332
229	0x3d804332	0.062628165
230	0x3dbdd6d2	0.09269489
231	0xbc7f7447	-0.0155916875
232	0xbcd77a51	-0.026303442
233	0x3ddfac5c	0.10921547
234	0xbca0b349	-0.01961674
235	0xbbbf74da	-0.005842787
236	0x3cb5943d	0.022165412
237	0x3ba8a5eb	0.005146732
238	0xbb0eca34	-0.0021788003
239	0xbc54f6bd	-0.01299828
240	0xb8b8e5bc	-8.816595e-05
241	0xbd6d5c39	-0.05794928
242	0xbd511989	-0.051049743
243	0x3bd3f382	0.0064682374
244	0xbca3fadb	-0.020017078
245	0xbccc6cec	-0.024954282
246	0xbda4e362	-0.08051182
247	0x3c33db7a	0.01097762
248	0x3d6f1704	0.05837156
249	0xbd8f6280	-0.07001209
250	0xbc6503c6	-0.01397795
251	0xbdb3e350	-0.08783591
252	0xbd0ac979	-0.033883546
253	0x3d41fa09	0.047357593
254	0xbd330140	-0.043702364
255	0x3b1d4957	0.0024000013

network_body._body_endoder.seq_layers.2.bias f4 [128]
0	0x00000000	0.0
1	0x00000000	0.0
2	0x00000000	0.0
3	0x00000000	0.0
4	0x00000000	0.0
5	0x00000000	0.0
6	0x00000000	0.0
7	0x00000000	0.0
8	0x00000000	0.0
9	0x00000000	0.0
10	0x00000000	0.0
11	0x00000000	0.0
12	0x00000000	0.0
13	0x00000000	0.0
14	0x00000000	0.0
15	0x00000000	0.0
16	0x00000000	0.0
17	0x00000000	0.0
18	0x00000000	0.0
19	0x00000000	0.0
20	0x00000000	0.0
21	0x00000000	0.0
22	0x00000000	0.0
23	0x00000000	0.0
24	0x00000000	0.0
25	0x00000000	0.0
26	0x00000000	0.0
27	0x00000000	0.0
28	0x00000000	0.0
29	0x00000000	0.0
30	0x00000000	0.0
31	0x00000000	0.0
32	0x00000000	0.0
33	0x00000000	0.0
34	0x00000000	0.0
35	0x00000000	0.0
36	0x00000000	0.0
37	0x00000000	0.0
38	0x00000000	0.0
39	0x00000000	0.0
40	0x00000000	0.0
41	0x00000000	0.0
42	0x00000000	0.0
43	0x00000000	0.0
44	0x00000000	0.0
45	0x00000000	0.0
46	0x00000000	0.0
47	0x00000000	0.0
48	0x00000000	0.0
49	0x00000000	0.0
50	0x00000000	0.0
51	0x00000000	0.0
52	0x00000000	0.0
53	0x00000000	0.0
54	0x00000000	0.0
55	0x00000000	0.0
56	0x00000000	0.0
57	0x00000000	0.0
58	0x00000000	0.0
59	0x00000000	0.0
60	0x00000000	0.0
61	0x00000000	0.0
62	0x00000000	0.0
63	0x00000000	0.0
64	0x00000000	0.0
65	0x00000000	0.0
66	0x00000000	0.0
67	0x00000000	0.0
68	0x00000000	0.0
69	0x00000000	0.0
70	0x00000000	0.0
71	0x00000000	0.0
72	0x00000000	0.0
73	0x00000000	0.0
74	0x00000000	0.0
75	0x00000000	0.0
76	0x00000000	0.0
77	0x00000000	0.0
78	0x00000000	0.0
79	0x00000000	0.0
80	0x00000000	0.0
81	0x00000000	0.0
82	0x00000000	0.0
83	0x00000000	0.0
84	0x00000000	0.0
85	0x00000000	0.0
86	0x00000000	0.0
87	0x00000000	0.0
88	0x00000000	0.0
89	0x00000000	0.0
90	0x00000000	0.0
91	0x00000000	0.0
92	0x00000000	0.0
93	0x00000000	0.0
94	0x00000000	0.0
95	0x00000000	0.0
96	0x00000000	0.0
97	0x00000000	0.0
98	0x00000000	0.0
99	0x00000000	0.0
100	0x00000000	0.0
101	0x00000000	0.0
102	0x00000000	0.0
103	0x00000000	0.0
104	0x00000000	0.0
105	0x00000000	0.0
106	0x00000000	0.0
107	0x00000000	0.0
108	0x00000000	0.0
109	0x00000000	0.0
110	0x00000000	0.0
111	0x00000000	0.0
112	0x00000000	0.0
113	0x00000000	0.0
114	0x00000000	0.0
115	0x00000000	0.0
116	0x00000000	0.0
117	0x00000000	0.0
118	0x00000000	0.0
119	0x00000000	0.0
120	0x00000000	0.0
121	0x00000000	0.0
122	0x00000000	0.0
123	0x00000000	0.0
124	0x00000000	0.0
125	0x00000000	0.0
126	0x00000000	0.0
127	0x00000000	0.0

network_body._body_endoder.seq_layers.2.weight f4 [128, 128]
0	0x3dc93549	0.098246165
1	0xbd8f6786	-0.070021674
2	0x3a15eb6d	0.000571898
3	0xbd82fbce	-0.06395684
4	0xbd5a842c	-0.053348705
5	0xbda1e39b	-0.079047404
6	0xbc8980a3	-0.016784972
7	0xbd5664f4	-0.05234237
8	0xbd913805	-0.07090763
9	0xbe1eab4c	-0.15495032
10	0x3d8c20d7	0.06842201
11	0x3e04c602	0.12966159
12	0x3e02f0a2	0.12787107
13	0xbd2dbd57	-0.042416897
14	0xbe21eaa0	-0.15812159
15	0xbdbbb59a	-0.09165497
16	0xbd6ad199	-0.057328794
17	0xbda5f726	-0.081037804
18	0x3d221f90	0.03958088
19	0x3ca77ad8	0.020444319
20	0xbdf92add	-0.12166379
21	0xbbfa0d2c	-0.0076309647
22	0xbc8cff34	-0.017211534
23	0x3d14a1a8	0.03628698
24	0xbe27bf9e	-0.1638169
25	0xbdba9576	-0.09110539
26	0x3c6273b3	0.01382153
27	0xbdd8d9c7	-0.10588413
28	0xbdd5dd09	-0.1044255
29	0xbd6149f1	-0.055002157
30	0x3d17af7a	0.037032582
31	0xbe6cbfa8	-0.23119986
32	0x3c1895ee	0.00931309
33	0x3e255710	0.16146493
34	0x3d9778e9	0.07396109
35	0xbb72ad42	-0.003702954
36	0xbb532061	-0.0032215344
37	0x3a911e04	0.0011071567
38	0xbdc1d2a7	-0.09464007
39	0x3d1210c1	0.03566051
40	0xbb193b45	-0.0023381275
41	0x3d84ee15	0.06490723
42	0x3d1265f9	0.03574178
43	0x3d9b3dd6	0.07580154
44	0x3d366a99	0.044535253
45	0xbd53e9a8	-0.051736504
46	0x3ddd0c53	0.10793366
47	0x3c289e95	0.010291715
48	0xbe03a113	-0.12854414
49	0xbd53a944	-0.051675096
50	0xbd19ed68	-0.037579924
51	0xbbd90fe4	-0.0066242088
52	0xbcf590ed	-0.029976333
53	0x3d8db931	0.06920088
54	0xbdfb7a82	-0.12279226
55	0x3c71dc84	0.014762048
56	0x3e2c7e92	0.16845158
57	0x3cddb957	0.027065916
58	0xbe24e346	-0.16102323
59	0xbe0718e6	-0.13193092
60	0xbc8c9111	-0.017159017
61	0x3d0d671e	0.03452217
62	0xbd7c4ff9	-0.061599705
63	0x3df355ae	0.118815765
64	0xbdb9248e	-0.090401754
65	0xbdbafbe0	-0.091300726
66	0x3df1ee70	0.118130565
67	0xbda66e21	-0.08126474
68	0xbdb42393	-0.08795848
69	0xbd46e098	-0.048554033
70	0xbd04dc3e	-0.0324366
71	0xbe2c37d5	-0.16818173
72	0x3dd3e7ec	0.1034697
73	0xbdd3c3d4	-0.103400856
74	0x3c5938af	0.013258143
75	0x3e27c0be	0.16382119
76	0xbe5414b9	-0.2071103
77	0xbe350c60	-0.17680502
78	0xbd352448	-0.044224054
79	0x3de29233	0.110630415
80	0x3daa1b15	0.08305947
81	0xbaf9839f	-0.0019036419
82	0xbe0f734b	-0.14008825
83	0x3c00a08c	0.007850777
84	0x3deab8f5	0.11461059
85	0x3d98ddb5	0.07464162
86	0x3bfb48c6	0.0076685874
87	0xbdcd111d	-0.1001303
88	0xbbf50494	-0.0074773524
89	0x3e3f87c9	0.18704142
90	0x3c702343	0.014656845
91	0x3dc48b14	0.095968395
92	0xbde4f5b0	-0.11179674
93	0xbcec60ac	-0.02885469
94	0xbdb08ceb	-0.08620628
95	0xbd3569fa	-0.04429052
96	0xbdb7b1f7	-0.08969491
97	0x3d847ac2	0.06468727
98	0xbe351499	-0.17683639
99	0xbdfdc3f7	-0.12390893
100	0xbd2bbbf4	-0.041927293
101	0xbd172bc7	-0.036906984
102	0x3e3e04c4	0.18556505
103	0x3e63827c	0.22217745
104	0xbdcb1a67	-0.09917145
105	0x3d9cf2b4	0.076634794
106	0x3b476078	0.003042249
107	0x3e0fb83a	0.1403512
108	0x3d89e591	0.067332394
109	0x3cce0f19	0.025153683
110	0xbd6ed6ea	-0.058310427
111	0xbdc39e5a	-0.095516875
112	0x3bc28e27	0.005937356
113	0x3e1b4852	0.15164307
114	0x3d517bf3	0.051143598
115	0xbd49cb17	-0.049265947
116	0xbcece165	-0.02891607
117	0xbe3849e3	-0.17996936
118	0xbd7e2205	-0.062044162
119	0xbc12dfe4	-0.0089645125
120	0xbda4f018	-0.08053607
121	0x3d85bd5d	0.06530259
122	0x3dc3cd20	0.09560609
123	0xbcbea385	-0.023271332
124	0xbbd630a5	-0.0065365606
125	0x3d10d170	0.035355985
126	0xbd89cd1b	-0.06728574
127	0x3da2b489	0.079445906
128	0x3d74fed3	0.05981333
129	0xbd57803c	-0.05261253
130	0x3d960116	0.07324426
131	0x3c63eee7	0.013911939
132	0xbdf24b46	-0.118307635
133	0xbce5d169	-0.028053956
134	0x3d690236	0.056886874
135	0x3d77edab	0.060529392
136	0x3e096170	0.13416076
137	0xbe258610	-0.16164422
138	0x3db845a5	0.08997659
139	0xbdaeb00e	-0.085296735
140	0x3dd5bfae	0.104369506
141	0x3d2599c3	0.04042984
142	0x3c67c805	0.0141468095
143	0x3e0f4f32	0.13995054
144	0xbddc88c3	-0.10768273
145	0x3d919854	0.071091324
146	0xbc98278e	-0.018573549
147	0xbd10148f	-0.035175856
148	0x3bc76fd6	0.00608633
149	0xbe02232b	-0.12708728
150	0x3b5562c7	0.0032560097
151	0xbc9ead2a	-0.01936968
152	0x3d9b9533	0.07596817
153	0x3e2dcbf3	0.16972332
154	0xbcfd5cb2	-0.03092799
155	0x3dffc6af	0.12489068
156	0xbceff595	-0.029291907
157	0xbcdb1180	-0.026741743
158	0x3d8582a5	0.06519059
159	0x3da97c9e	0.08275722
160	0xb8dbfac4	-0.000104894425
161	0xbe05fd54	-0.13084918
162	0xbe0832d7	-0.13300644
163	0xbd86fb03	-0.065908454
164	0x3cf744ab	0.03018411
165	0xbe2c5520	-0.16829348
166	0x3e0407b3	0.12893562
167	0xbd569bf8	-0.052394837
168	0x3c2fbc1e	0.010726003
169	0xbe051057	-0.12994514
170	0x3e1089f5	0.14115126
171	0x3d0f7ea3	0.03503288
172	0x3d41aa7d	0.04728173
173	0x3d83654b	0.064158045
174	0x3e14f62e	0.14547035
175	0x3cda5bd0	0.026655108
176	0xbce50b00	-0.027959347
177	0x3df0efe7	0.11764508
178	0x3db5f09d	0.08883784
179	0xbcb6c016	-0.02230839
180	0x3bcf26b8	0.0063217543
181	0xbe2fa000	-0.17150879
182	0xbd6ab856	-0.057304703
183	0x3a1eb7fd	0.0006054638
184	0x3cd183c6	0.02557553
185	0xbd9d71f3	-0.0768775
186	0xbc8e1bf2	-0.01734731
187	0xbcaab552	-0.020838413
188	0xbd5edc0b	-0.054409068
189	0x3d3a1813	0.045433115
190	0xbd162ebc	-0.036665663
191	0xbd7a4fb3	-0.061111163
192	0x3e348cfc	0.17631906
193	0xbcb091d4	-0.021553911
194	0xbde84e27	-0.113430314
195	0xbb2e93e8	-0.0026638452
196	0x3c84af11	0.01619676
197	0xbd2e5497	-0.04256114
198	0xbda95e66	-0.08269958
199	0x3b54e469	0.0032484776
200	0x3dfa82af	0.12231957
201	0xbd56ae5c	-0.052412376
202	0xbe1cbc05	-0.15306099
203	0x3d31fbbc	0.043452963
204	0xbd90dd7d	-0.070734955
205	0x3d876691	0.0661136
206	0x3d9727de	0.07380651
207	0xbd9516eb	-0.07279762
208	0x3d788046	0.060669206
209	0x3d1fc0dc	0.039002284
210	0x3da4aeb7	0.08041137
211	0x3d55499a	0.052072145
212	0x3d1a9b9e	0.037746064
213	0x3de30b1b	0.110861026
214	0xbc5c6503	-0.013451817
215	0xbd895f81	-0.06707669
216	0x3c547bb9	0.012968951
217	0xbdc420be	-0.095765576
218	0xbd90f98a	-0.07078846
219	0xbd9080f1	-0.070558436
220	0xbd847fca	-0.06469686
221	0xbd1fba74	-0.038996175
222	0x3d8c4a4e	0.0685011
223	0xbe1c83df	-0.1528468
224	0xbd9511cc	-0.07278785
225	0x3ccaa2c0	0.024735808
226	0x3dc8eb41	0.09810496
227	0xbe1e20dd	-0.15442224
228	0xbdfd5ed5	-0.123716034
229	0x3ca9904f	0.020698695
230	0x3ba92bc5	0.0051626884
231	0x3cecc4d2	0.028902445
232	0xbe1470bb	-0.14496128
233	0x3daccba8	0.08437282
234	0xbd2c1de0	-0.04202068
235	0xbd8d52c7	-0.06900554
236	0xbcb54e95	-0.022132197
237	0xbdc3cd21	-0.095606096
238	0xbe3eebec	-0.18644685
239	0xbe291764	-0.16512829
240	0x3e32421c	0.17408031
241	0x3d263ab9	0.040583346
242	0xbe01f28b	-0.12690179
243	0xbcd9a083	-0.026565796
244	0xbd88f2b2	-0.066869155
245	0x3e0e7510	0.13911843
246	0x3d9d62cf	0.07684862
247	0xbdcb4bb4	-0.099265486
248	0x3d742e90	0.059614718
249	0xbd878dae	-0.0661882
250	0xbe35d081	-0.17755319
251	0xbd94bf60	-0.072630644
252	0xbd99dbd2	-0.075126305
253	0x3dd18f9c	0.102324694
254	0xbd3ff760	-0.046866775
255	0x3d74c6ff	0.05976009

network_body.observation_encoder.processors.0.normalizer.running_mean f4 [284]
0	0x00000000	0.0
1	0x00000000	0.0
2	0x00000000	0.0
3	0x00000000	0.0
4	0x00000000	0.0
5	0x00000000	0.0
6	0x00000000	0.0
7	0x00000000	0.0
8	0x00000000	0.0
9	0x00000000	0.0
10	0x00000000	0.0
11	0x00000000	0.0
12	0x00000000	0.0
13	0x00000000	0.0
14	0x00000000	0.0
15	0x00000000	0.0
16	0x00000000	0.0
17	0x00000000	0.0
18	0x00000000	0.0
19	0x00000000	0.0
20	0x00000000	0.0
21	0x00000000	0.0
22	0x00000000	0.0
23	0x00000000	0.0
24	0x00000000	0.0
25	0x00000000	0.0
26	0x00000000	0.0
27	0x00000000	0.0
28	0x00000000	0.0
29	0x00000000	0.0
30	0x00000000	0.0
31	0x00000000	0.0
32	0x00000000	0.0
33	0x00000000	0.0
34	0x00000000	0.0
35	0x00000000	0.0
36	0x00000000	0.0
37	0x00000000	0.0
38	0x00000000	0.0
39	0x00000000	0.0
40	0x00000000	0.0
41	0x00000000	0.0
42	0x00000000	0.0
43	0x00000000	0.0
44	0x00000000	0.0
45	0x00000000	0.0
46	0x00000000	0.0
47	0x00000000	0.0
48	0x00000000	0.0
49	0x00000000	0.0
50	0x00000000	0.0
51	0x00000000	0.0
52	0x00000000	0.0
53	0x00000000	0.0
54	0x00000000	0.0
55	0x00000000	0.0
56	0x00000000	0.0
57	0x00000000	0.0
58	0x00000000	0.0
59	0x00000000	0.0
60	0x00000000	0.0
61	0x00000000	0.0
62	0x00000000	0.0
63	0x00000000	0.0
64	0x00000000	0.0
65	0x00000000	0.0
66	0x00000000	0.0
67	0x00000000	0.0
68	0x00000000	0.0
69	0x00000000	0.0
70	0x00000000	0.0
71	0x00000000	0.0
72	0x00000000	0.0
73	0x00000000	0.0
74	0x00000000	0.0
75	0x00000000	0.0
76	0x00000000	0.0
77	0x00000000	0.0
78	0x00000000	0.0
79	0x00000000	0.0
80	0x00000000	0.0
81	0x00000000	0.0
82	0x00000000	0.0
83	0x00000000	0.0
84	0x00000000	0.0
85	0x00000000	0.0
86	0x00000000	0.0
87	0x00000000	0.0
88	0x00000000	0.0
89	0x00000000	0.0
90	0x00000000	0.0
91	0x00000000	0.0
92	0x00000000	0.0
93	0x00000000	0.0
94	0x00000000	0.0
95	0x00000000	0.0
96	0x00000000	0.0
97	0x00000000	0.0
98	0x00000000	0.0
99	0x00000000	0.0
100	0x00000000	0.0
101	0x00000000	0.0
102	0x00000000	0.0
103	0x00000000	0.0
104	0x00000000	0.0
105	0x00000000	0.0
106	0x00000000	0.0
107	0x00000000	0.0
108	0x00000000	0.0
109	0x00000000	0.0
110	0x00000000	0.0
111	0x00000000	0.0
112	0x00000000	0.0
113	0x00000000	0.0
114	0x00000000	0.0
115	0x00000000	0.0
116	0x00000000	0.0
117	0x00000000	0.0
118	0x00000000	0.0
119	0x00000000	0.0
120	0x00000000	0.0
121	0x00000000	0.0
122	0x00000000	0.0
123	0x00000000	0.0
124	0x00000000	0.0
125	0x00000000	0.0
126	0x00000000	0.0
127	0x00000000	0.0
128	0x00000000	0.0
129	0x00000000	0.0
130	0x00000000	0.0
131	0x00000000	0.0
132	0x00000000	0.0
133	0x00000000	0.0
134	0x00000000	0.0
135	0x00000000	0.0
136	0x00000000	0.0
137	0x00000000	0.0
138	0x00000000	0.0
139	0x00000000	0.0
140	0x00000000	0.0
141	0x00000000	0.0
142	0x00000000	0.0
143	0x00000000	0.0
144	0x00000000	0.0
145	0x00000000	0.0
146	0x00000000	0.0
147	0x00000000	0.0
148	0x00000000	0.0
149	0x00000000	0.0
150	0x00000000	0.0
151	0x00000000	0.0
152	0x00000000	0.0
153	0x00000000	0.0
154	0x00000000	0.0
155	0x00000000	0.0
156	0x00000000	0.0
157	0x00000000	0.0
158	0x00000000	0.0
159	0x00000000	0.0
160	0x00000000	0.0
161	0x00000000	0.0
162	0x00000000	0.0
163	0x00000000	0.0
164	0x00000000	0.0
165	0x00000000	0.0
166	0x00000000	0.0
167	0x00000000	0.0
168	0x00000000	0.0
169	0x00000000	0.0
170	0x00000000	0.0
171	0x00000000	0.0
172	0x00000000	0.0
173	0x00000000	0.0
174	0x00000000	0.0
175	0x00000000	0.0
176	0x00000000	0.0
177	0x00000000	0.0
178	0x00000000	0.0
179	0x00000000	0.0
180	0x00000000	0.0
181	0x00000000	0.0
182	0x00000000	0.0
183	0x00000000	0.0
184	0x00000000	0.0
185	0x00000000	0.0
186	0x00000000	0.0
187	0x00000000	0.0
188	0x00000000	0.0
189	0x00000000	0.0
190	0x00000000	0.0
191	0x00000000	0.0
192	0x00000000	0.0
193	0x00000000	0.0
194	0x00000000	0.0
195	0x00000000	0.0
196	0x00000000	0.0
197	0x00000000	0.0
198	0x00000000	0.0
199	0x00000000	0.0
200	0x00000000	0.0
201	0x00000000	0.0
202	0x00000000	0.0
203	0x00000000	0.0
204	0x00000000	0.0
205	0x00000000	0.0
206	0x00000000	0.0
207	0x00000000	0.0
208	0x00000000	0.0
209	0x00000000	0.0
210	0x00000000	0.0
211	0x00000000	0.0
212	0x00000000	0.0
213	0x00000000	0.0
214	0x00000000	0.0
215	0x00000000	0.0
216	0x00000000	0.0
217	0x00000000	0.0
218	0x00000000	0.0
219	0x00000000	0.0
220	0x00000000	0.0
221	0x00000000	0.0
222	0x00000000	0.0
223	0x00000000	0.0
224	0x00000000	0.0
225	0x00000000	0.0
226	0x00000000	0.0
227	0x00000000	0.0
228	0x00000000	0.0
229	0x00000000	0.0
230	0x00000000	0.0
231	0x00000000	0.0
232	0x00000000	0.0
233	0x00000000	0.0
234	0x00000000	0.0
235	0x00000000	0.0
236	0x00000000	0.0
237	0x00000000	0.0
238	0x00000000	0.0
239	0x00000000	0.0
240	0x00000000	0.0
241	0x00000000	0.0
242	0x00000000	0.0
243	0x00000000	0.0
244	0x00000000	0.0
245	0x00000000	0.0
246	0x00000000	0.0
247	0x00000000	0.0
248	0x00000000	0.0
249	0x00000000	0.0
250	0x00000000	0.0
251	0x00000000	0.0
252	0x00000000	0.0
253	0x00000000	0.0
254	0x00000000	0.0
255	0x00000000	0.0
