Assets/Training/results/10plzwork/PlayerAgentBehavior/PlayerAgentBehavior-499955.onnx (onnx, 295465 bytes, 13 tensors)

discrete_act_size_vector f4 [1, 2]
0	0x40400000	3.0
1	0x40000000	2.0

network_body.observation_encoder.processors.0.normalizer.running_mean f4 [405]
0	0x37fbae3f	3.0002671e-05
1	0x00000000	0.0
2	0x00000000	0.0
3	0x379701f9	1.8001521e-05
4	0x379701f9	1.8001521e-05
5	0x37fbae3f	3.0002671e-05
6	0x00000000	0.0
7	0x00000000	0.0
8	0x379701f9	1.8001521e-05
9	0x379701f9	1.8001521e-05
10	0x37fbae3f	3.0002671e-05
11	0x00000000	0.0
12	0x00000000	0.0
13	0x379701f9	1.8001521e-05
14	0x379701f9	1.8001521e-05
15	0x37fbae3f	3.0002671e-05
16	0x00000000	0.0
17	0x00000000	0.0
18	0x379701f9	1.8001521e-05
19	0x379701f9	1.8001521e-05
20	0x37fbae3f	3.0002671e-05
21	0x00000000	0.0
22	0x00000000	0.0
23	0x379701f9	1.8001521e-05
24	0x379701f9	1.8001521e-05
25	0x37fbae3f	3.0002671e-05
26	0x00000000	0.0
27	0x00000000	0.0
28	0x379701f9	1.8001521e-05
29	0x379701f9	1.8001521e-05
30	0x37fbae3f	3.0002671e-05
31	0x00000000	0.0
32	0x00000000	0.0
33	0x379701f9	1.8001521e-05
34	0x379701f9	1.8001521e-05
35	0x37fbae3f	3.0002671e-05
36	0x00000000	0.0
37	0x00000000	0.0
38	0x379701f9	1.8001521e-05
39	0x379701f9	1.8001521e-05
40	0x37fbae3f	3.0002671e-05
41	0x00000000	0.0
42	0x00000000	0.0
43	0x379701f9	1.8001521e-05
44	0x379701f9	1.8001521e-05
45	0x37fbae3f	3.0002671e-05
46	0x00000000	0.0
47	0x00000000	0.0
48	0x379701f9	1.8001521e-05
49	0x379701f9	1.8001521e-05
50	0x37fbae3f	3.0002671e-05
51	0x00000000	0.0
52	0x00000000	0.0
53	0x379701f9	1.8001521e-05
54	0x379701f9	1.8001521e-05
55	0x37fbae3f	3.0002671e-05
56	0x00000000	0.0
57	0x00000000	0.0
58	0x379701f9	1.8001521e-05
59	0x379701f9	1.8001521e-05
60	0x37fbae3f	3.0002671e-05
61	0x00000000	0.0
62	0x00000000	0.0
63	0x379701f9	1.8001521e-05
64	0x379701f9	1.8001521e-05
65	0x37fbae3f	3.0002671e-05
66	0x00000000	0.0
67	0x00000000	0.0
68	0x379701f9	1.8001521e-05
69	0x379701f9	1.8001521e-05
70	0x37fbae3f	3.0002671e-05
71	0x00000000	0.0
72	0x00000000	0.0
73	0x379701f9	1.8001521e-05
74	0x379701f9	1.8001521e-05
75	0x37fbae3f	3.0002671e-05
76	0x00000000	0.0
77	0x00000000	0.0
78	0x379701f9	1.8001521e-05
79	0x379701f9	1.8001521e-05
80	0x37fbae3f	3.0002671e-05
81	0x00000000	0.0
82	0x00000000	0.0
83	0x379701f9	1.8001521e-05
84	0x379701f9	1.8001521e-05
85	0x37fbae3f	3.0002671e-05
86	0x00000000	0.0
87	0x00000000	0.0
88	0x379701f9	1.8001521e-05
89	0x379701f9	1.8001521e-05
90	0x37fbae3f	3.0002671e-05
91	0x00000000	0.0
92	0x00000000	0.0
93	0x379701f9	1.8001521e-05
94	0x379701f9	1.8001521e-05
95	0x37fbae3f	3.0002671e-05
96	0x00000000	0.0
97	0x00000000	0.0
98	0x379701f9	1.8001521e-05
99	0x379701f9	1.8001521e-05
100	0x37fbae3f	3.0002671e-05
101	0x00000000	0.0
102	0x00000000	0.0
103	0x379701f9	1.8001521e-05
104	0x379701f9	1.8001521e-05
105	0x37fbae3f	3.0002671e-05
106	0x00000000	0.0
107	0x00000000	0.0
108	0x379701f9	1.8001521e-05
109	0x379701f9	1.8001521e-05
110	0x37fbae3f	3.0002671e-05
111	0x00000000	0.0
112	0x00000000	0.0
113	0x379701f9	1.8001521e-05
114	0x379701f9	1.8001521e-05
115	0x37fbae3f	3.0002671e-05
116	0x00000000	0.0
117	0x00000000	0.0
118	0x379701f9	1.8001521e-05
119	0x379701f9	1.8001521e-05
120	0x37fbae3f	3.0002671e-05
121	0x00000000	0.0
122	0x00000000	0.0
123	0x379701f9	1.8001521e-05
124	0x379701f9	1.8001521e-05
125	0x37fbae3f	3.0002671e-05
126	0x00000000	0.0
127	0x00000000	0.0
128	0x379701f9	1.8001521e-05
129	0x379701f9	1.8001521e-05
130	0x37fbae3f	3.0002671e-05
131	0x00000000	0.0
132	0x00000000	0.0
133	0x379701f9	1.8001521e-05
134	0x379701f9	1.8001521e-05
135	0x37fbae3f	3.0002671e-05
136	0x00000000	0.0
137	0x00000000	0.0
138	0x379701f9	1.8001521e-05
139	0x379701f9	1.8001521e-05
140	0x37fbae3f	3.0002671e-05
141	0x00000000	0.0
142	0x00000000	0.0
143	0x379701f9	1.8001521e-05
144	0x379701f9	1.8001521e-05
145	0x37fbae3f	3.0002671e-05
146	0x00000000	0.0
147	0x00000000	0.0
148	0x379701f9	1.8001521e-05
149	0x379701f9	1.8001521e-05
150	0x37fbae3f	3.0002671e-05
151	0x00000000	0.0
152	0x00000000	0.0
153	0x379701f9	1.8001521e-05
154	0x379701f9	1.8001521e-05
155	0x37fbae3f	3.0002671e-05
156	0x00000000	0.0
157	0x00000000	0.0
158	0x379701f9	1.8001521e-05
159	0x379701f9	1.8001521e-05
160	0x37fbae3f	3.0002671e-05
161	0x00000000	0.0
162	0x00000000	0.0
163	0x379701f9	1.8001521e-05
164	0x379701f9	1.8001521e-05
165	0x37fbae3f	3.0002671e-05
166	0x00000000	0.0
167	0x00000000	0.0
168	0x379701f9	1.8001521e-05
169	0x379701f9	1.8001521e-05
170	0x37fbae3f	3.0002671e-05
171	0x00000000	0.0
172	0x00000000	0.0
173	0x379701f9	1.8001521e-05
174	0x379701f9	1.8001521e-05
175	0x37fbae3f	3.0002671e-05
176	0x00000000	0.0
177	0x00000000	0.0
178	0x379701f9	1.8001521e-05
179	0x379701f9	1.8001521e-05
180	0x37fbae3f	3.0002671e-05
181	0x00000000	0.0
182	0x00000000	0.0
183	0x379701f9	1.8001521e-05
184	0x379701f9	1.8001521e-05
185	0x37fbae3f	3.0002671e-05
186	0x00000000	0.0
187	0x00000000	0.0
188	0x379701f9	1.8001521e-05
189	0x379701f9	1.8001521e-05
190	0x37fbae3f	3.0002671e-05
191	0x00000000	0.0
192	0x00000000	0.0
193	0x379701f9	1.8001521e-05
194	0x379701f9	1.8001521e-05
195	0x37fbae3f	3.0002671e-05
196	0x00000000	0.0
197	0x00000000	0.0
198	0x379701f9	1.8001521e-05
199	0x379701f9	1.8001521e-05
200	0x37fbae3f	3.0002671e-05
201	0x00000000	0.0
202	0x00000000	0.0
203	0x379701f9	1.8001521e-05
204	0x379701f9	1.8001521e-05
205	0x37fbae3f	3.0002671e-05
206	0x00000000	0.0
207	0x00000000	0.0
208	0x379701f9	1.8001521e-05
209	0x379701f9	1.8001521e-05
210	0x37fbae3f	3.0002671e-05
211	0x00000000	0.0
212	0x00000000	0.0
213	0x379701f9	1.8001521e-05
214	0x379701f9	1.8001521e-05
215	0x37fbae3f	3.0002671e-05
216	0x00000000	0.0
217	0x00000000	0.0
218	0x379701f9	1.8001521e-05
219	0x379701f9	1.8001521e-05
220	0x37fbae3f	3.0002671e-05
221	0x00000000	0.0
222	0x00000000	0.0
223	0x379701f9	1.8001521e-05
224	0x379701f9	1.8001521e-05
225	0x37fbae3f	3.0002671e-05
226	0x00000000	0.0
227	0x00000000	0.0
228	0x379701f9	1.8001521e-05
229	0x379701f9	1.8001521e-05
230	0x37fbae3f	3.0002671e-05
231	0x00000000	0.0
232	0x00000000	0.0
233	0x379701f9	1.8001521e-05
234	0x379701f9	1.8001521e-05
235	0x37fbae3f	3.0002671e-05
236	0x00000000	0.0
237	0x00000000	0.0
238	0x37863aaa	1.6001362e-05
239	0x378ee115	1.7032531e-05
240	0x37fbae3f	3.0002671e-05
241	0x00000000	0.0
242	0x00000000	0.0
243	0x379701f9	1.8001521e-05
244	0x379701f9	1.8001521e-05
245	0x37fbae3f	3.0002671e-05
246	0x00000000	0.0
247	0x00000000	0.0
248	0x376ae6ad	1.4001195e-05
249	0x378971db	1.638469e-05
250	0x37fbae3f	3.0002671e-05
251	0x00000000	0.0
252	0x00000000	0.0
253	0x379701f9	1.8001521e-05
254	0x379701f9	1.8001521e-05
255	0x37fbae3f	3.0002671e-05

network_body.observation_encoder.processors.1.normalizer.running_mean f4 [13]
0	0x00000000	0.0
1	0x00000000	0.0
2	0x00000000	0.0
3	0x00000000	0.0
4	0x00000000	0.0
5	0x00000000	0.0
6	0x00000000	0.0
7	0x00000000	0.0
8	0x00000000	0.0
9	0x00000000	0.0
10	0x00000000	0.0
11	0x00000000	0.0
12	0x00000000	0.0

network_body._body_endoder.seq_layers.0.weight f4 [128, 418]
0	0x3d8fa9e5	0.07014827
1	0xbd190356	-0.037356697
2	0xbcfb2065	-0.030655095
3	0xbd52ad27	-0.051434662
4	0xbdcdb4d3	-0.10044255
5	0xbd28326d	-0.041063715
6	0xbd3bb582	-0.045827396
7	0x3ce74a44	0.028233655
8	0xbcf2eedd	-0.029654915
9	0xbd9f8c15	-0.077903904
10	0xbda0d9fd	-0.07854078
11	0x3ddb1f96	0.10699384
12	0xbccb316b	-0.024803838
13	0xbdb3cb77	-0.08779042
14	0x3bfc68de	0.007702931
15	0x3bcd55b4	0.00626632
16	0xbdc532fb	-0.096288644
17	0xbd72a1b2	-0.059236236
18	0xbd73af83	-0.059493553
19	0xbcda6e1a	-0.026663829
20	0x3b3ad712	0.002850954
21	0xbc0df428	-0.008664168
22	0x3d7d8f30	0.061904132
23	0xbc3171a7	-0.0108303195
24	0xbdbf4057	-0.09338444
25	0x3cb3479d	0.021884734
26	0xbd2062ff	-0.03915691
27	0xbcc1be26	-0.02365024
28	0xb9d7b08e	-0.0004113954
29	0xbb08a929	-0.002085278
30	0x3ce8af69	0.028403955
31	0xbd74e143	-0.05978514
32	0xbc32dd2d	-0.01091699
33	0xbd667abf	-0.056269404
34	0x3beb51d6	0.0071813865
35	0x3ccd3163	0.025047963
36	0xbca46604	-0.020068176
37	0x3bfd4e2c	0.007730266
38	0x3ca1a7f2	0.019733403
39	0x3c3605c1	0.01110977
40	0x3b0e411e	0.0021706293
41	0xbc9979a3	-0.018734759
42	0x3d82d91f	0.06389069
43	0xbdaa3f43	-0.083128475
44	0x3bd5ed36	0.006528522
45	0x3ccf71c7	0.025322808
46	0x3d44d83b	0.048057776
47	0x3c7678ea	0.015043477
48	0x3dfce13e	0.12347649
49	0xbcd2cd5e	-0.025732692
50	0x3cd75f9f	0.026290713
51	0x3b345c51	0.0027520845
52	0xba459296	-0.00075367966
53	0x3d84b498	0.06479758
54	0x3d5ba0fb	0.05362032
55	0x3c8a3905	0.016872892
56	0x3d84ec69	0.06490404
57	0xbd92b76f	-0.071638934
58	0xba220f2a	-0.0006182069
59	0xbbb10df8	-0.0054032765
60	0xbcaaf193	-0.020867145
61	0x3de5beab	0.11218008
62	0x3b39de38	0.0028361212
63	0xbd84feb7	-0.064938955
64	0xbd411ead	-0.047148395
65	0x3daec751	0.0853411
66	0x3d22392b	0.0396053
67	0x3d0f37be	0.03496527
68	0xbb3e877c	-0.0029072454
69	0xbca35bf4	-0.019941308
70	0x3c7e2a4d	0.015513015
71	0xbc121f65	-0.008918618
72	0x3cac9fb2	0.021072242
73	0xbd975edf	-0.07391142
74	0x3ce5d62a	0.028056223
75	0x3dc56e81	0.096402176
76	0xbd2058ec	-0.039147303
77	0xbd3288ca	-0.043587483
78	0x3cb6241c	0.022234015
79	0x3c36347d	0.011120913
80	0x3cacdc87	0.02110125
81	0x3d2c4fa0	0.042068124
82	0xbd2dd4de	-0.042439334
83	0xbd07750e	-0.033070616
84	0x3d84d25f	0.064854376
85	0x3d763403	0.060108196
86	0x3da7a97a	0.08186622
87	0x3ca42fe3	0.020042365
88	0x3cdccd4e	0.026953366
89	0x3d729287	0.05922177
90	0xbd54f373	-0.051989984
91	0x3c87c9db	0.016575744
92	0xbd4a065c	-0.04932247
93	0x3d4a2015	0.049347002
94	0xbc9b1127	-0.018929077
95	0x3b785e72	0.003789809
96	0xbc125cbf	-0.008933245
97	0x3d4447ac	0.047919914
98	0xbcb9cd30	-0.022680849
99	0xbc44be5e	-0.012008278
100	0xbd9bda5b	-0.076100074
101	0x3cacc099	0.021087931
102	0xbd53a458	-0.051670402
103	0xbcea7dde	-0.028624471
104	0xbc504d3d	-0.012713728
105	0xbbddfd06	-0.0067745475
106	0x3d1b3f89	0.03790239
107	0xbba002ba	-0.0048831375
108	0xbd614563	-0.054997813
109	0x3a4306e9	0.00074396894
110	0xbc0ae896	-0.008478304
111	0x3d9160bd	0.070985295
112	0x3d721b35	0.059107978
113	0x3b86b66a	0.004111101
114	0xbc50cc63	-0.012744042
115	0xbd0abae7	-0.03386965
116	0x3da00c0c	0.07814798
117	0x3c2563ff	0.010094642
118	0xbc5e0591	-0.013551132
119	0xbc21a7d3	-0.009866673
120	0xbcc70dc5	-0.024298558
121	0x3d049029	0.032364044
122	0xbca6b963	-0.020352071
123	0x3cf6fc4e	0.030149605
124	0x3d6f7f5a	0.05847106
125	0xbd0661af	-0.032808002
126	0xbd3b05ef	-0.045659956
127	0xbde1f243	-0.11032536
128	0xbd0df5be	-0.034658186
129	0xbd33c369	-0.04388753
130	0xbd6af48f	-0.057362135
131	0x3d70255c	0.05862938
132	0xbdb4d873	-0.08830347
133	0xbd49b4e7	-0.049244788
134	0x3d3e7827	0.046501305
135	0x3ca76b0f	0.020436792
136	0xbce57168	-0.028008178
137	0xbd169cb2	-0.03677053
138	0x3bad3092	0.005285331
139	0xbab8cacd	-0.0014098525
140	0xb84ea7bc	-4.9270442e-05
141	0x3cc61a5a	0.024182487
142	0x3d24ca3b	0.040231925
143	0x3d506817	0.050880518
144	0xbd8a4fbf	-0.067534916
145	0x3c0ebfc8	0.008712716
146	0x3d906e6b	0.070523106
147	0x3d7cba53	0.06170113
148	0x3c17342f	0.00922875
149	0xbd5bb933	-0.053643417
150	0x3c02f492	0.00799288
151	0xbd044f0a	-0.03230194
152	0xbc4406f1	-0.011964546
153	0xbd6e6419	-0.05820093
154	0xbd3ee97b	-0.046609383
155	0x3d055038	0.032547206
156	0x3b2147bc	0.0024609407
157	0xbd34fdaf	-0.044187244
158	0xbc7f9391	-0.015599147
159	0xbda48e8d	-0.08035002
160	0xbd94bfa7	-0.07263117
161	0x3d69753d	0.056996573
162	0x3bb42dbf	0.0054986174
163	0xbcce181e	-0.025157984
164	0xbcc0fa04	-0.023556717
165	0x3cd17aa1	0.02557117
166	0xbd1fa392	-0.038974352
167	0xbd380e5b	-0.044935565
168	0xbdaf93cb	-0.08573111
169	0xbd91163f	-0.07084321
170	0x3cf85be0	0.030317247
171	0x3c883568	0.016627029
172	0x3be0df22	0.006862537
173	0x3c8e1149	0.017342227
174	0xbd946ca1	-0.07247282
175	0x3d8f34fb	0.06992527
176	0x3cc2b2f7	0.023766978
177	0xbcc34a9f	-0.023839293
178	0xbd170f63	-0.03687991
179	0xbd09b2f3	-0.033617925
180	0xbbef3ad4	-0.007300714
181	0x3d696561	0.056981448
182	0x3d0f8527	0.035039093
183	0xbd63e985	-0.055642623
184	0x3d715a60	0.05892408
185	0x3c69f798	0.014280222
186	0x3cadde39	0.021224128
187	0x3d5b1dd8	0.053495258
188	0xbd944d83	-0.07241347
189	0x3c1bf8d5	0.009519775
190	0xbdd48595	-0.10377041
191	0xbc960e79	-0.018317448
192	0x3d0c4956	0.034249626
193	0x3d0043a9	0.031314526
194	0x3cf4015a	0.0297858
195	0xbd6a79d7	-0.0572451
196	0x3d00ec65	0.031475443
197	0xbc9ac098	-0.018890664
198	0xbdbba491	-0.09162248
199	0x3c2a3547	0.010388679
200	0x3e02f070	0.12787032
201	0xbd0a3b1f	-0.03374779
202	0x3d26e199	0.04074249
203	0x3c309a54	0.010778982
204	0x3d059363	0.032611262
205	0xbd0cd188	-0.034379512
206	0x3c08daaa	0.008352915
207	0xbd574c5c	-0.052563056
208	0x3b680704	0.0035404572
209	0xbdb7084f	-0.089371316
210	0xbd3a3be7	-0.045467284
211	0xbb3dd4d6	-0.0028965971
212	0x3d046525	0.03232302
213	0xbd4b1021	-0.04957593
214	0xbdd23ff5	-0.10266105
215	0x3ce578f1	0.02801177
216	0xbbdec63b	-0.0067985333
217	0xbd66eca4	-0.05637802
218	0xbd28f2e3	-0.04124726
219	0xbdd0255b	-0.10163375
220	0xbd789491	-0.06068856
221	0x3c08903a	0.008335168
222	0xbda6a324	-0.08136585
223	0xbd898a33	-0.067158125
224	0xbd70ec33	-0.058819007
225	0xbc657c5f	-0.014006703
226	0xbd046ad5	-0.032328445
227	0x3d5d72fe	0.054064743
228	0xbd0ed8a3	-0.03487457
229	0x3c6814fd	0.01416516
230	0x3dc13f17	0.094358616
231	0xbd88c7f6	-0.066787645
232	0xbdc676d2	-0.09690632
233	0xbbe9ec02	-0.00713873
234	0xbdf8babb	-0.12144991
235	0xbd14c087	-0.03631642
236	0x3d9095b1	0.07059801
237	0x3cce7775	0.025203446
238	0xbd918ff4	-0.07107535
239	0xbdcf5417	-0.10123461
240	0x3daeff19	0.0854475
241	0xbc88e9ca	-0.016713042
242	0x3d123ab0	0.0357005
243	0xbdb8cb85	-0.09023193
244	0xbd589b6f	-0.052882608
245	0xbd4e8f55	-0.05042966
246	0x3d8f1119	0.06985683
247	0x3d290f30	0.04127425
248	0xbd1d63da	-0.038425304
249	0xbdfcb15f	-0.12338518
250	0x3ae06fdc	0.001712318
251	0xbdca011f	-0.09863495
252	0xbcdb79d1	-0.026791485
253	0x3cb32c02	0.02187157
254	0xbc99622b	-0.018723568
255	0xbd35046b	-0.044193666

network_body._body_endoder.seq_layers.0.bias f4 [128]
0	0x3d453061	0.04814184
1	0xbd3ac59b	-0.045598608
2	0x3d466b40	0.048442125
3	0x3d4c5d43	0.04989363
4	0xbd474882	-0.048653133
5	0x3d355b3d	0.044276465
6	0x3d40577e	0.04695844
7	0xbd4a5f86	-0.049407504
8	0xbd4bd0ec	-0.04975979
9	0xbd3e09c3	-0.04639603
10	0xbd43226d	-0.047640253
11	0x3d376402	0.04477311
12	0x3d29da64	0.04146804
13	0xbd4062da	-0.046969272
14	0x3d256b23	0.040385377
15	0x3d52b998	0.051446527
16	0xbd3df0b1	-0.04637212
17	0x3d480d4b	0.048840802
18	0xbd4512d2	-0.04811365
19	0x3d48f920	0.04906571
20	0xbd46d4d0	-0.048542798
21	0x3d42ab6e	0.04752677
22	0xbd46e532	-0.04855842
23	0xbd47aac8	-0.048746854
24	0x3ce98a10	0.028508216
25	0x3d126fe0	0.035751224
26	0xbd3e90cc	-0.046524808
27	0xbd3bfac0	-0.04589343
28	0x3d4697a7	0.04848447
29	0xbd47105b	-0.048599582
30	0xbd49efe2	-0.049301036
31	0xbd336d9d	-0.043805707
32	0x3d416c03	0.04722215
33	0xbd49910e	-0.0492106
34	0xbd3fd79d	-0.046836484
35	0x3d4383db	0.04773317
36	0x3d401ba2	0.046901353
37	0xbd1feb3f	-0.039042708
38	0xbd429d3f	-0.047513243
39	0xbd47d5f2	-0.04878802
40	0x3d225a0c	0.039636657
41	0xbd4afa62	-0.04955519
42	0x3d4cf2d9	0.050036285
43	0xbd3b4f65	-0.045730013
44	0xbd3aa260	-0.04556501
45	0x3d43a6f5	0.047766645
46	0x3d4060c0	0.046967268
47	0x3d27b3f3	0.040943097
48	0x3d449b24	0.047999516
49	0x3d3bf4e4	0.045887843
50	0xbd46a121	-0.04849351
51	0x3d40ee25	0.047102112
52	0x3d44b347	0.048022535
53	0x3d37242c	0.04471223
54	0x3d43ab8b	0.047771018
55	0xbd472453	-0.048618626
56	0xbd3ec0df	-0.046570655
57	0x3d4122e4	0.047152415
58	0xbd391367	-0.04518452
59	0xbd491042	-0.04908777
60	0x3d3a6636	0.045507632
61	0x3d3a3f6d	0.045470644
62	0xbd448d7b	-0.04798649
63	0x3d4b02c0	0.04956317
64	0xbd4e9ea4	-0.05044426
65	0x3d41eda8	0.047345787
66	0xbd46aaa6	-0.048502587
67	0x3d4762b9	0.048678134
68	0x3d342af3	0.043986272
69	0xbd429928	-0.047509342
70	0xbd4f8074	-0.05065961
71	0xbd31e013	-0.043426584
72	0x3d4e93be	0.050433867
73	0x3d2c99fa	0.04213903
74	0x3d4d9ae2	0.050196536
75	0x3d4990cc	0.049210355
76	0x3d1dc92f	0.03852194
77	0x3d4449a5	0.047921795
78	0x3d43ba43	0.047785055
79	0xbd493f4f	-0.04913264
80	0x3d3fe2ed	0.046847273
81	0xbd295cb3	-0.04134817
82	0xbd288aae	-0.04114788
83	0x3d143309	0.036181483
84	0xbd4289ee	-0.04749482
85	0xbd44b8e1	-0.048027877
86	0x3d49cac8	0.049265653
87	0xbd4243eb	-0.047428053
88	0x3d3d2dac	0.046186134
89	0x3d3d7a12	0.046258993
90	0xbd4bdaa8	-0.049769074
91	0xbd448564	-0.047978774
92	0xbd490929	-0.049081
93	0xbd46ddf6	-0.048551522
94	0xbd49cdd5	-0.049268562
95	0x3d49401d	0.04913341
96	0x3d1e1522	0.038594373
97	0x3d4b9bc0	0.04970908
98	0xbd4c6572	-0.049901433
99	0x3d41bbc2	0.0472982
100	0xbd3ef0dc	-0.04661642
101	0xbd280436	-0.04101964
102	0x3d1961a8	0.037446648
103	0xbd48a692	-0.04898698
104	0x3d42a8f6	0.047524415
105	0xbd49ade7	-0.04923811
106	0x3d4410e4	0.04786767
107	0x3d28a2f6	0.041171037
108	0x3d4443f4	0.047916368
109	0x3d12d467	0.035847094
110	0xbd447bde	-0.04796969
111	0x3d3f43b4	0.046695426
112	0x3d3e9b59	0.04653487
113	0xbd4d3d52	-0.050107308
114	0xbd37e7c4	-0.044898763
115	0xbd3c9cec	-0.04604809
116	0xbd44e770	-0.04807228
117	0xbd48f4c9	-0.04906157
118	0xbd4f2249	-0.050569806
119	0x3d47866d	0.048712183
120	0xbd4a773b	-0.049430113
121	0x3d2b36b2	0.04180021
122	0xbd3f0182	-0.046632297
123	0xbd40b417	-0.047046747
124	0xbd3d6c18	-0.046245664
125	0xbd4748fb	-0.048653584
126	0x3d39ff79	0.045409653
127	0x3d3dcbbe	0.04633688

network_body._body_endoder.seq_layers.2.weight f4 [128, 128]
0	0xbe21127c	-0.15729707
1	0x3e2082ef	0.15674947
2	0x3dceb52a	0.10093148
3	0xbdc2f3ce	-0.09519158
4	0x3dd7f961	0.10545612
5	0xbdb32330	-0.08746946
6	0xbd75bf5f	-0.05999696
7	0x3db964a2	0.09052397
8	0x3e7499f2	0.2388685
9	0x3e15a8f7	0.14615236
10	0xbd0295af	-0.03188103
11	0x3da2acd7	0.07943123
12	0x3cffd994	0.031231679
13	0x3db0a332	0.08624877
14	0xbb74164c	-0.0037244735
15	0xbe42162f	-0.18953775
16	0xbc387cb4	-0.0112602
17	0xbe0cfd1c	-0.13768429
18	0x3e61b454	0.22041446
19	0xbc0c2755	-0.008554299
20	0xbcddbfc0	-0.027068973
21	0xbdb5b19b	-0.08871766
22	0x3d9829ad	0.07429824
23	0x3c86d645	0.016459594
24	0xbd91690a	-0.07100113
25	0x3d0acaca	0.0338848
26	0x3d29391c	0.04131423
27	0x3cf2d262	0.029641334
28	0x3cb665a3	0.022265261
29	0x3ddde258	0.10834187
30	0x3cb9a3ff	0.022661207
31	0xbd1d8301	-0.038455013
32	0x3d4bb565	0.04973354
33	0x3e2665a0	0.16249704
34	0x3da138c1	0.07872153
35	0x3b0231c2	0.0019866084
36	0x3dabf040	0.083954334
37	0x3e168550	0.14699292
38	0x3d3ac0d8	0.045594066
39	0x3c56b404	0.0131044425
40	0xbe16c03a	-0.14721766
41	0x3d81eba4	0.06343773
42	0xbdf33d46	-0.11876921
43	0xbca64fa6	-0.020301651
44	0xbbd17acd	-0.006392813
45	0xbda46211	-0.08026517
46	0x3c41e298	0.011833809
47	0xbe336911	-0.17520548
48	0xbe3bcba5	-0.18339403
49	0xbe18bdbb	-0.14916126
50	0x3d9e1971	0.07719696
51	0xbda251dc	-0.0792577
52	0xbce069c8	-0.02739419
53	0x3c9a361e	0.018824633
54	0x3d9ce217	0.07660311
55	0x3df2343d	0.1182637
56	0x3e2ce1f0	0.16883063
57	0x3ce30ca9	0.027715998
58	0xbd50b793	-0.05095632
59	0x3d5ee89f	0.054421064
60	0xbe2f7447	-0.171342
61	0xbd25c801	-0.04047394
62	0x3c1dce99	0.009631776
63	0xbd385952	-0.045007057
64	0xbe27be1d	-0.16381116
65	0x3d64e314	0.05588062
66	0x3c97d286	0.018533003
67	0xbe21e012	-0.15808132
68	0xbd400ed1	-0.04688913
69	0xbe485418	-0.19563329
70	0x3e65384f	0.22384761
71	0x3d3bd814	0.045860365
72	0xbca844f3	-0.02054069
73	0xbe2192ec	-0.15778702
74	0xbdc0c95a	-0.09413405
75	0x3d432cac	0.047650024
76	0x3dbf283c	0.09333846
77	0xbe3f402f	-0.18676828
78	0xbd887e89	-0.0666476
79	0x3d23a0af	0.03994816
80	0xbd910859	-0.0708167
81	0x3e084e61	0.13311149
82	0xbda6eed2	-0.0815102
83	0xbe31295b	-0.17300932
84	0x3ce69b8e	0.028150346
85	0x3cfdedff	0.030997274
86	0xbce8ea9c	-0.028432183
87	0x3c0fbc19	0.008772873
88	0x3e07837b	0.1323375
89	0xbdb012d9	-0.08597345
90	0x3d84dd9e	0.064875826
91	0x3dfd7e65	0.123776235
92	0x3d41c3f9	0.047306035
93	0xbcd55a20	-0.026043952
94	0x3cddc061	0.027069272
95	0xbdf5cb87	-0.120017104
96	0xbd41aff8	-0.047286958
97	0xbdee60c1	-0.11639548
98	0x3e4b2a28	0.198403
99	0x3d85f456	0.06540744
100	0x3db7069c	0.089368075
101	0xbda1af2d	-0.0789474
102	0xbdb84791	-0.08998025
103	0xbd5f8763	-0.054572474
104	0x3d55d462	0.052204497
105	0x3df91503	0.12162211
106	0x3d91f5c4	0.07126954
107	0xbd8e4afd	-0.06947897
108	0xbdce4814	-0.100723416
109	0xbea0b7b3	-0.3139015
110	0x3d08ac2d	0.033367325
111	0xbdd4b8b4	-0.10386792
112	0x3cb392be	0.021920558
113	0x3de0d500	0.109781265
114	0x3d77a351	0.060458485
115	0x3e020fb9	0.1270131
116	0x3d413523	0.047169816
117	0xbdada7d3	-0.084792756
118	0x3d710183	0.058839332
119	0x3ce5b936	0.028042417
120	0x3ce80bde	0.028325971
121	0x3c1ea103	0.009681943
122	0x3e671636	0.22567067
123	0x3e00e4b4	0.12587243
124	0x3dcbd60d	0.09952936
125	0x3dcbe659	0.09956045
126	0xbd8b3d90	-0.067988515
127	0x3d899855	0.06718508
128	0xbddb8a74	-0.10719767
129	0x3cb82a0f	0.022480993
130	0xbd3dcecd	-0.0463398
131	0xbe45a640	-0.193017
132	0x3dcf046f	0.101082675
133	0xbd9c7e5b	-0.07641288
134	0x3d36db92	0.044642992
135	0x3e3e1201	0.18561555
136	0x3e984dea	0.29746944
137	0x3d7ea987	0.062173393
138	0xbd435ad6	-0.04769405
139	0xbd234d1c	-0.03986846
140	0x3d7fa2a5	0.06241097
141	0xbd2eac0d	-0.04264455
142	0x3c11d94e	0.008901907
143	0x3cf1fdd1	0.029539974
144	0xbb10066a	-0.002197648
145	0xbd9b2d3f	-0.075769894
146	0x3e2f6792	0.17129353
147	0xbe1ffe8b	-0.15624444
148	0xbc2d9f6f	-0.010597094
149	0xbd1d5999	-0.038415525
150	0x3d8cef31	0.0688156
151	0x3dc0a2cc	0.09406051
152	0x3cc6e4a8	0.024278954
153	0xbe1e3d75	-0.15453131
154	0x3e468d35	0.19389804
155	0x3e354d62	0.177053
156	0xbd891a92	-0.06694521
157	0xbe767041	-0.24066259
158	0x3d815803	0.06315615
159	0xbc50b3f7	-0.012738219
160	0xbd75da3a	-0.06002257
161	0x3e25b50e	0.16182348
162	0x3e433fb5	0.19067271
163	0xbe0e6838	-0.13906944
164	0xbd323567	-0.04350796
165	0x3c9c750a	0.019098777
166	0x3daf35a9	0.08555157
167	0x3da6ba10	0.08140957
168	0xbe46b115	-0.19403489
169	0x3e22c8aa	0.1589686
170	0x3d4c3b6c	0.049861357
171	0xbd5cf147	-0.053941038
172	0x3cc2228f	0.02369812
173	0x3e32b271	0.17450882
174	0x3bb8eb17	0.0056432593
175	0xbbf25ecb	-0.007396554
176	0xbde130f2	-0.10995664
177	0x3e37f3d9	0.17964114
178	0xbd4f6569	-0.05063382
179	0xbdc15e06	-0.09441762
180	0xbdf2f4ee	-0.11863123
181	0xbe1bb799	-0.15206756
182	0xbd611486	-0.054951213
183	0x3c787b2f	0.015166088
184	0x3dc25894	0.09489551
185	0xbe272ea5	-0.16326387
186	0x3d5f8923	0.054574143
187	0x3d8dc1e0	0.06921744
188	0xbdcd9e71	-0.10039986
189	0xbd095877	-0.033531632
190	0x3d8806b1	0.06641901
191	0xbd5a143e	-0.05324196
192	0x3d55db34	0.052211
193	0xbdb0c7f6	-0.086318895
194	0x3d5733dc	0.05253969
195	0xbd285db3	-0.041104984
196	0xbe070f58	-0.13189447
197	0x3d5bc839	0.053657744
198	0x3e15a7e1	0.14614822
199	0x3defdfe3	0.11712625
200	0xbda87077	-0.08224576
201	0x3c81d4d8	0.015848562
202	0x3d0b33d6	0.03398498
203	0xbe622945	-0.22086056
204	0xbca47cd7	-0.02007906
205	0x3a890982	0.0010455104
206	0xbd611480	-0.05495119
207	0x3e1966c7	0.14980613
208	0x3da9f493	0.08298602
209	0xbcb9334c	-0.022607468
210	0x3dd98256	0.10620563
211	0xbb1187c8	-0.0022206176
212	0x3dfa88da	0.122331336
213	0x3ddd45ff	0.10804366
214	0x3cb2af79	0.021812188
215	0x3d74fa8a	0.059809245
216	0xbb1f2ba3	-0.0024287484
217	0xbb1e0d99	-0.0024116992
218	0x3e4bc3ac	0.19898862
219	0x3c8f751b	0.017511895
220	0x3d9e48f5	0.07728759
221	0x3e305aea	0.17222181
222	0x3dc9b40a	0.09848793
223	0xbdb907e5	-0.09034709
224	0x3d8187b0	0.063247085
225	0xbddc14fc	-0.1074619
226	0xbdfd0cc9	-0.12355954
227	0xbd41d4f7	-0.04732224
228	0x3bcc37a2	0.006232218
229	0xbe4488af	-0.19192766
230	0xbe174417	-0.14772068
231	0x3e0b4014	0.13598663
232	0xbdb102dc	-0.086431235
233	0x3e05bb09	0.1305963
234	0xbe219431	-0.15779187
235	0xbcae1b33	-0.021253204
236	0x3c1c7740	0.009549916
237	0x3dad72dc	0.08469173
238	0x3d9902ef	0.07471263
239	0x3d27adcd	0.040937234
240	0x3c8a7d89	0.016905563
241	0xbd10812f	-0.03527945
242	0xbb5eecad	-0.0034015581
243	0xbd1c84bb	-0.03821252
244	0x3d111210	0.035417616
245	0x3e12e758	0.14346063
246	0x3e37080d	0.17874165
247	0x3e00d10b	0.12579744
248	0xbd7f04eb	-0.06226055
249	0xbe4a989b	-0.19784777
250	0x3d5d7dd7	0.05407509
251	0xbded026d	-0.11572728
252	0x3dad935f	0.084753744
253	0x3e7cfc1f	0.24705552
254	0xbe5525bc	-0.20815176
255	0xbcc122bb	-0.023576131

network_body._body_endoder.seq_layers.2.bias f4 [128]
0	0xbd4e58b7	-0.050377574
1	0xbd5e57b1	-0.054282848
2	0x3d3b0ed6	0.045668446
3	0x3d42665a	0.04746089
4	0xbd5c5ba8	-0.053798348
5	0x3d37ddf9	0.044889424
6	0xbd4c1508	-0.049824744
7	0xbd19e73a	-0.03757403
8	0x3d4eeb4e	0.050517373
9	0x3d563a44	0.05230166
10	0x3d6fefc2	0.05857826
11	0x3d053f76	0.032531224
12	0xbd41df8a	-0.047332324
13	0x3d1a79cb	0.037713807
14	0xbd336abd	-0.043802965
15	0x3d304071	0.043030206
16	0x3d52bbf1	0.051448766
17	0xbd2e9cfc	-0.04263018
18	0xbd160c58	-0.036632866
19	0x3d63c5c0	0.05560851
20	0x3cf8846a	0.030336577
21	0x3ccda157	0.025101347
22	0xbd23973d	-0.039939154
23	0x3d604fc0	0.054763556
24	0x3d4cafbe	0.04997229
25	0x3d45a04d	0.048248578
26	0xbd2eee77	-0.042707887
27	0x3d434cc9	0.04768065
28	0x3d09c0b5	0.033631045
29	0x3d572e62	0.05253447
30	0x3d6bf503	0.05760671
31	0x3d3a5d2d	0.045499016
32	0xbd7764b9	-0.06039879
33	0xbd40e745	-0.047095556
34	0x3cf9844a	0.030458588
35	0x3d4d1656	0.05007013
36	0x3d0bbd60	0.03411615
37	0x3d43dbc6	0.047817014
38	0x3d6f8538	0.058476657
39	0x3d1f8a16	0.03895005
40	0xbd265570	-0.040608823
41	0xbd0ca6c0	-0.034338713
42	0xbd49ce35	-0.04926892
43	0xbd1de047	-0.038543966
44	0xbd2a8c1a	-0.041637518
45	0x3cffb356	0.031213444
46	0xbd8787a8	-0.06617671
47	0xbd455419	-0.048175905
48	0xbd24b4ad	-0.04021137
49	0xbd5a158e	-0.053243212
50	0x3d375be2	0.04476536
51	0xbcbfa003	-0.02339173
52	0xbd15f866	-0.036613844
53	0x3d1532e2	0.03642548
54	0x3d16d2ab	0.036822002
55	0xbd6965f6	-0.056982003
56	0x3d3efbac	0.04662673
57	0xbd384701	-0.04498959
58	0x3d2b894c	0.041878983
59	0xbd3512c0	-0.044207335
60	0xbd4a87e5	-0.049446005
61	0xbd4be388	-0.049777538
62	0x3d1889e0	0.037240863
63	0xbd3631a7	-0.044480946
64	0x3d0d9742	0.03456808
65	0x3d27b059	0.040939663
66	0xbd43d209	-0.047807727
67	0x3d29951a	0.04140196
68	0xbd52c6a5	-0.051458973
69	0x3d189290	0.037249148
70	0x3d647df5	0.055784184
71	0x3d6d496f	0.05793136
72	0xbd58835b	-0.052859645
73	0xbd127b43	-0.035762083
74	0xbd5385cf	-0.05164128
75	0x3cde845c	0.027162723
76	0xbd3b0adf	-0.045664664
77	0xbd71d88e	-0.059044413
78	0x3d2b65de	0.041845195
79	0x3d0c4c44	0.03425242
80	0x3d3c2169	0.0459303
81	0xbd27f387	-0.04100373
82	0x3d4f5dcc	0.05062656
83	0x3d2e238a	0.04251436
84	0xbd4038f8	-0.04692933
85	0x3d4eeafd	0.05051707
86	0xbd372fb1	-0.044723216
87	0x3d07ffb2	0.033202834
88	0x3d3a6603	0.045507442
89	0x3d3b9b9c	0.045802698
90	0x3d5545b2	0.05206842
91	0x3d7b422b	0.0613424
92	0x3d25edf7	0.040510144
93	0x3d6088ae	0.054817848
94	0xbd562bd3	-0.052287888
95	0x3d662d4b	0.05619554
96	0x3d0bfb38	0.034175128
97	0xbd4caf1e	-0.049971692
98	0x3d20a896	0.039223276
99	0x3d4efb0d	0.05053239
100	0x3d578fbd	0.052627314
101	0x3d521e99	0.05129871
102	0xbd583767	-0.05278721
103	0xbd46ebc9	-0.048564706
104	0x3d3408f6	0.04395386
105	0xbd0856cc	-0.0332859
106	0xbd7a049e	-0.06103956
107	0x3d40ddad	0.047086406
108	0xbc9f4778	-0.019443259
109	0xbd2a3fec	-0.041564867
110	0xbd4ff5d6	-0.050771557
111	0x3d3a5eaa	0.045500435
112	0xbd24c6c4	-0.04022862
113	0x3d5c73b1	0.05382127
114	0xbd3a468c	-0.045477435
115	0x3d4e8f45	0.0504296
116	0xbd323427	-0.043506768
117	0xbd4bb61f	-0.04973423
118	0x3d29cfb3	0.041457843
119	0x3d84899e	0.06471561
120	0xbd31c430	-0.04339999
121	0xbd0e60ba	-0.034760214
122	0xbd128175	-0.03576799
123	0xbd5c23a3	-0.053744923
124	0xbd37db63	-0.044886958
125	0xbd4cae9e	-0.049971215
126	0xbd4ef1ae	-0.050523452
127	0xbd0da946	-0.03458526

action_model._discrete_distribution.branches.0.weight f4 [3, 128]
0	0x3b3ef697	0.0029138678
1	0xbce6afdf	-0.028160034
2	0x3b74363a	0.0037263767
3	0x3a0ef813	0.0005453836
4	0xbbbf44d6	-0.0058370633
5	0xbbd90f89	-0.0066241664
6	0x3b485c16	0.0030572466
7	0xbb72d361	-0.0037052261
8	0x3c84fb72	0.01623318
9	0x3c933635	0.017970184
10	0x3ceae540	0.028673768
11	0x3c1681a4	0.009186182
12	0xbbbcaa09	-0.0057575745
13	0x3c36153b	0.01111346
14	0xbb528802	-0.0032124524
15	0xbbaecc79	-0.0053344336
16	0x3c512ec4	0.012767497
17	0xbbd9d1cf	-0.0066473256
18	0x3c03aab8	0.008036308
19	0x3c9aaa39	0.018879997
20	0x3acdd5f4	0.0015704022
21	0xbb9d8640	-0.0048072636
22	0xbbd32d35	-0.006444598
23	0x3c609893	0.0137082515
24	0x3c91ce4f	0.01779857
25	0x3b89e8f0	0.0042086765
26	0xbbd4a5fd	-0.006489514
27	0x3bc4c4f8	0.006004926
28	0x3b40b06b	0.0029402028
29	0x3d012983	0.03153373
30	0x3c617478	0.0137606785
31	0x3ae29a31	0.0017288384
32	0xbccd108c	-0.025032304
33	0xbcab8414	-0.020937003
34	0x3bb5d3d3	0.005548933
35	0x3c61bc45	0.013777797
36	0x3b6fec9c	0.0036609536
37	0xbb9cd4a5	-0.0047860914
38	0x3c95decc	0.018294714
39	0x3b3c1b5e	0.0028702836
40	0xbafabf97	-0.0019130585
41	0x3ba8256f	0.0051314156
42	0xbc4fc51e	-0.012681274
43	0xb93d9270	-0.00018078997
44	0x3bd91994	0.0066253636
45	0x3bfc51ab	0.0077001653
46	0xbcd2ab47	-0.025716437
47	0xbba721fe	-0.0051004877
48	0xbc54d77b	-0.012990828
49	0xbc059a8a	-0.008154521
50	0x3c34efc9	0.011043497
51	0x3c2bedc7	0.010493702
52	0xbb41b705	-0.002955855
53	0xbb2fe3a2	-0.002683856
54	0x3b9bfb5d	0.0047601894
55	0xbcac8b5a	-0.021062542
56	0x3b1a729c	0.0023566848
57	0x3b53a85f	0.0032296402
58	0x3bc8f89b	0.0061331517
59	0xbb85c989	-0.0040828628
60	0xbcbd8ad9	-0.023137497
61	0xbc809dc1	-0.015700223
62	0x3c36d646	0.011159485
63	0xbc4c8584	-0.0124830045
64	0x3ab41f69	0.0013742271
65	0x3af5274b	0.0018703727
66	0xbc8b5471	-0.017008038
67	0x3cbf5282	0.023354772
68	0xbc8fbeeb	-0.017547091
69	0xbb0231ca	-0.0019866102
70	0x3bb1cb0a	0.0054258155
71	0x3c6afb05	0.014342074
72	0xbcf691b7	-0.03009878
73	0xbc03d2c9	-0.008045861
74	0xbc36ffbd	-0.011169371
75	0xbb115b85	-0.0022179794
76	0xbc1a74f4	-0.009427298
77	0xbce6096f	-0.02808067
78	0xba869553	-0.0010267891
79	0x3b67c371	0.0035364295
80	0x3c5d4668	0.013505556
81	0xbb45232f	-0.0030080786
82	0xbb9b0319	-0.004730594
83	0x3c8bec79	0.017080532
84	0xbcaa4a9c	-0.02078753
85	0x3c117d46	0.008879965
86	0x3a9b4c6c	0.0011848337
87	0x3c0b1fa8	0.008491434
88	0x3c0283eb	0.007966022
89	0x3c0c4abe	0.008562742
90	0x3bfec3cc	0.0077748057
91	0x3c89f03a	0.016838182
92	0xbc736fd6	-0.014858207
93	0x3cfffd34	0.031248666
94	0xbc4c2756	-0.01246055
95	0x3c812fa6	0.01576979
96	0x37982237	1.8135745e-05
97	0xbc0f6b6a	-0.008753637
98	0x3c4549fc	0.012041565
99	0x3c29ee6e	0.0103717875
100	0x3c49c57f	0.012315153
101	0x3ccd26c0	0.025042892
102	0xbc33f016	-0.010982534
103	0xbc3482d3	-0.011017519
104	0xbba04fe1	-0.004892335
105	0xbc97bd4b	-0.01852288
106	0xbcde1bb0	-0.027112812
107	0x3c797039	0.01522451
108	0xbc4d563c	-0.012532767
109	0xbbd641fe	-0.0065386286
110	0x3ba811b4	0.0051290635
111	0x3b4b60ac	0.0031032963
112	0xbc510617	-0.0127578
113	0x3c808181	0.015686752
114	0xbba9e019	-0.005184185
115	0x3b897b5b	0.0041956133
116	0xbc88d419	-0.016702699
117	0xbc6232d5	-0.013806065
118	0xbb20454c	-0.0024455367
119	0x3cb38fe8	0.021919206
120	0xbb6dca7e	-0.0036284025
121	0x3c385a34	0.011251975
122	0xbbbe7332	-0.005812072
123	0xbb7c9e8e	-0.0038546654
124	0xbc0978fe	-0.008390663
125	0xbcb89617	-0.022532506
126	0xbc68edef	-0.014216884
127	0xbbb1dd15	-0.0054279664
128	0xbd34b068	-0.044113547
129	0xbd68d561	-0.05684412
130	0x3d6a4ba8	0.057201058
131	0x3d181abb	0.037134867
132	0xbd3db95a	-0.046319343
133	0x3d0a6add	0.03379332
134	0xbd153a28	-0.036432415
135	0xbd349ae5	-0.04409303
136	0x3d26860e	0.04065519
137	0x3d37cc0a	0.04487232
138	0x3d53da2d	0.05172174
139	0x3d56ea80	0.05246973
140	0xbd4120ff	-0.04715061
141	0x3d393323	0.045214783
142	0xbd471c70	-0.048611104
143	0x3d134415	0.0359536
144	0x3d3d50cf	0.046219643
145	0xbd4ca5bb	-0.04996274
146	0xbd187f6c	-0.037230894
147	0x3d548eaa	0.051893868
148	0x3d0de823	0.03464521
149	0x3d3ad644	0.045614496
150	0xbd3cf4b4	-0.046131805
151	0x3d5d01c4	0.053956762
152	0x3d4cd488	0.050007373
153	0x3d1f8224	0.03894247
154	0xbd4b094d	-0.049569417
155	0x3d52d91b	0.05147658
156	0x3d22b039	0.03971884
157	0x3d5a098b	0.053231757
158	0x3d14b71e	0.036307447
159	0x3d2105ae	0.039312057
160	0xbd3cf783	-0.046134483
161	0xbd372380	-0.04471159
162	0x3d0c1879	0.034203026
163	0x3d64a68f	0.055822905
164	0x3d1252f8	0.035723656
165	0x3d1ca11b	0.03823958
166	0x3d22579b	0.03963433
167	0x3d54eb5c	0.05198227
168	0xbd243bfd	-0.04009627
169	0xbd052dfa	-0.03251455
170	0xbd556a9d	-0.052103627
171	0xbd4b9aaf	-0.049708065
172	0xbd6915a8	-0.05690542
173	0x3d4f09b1	0.05054635
174	0xbd5dd358	-0.05415663
175	0xbd2125a9	-0.039342556
176	0xbd652967	-0.055947687
177	0xbd59f8d4	-0.053215817
178	0x3d28753d	0.041127432
179	0xbd3341c9	-0.04376391
180	0xbd23683f	-0.03989434
181	0x3d31ad58	0.043378204
182	0x3d20c57d	0.03925084
183	0xbd42d32f	-0.04756468
184	0x3d4e7405	0.050403614
185	0xbd387f93	-0.04504354
186	0x3d40b73d	0.04704975
187	0xbd2f9757	-0.04286894
188	0xbd61454f	-0.05499774
189	0xbd5bd75a	-0.053672172
190	0x3d64250d	0.055699397
191	0xbd21d0a8	-0.03950563
192	0x3d4794de	0.048725955
193	0x3d2b0d29	0.041760597
194	0xbd6f31d0	-0.058397114
195	0x3d4b5920	0.049645543
196	0xbd5c7a55	-0.053827602
197	0x3d1c9a48	0.03823307
198	0x3d3431f0	0.043992937
199	0x3d25c48a	0.040470637
200	0xbd67237a	-0.056430317
201	0xbd261741	-0.04054952
202	0xbd2ae844	-0.041725412
203	0x3d1ae2ff	0.037814137
204	0xbd408f80	-0.047011852
205	0xbd4822cc	-0.04886131
206	0x3d645e53	0.055754017
207	0x3d0b3182	0.03398276
208	0x3d5560ed	0.05209439
209	0xbd43fd85	-0.047849197
210	0x3d0f53c2	0.034991987
211	0x3d5304ed	0.05151837
212	0xbd4f2f25	-0.05058207
213	0x3d09a6f7	0.033606496
214	0xbd2ddf4a	-0.042449273
215	0x3d60a07e	0.054840557
216	0x3d2ba8e8	0.04190913
217	0x3d41159b	0.047139745
218	0x3d351c28	0.044216305
219	0x3d2703bb	0.040775042
220	0x3d282e15	0.041059572
221	0x3d2ea22c	0.042635128
222	0xbd4230bb	-0.047409754
223	0x3d4d883e	0.05017876
224	0x3d32776b	0.043570917
225	0xbd241d88	-0.040067226
226	0x3d656fde	0.056014888
227	0x3d39d2e3	0.045367133
228	0x3d297c54	0.041378334
229	0x3d553ff1	0.052062932
230	0xbd41a9d6	-0.04728111
231	0xbd3a5fd9	-0.045501564
232	0x3d29934a	0.04140023
233	0xbd6c56f6	-0.05770012
234	0xbd3344d0	-0.043766797
235	0x3d35b4b6	0.044361793
236	0xbce40bb1	-0.027837606
237	0xbd29c729	-0.0414497
238	0xbd337c5c	-0.04381977
239	0x3d092c37	0.033489432
240	0xbd30c5d0	-0.0431574
241	0x3d17ed6a	0.03709165
242	0xbd5a5122	-0.05330003
243	0x3d248c5e	0.040172927
244	0xbd8c7544	-0.06858304
245	0xbd3b1590	-0.04567486
246	0x3d3ad71c	0.0456153
247	0x3d411269	0.047136698
248	0xbce7ef5b	-0.028312376
249	0xbd0c84f9	-0.0343065
250	0xbd35bfc8	-0.04437235
251	0xbd5bdb3e	-0.053675883
252	0xbd5aca79	-0.05341575
253	0xbd49e540	-0.049290895
254	0xbd0d9c2a	-0.034572758
255	0xbd495c53	-0.049160313

action_model._discrete_distribution.branches.0.bias f4 [3]
0	0x3b490b47	0.0030676888
1	0x3d243361	0.04008806
2	0xbd4fce29	-0.05073372

action_model._discrete_distribution.branches.1.weight f4 [2, 128]
0	0x3cc62bc8	0.024190798
1	0x3cf4102a	0.029792864
2	0xbd246992	-0.040139742
3	0xbcca3374	-0.024682738
4	0x3d1c32cb	0.038134377
5	0xbcd38534	-0.025820352
6	0x3d225a72	0.039637037
7	0x3caeb0bf	0.021324513
8	0xbd16602f	-0.03671282
9	0xbce79fde	-0.028274473
10	0xbd0b0af3	-0.03394599
11	0xbc42c66e	-0.01188813
12	0x3d2f0c15	0.04273613
13	0xbc8fa522	-0.017534796
14	0x3cb5f7c7	0.022212876
15	0xbd30a972	-0.043130346
16	0xbcf40883	-0.029789215
17	0x3c140d3f	0.009036361
18	0x3d012d1a	0.031537153
19	0xbd02e07a	-0.03195236
20	0xbc9de56e	-0.01927444
21	0xbceb7180	-0.028740644
22	0x3ce4509d	0.02787047
23	0xbd1b6830	-0.037941158
24	0xbd08e258	-0.033418983
25	0xbce65366	-0.02811594
26	0x3d0f780d	0.0350266
27	0xbc95ed2e	-0.018301573
28	0xbd172cca	-0.03690795
29	0xbd069530	-0.03285712
30	0xbd14eb52	-0.03635723
31	0xbd1684ee	-0.036747865
32	0x3d57f535	0.052724082
33	0x3cd4edab	0.025992235
34	0xbce4f064	-0.027946658
35	0xbd00abbb	-0.031413775
36	0xbce159cf	-0.027508644
37	0xbce5e98a	-0.028065462
38	0xbd163d1d	-0.036679376
39	0xbcb95121	-0.022621693
40	0x3cf3516b	0.029701909
41	0x3bebe5bf	0.0071990187
42	0x3ce6e870	0.028187007
43	0x3c9e225c	0.019303493
44	0x3d03d476	0.03218504
45	0xbcc3dcfc	-0.023909084
46	0x3d53288a	0.051552333
47	0x3d5587f7	0.05213162
48	0x3ce756d9	0.028239654
49	0x3d48d271	0.049028818
50	0xbce0850e	-0.027407195
51	0x3c77daf8	0.01512789
52	0x3ca0ab65	0.019612977
53	0xbcc2105c	-0.023689441
54	0xbcbe393c	-0.02322065
55	0x3d32ca96	0.043650232
56	0xbd074427	-0.03302398
57	0x3cf25aa1	0.02958423
58	0xbcbf5615	-0.023356477
59	0x3c266bc1	0.0101575265
60	0x3cb43ec8	0.022002593
61	0x3d2d0e62	0.042250045
62	0xbcacfa80	-0.021115541
63	0x3c9ef773	0.019405102
64	0xbd196645	-0.037451047
65	0xbcafff12	-0.021483932
66	0x3ceb1d9e	0.028700646
67	0xbcb6d902	-0.022320274
68	0x3cf3f402	0.029779438
69	0xbd1d26e4	-0.038367167
70	0xbd542d58	-0.051801056
71	0xbd3a8eb9	-0.045546267
72	0x3cfe9fd4	0.031082071
73	0x3c3a7247	0.011379785
74	0x3cdc87c3	0.026920205
75	0xbcc4d00f	-0.024024991
76	0x3ccda138	0.02510129
77	0x3d000e6c	0.031263754
78	0xbd28e989	-0.04123834
79	0xbc8d083d	-0.017215842
80	0xbce7307c	-0.028221361
81	0x3cef9421	0.029245438
82	0xbd3fbcad	-0.046810795
83	0xbcf5f064	-0.030021854
84	0x3d02d11f	0.031937715
85	0xbd114291	-0.035463873
86	0x3ce85ff9	0.028366076
87	0xbc59b433	-0.013287592
88	0xbd13ceb8	-0.036085814
89	0xbd04351d	-0.032277215
90	0xbd1b7cff	-0.037961002
91	0xbd24c140	-0.04022336
92	0xbce5db4d	-0.028058672
93	0xbd460241	-0.048341993
94	0x3d001bd3	0.031276535
95	0xbd5b8951	-0.053597752
96	0xbc091514	-0.008366842
97	0x3cf26764	0.029590316
98	0xbcaa4647	-0.020785464
99	0xbd1e7a35	-0.038690764
100	0xbd42c89e	-0.047554605
101	0xbcf5c46b	-0.030000886
102	0x3d2ad78a	0.04170946
103	0x3cc3aeb8	0.023887023
104	0xbd7c94b2	-0.061665244
105	0x3c417e4b	0.011809896
106	0x3d43beca	0.047789373
107	0xbd46f24a	-0.04857091
108	0x3c9dfe3a	0.019286264
109	0x3ccb5481	0.024820568
110	0x3d2a89db	0.041635375
111	0xbd0cdbda	-0.034389354
112	0x3b9ec802	0.00484562
113	0xbcdfce90	-0.027320176
114	0x3cadbd28	0.02120836
115	0xbd3dcff0	-0.046340883
116	0x3ca6d4b5	0.020365098
117	0x3d135729	0.035971794
118	0xbd043329	-0.032275353
119	0xbd1189c4	-0.035531774
120	0x3d2d3c67	0.042293932
121	0x3cda9d46	0.026686322
122	0x3cf6a60f	0.03010848
123	0x3d1a9e28	0.037748486
124	0x3d0e2423	0.03470243
125	0x3d1c90b4	0.038223937
126	0x3d3dbbe7	0.046321776
127	0x3cef1dd0	0.02918902
128	0xbd32ef79	-0.04368541
129	0xbd12ddeb	-0.03585617
130	0x3d1505d1	0.0363825
131	0x3d08a4b0	0.033360183
132	0xbd141232	-0.036150165
133	0x3d3888d3	0.04505236
134	0xbd19ee6e	-0.0375809
135	0xbca1e9e0	-0.01976484
136	0x3d0267f2	0.03183741
137	0x3d2f6743	0.042823087
138	0x3d195ada	0.03744016
139	0x3ca818d6	0.020519655
140	0xbc8e0e39	-0.017340766
141	0x3c9253f5	0.0178623
142	0xbcf910ad	-0.03040346
143	0x3d4fe8ea	0.050759234
144	0x3d14bd2f	0.036313232
145	0xbcdc5f5c	-0.02690094
146	0xbcb7082b	-0.022342762
147	0x3d09127a	0.033464886
148	0x3cd6d96b	0.02622672
149	0x3cf34113	0.029694116
150	0xbcc8e28f	-0.024522094
151	0x3d0a6176	0.033784352
152	0x3cc61f8e	0.024184968
153	0x3d12fdfe	0.035886757
154	0xbca5b648	-0.02022852
155	0x3d338b5e	0.043834083
156	0x3c0a5257	0.008442483
157	0x3d0029e9	0.03128997
158	0x3d2ac861	0.041695002
159	0x3d32265c	0.043493614
160	0xbcf11fee	-0.02943417
161	0xbcd6a793	-0.026202952
162	0x3c3aaebb	0.011394198
163	0x3cfe367a	0.031031836
164	0x3cd6fde4	0.026244111
165	0x3d1e855e	0.038701408
166	0x3d31564e	0.043295197
167	0x3ccd7dbd	0.02508437
168	0xbcfc6e1c	-0.030814223
169	0xbce71f55	-0.028213182
170	0xbd15f5b5	-0.036611278
171	0xbce12255	-0.027482191
172	0xbd1935cb	-0.037404817
173	0x3c68f36c	0.014218193
174	0xbd5b5b77	-0.053554025
175	0xbd2ee71b	-0.042700868
176	0xbc8ee513	-0.017443215
177	0xbcc0dc23	-0.02354247
178	0x3cd88bc1	0.026433827
179	0xbcce6c52	-0.025198136
180	0xbc60da49	-0.013723918
181	0x3cc472d5	0.023980537
182	0x3ccec252	0.025239144
183	0xbd3fc7b2	-0.046821304
184	0x3d47268d	0.04862075
185	0xbd0fe705	-0.035132427
186	0x3d1c72ed	0.03819554
187	0xbd184a5a	-0.037180282
188	0xbd1a9a41	-0.037744764
189	0xbccc9452	-0.024973068
190	0x3c9b2d02	0.01894236
191	0xbd09d825	-0.033653397
192	0x3cfe3dd1	0.031035336
193	0x3cdb5c1a	0.026777316
194	0xbcfcc8c3	-0.03085745
195	0x3ca2a0e5	0.019852111
196	0xbd007a07	-0.031366374
197	0x3cb21be4	0.021741815
198	0x3d30c8cf	0.043160256
199	0x3cf82266	0.03028984
200	0xbcf525e4	-0.029925294
201	0xbcbc689f	-0.022999106
202	0xbd003ef4	-0.031310037
203	0x3caa4942	0.020786885
204	0xbd0cd401	-0.03438187
205	0xbd21eb6f	-0.039531168
206	0x3d0796d8	0.03310284
207	0x3cd00a1e	0.02539545
208	0x3cde554c	0.027140282
209	0xbca79706	-0.020457756
210	0x3cf4e2e4	0.029893346
211	0x3c9958a8	0.018719032
212	0xbc85fa98	-0.016354844
213	0x3d1f5f82	0.038909443
214	0xbd476c6a	-0.048687376
215	0x3c6942f0	0.014237151
216	0x3ca7c24e	0.020478394
217	0x3cbf059b	0.023318103
218	0x3d3c3ae9	0.04595462
219	0x3d1d00ec	0.038330957
220	0x3d3f6348	0.04672554
221	0x3d0513f3	0.03248973
222	0xbcfe2960	-0.031025589
223	0x3d329882	0.043602474
224	0x3d33d8e9	0.043908034
225	0xbd12c5f2	-0.035833307
226	0x3ca98116	0.020691436
227	0x3cdce77e	0.026965853
228	0x3cdf235c	0.02723854
229	0x3cd2363d	0.025660628
230	0xbd4474ee	-0.047963075
231	0xbced6e54	-0.028983273
232	0x3d3ee2c0	0.046602964
233	0xbc8de040	-0.017318845
234	0xbd09bec9	-0.033629213
235	0x3d2cce52	0.04218895
236	0xbc8a469b	-0.01687937
237	0xbccb8551	-0.024843844
238	0xbcc37d23	-0.02386338
239	0x3d1736d8	0.036917537
240	0xbd2a3ffd	-0.04156493
241	0x3d4157ec	0.04720299
242	0xbd0ecb82	-0.03486205
243	0x3d0b6fe0	0.03404224
244	0xbce3b0f7	-0.027794344
245	0xbc96f0a5	-0.018425295
246	0x3cea8129	0.028626041
247	0x3d775ec7	0.06039312
248	0xbc29fb75	-0.010374893
249	0xbcc4f853	-0.024044191
250	0xbd34281c	-0.043983564
251	0xbd284305	-0.04107954
252	0xbd39c0ac	-0.04534976
253	0xbc7f8de2	-0.015597792
254	0xbd52bc04	-0.051448837
255	0xbcf9216f	-0.03041145

action_model._discrete_distribution.branches.1.bias f4 [2]
0	0xbcfef095	-0.031120578
1	0x3cfef089	0.031120555

onnx::Div_78 f4 [405]
0	0x3bb95de1	0.005656943
1	0x3ab95f38	0.0014142757
2	0x3ab95f38	0.0014142757
3	0x3b928b61	0.0044721817
4	0x3b928b61	0.0044721817
5	0x3bb95de1	0.005656943
6	0x3ab95f38	0.0014142757
7	0x3ab95f38	0.0014142757
8	0x3b928b61	0.0044721817
9	0x3b928b61	0.0044721817
10	0x3bb95de1	0.005656943
11	0x3ab95f38	0.0014142757
12	0x3ab95f38	0.0014142757
13	0x3b928b61	0.0044721817
14	0x3b928b61	0.0044721817
15	0x3bb95de1	0.005656943
16	0x3ab95f38	0.0014142757
17	0x3ab95f38	0.0014142757
18	0x3b928b61	0.0044721817
19	0x3b928b61	0.0044721817
20	0x3bb95de1	0.005656943
21	0x3ab95f38	0.0014142757
22	0x3ab95f38	0.0014142757
23	0x3b928b61	0.0044721817
24	0x3b928b61	0.0044721817
25	0x3bb95de1	0.005656943
26	0x3ab95f38	0.0014142757
27	0x3ab95f38	0.0014142757
28	0x3b928b61	0.0044721817
29	0x3b928b61	0.0044721817
30	0x3bb95de1	0.005656943
31	0x3ab95f38	0.0014142757
32	0x3ab95f38	0.0014142757
33	0x3b928b61	0.0044721817
34	0x3b928b61	0.0044721817
35	0x3bb95de1	0.005656943
36	0x3ab95f38	0.0014142757
37	0x3ab95f38	0.0014142757
38	0x3b928b61	0.0044721817
39	0x3b928b61	0.0044721817
40	0x3bb95de1	0.005656943
41	0x3ab95f38	0.0014142757
42	0x3ab95f38	0.0014142757
43	0x3b928b61	0.0044721817
44	0x3b928b61	0.0044721817
45	0x3bb95de1	0.005656943
46	0x3ab95f38	0.0014142757
47	0x3ab95f38	0.0014142757
48	0x3b928b61	0.0044721817
49	0x3b928b61	0.0044721817
50	0x3bb95de1	0.005656943
51	0x3ab95f38	0.0014142757
52	0x3ab95f38	0.0014142757
53	0x3b928b61	0.0044721817
54	0x3b928b61	0.0044721817
55	0x3bb95de1	0.005656943
56	0x3ab95f38	0.0014142757
57	0x3ab95f38	0.0014142757
58	0x3b928b61	0.0044721817
59	0x3b928b61	0.0044721817
60	0x3bb95de1	0.005656943
61	0x3ab95f38	0.0014142757
62	0x3ab95f38	0.0014142757
63	0x3b928b61	0.0044721817
64	0x3b928b61	0.0044721817
65	0x3bb95de1	0.005656943
66	0x3ab95f38	0.0014142757
67	0x3ab95f38	0.0014142757
68	0x3b928b61	0.0044721817
69	0x3b928b61	0.0044721817
70	0x3bb95de1	0.005656943
71	0x3ab95f38	0.0014142757
72	0x3ab95f38	0.0014142757
73	0x3b928b61	0.0044721817
74	0x3b928b61	0.0044721817
75	0x3bb95de1	0.005656943
76	0x3ab95f38	0.0014142757
77	0x3ab95f38	0.0014142757
78	0x3b928b61	0.0044721817
79	0x3b928b61	0.0044721817
80	0x3bb95de1	0.005656943
81	0x3ab95f38	0.0014142757
82	0x3ab95f38	0.0014142757
83	0x3b928b61	0.0044721817
84	0x3b928b61	0.0044721817
85	0x3bb95de1	0.005656943
86	0x3ab95f38	0.0014142757
87	0x3ab95f38	0.0014142757
88	0x3b928b61	0.0044721817
89	0x3b928b61	0.0044721817
90	0x3bb95de1	0.005656943
91	0x3ab95f38	0.0014142757
92	0x3ab95f38	0.0014142757
93	0x3b928b61	0.0044721817
94	0x3b928b61	0.0044721817
95	0x3bb95de1	0.005656943
96	0x3ab95f38	0.0014142757
97	0x3ab95f38	0.0014142757
98	0x3b928b61	0.0044721817
99	0x3b928b61	0.0044721817
100	0x3bb95de1	0.005656943
101	0x3ab95f38	0.0014142757
102	0x3ab95f38	0.0014142757
103	0x3b928b61	0.0044721817
104	0x3b928b61	0.0044721817
105	0x3bb95de1	0.005656943
106	0x3ab95f38	0.0014142757
107	0x3ab95f38	0.0014142757
108	0x3b928b61	0.0044721817
109	0x3b928b61	0.0044721817
110	0x3bb95de1	0.005656943
111	0x3ab95f38	0.0014142757
112	0x3ab95f38	0.0014142757
113	0x3b928b61	0.0044721817
114	0x3b928b61	0.0044721817
115	0x3bb95de1	0.005656943
116	0x3ab95f38	0.0014142757
117	0x3ab95f38	0.0014142757
118	0x3b928b61	0.0044721817
119	0x3b928b61	0.0044721817
120	0x3bb95de1	0.005656943
121	0x3ab95f38	0.0014142757
122	0x3ab95f38	0.0014142757
123	0x3b928b61	0.0044721817
124	0x3b928b61	0.0044721817
125	0x3bb95de1	0.005656943
126	0x3ab95f38	0.0014142757
127	0x3ab95f38	0.0014142757
128	0x3b928b61	0.0044721817
129	0x3b928b61	0.0044721817
130	0x3bb95de1	0.005656943
131	0x3ab95f38	0.0014142757
132	0x3ab95f38	0.0014142757
133	0x3b928b61	0.0044721817
134	0x3b928b61	0.0044721817
135	0x3bb95de1	0.005656943
136	0x3ab95f38	0.0014142757
137	0x3ab95f38	0.0014142757
138	0x3b928b61	0.0044721817
139	0x3b928b61	0.0044721817
140	0x3bb95de1	0.005656943
141	0x3ab95f38	0.0014142757
142	0x3ab95f38	0.0014142757
143	0x3b928b61	0.0044721817
144	0x3b928b61	0.0044721817
145	0x3bb95de1	0.005656943
146	0x3ab95f38	0.0014142757
147	0x3ab95f38	0.0014142757
148	0x3b928b61	0.0044721817
149	0x3b928b61	0.0044721817
150	0x3bb95de1	0.005656943
151	0x3ab95f38	0.0014142757
152	0x3ab95f38	0.0014142757
153	0x3b928b61	0.0044721817
154	0x3b928b61	0.0044721817
155	0x3bb95de1	0.005656943
156	0x3ab95f38	0.0014142757
157	0x3ab95f38	0.0014142757
158	0x3b928b61	0.0044721817
159	0x3b928b61	0.0044721817
160	0x3bb95de1	0.005656943
161	0x3ab95f38	0.0014142757
162	0x3ab95f38	0.0014142757
163	0x3b928b61	0.0044721817
164	0x3b928b61	0.0044721817
165	0x3bb95de1	0.005656943
166	0x3ab95f38	0.0014142757
167	0x3ab95f38	0.0014142757
168	0x3b928b61	0.0044721817
169	0x3b928b61	0.0044721817
170	0x3bb95de1	0.005656943
171	0x3ab95f38	0.0014142757
172	0x3ab95f38	0.0014142757
173	0x3b928b61	0.0044721817
174	0x3b928b61	0.0044721817
175	0x3bb95de1	0.005656943
176	0x3ab95f38	0.0014142757
177	0x3ab95f38	0.0014142757
178	0x3b928b61	0.0044721817
179	0x3b928b61	0.0044721817
180	0x3bb95de1	0.005656943
181	0x3ab95f38	0.0014142757
182	0x3ab95f38	0.0014142757
183	0x3b928b61	0.0044721817
184	0x3b928b61	0.0044721817
185	0x3bb95de1	0.005656943
186	0x3ab95f38	0.0014142757
187	0x3ab95f38	0.0014142757
188	0x3b928b61	0.0044721817
189	0x3b928b61	0.0044721817
190	0x3bb95de1	0.005656943
191	0x3ab95f38	0.0014142757
192	0x3ab95f38	0.0014142757
193	0x3b928b61	0.0044721817
194	0x3b928b61	0.0044721817
195	0x3bb95de1	0.005656943
196	0x3ab95f38	0.0014142757
197	0x3ab95f38	0.0014142757
198	0x3b928b61	0.0044721817
199	0x3b928b61	0.0044721817
200	0x3bb95de1	0.005656943
201	0x3ab95f38	0.0014142757
202	0x3ab95f38	0.0014142757
203	0x3b928b61	0.0044721817
204	0x3b928b61	0.0044721817
205	0x3bb95de1	0.005656943
206	0x3ab95f38	0.0014142757
207	0x3ab95f38	0.0014142757
208	0x3b928b61	0.0044721817
209	0x3b928b61	0.0044721817
210	0x3bb95de1	0.005656943
211	0x3ab95f38	0.0014142757
212	0x3ab95f38	0.0014142757
213	0x3b928b61	0.0044721817
214	0x3b928b61	0.0044721817
215	0x3bb95de1	0.005656943
216	0x3ab95f38	0.0014142757
217	0x3ab95f38	0.0014142757
218	0x3b928b61	0.0044721817
219	0x3b928b61	0.0044721817
220	0x3bb95de1	0.005656943
221	0x3ab95f38	0.0014142757
222	0x3ab95f38	0.0014142757
223	0x3b928b61	0.0044721817
224	0x3b928b61	0.0044721817
225	0x3bb95de1	0.005656943
226	0x3ab95f38	0.0014142757
227	0x3ab95f38	0.0014142757
228	0x3b928b61	0.0044721817
229	0x3b928b61	0.0044721817
230	0x3bb95de1	0.005656943
231	0x3ab95f38	0.0014142757
232	0x3ab95f38	0.0014142757
233	0x3b928b61	0.0044721817
234	0x3b928b61	0.0044721817
235	0x3bb95de1	0.005656943
236	0x3ab95f38	0.0014142757
237	0x3ab95f38	0.0014142757
238	0x3b8b0637	0.004242684
239	0x3b8d0fbe	0.004304855
240	0x3bb95de1	0.005656943
241	0x3ab95f38	0.0014142757
242	0x3ab95f38	0.0014142757
243	0x3b928b61	0.0044721817
244	0x3b928b61	0.0044721817
245	0x3bb95de1	0.005656943
246	0x3ab95f38	0.0014142757
247	0x3ab95f38	0.0014142757
248	0x3b831320	0.0040000826
249	0x3b88e041	0.004177124
250	0x3bb95de1	0.005656943
251	0x3ab95f38	0.0014142757
252	0x3ab95f38	0.0014142757
253	0x3b928b61	0.0044721817
254	0x3b928b61	0.0044721817
255	0x3bb95de1	0.005656943

onnx::Div_81 f4 [13]
0	0x3ab95f38	0.0014142757
1	0x3ab95f38	0.0014142757
2	0x3ab95f38	0.0014142757
3	0x3ab95f38	0.0014142757
4	0x3ab95f38	0.0014142757
5	0x3ab95f38	0.0014142757
6	0x3ab95f38	0.0014142757
7	0x3ab95f38	0.0014142757
8	0x3ab95f38	0.0014142757
9	0x3ab95f38	0.0014142757
10	0x3ab95f38	0.0014142757
11	0x3ab95f38	0.0014142757
12	0x3ab95f38	0.0014142757
