Assets/Training/results/plzwork/PlayerAgentBehavior/PlayerAgentBehavior-71548.onnx (onnx, 295465 bytes, 13 tensors)

discrete_act_size_vector f4 [1, 2]
0	0x40400000	3.0
1	0x40000000	2.0

network_body.observation_encoder.processors.0.normalizer.running_mean f4 [405]
0	0x00000000	0.0
1	0x00000000	0.0
2	0x00000000	0.0
3	0x376a7c77	1.3976466e-05
4	0x376a7c77	1.3976466e-05
5	0x00000000	0.0
6	0x00000000	0.0
7	0x00000000	0.0
8	0x376a7c77	1.3976466e-05
9	0x376a7c77	1.3976466e-05
10	0x00000000	0.0
11	0x00000000	0.0
12	0x00000000	0.0
13	0x376a7c77	1.3976466e-05
14	0x376a7c77	1.3976466e-05
15	0x00000000	0.0
16	0x00000000	0.0
17	0x00000000	0.0
18	0x376a7c77	1.3976466e-05
19	0x376a7c77	1.3976466e-05
20	0x00000000	0.0
21	0x00000000	0.0
22	0x00000000	0.0
23	0x376a7c77	1.3976466e-05
24	0x376a7c77	1.3976466e-05
25	0x00000000	0.0
26	0x00000000	0.0
27	0x00000000	0.0
28	0x376a7c77	1.3976466e-05
29	0x376a7c77	1.3976466e-05
30	0x00000000	0.0
31	0x00000000	0.0
32	0x00000000	0.0
33	0x376a7c77	1.3976466e-05
34	0x376a7c77	1.3976466e-05
35	0x00000000	0.0
36	0x00000000	0.0
37	0x00000000	0.0
38	0x376a7c77	1.3976466e-05
39	0x376a7c77	1.3976466e-05
40	0x00000000	0.0
41	0x00000000	0.0
42	0x00000000	0.0
43	0x376a7c77	1.3976466e-05
44	0x376a7c77	1.3976466e-05
45	0x00000000	0.0
46	0x00000000	0.0
47	0x00000000	0.0
48	0x376a7c77	1.3976466e-05
49	0x376a7c77	1.3976466e-05
50	0x00000000	0.0
51	0x00000000	0.0
52	0x00000000	0.0
53	0x376a7c77	1.3976466e-05
54	0x376a7c77	1.3976466e-05
55	0x00000000	0.0
56	0x00000000	0.0
57	0x00000000	0.0
58	0x376a7c77	1.3976466e-05
59	0x376a7c77	1.3976466e-05
60	0x00000000	0.0
61	0x00000000	0.0
62	0x00000000	0.0
63	0x376a7c77	1.3976466e-05
64	0x376a7c77	1.3976466e-05
65	0x00000000	0.0
66	0x00000000	0.0
67	0x00000000	0.0
68	0x376a7c77	1.3976466e-05
69	0x376a7c77	1.3976466e-05
70	0x00000000	0.0
71	0x00000000	0.0
72	0x00000000	0.0
73	0x376a7c77	1.3976466e-05
74	0x376a7c77	1.3976466e-05
75	0x00000000	0.0
76	0x00000000	0.0
77	0x00000000	0.0
78	0x376a7c77	1.3976466e-05
79	0x376a7c77	1.3976466e-05
80	0x00000000	0.0
81	0x00000000	0.0
82	0x00000000	0.0
83	0x376a7c77	1.3976466e-05
84	0x376a7c77	1.3976466e-05
85	0x00000000	0.0
86	0x00000000	0.0
87	0x00000000	0.0
88	0x376a7c77	1.3976466e-05
89	0x376a7c77	1.3976466e-05
90	0x00000000	0.0
91	0x00000000	0.0
92	0x00000000	0.0
93	0x376a7c77	1.3976466e-05
94	0x376a7c77	1.3976466e-05
95	0x00000000	0.0
96	0x00000000	0.0
97	0x00000000	0.0
98	0x376a7c77	1.3976466e-05
99	0x376a7c77	1.3976466e-05
100	0x00000000	0.0
101	0x00000000	0.0
102	0x00000000	0.0
103	0x376a7c77	1.3976466e-05
104	0x376a7c77	1.3976466e-05
105	0x00000000	0.0
106	0x00000000	0.0
107	0x00000000	0.0
108	0x376a7c77	1.3976466e-05
109	0x376a7c77	1.3976466e-05
110	0x00000000	0.0
111	0x00000000	0.0
112	0x00000000	0.0
113	0x376a7c77	1.3976466e-05
114	0x376a7c77	1.3976466e-05
115	0x00000000	0.0
116	0x00000000	0.0
117	0x00000000	0.0
118	0x376a7c77	1.3976466e-05
119	0x376a7c77	1.3976466e-05
120	0x00000000	0.0
121	0x00000000	0.0
122	0x00000000	0.0
123	0x376a7c77	1.3976466e-05
124	0x376a7c77	1.3976466e-05
125	0x00000000	0.0
126	0x00000000	0.0
127	0x00000000	0.0
128	0x376a7c77	1.3976466e-05
129	0x376a7c77	1.3976466e-05
130	0x00000000	0.0
131	0x00000000	0.0
132	0x00000000	0.0
133	0x376a7c77	1.3976466e-05
134	0x376a7c77	1.3976466e-05
135	0x00000000	0.0
136	0x376a7c77	1.3976466e-05
137	0x00000000	0.0
138	0x00000000	0.0
139	0x36bd44a3	5.6406293e-06
140	0x00000000	0.0
141	0x00000000	0.0
142	0x00000000	0.0
143	0x376a7c77	1.3976466e-05
144	0x376a7c77	1.3976466e-05
145	0x00000000	0.0
146	0x376a7c77	1.3976466e-05
147	0x00000000	0.0
148	0x00000000	0.0
149	0x36b0f994	5.2742635e-06
150	0x00000000	0.0
151	0x00000000	0.0
152	0x00000000	0.0
153	0x376a7c77	1.3976466e-05
154	0x376a7c77	1.3976466e-05
155	0x00000000	0.0
156	0x376a7c77	1.3976466e-05
157	0x00000000	0.0
158	0x00000000	0.0
159	0x36acc309	5.1487045e-06
160	0x00000000	0.0
161	0x00000000	0.0
162	0x00000000	0.0
163	0x376a7c77	1.3976466e-05
164	0x376a7c77	1.3976466e-05
165	0x00000000	0.0
166	0x376a7c77	1.3976466e-05
167	0x00000000	0.0
168	0x00000000	0.0
169	0x36aca0e6	5.1447305e-06
170	0x00000000	0.0
171	0x00000000	0.0
172	0x00000000	0.0
173	0x376a7c77	1.3976466e-05
174	0x376a7c77	1.3976466e-05
175	0x00000000	0.0
176	0x376a7c77	1.3976466e-05
177	0x00000000	0.0
178	0x00000000	0.0
179	0x36b07fc8	5.2600844e-06
180	0x00000000	0.0
181	0x00000000	0.0
182	0x00000000	0.0
183	0x376a7c77	1.3976466e-05
184	0x376a7c77	1.3976466e-05
185	0x00000000	0.0
186	0x00000000	0.0
187	0x00000000	0.0
188	0x00000000	0.0
189	0x359f4900	1.1867669e-06
190	0x00000000	0.0
191	0x00000000	0.0
192	0x00000000	0.0
193	0x376a7c77	1.3976466e-05
194	0x376a7c77	1.3976466e-05
195	0x00000000	0.0
196	0x00000000	0.0
197	0x00000000	0.0
198	0x00000000	0.0
199	0x3595e097	1.1166729e-06
200	0x00000000	0.0
201	0x00000000	0.0
202	0x00000000	0.0
203	0x376a7c77	1.3976466e-05
204	0x376a7c77	1.3976466e-05
205	0x00000000	0.0
206	0x00000000	0.0
207	0x00000000	0.0
208	0x00000000	0.0
209	0x35913814	1.0819663e-06
210	0x00000000	0.0
211	0x00000000	0.0
212	0x00000000	0.0
213	0x376a7c77	1.3976466e-05
214	0x376a7c77	1.3976466e-05
215	0x00000000	0.0
216	0x00000000	0.0
217	0x00000000	0.0
218	0x00000000	0.0
219	0x358ead8e	1.0630336e-06
220	0x00000000	0.0
221	0x00000000	0.0
222	0x00000000	0.0
223	0x376a7c77	1.3976466e-05
224	0x376a7c77	1.3976466e-05
225	0x00000000	0.0
226	0x00000000	0.0
227	0x00000000	0.0
228	0x00000000	0.0
229	0x358cb78e	1.0484234e-06
230	0x00000000	0.0
231	0x00000000	0.0
232	0x00000000	0.0
233	0x376a7c77	1.3976466e-05
234	0x376a7c77	1.3976466e-05
235	0x00000000	0.0
236	0x00000000	0.0
237	0x00000000	0.0
238	0x00000000	0.0
239	0x358b4c7e	1.0378569e-06
240	0x00000000	0.0
241	0x00000000	0.0
242	0x00000000	0.0
243	0x376a7c77	1.3976466e-05
244	0x376a7c77	1.3976466e-05
245	0x00000000	0.0
246	0x00000000	0.0
247	0x00000000	0.0
248	0x00000000	0.0
249	0x358a6584	1.0311346e-06
250	0x00000000	0.0
251	0x00000000	0.0
252	0x00000000	0.0
253	0x376a7c77	1.3976466e-05
254	0x376a7c77	1.3976466e-05
255	0x00000000	0.0

network_body.observation_encoder.processors.1.normalizer.running_mean f4 [13]
0	0x00000000	0.0
1	0x00000000	0.0
2	0x00000000	0.0
3	0x00000000	0.0
4	0x00000000	0.0
5	0x00000000	0.0
6	0x00000000	0.0
7	0x00000000	0.0
8	0x00000000	0.0
9	0x00000000	0.0
10	0x00000000	0.0
11	0x00000000	0.0
12	0x00000000	0.0

network_body._body_endoder.seq_layers.0.weight f4 [128, 418]
0	0xbdf095a0	-0.11747289
1	0x3d6a48fc	0.05719851
2	0x3c0cf52e	0.008603377
3	0x3c0a99e7	0.008459545
4	0x3d4a0536	0.049321376
5	0x3d99c532	0.07508315
6	0xbc82e6c2	-0.015979175
7	0x3c502b90	0.012705699
8	0x3d86d69f	0.065839045
9	0x3cbffa07	0.023434652
10	0x3b5921d9	0.0033131747
11	0xbce25020	-0.027626097
12	0xbb752277	-0.0037404576
13	0x3c1083d3	0.008820492
14	0x3d255043	0.040359747
15	0x3bd7021f	0.006561532
16	0xbc127700	-0.008939505
17	0xbd927d4c	-0.07152805
18	0x3ca4fecd	0.02014103
19	0xbd4e5301	-0.050372127
20	0xbd0510b6	-0.03248664
21	0xbcdb4acd	-0.026769066
22	0x3d051027	0.032486107
23	0x34d36280	3.937348e-07
24	0xbd42683b	-0.047462683
25	0x3d11fdac	0.03564231
26	0x3c17ea53	0.009272176
27	0xbda56741	-0.08076335
28	0x3cb97975	0.022640923
29	0x3cf73eb9	0.030181276
30	0x3d0c494f	0.0342496
31	0xbc8ee612	-0.01744369
32	0xbadf8ecb	-0.0017056105
33	0x3c68d97e	0.01421201
34	0x3d28ff10	0.04125887
35	0x3c776cd0	0.0151016265
36	0x3d873df5	0.06603614
37	0xbb28245a	-0.0025656433
38	0xbbe53dd0	-0.006995894
39	0x3d2600ce	0.04052811
40	0x3b58985a	0.0033049793
41	0x3d0517d6	0.032493435
42	0x3daf0273	0.08545389
43	0xbcada7c5	-0.021198163
44	0x3d3f66e7	0.046728995
45	0xbdef1ccc	-0.116754144
46	0xbd16bfcb	-0.036804
47	0xbd54fae2	-0.051997073
48	0x3c81b06f	0.0158312
49	0x3dcc5259	0.09976644
50	0xbca5dbc5	-0.020246396
51	0xbc5aa023	-0.013343844
52	0x3d715071	0.058914606
53	0x3dba362d	0.090923645
54	0x3d4390b9	0.04774544
55	0x3d11f14b	0.035630506
56	0x3ca1f25f	0.019768892
57	0x3ce1d7f4	0.027568795
58	0x3d99094d	0.07472477
59	0x3c330cfa	0.010928387
60	0x3dd52043	0.10406544
61	0x3caf772e	0.021419134
62	0xbcf6c498	-0.03012304
63	0x3da77c76	0.08178036
64	0xbc1b409e	-0.009475855
65	0x3db6a94d	0.0891901
66	0x3c172069	0.009224036
67	0xbdb6753d	-0.0890908
68	0xbd8cec27	-0.0688098
69	0x3db812bd	0.08987949
70	0x3d2b7184	0.041856304
71	0x3d18d370	0.037311018
72	0xbd75cdf8	-0.06001088
73	0x3dfc4b4d	0.1231905
74	0xbd050e52	-0.03248436
75	0xbdacfe4c	-0.08446941
76	0xbd38ae3b	-0.045088034
77	0xbd675dd6	-0.056485973
78	0x3d1f3979	0.03887317
79	0xbd457a2b	-0.04821221
80	0xbd125176	-0.03572222
81	0xbd490ed6	-0.049086414
82	0xbd13f032	-0.03611774
83	0x3c6b2773	0.014352667
84	0x3bef4e15	0.0073030093
85	0xbc3c423c	-0.011490401
86	0xbd479b49	-0.048732076
87	0x3cbdddd4	0.023177065
88	0xbd2b4add	-0.041819442
89	0x3d7b1972	0.061303563
90	0xbca0d00e	-0.019630458
91	0xbd860b11	-0.065450795
92	0xbcbf3cef	-0.023344485
93	0x3dc4c2dd	0.0960748
94	0xbd47b7be	-0.048759215
95	0x3ceaa6c9	0.028643982
96	0x3c67210e	0.014107002
97	0xbd7cd2f6	-0.061724626
98	0x3d91237f	0.070868485
99	0xbcc9fae1	-0.024655761
100	0xbd49b942	-0.04924894
101	0xbcb534ab	-0.02211984
102	0x3dd8dcfb	0.10589024
103	0x3d803ffe	0.062622055
104	0x3db6b535	0.08921281
105	0x3d49d15f	0.049271937
106	0x3c55ce73	0.01304971
107	0xbd1ff9d9	-0.039056633
108	0x3c9cc2e9	0.01913591
109	0x3d2694d3	0.040669274
110	0x3df55f37	0.119810514
111	0xbd50f780	-0.051017284
112	0xbbb82a62	-0.005620287
113	0xbcea2d1b	-0.028585961
114	0x3dca9005	0.09890751
115	0xbb1a6492	-0.002355848
116	0x3c800af0	0.015630215
117	0x3c80ba7b	0.01571392
118	0x3e0b8a01	0.13626863
119	0x3e044dc5	0.12920292
120	0xbb42e6a1	-0.0029739516
121	0x3ad68174	0.0016365484
122	0x3c7c17f1	0.015386567
123	0xbbe46010	-0.0069694594
124	0x3d66840a	0.056278266
125	0x3cf18d6c	0.02948638
126	0x3d9b8f6e	0.075957164
127	0xbd188a67	-0.037241366
128	0xbc374949	-0.011186906
129	0x3d0befe9	0.034164343
130	0xbcd855d8	-0.026408121
131	0xbc66bd42	-0.0140832085
132	0x3d1cb4c4	0.03825833
133	0x3cb4912f	0.022041885
134	0x3d5a30b9	0.05326912
135	0xbd72fad4	-0.05932124
136	0x3cd9acf5	0.02657173
137	0x3d3aba81	0.04558802
138	0xbd48a191	-0.048982207
139	0x3d98d134	0.07461777
140	0xbd30a107	-0.043122318
141	0x3d4b9438	0.0497019
142	0x3d9703f3	0.073738
143	0x3d776b82	0.06040526
144	0x3d24ae7e	0.04020547
145	0xbd554059	-0.05206332
146	0x3ce0b45d	0.027429754
147	0x3bdb88e8	0.00669967
148	0xb9f6d6a1	-0.00047080687
149	0x3db48864	0.08815077
150	0xbdb01126	-0.08597021
151	0x3cf409e9	0.029789882
152	0xbc1c79e1	-0.009550543
153	0x3dc11e37	0.09429591
154	0x3d05caa0	0.03266394
155	0xbc36736e	-0.011135919
156	0xbbae849a	-0.005325866
157	0xbcae504a	-0.02127852
158	0xbc085f24	-0.008323465
159	0xbd2d3392	-0.04228551
160	0x3db8ff56	0.090330765
161	0xbbd91290	-0.0066245273
162	0xbcb3ac5f	-0.021932779
163	0x3d6215de	0.055196635
164	0x3d284a21	0.04108632
165	0x3c7aa03a	0.01529699
166	0x3db3dfc9	0.08782918
167	0x3c994cba	0.018713344
168	0x3aa4abc4	0.0012563397
169	0x3c9dc5c2	0.019259337
170	0xba59a8e3	-0.0008303059
171	0x3cce5fbc	0.025192134
172	0x3e059e07	0.13048564
173	0x3d6759b0	0.056482017
174	0x3d47371f	0.048636552
175	0xbdaa710a	-0.08322342
176	0x3d78bcda	0.060726978
177	0xbbc49a0c	-0.005999809
178	0x3dbd89d1	0.09254802
179	0xbb332c05	-0.002733947
180	0x3dc41bff	0.09575652
181	0xbd054fab	-0.03254668
182	0xbd8182b6	-0.06323759
183	0xba0889c7	-0.00052085187
184	0x3af00078	0.0018310687
185	0xbcf4f650	-0.029902607
186	0x3d40bc43	0.04705454
187	0xbd86aa95	-0.06575505
188	0x3d36437d	0.044497956
189	0x390a2c14	0.00013177126
190	0xbc667cb7	-0.01406782
191	0xbc99c1ab	-0.018769106
192	0x3ce05d7a	0.027388323
193	0x3d789f84	0.060699
194	0x3da23aeb	0.07921394
195	0x3ced63ec	0.02897831
196	0x3d93d057	0.07217472
197	0xbcc079d7	-0.023495598
198	0x3d8ab739	0.06773228
199	0x3aa42304	0.0012522643
200	0x3c8baf02	0.017051224
201	0xbd9bd243	-0.076084636
202	0xbd6a4153	-0.057191204
203	0x3da93645	0.08262304
204	0x3d7e9bb8	0.062160224
205	0xbc65cc77	-0.014025799
206	0xbc23a0bb	-0.009987052
207	0x3d2b36fb	0.04180048
208	0x3cedfecb	0.029052159
209	0xbc475c05	-0.012167935
210	0x3bee9fe2	0.007282243
211	0xbd672147	-0.05642822
212	0x3d3c9a3c	0.046045527
213	0x3d0b7272	0.03404469
214	0x3e0b29aa	0.13590112
215	0xbd6f6efe	-0.05845546
216	0xbd1721f3	-0.03689761
217	0x3d590736	0.052985393
218	0x3dbfc330	0.09363401
219	0x3c79ba33	0.015242147
220	0xbdb85205	-0.09000019
221	0xbc840c30	-0.016119093
222	0x3bf575e7	0.0074908617
223	0x3d87de53	0.06634202
224	0xbd1f50df	-0.038895484
225	0xbd965ebb	-0.07342287
226	0xbc99752f	-0.018732635
227	0xbd238067	-0.039917376
228	0x3c0ab740	0.008466542
229	0x3d51c923	0.05121721
230	0xbb987fcc	-0.0046539064
231	0xbd81f24e	-0.06345044
232	0x3d52368d	0.051321555
233	0x3da8f762	0.082503095
234	0x3d303f3d	0.04302906
235	0xbb9cde98	-0.0047872774
236	0xbbc55b50	-0.006022848
237	0x3c8b813a	0.017029393
238	0x3dd7b073	0.10531702
239	0x3d120600	0.035650253
240	0x3d8cd806	0.06877141
241	0xbd3093f4	-0.04310985
242	0xbcc61b30	-0.024182886
243	0x3c96d432	0.01841173
244	0x3d808378	0.06275076
245	0xbd6963d1	-0.056979958
246	0x3c9bf773	0.019038891
247	0x3d002041	0.03128076
248	0xbb112d28	-0.002215216
249	0xbd8689ee	-0.06569277
250	0x3d0de511	0.034642283
251	0x3b831d93	0.0040013283
252	0x3d374ed4	0.04475291
253	0xb60593b0	-1.990451e-06
254	0x3c4f55da	0.012654746
255	0xbd800f3c	-0.06252906

network_body._body_endoder.seq_layers.0.bias f4 [128]
0	0xbd2cedde	-0.042219035
1	0x3c788bad	0.01517002
2	0xbd477543	-0.048695814
3	0x3d392186	0.045197986
4	0xbd7025fa	-0.058629967
5	0xbd4d40e9	-0.05011073
6	0xbd695bab	-0.056972187
7	0x3ccac91e	0.024754103
8	0x3ba05ef9	0.004894134
9	0xbdeb7bf2	-0.1149825
10	0x3b3b762f	0.0028604378
11	0xbd0e0bf4	-0.03467937
12	0xbda22ee1	-0.07919098
13	0x3d872778	0.06599325
14	0x3c1aca38	0.009447627
15	0x3d94d37e	0.072669014
16	0x3d0d2fb5	0.034469325
17	0x3d3e289b	0.046425443
18	0xbbf959bb	-0.0076095737
19	0xbcc1c822	-0.023655001
20	0x3c423dd1	0.0118555585
21	0x3d59767d	0.053091515
22	0xbcb7c5ae	-0.022433128
23	0xbd4ffa6d	-0.050775934
24	0xbb4d6492	-0.0031340462
25	0xbc57cf08	-0.013171919
26	0x3b816f78	0.0039500557
27	0xbd928112	-0.071535245
28	0xbda2fe4a	-0.07958658
29	0xbd87f187	-0.066378646
30	0xbd0af29a	-0.03392277
31	0x3d2e684b	0.04257993
32	0xbcd82018	-0.026382491
33	0x3c02899b	0.007967378
34	0x3d273875	0.040825326
35	0x3d9407a8	0.07228023
36	0xbd19c580	-0.037541866
37	0x3c961cae	0.018324222
38	0x3cbc3dbd	0.022978658
39	0xbd4640c1	-0.048401598
40	0x3b1ca243	0.0023900426
41	0x3d202d56	0.039105736
42	0xbc229f14	-0.0099256225
43	0x3ca38350	0.019960076
44	0x3d0f1524	0.03493227
45	0xbd19aeec	-0.037520334
46	0xbc9963fd	-0.018724436
47	0x3c861996	0.016369622
48	0x3c594f35	0.013263513
49	0xbd14b953	-0.03630955
50	0xbbac63be	-0.0052609136
51	0x3d4dbb3e	0.050227396
52	0x3ce55076	0.027992468
53	0xbcb40b04	-0.021977909
54	0x3cd4a1fa	0.025956143
55	0xbc821a89	-0.015881794
56	0xbd14ae3d	-0.03629898
57	0xbce456cb	-0.027873417
58	0xbc8cc1ba	-0.01718222
59	0x3cf2f1b8	0.029656276
60	0xbdb52eca	-0.08846815
61	0x3b73f27e	0.0037223394
62	0xbd8406cd	-0.0644661
63	0xbbbe8994	-0.0058147404
64	0xbd80c492	-0.06287493
65	0xbcf7ca99	-0.030247973
66	0xbda1669f	-0.078809015
67	0x3d22646d	0.039646555
68	0xbbf92e0c	-0.007604366
69	0x3cca973c	0.024730317
70	0xbd5d53b9	-0.054034922
71	0x3d1c4437	0.038150992
72	0xbd5a49ca	-0.053293027
73	0xbd34f021	-0.044174317
74	0x3d649438	0.055805415
75	0xbd49033e	-0.049075358
76	0xbceed1b8	-0.029152736
77	0x3cd16f5e	0.0255658
78	0x3b75471a	0.0037426413
79	0xbd0dbd4d	-0.03460436
80	0xbc8c8b42	-0.017156247
81	0x3d059a74	0.032618
82	0xbc33a2ea	-0.010964135
83	0xbd40471d	-0.04694282
84	0xbd59f55f	-0.05321252
85	0xbd889659	-0.066693015
86	0xbd62d02e	-0.055374317
87	0xbd17dad8	-0.03707394
88	0x3d36ce4d	0.044630338
89	0x3cd9e927	0.026600434
90	0xbccf71ba	-0.025322784
91	0xbdcaaccb	-0.09896239
92	0xbd1243ad	-0.035709072
93	0xbd772691	-0.060339514
94	0x3c230f53	0.009952384
95	0xbd03723d	-0.032091368
96	0xbd05d694	-0.03267534
97	0xbc11086e	-0.008852107
98	0x3d11dc04	0.035610214
99	0x3d46c827	0.048530724
100	0xbd49b96d	-0.0492491
101	0xbbc87fe0	-0.0061187595
102	0x3c9ebb42	0.0193764
103	0xbd8aceaf	-0.06777703
104	0xbd866fc2	-0.06564285
105	0x3d2d6ddf	0.04234111
106	0xbd75f6af	-0.06004971
107	0xbd93ba8a	-0.07213314
108	0xbd21406a	-0.03936807
109	0x3d5914ad	0.052998234
110	0xbcc51299	-0.02405672
111	0x3da560b2	0.08075084
112	0x3d39dd2e	0.04537695
113	0xbcf27850	-0.029598385
114	0xbd2bb449	-0.04191998
115	0xbd31580a	-0.04329685
116	0xbd82f6bf	-0.06394719
117	0x3d5e4102	0.054261215
118	0xbce7b991	-0.028286727
119	0xbd10cd8f	-0.035352286
120	0xbc225a19	-0.009909176
121	0xbcfcd053	-0.030861055
122	0x3d224c88	0.039623767
123	0xbb46e237	-0.0030347237
124	0x3c572fa8	0.013133921
125	0x3d46dba0	0.048549294
126	0xbd797ad8	-0.06090817
127	0x3d4d6c22	0.05015195

network_body._body_endoder.seq_layers.2.weight f4 [128, 128]
0	0x3dfee2b7	0.12445586
1	0xbcb1aff1	-0.02169034
2	0x3d564e5f	0.052320834
3	0xbd8a2d62	-0.06746937
4	0x3cddcc0d	0.027074838
5	0xbd9000e8	-0.07031423
6	0x3d4d82a1	0.050173406
7	0xbe658789	-0.22414984
8	0x3b6a13aa	0.0035717287
9	0x3d82a8c5	0.063798465
10	0x3cebc520	0.02878052
11	0x3d8dcbe4	0.06923655
12	0x3e04fcc2	0.12987044
13	0xbe0a686c	-0.13516396
14	0xbdcc974e	-0.099897966
15	0xbdf9f7cc	-0.12205467
16	0xbd6cf51f	-0.057850953
17	0x3ce9818e	0.02850416
18	0xbd2e32e9	-0.04252902
19	0x3d662c79	0.056194756
20	0xbe1c9eb3	-0.15294914
21	0x3cb47637	0.022029025
22	0x3d0eb241	0.034837965
23	0x3db7f7ba	0.08982797
24	0x3d53f48f	0.0517469
25	0xbd15999d	-0.03652345
26	0xbe39ef0d	-0.18157597
27	0x3d7d875d	0.06189667
28	0xbba69425	-0.005083578
29	0x3e337fda	0.1752924
30	0xbdac0ff3	-0.084014796
31	0xbdfdc3f4	-0.12390891
32	0x3e169389	0.14704718
33	0xbe002e48	-0.12517655
34	0xbdc8cd53	-0.098047875
35	0xbd5f1154	-0.054459885
36	0x3cdd9a4c	0.027051114
37	0xbe107a30	-0.14109111
38	0x3d92b6e0	0.07163787
39	0xbaa593a1	-0.0012632498
40	0x3d114a76	0.035471402
41	0xbe33cf32	-0.17559507
42	0x3e1c5914	0.15268356
43	0x3d5efff7	0.054443326
44	0x3d81e933	0.06343307
45	0x3e055a04	0.1302262
46	0x3d132403	0.035923015
47	0x3e2464a4	0.16054016
48	0x3c84ca21	0.016209664
49	0x3dc16026	0.09442167
50	0x3d501462	0.05080069
51	0x3d9cca63	0.0765579
52	0x3d1a7d96	0.037717424
53	0x3dc40539	0.09571309
54	0x3d66e55b	0.056371074
55	0x3c200383	0.009766462
56	0x3b224952	0.002476294
57	0xbdb6613e	-0.08905266
58	0xbd8da79b	-0.06916734
59	0x3e196f94	0.1498397
60	0x3e1f553b	0.15559857
61	0x3a4842ee	0.0007639368
62	0x3db63f12	0.088987485
63	0xbab9ea94	-0.001418429
64	0x3cbd92f4	0.023141362
65	0x3dbf74e8	0.0934847
66	0x3c393ce9	0.011306026
67	0xbda9366b	-0.082623325
68	0x3dfad6a6	0.12247972
69	0x3c9a68bc	0.01884877
70	0x3d6929d8	0.05692467
71	0xbdfce7f0	-0.12348926
72	0x3e53567b	0.20638458
73	0x3e20c4c6	0.15700063
74	0x3d7fa2b0	0.06241101
75	0xbc9768f4	-0.018482663
76	0x3d9aa0f9	0.07550234
77	0x3d0fa1bb	0.035066348
78	0x3e375caf	0.1790645
79	0xbd2d536c	-0.042315885
80	0xbe21ba6a	-0.15793768
81	0x3d8b06eb	0.06788429
82	0xbd98d151	-0.07461799
83	0x3de35d7c	0.11101815
84	0x3e7373c0	0.23774624
85	0x3d2d5f12	0.042326994
86	0x3d88f5b1	0.06687487
87	0xba43db99	-0.0007471382
88	0x3b6a30ef	0.0035734733
89	0x3b9e90ce	0.0048390394
90	0x3da126e1	0.07868744
91	0x3dbd7b01	0.09251977
92	0x3d60ba16	0.054864965
93	0xbc421877	-0.011846653
94	0xbe1d2b80	-0.15348625
95	0x3d83aa33	0.06428947
96	0xbe6a3c78	-0.2287463
97	0xbd948dc9	-0.07253606
98	0x3cbed8d6	0.023296755
99	0xbc298c6a	-0.010348419
100	0xbca87e2a	-0.020567972
101	0xbd6feb9c	-0.058574304
102	0xbd061048	-0.03273037
103	0x3d90b920	0.0706656
104	0x3d7ab37a	0.06120632
105	0x3c050b49	0.008120366
106	0xbb82d03f	-0.00399211
107	0x3bbc7bbc	0.005752055
108	0xbd557254	-0.052110985
109	0xbdb478df	-0.08812117
110	0x3c5a489c	0.0133229755
111	0xbd6bd30f	-0.057574328
112	0xbd5a3331	-0.053271476
113	0xbd49d1a5	-0.0492722
114	0x3c8bc14b	0.017059943
115	0x3e1110cc	0.14166564
116	0x3dc1ec23	0.09468868
117	0xbb86f20e	-0.0041182106
118	0x3df2c43c	0.11853835
119	0x3d95c3a2	0.073127046
120	0xbe58587a	-0.21127501
121	0xbd230bb1	-0.03980607
122	0xbc5d0b33	-0.01349144
123	0x3d8e887c	0.06959626
124	0xbda85bd9	-0.082206436
125	0xbd4fc21a	-0.05072222
126	0x3d2148f7	0.039376225
127	0xbd0a5caa	-0.033779778
128	0xbd7c785a	-0.061638214
129	0xbdb691e5	-0.08914546
130	0xbd790ae1	-0.06080139
131	0xbd1e481f	-0.038643
132	0xbe1e45cf	-0.15456317
133	0x3de6a5da	0.112621024
134	0x3ce01850	0.027355343
135	0xbd688cb8	-0.056774825
136	0xbcc6c3d5	-0.024263302
137	0xbe0081b4	-0.12549478
138	0xbd0f339d	-0.03496133
139	0xbbc8edad	-0.006131849
140	0xbe1fee59	-0.15618266
141	0xbd6e734b	-0.05821542
142	0x3d7b586d	0.061363626
143	0x3c03d55b	0.008046473
144	0x3cc9c596	0.02463035
145	0xbafa240c	-0.0019084229
146	0xbe0ba377	-0.13636576
147	0xbc71e7a8	-0.014764704
148	0xbc28f9e8	-0.010313489
149	0x3d9ba93a	0.07600637
150	0x3da88fa2	0.08230521
151	0xbdfbf971	-0.123034365
152	0xbdd387a9	-0.103286095
153	0xbdba4e5c	-0.09096977
154	0xbe33ca07	-0.17557536
155	0x3d71323c	0.058885798
156	0x3b321e1d	0.0027178593
157	0xbd86779a	-0.06565781
158	0x3c5e75bc	0.013577875
159	0x3e0195d5	0.12654813
160	0x3e10efca	0.14153972
161	0xbd2ffadb	-0.042963844
162	0x3c7288b8	0.014803104
163	0xbd397368	-0.045276076
164	0xbc1e3851	-0.009656982
165	0xbd6e07d5	-0.058112938
166	0x3c00a811	0.00785257
167	0xbd2bb4db	-0.041920524
168	0x3dcca519	0.099924274
169	0x3d1e7f6e	0.038695745
170	0xbd09684d	-0.033546735
171	0xbc1ab6a8	-0.009442963
172	0xbb1886e0	-0.002327375
173	0x3e9456ff	0.28972623
174	0x3cc426a9	0.023944216
175	0x3e2444a0	0.16041803
176	0x3bf6a467	0.0075269225
177	0x3c000937	0.007814697
178	0xbd8c15d0	-0.06840098
179	0x3dc08fe8	0.09402448
180	0x3d380ef6	0.044936143
181	0xbe0b1a0f	-0.1358416
182	0x3c739e8d	0.014869344
183	0xbe0323d3	-0.12806635
184	0xbde84d0b	-0.1134282
185	0x3ca5c4e8	0.020235494
186	0xbd9ad62e	-0.07560383
187	0xbc54c194	-0.012985606
188	0xbadb2b6e	-0.0016721317
189	0x3d874e4e	0.06606732
190	0xbd946cae	-0.072472915
191	0x3c28493b	0.010271366
192	0x3d0de1d0	0.03463918
193	0x3d49471a	0.049140073
194	0xbdb36945	-0.08760313
195	0xbd37e5dd	-0.04489695
196	0x3d49fd5e	0.049313895
197	0x3d8c494a	0.06849916
198	0xbd3ea10e	-0.046540312
199	0xbe10c419	-0.14137305
200	0xbc26ede5	-0.010188554
201	0xbc058b9d	-0.008150962
202	0x3d28eb8e	0.041240267
203	0xbcf445bb	-0.029818406
204	0x3c16973f	0.009191333
205	0x3d2a1b5f	0.04153001
206	0xbd971501	-0.07377053
207	0xbcc23466	-0.023706626
208	0xbdbd84f5	-0.09253875
209	0xbd20868b	-0.03919081
210	0x3cec74c7	0.028864278
211	0xbe17e747	-0.14834319
212	0x3d8a9f8e	0.06768714
213	0x3e4ddc3c	0.20103544
214	0xbda17267	-0.07883149
215	0xbc87ee45	-0.016593108
216	0x3d42aa90	0.047525942
217	0xbdcd9411	-0.10038007
218	0xbdd45992	-0.10368647
219	0x3c7f0e60	0.015567392
220	0x3bcad4e8	0.006189931
221	0xbdb7d965	-0.089770116
222	0xbd15b991	-0.036553923
223	0x3beff40e	0.0073227948
224	0xbdacaf38	-0.08431858
225	0xbd7b82be	-0.061403982
226	0x3daf8088	0.08569437
227	0x3e36c7b7	0.17849623
228	0xbe071d3c	-0.13194746
229	0xbce1e1d9	-0.027573513
230	0xbc6a1f2f	-0.014289661
231	0x3d608f76	0.054824315
232	0xbe4cef0c	-0.20013064
233	0xbaddf9f3	-0.0016935453
234	0xbcca8261	-0.024720373
235	0xbcc68144	-0.02423156
236	0xbd8687ef	-0.06568896
237	0xbe381e4c	-0.17980307
238	0xbd6d0d20	-0.057873845
239	0xbd35a8fe	-0.044350617
240	0x3d39d2ac	0.045366928
241	0x3dba393f	0.0909295
242	0xbe0ca285	-0.13733871
243	0xbd35f165	-0.044419665
244	0x3dc0bbbf	0.0941081
245	0x3ccd89c3	0.025090104
246	0x3d1c42d2	0.038149662
247	0xbdb67bc1	-0.08910323
248	0xbcb0ff7c	-0.0216062
249	0x3de9c2c5	0.114141025
250	0xbdf4301f	-0.11923241
251	0x3dbc4beb	0.09194168
252	0x3e51d9c6	0.2049323
253	0xbd811bcf	-0.06304132
254	0x3d8d7edb	0.069089614
255	0x3bea67cf	0.007153488

network_body._body_endoder.seq_layers.2.bias f4 [128]
0	0xbcb577a1	-0.02215177
1	0x3cc6e60a	0.024279613
2	0xbcbc8cca	-0.023016352
3	0xbc7d4ea0	-0.01546064
4	0xbd7086a6	-0.05872216
5	0xbd3ffd88	-0.046872646
6	0xbd261645	-0.04054858
7	0xbcfbdbef	-0.030744521
8	0x3cb4b740	0.022060037
9	0xbcf11b33	-0.029431915
10	0x3a5187c5	0.00079929485
11	0xbbdccd86	-0.0067383675
12	0x3d9e199b	0.077197276
13	0x3b78b03c	0.003794684
14	0xbcf8a85a	-0.030353714
15	0x3b3a3f46	0.0028419062
16	0xbccf7246	-0.025323045
17	0xbb94c1e7	-0.0045397165
18	0xbd0f4a82	-0.034983166
19	0x3d7c8c97	0.061657514
20	0xbd03dbe9	-0.032192145
21	0xbd389d81	-0.045072082
22	0xbdc60a72	-0.09669961
23	0xbd99261e	-0.074779734
24	0xbc94adf8	-0.018149361
25	0xbd0e3d52	-0.03472645
26	0xbbfc4d53	-0.0076996475
27	0xbdc55911	-0.09636129
28	0x3c75ea33	0.015009451
29	0xbca74dba	-0.020422805
30	0xbcd9c429	-0.026582794
31	0xbcfba25b	-0.030717066
32	0xbd162d6f	-0.036664423
33	0xbc1a538f	-0.009419336
34	0xbb17564c	-0.0023092208
35	0x3c97877b	0.01849722
36	0xbcd3fb4d	-0.025876665
37	0xbc02bc66	-0.007979488
38	0x3cb0f62e	0.021601763
39	0x3ceb1204	0.028695114
40	0x3d6cadc0	0.05778289
41	0xbc08f57b	-0.008359308
42	0x3d5fe637	0.05466291
43	0x3d94d4b2	0.07267131
44	0xbcbe06d1	-0.02319661
45	0xbbec0163	-0.0072023137
46	0x3da09872	0.07841577
47	0x3d2c5012	0.04206855
48	0xbd015fd0	-0.031585515
49	0x3d7730bc	0.06034921
50	0xbc8684c9	-0.016420739
51	0xbbc53dc2	-0.006019325
52	0xbd384de0	-0.044996142
53	0x3da1968c	0.07890043
54	0xbd5afa5a	-0.05346141
55	0xbcfe8643	-0.03106988
56	0xbd017054	-0.031601265
57	0xbc3d6b6d	-0.011561257
58	0xbd62e67f	-0.0553956
59	0xbd5e1722	-0.05422128
60	0x3d88d85b	0.066818915
61	0xbd1a3e62	-0.03765715
62	0xbd68f026	-0.05686965
63	0xbc9e5693	-0.019328391
64	0xbb7e0f5d	-0.0038766481
65	0x3c5efdfe	0.013610361
66	0xbdc60f14	-0.09670845
67	0xbd9f231f	-0.07770371
68	0xbcef8ae6	-0.029241037
69	0x3d4adddc	0.049527988
70	0x3d183f67	0.03716984
71	0xbc2ed2e2	-0.010670396
72	0x3d36ba57	0.0446113
73	0x3d961ddd	0.07329915
74	0xbcbfb09d	-0.023399645
75	0x3d9356e2	0.07194306
76	0xbc56e809	-0.013116845
77	0xbcd97e59	-0.026549505
78	0xbccbef40	-0.024894357
79	0x3bfaa870	0.007649474
80	0xbca6ac2d	-0.020345772
81	0x3b80d03b	0.003931073
82	0x3da5d4fc	0.08097264
83	0xbd2b470b	-0.0418158
84	0xbd209d2e	-0.0392124
85	0x3ae451fa	0.001741945
86	0x3dcafc82	0.09911443
87	0xbd5a18cd	-0.053246308
88	0x3cd0dd6c	0.025496207
89	0xbbec4dbd	-0.0072114156
90	0x3d051d6e	0.03249877
91	0xbcb8fd29	-0.022581654
92	0xbd3bca3b	-0.04584716
93	0x3d2823cb	0.04104976
94	0xbccfbf9a	-0.025359917
95	0x3cee22e8	0.029069379
96	0xbc85f1a7	-0.01635058
97	0xbcbf7bd6	-0.02337448
98	0x3db66fa1	0.0890801
99	0x3d738929	0.059456978
100	0x3aa5f638	0.001266188
101	0xbbeab7d5	-0.0071630278
102	0x3d8d2add	0.06892941
103	0x3c1e7521	0.00967148
104	0xbdc6fa4d	-0.0971571
105	0x3be09f4f	0.0068549286
106	0x3d778d3d	0.06043743
107	0xbd802c6a	-0.06258471
108	0xbd8a503a	-0.06753583
109	0xbd232921	-0.039834145
110	0x3bd66fe5	0.0065441006
111	0x3dd1e0f0	0.102479815
112	0xbcbd3fdd	-0.023101741
113	0xbd80696a	-0.06270106
114	0xbd9ae229	-0.07562668
115	0xbd647350	-0.055774033
116	0xbd7fa2a8	-0.06241098
117	0x3db5468f	0.088513486
118	0x3c65b357	0.014019809
119	0xbcffb24f	-0.031212954
120	0x3b11fc33	0.0022275567
121	0xbd859aa2	-0.065236345
122	0x3d264674	0.040594533
123	0x3dbde037	0.09271281
124	0x3c129b29	0.008948126
125	0x3ce688d3	0.028141415
126	0x3d8b6d0d	0.06807909
127	0xbc571bcc	-0.013129186

action_model._discrete_distribution.branches.0.weight f4 [3, 128]
0	0xbd1f0b71	-0.03882927
1	0xbc234fef	-0.009967788
2	0x3c031877	0.008001438
3	0x3c87fffe	0.016601559
4	0xbc0e18a7	-0.00867287
5	0xbb477b72	-0.003043857
6	0xbbb2eb79	-0.0054601994
7	0x3af1fe75	0.0018462675
8	0x3d3372db	0.043810707
9	0x3bc5bdbd	0.0060345815
10	0xbcb30269	-0.021851735
11	0x3c3eb267	0.011639214
12	0x3c551cd9	0.013007366
13	0xbd01199e	-0.03151857
14	0xbd157166	-0.0364851
15	0x3cca1259	0.024666952
16	0xbd26af2b	-0.040694397
17	0xbd029a1f	-0.031885263
18	0xbb6aad72	-0.0035808948
19	0x3a90ca35	0.001104659
20	0x3bf52eae	0.0074823713
21	0xbb580d1e	-0.0032966803
22	0xbcd06b9d	-0.025441939
23	0xbc98f0f0	-0.018669575
24	0xbcaa00a6	-0.020752262
25	0x3af139e6	0.0018404096
26	0x3ccafc16	0.024778407
27	0xbb886772	-0.0041627223
28	0xbcbd138c	-0.02308061
29	0xbce55d41	-0.027998568
30	0x3c0a1a34	0.008429099
31	0x3c44fe70	0.012023553
32	0xbd07c405	-0.033145923
33	0x3c89d385	0.016824493
34	0xbcf5c407	-0.0300007
35	0xbc5e6264	-0.013573263
36	0x3c1cb2f4	0.00956415
37	0xbce468b8	-0.027881965
38	0xbbb1f161	-0.005430386
39	0x3c3cdd5e	0.011527387
40	0x3a7ef2c7	0.00097255077
41	0x3c59a56e	0.01328407
42	0x3b87487c	0.004128514
43	0x3c8c766f	0.017146317
44	0x3c828767	0.015933705
45	0x3ce20219	0.02758889
46	0x3b99d088	0.0046940483
47	0x3d59bb68	0.05315724
48	0xbd257619	-0.04039583
49	0x3c50d22b	0.01274542
50	0xbd01ca38	-0.03168699
51	0x3cc8561f	0.024455128
52	0x3b9dc41d	0.0048146383
53	0x3c49a9a2	0.01230851
54	0xbc26d619	-0.010182881
55	0xbd1943f9	-0.03741834
56	0xbd3ad5e9	-0.045614157
57	0x3c41c59b	0.011826898
58	0xbbd8a9bc	-0.006612031
59	0xbb06aadf	-0.0020548624
60	0x3d3af053	0.045639347
61	0xbcd5b61d	-0.026087815
62	0xbd14ada7	-0.03629842
63	0x3b177188	0.0023108441
64	0x3d00ddc0	0.031461477
65	0xbc9194d2	-0.017771158
66	0xbbaba415	-0.005238066
67	0xbd72a60d	-0.05924039
68	0x38b8bc38	8.808862e-05
69	0xbb74a322	-0.003732868
70	0x3b8d8277	0.004318531
71	0x3c8bc4f5	0.01706169
72	0x3a7a88b0	0.0009557111
73	0x3c1e60f8	0.009666674
74	0x3c061235	0.008183052
75	0x3bf59476	0.0074945046
76	0xbd0a4a04	-0.033761993
77	0x3b65e6e0	0.003508024
78	0x3c73813b	0.014862354
79	0x3c88928a	0.016671438
80	0xbd1a30ef	-0.037644323
81	0x3cfee54d	0.031115199
82	0x3d05dee7	0.03268328
83	0x3b0350be	0.002003714
84	0x3b958d51	0.0045639654
85	0x3cc5737d	0.02410292
86	0x3c6cd6f6	0.014455548
87	0xbd5154fe	-0.051106445
88	0x3d4acd2e	0.04951208
89	0x3c700072	0.014648544
90	0x3ab12385	0.0013514614
91	0x3ca3e120	0.020004809
92	0xbd1b3877	-0.037895646
93	0x3ab77041	0.0013995246
94	0x3cbf7a89	0.023373859
95	0xba88121e	-0.0010381376
96	0xbd1b5bc1	-0.0379293
97	0x3b9bfb5a	0.004760188
98	0x3c0a6baa	0.008448521
99	0x3c16e611	0.009210126
100	0x3cdd5d57	0.027022047
101	0x3ca2d8eb	0.019878825
102	0x3bbbbb12	0.0057290876
103	0xbcb8ad69	-0.022543626
104	0xbc5ef72d	-0.013608736
105	0x3cb36c30	0.021902174
106	0x3b5ab297	0.0033370608
107	0xbc810583	-0.015749699
108	0xbbba1ddb	-0.0056798286
109	0xbc039d91	-0.008033172
110	0xbcc3a19a	-0.023880769
111	0x3c591fbc	0.013252195
112	0x3c0df23a	0.008663708
113	0xbc21750d	-0.009854567
114	0xbc3127f2	-0.010812746
115	0xbc1f0e0d	-0.00970794
116	0xbd3e58e4	-0.04647149
117	0x3c4325fb	0.011910911
118	0xbc4732e5	-0.01215813
119	0x3cca902a	0.024726946
120	0xbcfded0f	-0.030996827
121	0xbd38a0e6	-0.04507532
122	0x3ab7954d	0.0014006287
123	0x3c6233eb	0.0138063235
124	0x3d0f75a7	0.03502431
125	0xba1ba238	-0.0005936953
126	0x3c8a051d	0.016848141
127	0x3c9f42f0	0.019441098
128	0x3c07588d	0.008260858
129	0xbb453d6a	-0.003009642
130	0xbb828d5d	-0.003984137
131	0xbb55879c	-0.003258205
132	0xbd035dc1	-0.032071833
133	0xbcef2649	-0.02919306
134	0xbca28982	-0.01984096
135	0x3a9b2a89	0.0011838238
136	0x3ba7b600	0.0051181316
137	0xbbe4e45a	-0.0069852294
138	0x3c6eac94	0.014567513
139	0xbc1609ff	-0.009157657
140	0x3d5c6b65	0.053813357
141	0xba5f3ce4	-0.00085158483
142	0xbc383d7f	-0.011245131
143	0xbaf7fe0d	-0.0018920318
144	0xbb81926e	-0.0039542234
145	0xbae93b10	-0.0017794091
146	0xbbf4e54f	-0.007473625
147	0x3d3ab325	0.045581
148	0xbcbf1154	-0.023323692
149	0xbc9895fd	-0.018626207
150	0xbd42dbb9	-0.047572825
151	0xbce67dec	-0.028136216
152	0x3ba3f044	0.005003007
153	0xbb725b7d	-0.00369808
154	0xbb300dba	-0.002686365
155	0xbd24674f	-0.040137585
156	0x3bfc9705	0.0077084326
157	0x3c2dfa4c	0.010618757
158	0xbb781720	-0.003785558
159	0xbc9cf5db	-0.019160202
160	0xbbff066f	-0.0077827494
161	0xbc39ed4a	-0.011348078
162	0xbb3260ec	-0.0027218414
163	0x3a73b257	0.0009296289
164	0xbcb832a6	-0.022485089
165	0x3b8481ec	0.004043808
166	0x3b386659	0.0028137176
167	0xbab12048	-0.0013513649
168	0x3d26f381	0.040759567
169	0xbc7813d3	-0.015141445
170	0x3cc3a703	0.023883348
171	0x3d4b1293	0.04957826
172	0xbc88844a	-0.016664643
173	0xbc134e0c	-0.008990776
174	0x3d1f260f	0.038854655
175	0x3c537c2d	0.012908024
176	0x39edbb37	0.00045343649
177	0x3d1ea0aa	0.03872744
178	0x3c424753	0.011857825
179	0xbc106336	-0.008812716
180	0xbcc37cde	-0.023863252
181	0x3d18a5ab	0.03726737
182	0xbcad23aa	-0.02113517
183	0xbad48966	-0.0016215264
184	0xbcb7a3ff	-0.022417067
185	0xbc45317e	-0.012035726
186	0xbd2959c8	-0.041345388
187	0xbcfaaa0a	-0.030598659
188	0x3cc0e4d4	0.023546614
189	0xbc7183eb	-0.014740924
190	0xbc97eeb9	-0.018546449
191	0xbbc05756	-0.0058697863
192	0xbaf4d4bf	-0.0018679126
193	0x3baceac5	0.00527701
194	0xbd309579	-0.0431113
195	0xbd4bc24d	-0.049745847
196	0xbb9a09ab	-0.0047008595
197	0x3c9c94eb	0.019113978
198	0x3cce5987	0.025189174
199	0xbbd2963e	-0.0064266017
200	0x3cd4f7a9	0.025997
201	0x3d34dd6d	0.04415648
202	0xbca4f415	-0.020135919
203	0x3d38c172	0.04510636
204	0x3beea233	0.0072825192
205	0x3a8f1ab5	0.0010917993
206	0xbc37d5e9	-0.011220434
207	0xbc06aa39	-0.008219295
208	0xbb97a48b	-0.0046277693
209	0x3b9d1cb7	0.004794683
210	0x3d56211c	0.05227767
211	0xbbb12990	-0.005406566
212	0xbae3a8cc	-0.0017369031
213	0xbc13b073	-0.009014237
214	0x3d5f62f7	0.05453774
215	0xbcb21eaf	-0.021743147
216	0x3ad06dd1	0.0015901868
217	0xbb60fce5	-0.0034330424
218	0x3b66cde6	0.003521794
219	0xbcbf869f	-0.023379622
220	0xbc314d29	-0.010821619
221	0x3cd56673	0.026049828
222	0xbc6cc026	-0.014450109
223	0x3bfe3e14	0.007758865
224	0xbc8c6b85	-0.017141113
225	0xbc01e0cf	-0.007927134
226	0x3d425b13	0.047450136
227	0x3cb0c944	0.021580346
228	0xbca143e0	-0.019685686
229	0xbc4b37e4	-0.012403462
230	0x3d489d75	0.048978288
231	0x3c8bcaba	0.017064441
232	0xbd498e43	-0.049207937
233	0xbc8695c3	-0.016428834
234	0x3d040bc5	0.032237787
235	0xbd23714b	-0.039902966
236	0xbd1a3e5d	-0.03765713
237	0xbc335448	-0.010945387
238	0xbbcdf81c	-0.0062856805
239	0x3d59d2f9	0.053179715
240	0xbc09bc5c	-0.008406725
241	0xbd08d24d	-0.033403683
242	0xbd2f47ad	-0.042792965
243	0xbcb0bf18	-0.021575496
244	0xbd00c753	-0.03144009
245	0x3d4c86a2	0.049933083
246	0x3c0805e8	0.008302189
247	0x3c3064b6	0.010766199
248	0x3b33d196	0.0027438155
249	0xbcc29498	-0.023752496
250	0x3ccab820	0.024746
251	0x3d2e24e8	0.042515665
252	0x3bc4ea2e	0.0060093617
253	0x3c937621	0.018000664
254	0x3caab06a	0.020836074
255	0x39f9f400	0.00047674775

action_model._discrete_distribution.branches.0.bias f4 [3]
0	0x3bfa9375	0.007646973
1	0x3d158d01	0.036511425
2	0xbd261922	-0.040551312

action_model._discrete_distribution.branches.1.weight f4 [2, 128]
0	0x3cf12562	0.02943677
1	0xbcefc410	-0.029268295
2	0x3cf667a9	0.030078726
3	0x3c3df1c0	0.011593282
4	0x3d82ace6	0.06380634
5	0x3d6af324	0.057360783
6	0x3d44577a	0.047934987
7	0x3d1139f4	0.03545566
8	0xbcf08430	-0.029359907
9	0x3d4000b5	0.046875674
10	0x3ba1065d	0.0049140886
11	0x3c73003c	0.014831599
12	0xbdb8642e	-0.09003483
13	0x3ab8ba11	0.0014093538
14	0x3cd68067	0.026184274
15	0x3c7fd36a	0.01561437
16	0x3d404a3d	0.0469458
17	0x3b99f356	0.0046981974
18	0x3d2b74cb	0.04185943
19	0xbd8453bc	-0.064612836
20	0x3d516592	0.051122256
21	0x3d276498	0.040867418
22	0x3dd57b20	0.10423875
23	0x3d7c6195	0.0616165
24	0x3c6c4a4d	0.014422012
25	0x3ca7ed7b	0.020498982
26	0x3c2ac562	0.010423036
27	0x3dc9638b	0.098334394
28	0xbcb8fd9e	-0.022581872
29	0x3c05e5cd	0.008172465
30	0x3d14874d	0.036261845
31	0x3ce8ef48	0.02843441
32	0x3cf5cb5e	0.0300042
33	0x3b87f7b0	0.0041493997
34	0x3c00772c	0.007840913
35	0xbd0764c6	-0.03305509
36	0x3d1c47a9	0.038154278
37	0xba841a71	-0.0010078681
38	0xbd41fb80	-0.04735899
39	0xbd212a44	-0.03934695
40	0xbd8f5877	-0.06999295
41	0x3c726903	0.014795545
42	0xbd83ca33	-0.06435051
43	0xbdb2b7cf	-0.08726465
44	0x3d165860	0.036705375
45	0x3c04affe	0.0080986
46	0xbd776b77	-0.06040522
47	0xbd372f7d	-0.044723023
48	0x3d0b9c99	0.03408489
49	0xbd6d52ab	-0.057940166
50	0x3cd29c0f	0.02570918
51	0xbc274f17	-0.010211728
52	0x3d3e7729	0.04650036
53	0xbdac1597	-0.084025554
54	0x3d75c099	0.05999813
55	0x3cf99751	0.030467661
56	0x3d1386ce	0.03601723
57	0x3ceec71d	0.029147679
58	0x3da4992e	0.08037029
59	0x3d39dae0	0.04537475
60	0xbd5a693f	-0.053323027
61	0x3d2ac011	0.041687075
62	0x3d4ae6a8	0.049536377
63	0x3d0d6697	0.034521665
64	0xbab47901	-0.0013768972
65	0xbcb1f48d	-0.021723056
66	0x3dab3ea8	0.0836156
67	0x3d7c9569	0.061665926
68	0x3d2084e3	0.03918923
69	0xbd415d57	-0.047208156
70	0xbd47bdc2	-0.04876495
71	0x3c94ff61	0.01818818
72	0xbd51ab44	-0.051188722
73	0xbdbaf545	-0.09128813
74	0x3cad7d3a	0.021177877
75	0xbd7f5815	-0.06233986
76	0x3c386d53	0.011256534
77	0x3d07aaaa	0.033121742
78	0x3cfe44f3	0.031038737
79	0x3c15d381	0.009144665
80	0x3c9e9e11	0.019362481
81	0xbafd5681	-0.0019328148
82	0xbd1faa63	-0.038980853
83	0x3cf94af7	0.030431254
84	0x3d819aa0	0.063283205
85	0x3aa0737c	0.0012241448
86	0xbdd16408	-0.102241576
87	0x3d583e30	0.05279368
88	0xbcfc5aad	-0.030804956
89	0x3c8e5cb7	0.017378194
90	0xbd165296	-0.036699854
91	0x3cf5717b	0.029961338
92	0x3d61b515	0.055104334
93	0xbd1de337	-0.038546767
94	0x3ccdf272	0.025140021
95	0xbd0ca3ef	-0.034336027
96	0x3c3f3fe5	0.0116729485
97	0x3ce351ca	0.027748961
98	0xbda02fab	-0.07821592
99	0xbd868562	-0.065684095
100	0xbc8aa089	-0.016922252
101	0x3c24a6c1	0.010049523
102	0xbda8b246	-0.08237128
103	0xbbf17cdd	-0.007369621
104	0x3db0c564	0.08631399
105	0xbc8242d8	-0.015901014
106	0xbd72dcdb	-0.059292655
107	0x3d977603	0.07395556
108	0x3d84b7a9	0.06480343
109	0x3d4a126d	0.04933398
110	0x3b320bf2	0.0027167764
111	0xbdc1f4c8	-0.094705164
112	0x3d078806	0.033088706
113	0x3d6e6623	0.058202874
114	0x3db93192	0.09042658
115	0x3d8dc2ed	0.06921945
116	0x3d80ad98	0.062831104
117	0xbd845bd1	-0.06462825
118	0xbcf32be0	-0.029684007
119	0x3d0b310c	0.03398232
120	0xbb245d0f	-0.0025079881
121	0x3d5b909c	0.053604707
122	0xbd4fb417	-0.050708856
123	0xbda192eb	-0.078893505
124	0xbcb4dae9	-0.02207704
125	0xbd15da5b	-0.036585193
126	0xbd6d4cf9	-0.057934735
127	0x3c5a83e6	0.013337111
128	0xbcbc53f0	-0.022989243
129	0x3ce06f7c	0.02739691
130	0xbcfc00a3	-0.030762022
131	0xbccc4039	-0.024932967
132	0xbd7ff038	-0.06248495
133	0xbd56e7d5	-0.052467186
134	0xbce6090d	-0.028080488
135	0xbce1f66c	-0.027583323
136	0x3cedd91d	0.029034192
137	0xbd26e8c2	-0.04074932
138	0x3bdda888	0.0067644753
139	0xbc5056b1	-0.012715981
140	0x3da52223	0.08063152
141	0x3bdd95ec	0.006762257
142	0xbca54a95	-0.020177165
143	0xbc9ccc9e	-0.019140538
144	0xbc9cff49	-0.019164698
145	0x3b71fc0b	0.003692391
146	0xbd4a8b59	-0.0494493
147	0x3d978f41	0.074003704
148	0xbd027645	-0.031851072
149	0xbd408c0c	-0.04700856
150	0xbdd3ab33	-0.10335388
151	0xbda81172	-0.082064524
152	0xbc2c6887	-0.010522968
153	0xbd06b18a	-0.03288416
154	0xbc29c349	-0.010361501
155	0xbdae0dfa	-0.084987596
156	0x3bd072df	0.00636135
157	0xbccb2195	-0.024796287
158	0xbd20cdc5	-0.039258737
159	0xbd192930	-0.037392795
160	0xbd09ba4b	-0.03362493
161	0xbcbed3e9	-0.023294406
162	0x3b3f2d4f	0.0029171293
163	0x3cfa8214	0.030579604
164	0xbd169339	-0.036761496
165	0xbc895cf5	-0.016767958
166	0x3d0cb553	0.03435261
167	0x3d12262b	0.03568093
168	0x3d5f71b2	0.054551788
169	0xbc73c59b	-0.014878656
170	0x3d8b4f6c	0.06802258
171	0x3d960a3d	0.073261715
172	0xbd44d6e8	-0.048056513
173	0xbb5ff158	-0.0034170952
174	0x3d965a40	0.073414326
175	0x3d400066	0.04687538
176	0xbd0ae828	-0.033912808
177	0x3d81b13e	0.063326344
178	0xbc44998e	-0.011999501
179	0xbc9b903e	-0.018989678
180	0xbd706378	-0.05868861
181	0x3d96d4d9	0.07364816
182	0xbd4b431e	-0.049624555
183	0xbcf7a4fc	-0.030230038
184	0xbd0f33fd	-0.03496169
185	0xbd3b7a03	-0.045770656
186	0xbd9fd54e	-0.078043565
187	0xbd8b0d49	-0.06789643
188	0x3d91ea4e	0.07124768
189	0xbd09ef9a	-0.033675767
190	0xbd30a1c8	-0.043123037
191	0xbc9cfad6	-0.019162577
192	0x3c02ce36	0.007983735
193	0x3c9c5f05	0.019088278
194	0xbda839ab	-0.08214124
195	0xbd8a1c56	-0.06743686
196	0xbd49bc47	-0.04925182
197	0x3d2c9f62	0.042144187
198	0x3d63b6c4	0.05559422
199	0xbad445af	-0.0016195084
200	0x3d198ab6	0.0374858
201	0x3d9da737	0.07697909
202	0xbd122b7c	-0.035686
203	0x3d8e7bf7	0.06957238
204	0xbc643294	-0.013928074
205	0xbd014ea9	-0.031569157
206	0xbd28078e	-0.04102283
207	0xbc400281	-0.011719347
208	0xbcb46ae7	-0.022023631
209	0x3c527f20	0.012847692
210	0x3d483421	0.04887784
211	0xbcc9fd32	-0.024656866
212	0xbd409bc7	-0.04702356
213	0xbbb89d62	-0.005633996
214	0x3d932716	0.071851894
215	0xbd878bd9	-0.06618471
216	0x3cbac137	0.02279721
217	0xbd081d17	-0.033230867
218	0x3d3a342e	0.04545992
219	0xbc9f9745	-0.01948131
220	0xbd6b4f96	-0.057448946
221	0x3d3ac537	0.045598235
222	0xbcd85379	-0.02640699
223	0x3d1530bf	0.03642344
224	0xbc32d045	-0.010913913
225	0xbd124e8c	-0.03571944
226	0x3dd874f8	0.10569185
227	0x3d992a87	0.074788146
228	0x3bd9076a	0.0066231983
229	0xbc57e72d	-0.013177675
230	0x3d97557a	0.0738935
231	0xbbe0b265	-0.006857204
232	0xbdadc1a3	-0.08484199
233	0x3a9b5476	0.0011850733
234	0x3d8ca529	0.06867439
235	0xbd71c9bf	-0.05903029
236	0xbd7041b2	-0.058656402
237	0xbd5ae3f3	-0.053440046
238	0x3c422f51	0.011852101
239	0x3da95d82	0.08269788
240	0xbd02ce6e	-0.031935148
241	0xbd601f31	-0.054717246
242	0xbdb5c6c9	-0.08875806
243	0xbd952081	-0.0728159
244	0xbd64680b	-0.055763286
245	0x3d8edaf5	0.069753565
246	0x3cece267	0.02891655
247	0xbcedeeb9	-0.029044496
248	0xbb20f2b1	-0.0024558718
249	0xbd923845	-0.07139639
250	0x3d552fba	0.05204747
251	0x3d9b87f6	0.07594292
252	0xbb16c04c	-0.0023002801
253	0x3cf99619	0.03046708
254	0x3d684ba9	0.05671278
255	0xbc11cc8e	-0.008898867

action_model._discrete_distribution.branches.1.bias f4 [2]
0	0xbd0bb6e2	-0.034109958
1	0x3d0bb6e0	0.03410995

onnx::Div_78 f4 [405]
0	0x3b7501be	0.0037385072
1	0x3b7501be	0.0037385072
2	0x3b7501be	0.0037385072
3	0x3bad3eac	0.005287012
4	0x3bad3eac	0.005287012
5	0x3b7501be	0.0037385072
6	0x3b7501be	0.0037385072
7	0x3b7501be	0.0037385072
8	0x3bad3eac	0.005287012
9	0x3bad3eac	0.005287012
10	0x3b7501be	0.0037385072
11	0x3b7501be	0.0037385072
12	0x3b7501be	0.0037385072
13	0x3bad3eac	0.005287012
14	0x3bad3eac	0.005287012
15	0x3b7501be	0.0037385072
16	0x3b7501be	0.0037385072
17	0x3b7501be	0.0037385072
18	0x3bad3eac	0.005287012
19	0x3bad3eac	0.005287012
20	0x3b7501be	0.0037385072
21	0x3b7501be	0.0037385072
22	0x3b7501be	0.0037385072
23	0x3bad3eac	0.005287012
24	0x3bad3eac	0.005287012
25	0x3b7501be	0.0037385072
26	0x3b7501be	0.0037385072
27	0x3b7501be	0.0037385072
28	0x3bad3eac	0.005287012
29	0x3bad3eac	0.005287012
30	0x3b7501be	0.0037385072
31	0x3b7501be	0.0037385072
32	0x3b7501be	0.0037385072
33	0x3bad3eac	0.005287012
34	0x3bad3eac	0.005287012
35	0x3b7501be	0.0037385072
36	0x3b7501be	0.0037385072
37	0x3b7501be	0.0037385072
38	0x3bad3eac	0.005287012
39	0x3bad3eac	0.005287012
40	0x3b7501be	0.0037385072
41	0x3b7501be	0.0037385072
42	0x3b7501be	0.0037385072
43	0x3bad3eac	0.005287012
44	0x3bad3eac	0.005287012
45	0x3b7501be	0.0037385072
46	0x3b7501be	0.0037385072
47	0x3b7501be	0.0037385072
48	0x3bad3eac	0.005287012
49	0x3bad3eac	0.005287012
50	0x3b7501be	0.0037385072
51	0x3b7501be	0.0037385072
52	0x3b7501be	0.0037385072
53	0x3bad3eac	0.005287012
54	0x3bad3eac	0.005287012
55	0x3b7501be	0.0037385072
56	0x3b7501be	0.0037385072
57	0x3b7501be	0.0037385072
58	0x3bad3eac	0.005287012
59	0x3bad3eac	0.005287012
60	0x3b7501be	0.0037385072
61	0x3b7501be	0.0037385072
62	0x3b7501be	0.0037385072
63	0x3bad3eac	0.005287012
64	0x3bad3eac	0.005287012
65	0x3b7501be	0.0037385072
66	0x3b7501be	0.0037385072
67	0x3b7501be	0.0037385072
68	0x3bad3eac	0.005287012
69	0x3bad3eac	0.005287012
70	0x3b7501be	0.0037385072
71	0x3b7501be	0.0037385072
72	0x3b7501be	0.0037385072
73	0x3bad3eac	0.005287012
74	0x3bad3eac	0.005287012
75	0x3b7501be	0.0037385072
76	0x3b7501be	0.0037385072
77	0x3b7501be	0.0037385072
78	0x3bad3eac	0.005287012
79	0x3bad3eac	0.005287012
80	0x3b7501be	0.0037385072
81	0x3b7501be	0.0037385072
82	0x3b7501be	0.0037385072
83	0x3bad3eac	0.005287012
84	0x3bad3eac	0.005287012
85	0x3b7501be	0.0037385072
86	0x3b7501be	0.0037385072
87	0x3b7501be	0.0037385072
88	0x3bad3eac	0.005287012
89	0x3bad3eac	0.005287012
90	0x3b7501be	0.0037385072
91	0x3b7501be	0.0037385072
92	0x3b7501be	0.0037385072
93	0x3bad3eac	0.005287012
94	0x3bad3eac	0.005287012
95	0x3b7501be	0.0037385072
96	0x3b7501be	0.0037385072
97	0x3b7501be	0.0037385072
98	0x3bad3eac	0.005287012
99	0x3bad3eac	0.005287012
100	0x3b7501be	0.0037385072
101	0x3b7501be	0.0037385072
102	0x3b7501be	0.0037385072
103	0x3bad3eac	0.005287012
104	0x3bad3eac	0.005287012
105	0x3b7501be	0.0037385072
106	0x3b7501be	0.0037385072
107	0x3b7501be	0.0037385072
108	0x3bad3eac	0.005287012
109	0x3bad3eac	0.005287012
110	0x3b7501be	0.0037385072
111	0x3b7501be	0.0037385072
112	0x3b7501be	0.0037385072
113	0x3bad3eac	0.005287012
114	0x3bad3eac	0.005287012
115	0x3b7501be	0.0037385072
116	0x3b7501be	0.0037385072
117	0x3b7501be	0.0037385072
118	0x3bad3eac	0.005287012
119	0x3bad3eac	0.005287012
120	0x3b7501be	0.0037385072
121	0x3b7501be	0.0037385072
122	0x3b7501be	0.0037385072
123	0x3bad3eac	0.005287012
124	0x3bad3eac	0.005287012
125	0x3b7501be	0.0037385072
126	0x3b7501be	0.0037385072
127	0x3b7501be	0.0037385072
128	0x3bad3eac	0.005287012
129	0x3bad3eac	0.005287012
130	0x3b7501be	0.0037385072
131	0x3b7501be	0.0037385072
132	0x3b7501be	0.0037385072
133	0x3bad3eac	0.005287012
134	0x3bad3eac	0.005287012
135	0x3b7501be	0.0037385072
136	0x3bad3eac	0.005287012
137	0x3b7501be	0.0037385072
138	0x3b7501be	0.0037385072
139	0x3b841a66	0.0040314673
140	0x3b7501be	0.0037385072
141	0x3b7501be	0.0037385072
142	0x3b7501be	0.0037385072
143	0x3bad3eac	0.005287012
144	0x3bad3eac	0.005287012
145	0x3b7501be	0.0037385072
146	0x3bad3eac	0.005287012
147	0x3b7501be	0.0037385072
148	0x3b7501be	0.0037385072
149	0x3b82ef6b	0.003995826
150	0x3b7501be	0.0037385072
151	0x3b7501be	0.0037385072
152	0x3b7501be	0.0037385072
153	0x3bad3eac	0.005287012
154	0x3bad3eac	0.005287012
155	0x3b7501be	0.0037385072
156	0x3bad3eac	0.005287012
157	0x3b7501be	0.0037385072
158	0x3b7501be	0.0037385072
159	0x3b828d02	0.0039840946
160	0x3b7501be	0.0037385072
161	0x3b7501be	0.0037385072
162	0x3b7501be	0.0037385072
163	0x3bad3eac	0.005287012
164	0x3bad3eac	0.005287012
165	0x3b7501be	0.0037385072
166	0x3bad3eac	0.005287012
167	0x3b7501be	0.0037385072
168	0x3b7501be	0.0037385072
169	0x3b8289ed	0.003983727
170	0x3b7501be	0.0037385072
171	0x3b7501be	0.0037385072
172	0x3b7501be	0.0037385072
173	0x3bad3eac	0.005287012
174	0x3bad3eac	0.005287012
175	0x3b7501be	0.0037385072
176	0x3bad3eac	0.005287012
177	0x3b7501be	0.0037385072
178	0x3b7501be	0.0037385072
179	0x3b82e434	0.003994489
180	0x3b7501be	0.0037385072
181	0x3b7501be	0.0037385072
182	0x3b7501be	0.0037385072
183	0x3bad3eac	0.005287012
184	0x3bad3eac	0.005287012
185	0x3b7501be	0.0037385072
186	0x3b7501be	0.0037385072
187	0x3b7501be	0.0037385072
188	0x3b7501be	0.0037385072
189	0x3b75e362	0.0037519564
190	0x3b7501be	0.0037385072
191	0x3b7501be	0.0037385072
192	0x3b7501be	0.0037385072
193	0x3bad3eac	0.005287012
194	0x3bad3eac	0.005287012
195	0x3b7501be	0.0037385072
196	0x3b7501be	0.0037385072
197	0x3b7501be	0.0037385072
198	0x3b7501be	0.0037385072
199	0x3b75c98d	0.0037504167
200	0x3b7501be	0.0037385072
201	0x3b7501be	0.0037385072
202	0x3b7501be	0.0037385072
203	0x3bad3eac	0.005287012
204	0x3bad3eac	0.005287012
205	0x3b7501be	0.0037385072
206	0x3b7501be	0.0037385072
207	0x3b7501be	0.0037385072
208	0x3b7501be	0.0037385072
209	0x3b75bd57	0.0037496889
210	0x3b7501be	0.0037385072
211	0x3b7501be	0.0037385072
212	0x3b7501be	0.0037385072
213	0x3bad3eac	0.005287012
214	0x3bad3eac	0.005287012
215	0x3b7501be	0.0037385072
216	0x3b7501be	0.0037385072
217	0x3b7501be	0.0037385072
218	0x3b7501be	0.0037385072
219	0x3b75b6d7	0.0037493014
220	0x3b7501be	0.0037385072
221	0x3b7501be	0.0037385072
222	0x3b7501be	0.0037385072
223	0x3bad3eac	0.005287012
224	0x3bad3eac	0.005287012
225	0x3b7501be	0.0037385072
226	0x3b7501be	0.0037385072
227	0x3b7501be	0.0037385072
228	0x3b7501be	0.0037385072
229	0x3b75b1e7	0.0037490071
230	0x3b7501be	0.0037385072
231	0x3b7501be	0.0037385072
232	0x3b7501be	0.0037385072
233	0x3bad3eac	0.005287012
234	0x3bad3eac	0.005287012
235	0x3b7501be	0.0037385072
236	0x3b7501be	0.0037385072
237	0x3b7501be	0.0037385072
238	0x3b7501be	0.0037385072
239	0x3b75ae5f	0.0037487966
240	0x3b7501be	0.0037385072
241	0x3b7501be	0.0037385072
242	0x3b7501be	0.0037385072
243	0x3bad3eac	0.005287012
244	0x3bad3eac	0.005287012
245	0x3b7501be	0.0037385072
246	0x3b7501be	0.0037385072
247	0x3b7501be	0.0037385072
248	0x3b7501be	0.0037385072
249	0x3b75ac26	0.0037486642
250	0x3b7501be	0.0037385072
251	0x3b7501be	0.0037385072
252	0x3b7501be	0.0037385072
253	0x3bad3eac	0.005287012
254	0x3bad3eac	0.005287012
255	0x3b7501be	0.0037385072

onnx::Div_81 f4 [13]
0	0x3b7501be	0.0037385072
1	0x3b7501be	0.0037385072
2	0x3b7501be	0.0037385072
3	0x3b7501be	0.0037385072
4	0x3b7501be	0.0037385072
5	0x3b7501be	0.0037385072
6	0x3b7501be	0.0037385072
7	0x3b7501be	0.0037385072
8	0x3b7501be	0.0037385072
9	0x3b7501be	0.0037385072
10	0x3b7501be	0.0037385072
11	0x3b7501be	0.0037385072
12	0x3b7501be	0.0037385072
