Assets/Training/results/finally_works/PlayerAgentBehavior/PlayerAgentBehavior-21467.onnx (onnx, 295465 bytes, 13 tensors)

discrete_act_size_vector f4 [1, 2]
00000000: 0000 4040 0000 0040
3.0 2.0

network_body.observation_encoder.processors.0.normalizer.running_mean f4 [405]
00000000: 0000 0000 0000 0000 0000 0000 0000 0000
00000010: 0000 0000 0000 0000 0000 0000 0000 0000
00000020: 0000 0000 0000 0000 0000 0000 0000 0000
00000030: 0000 0000 0000 0000 0000 0000 0000 0000
00000040: 0000 0000 0000 0000 0000 0000 0000 0000
00000050: 0000 0000 0000 0000 0000 0000 0000 0000
00000060: 0000 0000 0000 0000 0000 0000 0000 0000
00000070: 0000 0000 0000 0000 0000 0000 0000 0000
00000080: 0000 0000 0000 0000 0000 0000 0000 0000
00000090: 0000 0000 0000 0000 0000 0000 0000 0000
000000a0: 0000 0000 0000 0000 0000 0000 0000 0000
000000b0: 0000 0000 0000 0000 0000 0000 0000 0000
000000c0: 0000 0000 0000 0000 0000 0000 0000 0000
000000d0: 0000 0000 0000 0000 0000 0000 0000 0000
000000e0: 0000 0000 0000 0000 0000 0000 0000 0000
000000f0: 0000 0000 0000 0000 0000 0000 0000 0000
00000100: 0000 0000 0000 0000 0000 0000 0000 0000
00000110: 0000 0000 0000 0000 0000 0000 0000 0000
00000120: 0000 0000 0000 0000 0000 0000 0000 0000
00000130: 0000 0000 0000 0000 0000 0000 0000 0000
00000140: 0000 0000 0000 0000 0000 0000 0000 0000
00000150: 0000 0000 0000 0000 0000 0000 0000 0000
00000160: 0000 0000 0000 0000 0000 0000 0000 0000
00000170: 0000 0000 0000 0000 0000 0000 0000 0000
00000180: 0000 0000 0000 0000 0000 0000 0000 0000
00000190: 0000 0000 0000 0000 0000 0000 0000 0000
000001a0: 0000 0000 0000 0000 0000 0000 0000 0000
000001b0: 0000 0000 0000 0000 0000 0000 0000 0000
000001c0: 0000 0000 0000 0000 0000 0000 0000 0000
000001d0: 0000 0000 0000 0000 0000 0000 0000 0000
000001e0: 0000 0000 0000 0000 0000 0000 0000 0000
000001f0: 0000 0000 0000 0000 0000 0000 0000 0000
00000200: 0000 0000 0000 0000 0000 0000 0000 0000
00000210: 0000 0000 0000 0000 0000 0000 0000 0000
00000220: 0000 0000 0000 0000 0000 0000 0000 0000
00000230: 0000 0000 0000 0000 0000 0000 0000 0000
00000240: 0000 0000 0000 0000 0000 0000 0000 0000
00000250: 0000 0000 0000 0000 0000 0000 0000 0000
00000260: 0000 0000 0000 0000 0000 0000 0000 0000
00000270: 0000 0000 0000 0000 0000 0000 0000 0000
00000280: 0000 0000 0000 0000 0000 0000 0000 0000
00000290: 0000 0000 0000 0000 0000 0000 0000 0000
000002a0: 0000 0000 0000 0000 0000 0000 0000 0000
000002b0: 0000 0000 0000 0000 0000 0000 0000 0000
000002c0: 0000 0000 0000 0000 0000 0000 0000 0000
000002d0: 0000 0000 0000 0000 0000 0000 0000 0000
000002e0: 0000 0000 0000 0000 0000 0000 0000 0000
000002f0: 0000 0000 0000 0000 0000 0000 0000 0000
00000300: 0000 0000 0000 0000 0000 0000 0000 0000
00000310: 0000 0000 0000 0000 0000 0000 0000 0000
00000320: 0000 0000 0000 0000 0000 0000 0000 0000
00000330: 0000 0000 0000 0000 0000 0000 0000 0000
00000340: 0000 0000 0000 0000 0000 0000 0000 0000
00000350: 0000 0000 0000 0000 0000 0000 0000 0000
00000360: 0000 0000 0000 0000 0000 0000 0000 0000
00000370: 0000 0000 0000 0000 0000 0000 0000 0000
00000380: 0000 0000 0000 0000 0000 0000 0000 0000
00000390: 0000 0000 0000 0000 0000 0000 0000 0000
000003a0: 0000 0000 0000 0000 0000 0000 0000 0000
000003b0: 0000 0000 0000 0000 0000 0000 0000 0000
000003c0: 0000 0000 0000 0000 0000 0000 0000 0000
000003d0: 0000 0000 0000 0000 0000 0000 0000 0000
000003e0: 0000 0000 0000 0000 0000 0000 0000 0000
000003f0: 0000 0000 0000 0000 0000 0000 0000 0000
0.0 0.0 0.0 0.0 0.0 0.0 0.0 0.0
0.0 0.0 0.0 0.0 0.0 0.0 0.0 0.0
0.0 0.0 0.0 0.0 0.0 0.0 0.0 0.0
0.0 0.0 0.0 0.0 0.0 0.0 0.0 0.0
0.0 0.0 0.0 0.0 0.0 0.0 0.0 0.0
0.0 0.0 0.0 0.0 0.0 0.0 0.0 0.0
0.0 0.0 0.0 0.0 0.0 0.0 0.0 0.0
0.0 0.0 0.0 0.0 0.0 0.0 0.0 0.0
0.0 0.0 0.0 0.0 0.0 0.0 0.0 0.0
0.0 0.0 0.0 0.0 0.0 0.0 0.0 0.0
0.0 0.0 0.0 0.0 0.0 0.0 0.0 0.0
0.0 0.0 0.0 0.0 0.0 0.0 0.0 0.0
0.0 0.0 0.0 0.0 0.0 0.0 0.0 0.0
0.0 0.0 0.0 0.0 0.0 0.0 0.0 0.0
0.0 0.0 0.0 0.0 0.0 0.0 0.0 0.0
0.0 0.0 0.0 0.0 0.0 0.0 0.0 0.0
0.0 0.0 0.0 0.0 0.0 0.0 0.0 0.0
0.0 0.0 0.0 0.0 0.0 0.0 0.0 0.0
0.0 0.0 0.0 0.0 0.0 0.0 0.0 0.0
0.0 0.0 0.0 0.0 0.0 0.0 0.0 0.0
0.0 0.0 0.0 0.0 0.0 0.0 0.0 0.0
0.0 0.0 0.0 0.0 0.0 0.0 0.0 0.0
0.0 0.0 0.0 0.0 0.0 0.0 0.0 0.0
0.0 0.0 0.0 0.0 0.0 0.0 0.0 0.0
0.0 0.0 0.0 0.0 0.0 0.0 0.0 0.0
0.0 0.0 0.0 0.0 0.0 0.0 0.0 0.0
0.0 0.0 0.0 0.0 0.0 0.0 0.0 0.0
0.0 0.0 0.0 0.0 0.0 0.0 0.0 0.0
0.0 0.0 0.0 0.0 0.0 0.0 0.0 0.0
0.0 0.0 0.0 0.0 0.0 0.0 0.0 0.0
0.0 0.0 0.0 0.0 0.0 0.0 0.0 0.0
0.0 0.0 0.0 0.0 0.0 0.0 0.0 0.0

network_body.observation_encoder.processors.1.normalizer.running_mean f4 [13]
00000000: 0000 0000 0000 0000 0000 0000 0000 0000
00000010: 0000 0000 0000 0000 0000 0000 0000 0000
00000020: 0000 0000 0000 0000 0000 0000 0000 0000
00000030: 0000 0000
0.0 0.0 0.0 0.0 0.0 0.0 0.0 0.0
0.0 0.0 0.0 0.0 0.0

network_body._body_endoder.seq_layers.0.weight f4 [128, 418]
00000000: ee0f 9f3b 1b09 9dbd 62e3 933c 27ba 9e3d
00000010: 8553 933b 5f49 a4bc 47cb 963d 1bc7 c7bc
00000020: 8ac1 b43c 6714 ef3b 80cc 6abb aae1 ffbc
00000030: f925 0abc f154 923d f405 a13d 49d4 883c
00000040: bca2 0e3e a1b3 09bc 60af 33bd f625 0fbd
00000050: 512d febc c14c 6bbd 4176 4bbd acff 243d
00000060: 2b57 8fbc eb5e 1dbd c15f 93bd 78da 083d
00000070: 86d5 033d 7a03 5cbb ada0 16bc cdcc 8a3d
00000080: 05a6 243c 8d32 53bd c8c8 8cbd d6ef 86bd
00000090: 3499 27bd 242b 933d b0bd 0e3e a3cd 823c
000000a0: abb8 42bd 505f c93d ffaf 35bd 0eef a33d
000000b0: fe44 c9bc 2f43 d6bd a1d1 ef39 a879 003d
000000c0: bbd7 6d3c 7f28 5a3d b65e 653d b264 07bc
000000d0: ec7b 163d 939f 2d3d e69f 2ebd 0a57 623b
000000e0: f13f a33b 01a0 3e3d 2cb4 7abd 54ca 8e3d
000000f0: db37 78bd 8a9f 2dbb 062b 37bd 52dd d93c
00000100: 0e01 02bd bd3f b4bc e21e 64bc 0396 bf3c
00000110: 4322 01bd dc86 4b3d f80b 40bd 94cc cfbc
00000120: f458 2b3c 3094 04bd 899a 873b 7aa0 69bd
00000130: 556a 27bd 9070 81bc a377 0d3d 6686 a2bc
00000140: 2b48 2c3d 3616 62bd 9097 69bd 76d8 dabc
00000150: cf5e b03d 262c 023d ea24 85bc 1d6e 87bc
00000160: 05ca 943d 97ec f43a 6c17 46bd 3930 c9bc
00000170: 153c 4a3d c683 e2bd e120 2c3e cf83 b73c
00000180: 91b1 60bd 38f3 1f3c bb60 803d adfe da3b
00000190: c972 a6bc 6bdf 233c d0d6 c93c 7549 653d
000001a0: 342c af3c ad16 573d ab34 f93d 387c f33b
000001b0: 90ad 7137 ced9 53bd 4bc8 a7bd 99ba 0ebd
000001c0: ca5e 183d ea0d a4bd 48b5 68bd 0e9b 49bd
000001d0: bdf8 06bc f1dd 0bbd 37f9 083d bf10 7f3d
000001e0: dc8a 1bbb 2d99 1bbd 5c08 003d 4274 023d
000001f0: 8b4d 8abd e2b1 4b3d 4615 c7bd ec39 a8bc
00000200: ea9b 0ebd 4b57 463c f8cf 5f3b 45d4 02be
00000210: 4651 2dbc 8b3c 403d e305 0bbd 6696 0fbd
00000220: 450e 4bbc 8e58 c43c f15a 093c e98d 893a
00000230: dd07 ef3c 44e7 e3bc 036a 5b3c 089f 98bb
00000240: c7da 8c3c 610d d9bc a5b3 babb c05c 523d
00000250: 8d28 9f3d db97 43bd b024 7dbd 2809 79bd
00000260: c8de b7bc e147 8abd 4608 15bd 8c1d 06bd
00000270: cd7a 2a3d b540 903d 4e52 3dbb 5faf 97bd
00000280: 4826 30bd 1613 263c 1660 583d 26b5 96bc
00000290: 0d1e 513d b076 a0bc 2cf2 02be bd06 ad3c
000002a0: 95f6 83bd 8514 aebd b59c cebd 0289 e93d
000002b0: 475c 393d a191 51bc 81a4 633c 0174 5e3d
000002c0: 1538 c93a c60b 22bd 07a4 7c3b a105 3a3d
000002d0: 4d77 4c3d 1679 d7bb df25 fabb eaba 0ebe
000002e0: e492 cebc 07ae 00bd 7363 88bd 870f 92bc
000002f0: cc65 1bbd 06d1 1d3d 583d a8bd 725a 91bc
00000300: 2b5b 843d 940f 903c be50 7ebd e937 9b3c
00000310: 036c 183a 3b1d 343d d2ff fc3c 925b d4bc
00000320: e187 5f3c 2af1 6dbc 2485 5a3d 9510 843d
00000330: 004b 443c ba56 05bd c905 5d3d 36d2 a63c
00000340: 1119 8cbc c52e 383d 16f3 0dbd a7e5 eb3c
00000350: 87a1 833d c5bd 9d3d e10a 4ebd 3b07 0d3e
00000360: b6d1 0bbd c8d0 f13c bd5f dcbb 3d21 b0bc
00000370: 6f47 e73c c82d ff3b 608f cfbb b22d 86bc
00000380: 0344 0f3d a4b5 80bd ba08 ba3c 9035 fd3c
00000390: 7187 fdbd 52cc 83bd 0b8f 20bd e501 dc3c
000003a0: f299 a6bc 4391 05bd a3e4 473d 48ca 54bc
000003b0: d1a4 85bd 8572 313c 2478 b7bc f624 8b3c
000003c0: 0a67 523d 4556 a83d 6271 e5bc cc4b 08bd
000003d0: 882b 1d3d d431 a2bc d922 a13d ba38 e63c
000003e0: 1e23 7d3d 81c6 2b3d 9af1 36bc 01eb 373d
000003f0: e4e4 34bd 764c 96bc 5596 febc aedf 64bc
0.004854194 -0.07667752 0.01805276 0.077503495 0.0044960403 -0.020054517 0.07362991 -0.024386933
0.022064943 0.0072961333 -0.0035827458 -0.031235535 -0.008431905 0.071451075 0.078624636 0.016702788
0.13929266 -0.008404643 -0.043868423 -0.03494831 -0.031027468 -0.057446245 -0.049673323 0.04028289
-0.01749762 -0.0384206 -0.07195998 0.033411473 0.032186054 -0.0033571408 -0.0091935815 0.06777344
0.010049348 -0.05156188 -0.068742335 -0.06588714 -0.04091759 0.07185963 0.13939548 0.015967196
-0.047539394 0.098326325 -0.044357296 0.080045804 -0.02456903 -0.10462033 0.00045741818 0.03136602
0.014516766 0.053261276 0.055998527 -0.008263754 0.036739275 0.04238851 -0.04263296 0.0034536743
0.0049819876 0.04653931 -0.06120698 0.06972185 -0.060600143 -0.0026492798 -0.044718765 0.026594792
-0.031739287 -0.022003049 -0.013923379 0.02338696 -0.031526815 0.04968916 -0.046886414 -0.025366105
0.01045822 -0.032367885 0.004138295 -0.057037808 -0.04087289 -0.015800744 0.034537923 -0.019839477
0.042061012 -0.055196963 -0.057029307 -0.026714545 0.08611833 0.031780384 -0.016252954 -0.016531998
0.07265095 0.0018686232 -0.04836218 -0.024559127 0.049373705 -0.1106029 0.16809417 0.022401718
-0.05485684 0.009762578 0.0626845 0.0066831918 -0.020318406 0.010001997 0.024638563 0.055978257
0.021383382 0.05251186 0.12168249 0.0074305795 1.440513e-05 -0.051721387 -0.081925 -0.034845922
0.037199773 -0.080104664 -0.05681351 -0.049220137 -0.008238015 -0.034147207 0.033440795 0.06227183
-0.002373389 -0.037987877 0.031257972 0.031849153 -0.067530714 0.04973019 -0.097208545 -0.020535432
-0.03481666 0.012105773 0.0034151059 -0.12776287 -0.010578459 0.04693274 -0.03394116 -0.03505554
-0.012393539 0.023968007 0.0083834985 0.0010494563 0.029178554 -0.027820237 0.013391974 -0.00465763
0.017194165 -0.026495637 -0.005697685 0.051357985 0.07771406 -0.047752243 -0.061802566 -0.060799748
-0.022445098 -0.06751991 -0.036384843 -0.03274302 0.04162102 0.07043592 -0.0028888169 -0.07406496
-0.043005258 0.010136386 0.05282601 -0.018396925 0.05105405 -0.019587845 -0.12787694 0.021121377
-0.06443516 -0.085000075 -0.10088483 0.11403085 0.04525402 -0.012791068 0.013894201 0.05430985
0.0015351797 -0.03956201 0.0038549916 0.045415524 0.04991846 -0.006575714 -0.007633909 -0.1393849
-0.025216527 -0.031415965 -0.066595934 -0.01782967 -0.037938878 0.03852942 -0.082148254 -0.017743323
0.064627014 0.017585553 -0.06208872 0.018947558 0.0005814435 0.04397319 0.030883703 -0.02592257
0.013643236 -0.01452283 0.05334963 0.06448475 0.011980772 -0.032553412 0.053960595 0.020363908
-0.017101796 0.044966478 -0.034655653 0.02879603 0.06427293 0.07702211 -0.050303344 0.1377229
-0.034135543 0.0295185 -0.00672528 -0.021500224 0.028232304 0.00778744 -0.0063342303 -0.016379211
0.03497697 -0.06284645 0.02270924 0.03090933 -0.12379349 -0.064354554 -0.039198916 0.026856372
-0.020337079 -0.032609235 0.04880203 -0.012987681 -0.06525577 0.010830526 -0.022396155 0.016985398
0.051367797 0.082195796 -0.028008167 -0.03327541 0.038371593 -0.01979915 0.07867975 0.028103221
0.06180107 0.041937355 -0.011166001 0.04490185 -0.0441636 -0.018347006 -0.031077543 -0.013969345

network_body._body_endoder.seq_layers.0.bias f4 [128]
00000000: 3629 11bd 7fab 41bd d58d 42bd da04 413d
00000010: 8a4c 3abd 4a9c 3b3d 6b43 32bd 46ab 2abd
00000020: d975 2dbd 542d 3dbd 643e 3abd d139 3dbd
00000030: 1209 3ebd 5f0a 423d 3785 3dbd 7345 3cbd
00000040: 04a4 3f3d 887c 35bd 2590 22bd efa7 36bd
00000050: a921 3d3d f9fb 3d3d 4c61 23bd 02a3 3e3d
00000060: 1d7e 163d 9784 40bd 8334 333d be42 42bd
00000070: 09a2 3fbd 7825 41bd 7eb1 39bd d7b2 3b3d
00000080: 6c82 343d 343a 3b3d c007 3fbd 0b7d 3cbd
00000090: 62f8 3abd bfce 3ebd 0247 453d 97e6 3fbd
000000a0: d775 36bd b935 3bbd 6655 333d a11f 3fbd
000000b0: 9346 3dbd 4386 413d b03c 43bd 5a0e 45bd
000000c0: d8c6 393d 1802 43bd 8268 303d d798 3fbd
000000d0: 9325 403d 66b2 38bd 728e 403d 3cf1 30bd
000000e0: d44d 3f3d dd84 41bd d5c9 3e3d 48f8 3c3d
000000f0: acda 3fbd 3b7c 273d 760c 3fbd bd99 38bd
00000100: 0cf5 413d 905b 3dbd 87da 423d 9195 40bd
00000110: c964 2d3d 0844 3bbd 2c3c 223d 5951 3f3d
00000120: a025 443d 848b 403d 7870 273d 078a 313d
00000130: 5741 40bd 6e8f 303d 6303 3a3d 184e 433d
00000140: 80d3 453d 6bf2 283d 9164 3abd fce3 3a3d
00000150: 0ff3 38bd 95a5 073d 9e3e 323d 71dc 3cbd
00000160: 3a1b 2dbd 1b96 443d 7f11 3b3d 32aa 3a3d
00000170: 20ed 3dbd e562 423d ecf3 413d efc1 3cbd
00000180: eb14 3f3d 3b00 25bd b824 443d 7203 3e3d
00000190: 73f1 30bd c8f3 39bd 96a6 42bd 0b43 3abd
000001a0: 55fc 3dbd f295 423d 4dfc 3ebd c1f6 413d
000001b0: adac 3a3d e2bf 333d bacb 423d 5b3a 3cbd
000001c0: 6b01 42bd e42b 47bd b188 433d 7d4b 33bd
000001d0: a1f0 3bbd 9186 443d de06 41bd 3616 3b3d
000001e0: c4e0 2cbd 1e1d 3e3d 4477 29bd a957 213d
000001f0: c68c 3dbd bbc5 31bd 8f2f 3fbd 6ef7 3f3d
-0.035439692 -0.047282692 -0.047498543 0.047123767 -0.04548315 0.045803346 -0.043521326 -0.041667245
-0.042348716 -0.046185806 -0.045469657 -0.046197716 -0.04639537 0.047373172 -0.04626962 -0.04596467
0.046787277 -0.044308215 -0.03968825 -0.044593748 0.04617468 0.046382878 -0.03988771 0.046542175
0.036741365 -0.047001448 0.04375125 -0.04742693 -0.04678539 -0.047154874 -0.045335285 0.04582485
0.044069692 0.045709804 -0.04663825 -0.046017688 -0.045647033 -0.046583887 0.04816342 -0.046850767
-0.044545975 -0.04570553 0.043782614 -0.046661023 -0.046209883 0.047247183 -0.047665298 -0.04810939
0.045355648 -0.04760942 0.043068416 -0.04677662 0.046910834 -0.04509201 0.047010846 -0.04319881
0.046705082 -0.04724585 0.0465792 0.046135217 -0.0468394 0.04088996 -0.046642743 -0.04506849
0.047352836 -0.0462299 0.047571685 -0.047017638 0.042332444 -0.045719177 0.039608166 0.04670844
0.047887444 0.047008052 0.040878743 0.043344524 -0.046937313 0.043105535 0.045413386 0.047681898
0.048297405 0.041246813 -0.045506064 0.04562758 -0.045153674 0.033116896 0.043516748 -0.046108667
-0.042262293 0.047994714 0.045670982 0.045572467 -0.04636872 0.047457594 0.047351763 -0.046083387
0.04665081 -0.040283423 0.04788658 0.046390004 -0.043199014 -0.045398504 -0.04752215 -0.045474093
-0.04638322 0.04750628 -0.04662733 0.047354463 0.045574833 0.043884166 0.04755757 -0.04595409
-0.047364634 -0.04862584 0.04773778 -0.043773163 -0.04588378 0.047979895 -0.04712569 0.04567548
-0.04220654 0.046414487 -0.041373506 0.03939024 -0.04627683 -0.04340146 -0.046676215 0.046866827

network_body._body_endoder.seq_layers.2.weight f4 [128, 128]
00000000: df7a 5a3b 9d52 20bd d3f8 c1bc 02ae 823b
00000010: 612e 20be f726 8dbd d894 593c 82e7 00bd
00000020: 20e9 063d 90a9 acbd 6b82 f5bd 3bbd 67bd
00000030: 9685 7cbd 4976 3a3d 1074 aebd fea1 423d
00000040: e922 2f3e ea62 1cbe e04b 4cbd 7daa 9d3d
00000050: 4b46 123c 09b2 b13e 65c5 9dbd 6075 263e
00000060: dd96 ce3c 6905 05be 66bb 143e f596 04bd
00000070: 6d56 57bd ac57 54be bd9a 9ebb 0d20 983d
00000080: 71da 91bd 4fb9 3d3c f10f d53d e775 20be
00000090: 535f 233d e69f 96bd 9fff 033e e93c b7bc
000000a0: c1a0 08be 4ae9 f0bd bc35 8a3c 8aad f0bd
000000b0: cdaf debd 8992 103e 7f65 10be bd43 d1bc
000000c0: 8811 fc3d ac4a 60bc db2d 573d 9521 a6bd
000000d0: 254b 133e 3bfe 203d 67ef 4a3d 1ce1 2dbd
000000e0: 3e5b e3bd 8cb1 193d 3a77 823d 8409 59bc
000000f0: db9f 34bd 3eb8 3ebd fe31 8ebd 8c90 9cbd
00000100: 806d c03d bee3 583d 37cd 13bc a0f4 1d3e
00000110: 97f4 f03d 4386 10bd c274 96bc 87c7 78bc
00000120: ef71 82bd 5810 843d f91f b03d bf41 9a3d
00000130: ecdc 353d 9382 f2bc 747d 7e3d 55bf 633d
00000140: f2e9 243b 49c2 333d e857 b3bc 6fc1 113e
00000150: 03fd adbc 672d a23b b7d5 043e a741 803d
00000160: 6dae 96bd 5039 193d 7c08 183d 8210 c4bb
00000170: 6342 a1bc ac96 363d aad9 823d af63 c3bd
00000180: 1f1f 153d a4c4 bfbd 7061 a23d 8cd9 093e
00000190: 065a 22be 6e96 f5bd 2350 063e df9f d7bc
000001a0: 13fd c6bd c62c 2b3e c4e7 8bbc 11e0 02be
000001b0: ffbc f2bc 7fe4 dfbb a35b 83bc 0f20 1e3d
000001c0: a85e 313d ac66 5ebe f380 e43d 4eca 8a3d
000001d0: 7d7b 793d 951d 9abd e6e6 2ebe 703e 053e
000001e0: f2c9 3b3d 35d4 2fba c76c 8dbd 3e9b e3bc
000001f0: 4932 ea3d 950d f5bd 463d e03c cd2d f13d
00000200: 4c55 46be 967d 92bd 4ce4 6abd b2a4 94bb
00000210: 441b a6bd d6bf 5f3c 6879 61bc cd63 0f3d
00000220: 653a 2abe 34a3 39be 14fc 583d 979e df3c
00000230: 1ebb 84bd 7e1b 403e c4d2 cbbd d7dc cf3c
00000240: 83f1 7f3d 1e53 17be fdb7 09be f9d0 2bbe
00000250: 8ce7 c83d 1802 1abe 2145 1fbd 90ce ddbc
00000260: ef92 433d e0df 943d 8c78 ce3d a127 e33c
00000270: fe70 16bc a893 00be 20a9 1b3c cbf1 593d
00000280: 380a 323e 5dca 8d3d 76de a1bd 95a1 dcbd
00000290: e631 5cbd ee3f 9dbd e9f7 283d c69d 993d
000002a0: 3aaf bebd e0cc 28bc d114 203e 6274 8abc
000002b0: 59c9 82be 17ec cabd 9afc f1bd 37e4 afbe
000002c0: a27f 923d d1c4 e9bd e0cb b93c fb18 90bd
000002d0: 343d f93d 1924 ca3c 6956 4ebd f5c4 edbc
000002e0: 4f80 d73d a35f f0bd bf46 013d fd19 093d
000002f0: 2681 a9bd 8806 bf3d 6efa afbb 76b6 d8bd
00000300: dccd 783e 4f1f 03bc cf68 e43d 7451 fabd
00000310: 7f2a 0c3e 719c b13d 7123 bebd 00ff 0fbd
00000320: 43f0 5bbd 98df 3fbd 6cbb 2b3e 6f15 a3bd
00000330: 32b2 acbd a2a4 be3d 3cef d13c 528e 3cbd
00000340: 14fa c83d 921f c53d d582 23be d541 5a3e
00000350: 3220 b93d 42d3 5e3d 38bb 103e 934e dd3d
00000360: e257 09bd 3d0e b43d 72c8 07bd 627d b53d
00000370: 1a4d ebbd e255 dbbd d1ce 9d3c 75c8 56be
00000380: 494f db3c a243 1cbd a783 cfbc 876e b33d
00000390: 8b44 dfbd b3a1 5abd 0a67 64bd 6de2 07be
000003a0: 8b5a 85bb 76b8 603d 349f b63c 6503 d3bd
000003b0: 4e7c 25bd e3d7 813c 8ac9 41bc b672 86bc
000003c0: 38e0 1bbd e63b 37bd 83b0 dcbd ef22 3abc
000003d0: 85c3 22bc 1a02 c93d d73e 333c 0891 313d
000003e0: c703 44bb c7e7 3b3d 3110 68bd d160 03be
000003f0: daa8 0bbd a4e9 0abe 2416 b73c ccbf 953d
0.0033337397 -0.039141286 -0.023678219 0.0039880285 -0.15642692 -0.068921976 0.013280116 -0.031470783
0.03293717 -0.08430779 -0.11987766 -0.05657695 -0.061650835 0.04552296 -0.08518231 0.04751777
0.17103161 -0.15272108 -0.049877048 0.07698534 0.008927892 0.34706143 -0.07703666 0.16255713
0.025218422 -0.12990345 0.14524612 -0.032370526 -0.052572656 -0.20736569 -0.0048402236 0.07427988
-0.071217425 0.011579826 0.10403431 -0.15669976 0.03988583 -0.07354717 0.1289048 -0.022367911
-0.13342573 -0.11763246 0.016871326 -0.1175185 -0.10873375 0.14118399 -0.14101218 -0.025544995
0.12308031 -0.013689678 0.052533966 -0.08111874 0.14384134 0.039304953 0.049544718 -0.04245101
-0.111013874 0.037522838 0.06370397 -0.013246898 -0.044097763 -0.046562426 -0.06943129 -0.07644758
0.093958855 0.052951567 -0.009021095 0.15425348 0.11765402 -0.035284292 -0.018366221 -0.01518429
-0.06369387 0.0644843 0.08599848 0.07532071 0.04440014 -0.029603278 0.06213136 0.05560239
0.0025163856 0.043886457 -0.021892503 0.14233945 -0.02123881 0.00494926 0.1297215 0.06262522
-0.07357488 0.037408173 0.037117466 -0.005983413 -0.019684976 0.044577286 0.063891724 -0.095404975
0.036406633 -0.09363678 0.07928741 0.13461894 -0.15854654 -0.11991583 0.13116507 -0.02632135
-0.09716239 0.16716298 -0.017078288 -0.12780787 -0.029631136 -0.006832659 -0.016034907 0.038604792
0.04330316 -0.21718854 0.111574076 0.06776868 0.060908783 -0.075251736 -0.17080268 0.130121
0.045846887 -0.00067073415 -0.06905513 -0.027783986 0.114353724 -0.11965481 0.027372967 0.11776314
-0.19368476 -0.0715286 -0.057346627 -0.004536235 -0.08110669 0.013656577 -0.013761856 0.035007287
-0.16623838 -0.18128663 0.052974775 0.027297301 -0.06481002 0.18760487 -0.0995231 0.02537386
0.062486183 -0.147778 -0.13449092 -0.16778935 0.09809789 -0.15039861 -0.038884286 -0.027076036
0.04774755 0.07269263 0.10081586 0.027728857 -0.009182213 -0.12556326 0.009500772 0.053209107
0.1738671 0.06923363 -0.07903759 -0.10773007 -0.053758524 -0.07678209 0.04125205 0.07500796
-0.093107656 -0.010302752 0.15632941 -0.016901199 -0.2554424 -0.09908312 -0.11815758 -0.34353802
0.0715325 -0.11414493 0.022680223 -0.07036015 0.12169877 0.024675416 -0.050375376 -0.02902458
0.1052252 -0.11736991 0.03156161 0.03347205 -0.08276586 0.093274176 -0.0053704297 -0.10581677
0.24297279 -0.00800307 0.11152803 -0.12222567 0.13688086 0.08672417 -0.09284104 -0.035155296
-0.05369593 -0.046844095 0.16770715 -0.079630725 -0.084324256 0.09308745 0.025626771 -0.046034165
0.098133236 0.09625162 -0.15967877 0.21314175 0.09039344 0.05440069 0.14133918 0.108060025
-0.033531077 0.08791778 -0.033150144 0.088618055 -0.11489315 -0.1070974 0.019263657 -0.20974906
0.026771205 -0.038150437 -0.025331331 0.08761316 -0.109017454 -0.053376865 -0.05576233 -0.13269968
-0.0040696315 0.054863416 0.02229271 -0.10303382 -0.04040175 0.015850013 -0.011827836 -0.01641212
-0.03805563 -0.044734858 -0.107758544 -0.011360868 -0.009934311 0.09814854 0.010940275 0.043351203
-0.0029909478 0.045875337 -0.056656066 -0.12829901 -0.034096576 -0.1356569 0.022349425 0.07311973

network_body._body_endoder.seq_layers.2.bias f4 [128]
00000000: 627d 323d 966b 163d 6e02 33bd fe78 393d
00000010: bdd8 24bd e1bb 063d 7a55 1fbd bb74 273d
00000020: 2c0f 33bd a0cd 30bd 91bf 253d 2501 2e3d
00000030: 7ddc 32bd 9a0b 2ebd 1ec5 2e3d a300 e7bc
00000040: 99eb 07bd a1c9 0fbd 4a18 263d ec56 28bd
00000050: 48e0 2bbd eecf 17bd c0ec f13c f25e 2d3d
00000060: 9f9c 16bd 8f44 28bd fb0d 343d ca94 1cbd
00000070: b1a0 323d 8658 efbc 01ad 0c3d f4a5 343d
00000080: 47af 2abd 093a 293d 45e7 083d ef1a 353d
00000090: 714b 35bd 49f2 363d 506c 28bd 91d1 323d
000000a0: b165 333d 0e5c 383d 8c4d 35bd d710 24bd
000000b0: 1bbe 17bd 3781 20bd dffb 1b3d a10d 263d
000000c0: 0006 1abd 1f79 2bbd 8471 2d3d f98c 273d
000000d0: 224d 33bd cdce 383d 0a9d 303d 073a 33bd
000000e0: 8ec5 113d 725f be3c 8739 2fbd dbc6 2fbd
000000f0: 29e8 19bd 56a4 183d 8d40 2abd 8549 393d
00000100: 49cb edbc c6a8 353d eb57 a63c 62f9 2a3d
00000110: 475b 313d 682e 2b3d 0010 02bd 0eb4 19bd
00000120: 8703 0c3d e20a 1e3d 132d 2dbd c611 10bd
00000130: 7ee4 32bd 0b45 23bd 0256 293d a518 2fbd
00000140: d3ce 34bd 68e2 1e3d b1da 353d cc92 dabc
00000150: a204 2fbd b7fb 2abd 1dcf 2ebd 337d 243d
00000160: b4bc 123d 3f94 253d 6062 323d a638 113d
00000170: 5a53 33bd 6d24 29bd 38f8 20bd a7b2 353d
00000180: 3294 21bd b05f d73c 924e 2bbd d0e1 313d
00000190: 7a2c 1d3d 0827 393d 3edb 33bd b75f c7bc
000001a0: 637b 323d a96d 23bd 30d2 e5bc eeef 1abd
000001b0: 1172 31bd 7aeb 27bd 7157 14bd f578 2e3d
000001c0: e5b5 35bd 505b 363d 7ea2 32bd 6aae 26bd
000001d0: dd3c 303d ed8d 373d a623 34bd ca53 07bd
000001e0: 64d2 303d e674 373d a6da 33bd 1ffe ef3c
000001f0: 7111 15bd c511 32bd ad54 33bd 73bb 27bd
0.043576606 0.036723696 -0.04370349 0.045281403 -0.04024576 0.03289402 -0.038899876 0.040882807
-0.04371564 -0.04316485 0.040465895 0.04248156 -0.043667305 -0.042491533 0.042668454 -0.028198546
-0.033183668 -0.035104398 0.040550508 -0.04109852 -0.04196194 -0.03706353 0.029531837 0.042326875
-0.03677046 -0.041081008 0.043958645 -0.038227834 0.04361028 -0.029217016 0.034344677 0.044103578
-0.041671064 0.041315112 0.03342368 0.04421514 -0.0442614 0.044664655 -0.04111892 0.04365689
0.043798152 0.045009665 -0.044263408 -0.040055122 -0.037046533 -0.03918573 0.038082 0.04054034
-0.03760338 -0.041863557 0.042344585 0.040905926 -0.04377473 0.045119096 0.043118514 -0.04375651
0.035588793 0.023238871 -0.04277947 -0.042914253 -0.03757492 0.037266098 -0.041565467 0.04523613
-0.029027598 0.044350408 0.020305594 0.041741736 0.04329994 0.041792303 -0.03175354 -0.03752523
0.03418305 0.038584597 -0.042279314 -0.0351732 -0.04367494 -0.039860766 0.04134179 -0.042748112
-0.044142555 0.038790137 0.044398014 -0.026681326 -0.042729028 -0.04174396 -0.042677987 0.04015846
0.035824493 0.04042458 0.04355085 0.035454415 -0.043780662 -0.041294504 -0.03929922 0.04435983
-0.03944797 0.026290745 -0.041822977 0.043428242 0.038372494 0.04520324 -0.043910258 -0.024337633
0.043574702 -0.039899502 -0.028054327 -0.03782647 -0.043321673 -0.040996052 -0.036216203 0.042595822
-0.04436292 0.044520676 -0.043611996 -0.040693678 0.043026794 0.044813085 -0.04397931 -0.03303889
0.043169394 0.044789217 -0.04390969 0.029295979 -0.036393587 -0.043473978 -0.043781925 -0.04095025

action_model._discrete_distribution.branches.0.weight f4 [3, 128]
00000000: 6c7a 02bd b00c ddbc f312 0e3d 4ceb dcbc
00000010: 9f39 d13c 9c4d a1bc 4968 0a3d f73a f3bc
00000020: f48e a73c 4f1b 1b3d 52e6 9abc 7c44 27bd
00000030: 1c16 fd3c 4a98 e23c fce1 e2bc 1534 d63b
00000040: 0144 063d c74f b43c abd5 f7bc 8f53 d13c
00000050: de82 263d 158a 603c 594c 05bd 13c0 0abd
00000060: eeb1 f03c b6ac 073d 3480 0abd 80c6 363d
00000070: 0ac0 07bd 0ecd af3c 1ec3 bfbc e95a dcbc
00000080: fcce 013d 5c03 45bd 4fb7 d5bc f358 e3bc
00000090: b723 fd3c 193e 32bd b13e df3c 3ad2 84bc
000000a0: e76e dbbc 0988 08bd 81b5 153d 0d3f 0b3d
000000b0: cc1b 373d 764f e53c 9cc4 aebc 3d45 1ebd
000000c0: 3d4f 083d 6909 f63c 7a9d 0bbd b164 e2bc
000000d0: c103 243d 27e2 d4bc 3882 efbc c53b e03c
000000e0: c2b2 35bd 608e b4bc e3fb ee3c cc09 b63c
000000f0: 3065 143d 15cd b4bc 8161 b63c 90c7 efbc
00000100: ce3e dd3c f153 e6bc 06be 18bd b1cd e5bc
00000110: fe2a a5bc 40aa 13bd d5ae b13c 9125 343d
00000120: c926 44bd a8c0 ffbc 338d 193d b2be b43c
00000130: b51e 1d3d 3169 c33c 696d 04bd 7a05 bf3c
00000140: 1086 d23c 7333 fcbc 3843 efbc 5929 0b3d
00000150: af7a fb3c 86bb ee3c 97c6 2d3d 3263 f3bc
00000160: 9dba 20bd c788 19bd f710 bdbc 3a9c 66bd
00000170: 4019 ff3c 6dfe 953c 76f4 e63c 5968 d1bc
00000180: 6a95 133d 2fa8 b5bc 1732 f93c 81a0 e6bc
00000190: c951 36bd 40cc 03bd a9ec f13c ffe1 d23c
000001a0: 075b 0ebd 61e6 0d3d e334 b63c 5e77 173d
000001b0: 4312 c93c a50b ca3c e463 ea3c 08b2 e5bc
000001c0: 5acd c33c cfa3 d3bc ca74 ae3c 39a8 053d
000001d0: 7cee 12bd ec3c e8bc e27a d33c b1d3 453d
000001e0: 4137 d3bc 9798 d5bc 3d4a bf3c 3d1b b9bc
000001f0: 3c67 243d 8966 ed3c c05a 053d 7793 153d
00000200: d09b 4b3d 1c1d 4b3d 1fcf 3abd 36da 573d
00000210: 9305 89bd 7711 4c3d 437f 7dbd a1a0 8d3d
00000220: 9c6d 5ebd f008 21bd 5a6f 513d 15dc 3c3d
00000230: 5359 52bd edcb 53bd c2cf 473d 6006 66bd
00000240: f743 38bd aafd 81bd ee0c 673d 71d4 69bd
00000250: 2dd3 4fbd 9a40 73bd 978c 313d ba81 5a3d
00000260: 172b 0dbd 4c27 29bd ec98 283d 9fa4 15bd
00000270: 13a7 833d c707 3abd 4730 633d 3b74 683d
00000280: 355d 4cbd 9179 423d 2a8e 773d 8754 543d
00000290: 1939 47bd de41 1e3d 78d2 3bbd d336 6d3d
000002a0: 59b5 8f3d aff3 563d 17ea 2ebd 8a77 69bd
000002b0: a455 41bd 7878 6fbd 25ce 3b3d 20a5 6a3d
000002c0: 814c 48bd d648 61bd 408c 483d dd7f 5f3d
000002d0: a500 2ebd 79ba 543d e219 3c3d 5cf0 43bd
000002e0: f462 003d e23d 483d 05ca 37bd a086 53bd
000002f0: 6b53 4bbd bff1 333d 1646 94bd 7bea 4b3d
00000300: 6605 4cbd 1860 5a3d fc4d dd3c 5c2f 5f3d
00000310: 4007 5f3d 0bc7 673d 554b 3bbd 5157 4abd
00000320: c649 463d c77c 633d 6ff6 3bbd 47be 58bd
00000330: c5d2 2abd ce19 64bd a882 423d bd9a 4bbd
00000340: 5fb1 4cbd f316 643d f3cd 603d 57d2 2cbd
00000350: ddfd 5fbd ca5d 82bd dfec 3ebd f521 513d
00000360: fa9a 823d 54e6 373d 9b78 5c3d 0211 3b3d
00000370: d534 2cbd 375a 5ebd 178e 3cbd 66a9 473d
00000380: f392 49bd d370 433d ee05 71bd cecd 6b3d
00000390: 8a8a 4e3d 9ad1 383d a925 45bd 40e3 47bd
000003a0: 6c6f 523d 4be9 52bd 4da4 45bd 030f 35bd
000003b0: ae97 68bd 7bc5 69bd f0fb 40bd 05e9 4c3d
000003c0: 3b43 50bd bbe1 5f3d 9745 7ebd b777 60bd
000003d0: 3287 573d cd65 443d 9fca 58bd 372b 5abd
000003e0: b611 5e3d c4c5 503d 7aad 51bd 73fc 153d
000003f0: 796e 7dbd 4b92 73bd 440a 2dbd ff50 3fbd
-0.03185503 -0.026983589 0.03468604 -0.026967667 0.025540171 -0.019690327 0.03379086 -0.029691203
0.020453908 0.03786784 -0.018908653 -0.040836796 0.030894332 0.027660508 -0.027695648 0.0065369704
0.032779697 0.022010697 -0.030253252 0.02555254 0.04065215 0.013704796 -0.032543514 -0.033874582
0.029381718 0.033123694 -0.03381367 0.044622898 -0.033142127 0.021460082 -0.023408469 -0.026898818
0.031691536 -0.048098907 -0.026088385 -0.027752375 0.03090082 -0.043516252 0.027251573 -0.016213525
-0.02678628 -0.03333286 0.03655005 0.033995677 0.044704244 0.027991991 -0.021333985 -0.03864025
0.033278693 0.030033784 -0.03408573 -0.027635904 0.040042643 -0.025986744 -0.029236898 0.02737225
-0.04435993 -0.022040546 0.029172843 0.022221468 0.036229312 -0.022070447 0.02226329 -0.029269964
0.027007487 -0.028116198 -0.037290595 -0.028052183 -0.020162102 -0.036051035 0.021689812 0.04398114
-0.04788855 -0.031219795 0.037488174 0.022063587 0.038359363 0.02385387 -0.032330904 0.023318041
0.025698692 -0.030786252 -0.029206857 0.03397498 0.030698149 0.029142153 0.04242572 -0.029710386
-0.03924047 -0.037483957 -0.023079379 -0.056301333 0.03113997 0.018309796 0.02819274 -0.025562452
0.036031164 -0.022174923 0.030419393 -0.028152706 -0.04451159 -0.03217721 0.029531794 0.025742529
-0.03475478 0.034643535 0.022242015 0.03697907 0.02454484 0.024663756 0.028612085 -0.028038993
0.02390163 -0.025834946 0.021295924 0.032631133 -0.035871968 -0.028349362 0.025815431 0.048297588
-0.025783183 -0.026073737 0.02335083 -0.022595996 0.040137514 0.028979557 0.03255725 0.036517587
0.04970914 0.049588308 -0.045607682 0.052698337 -0.06690516 0.049821343 -0.061888944 0.06915403
-0.05430375 -0.039315164 0.051131584 0.046108324 -0.051354717 -0.05170815 0.048782118 -0.056158423
-0.04498669 -0.06347211 0.056408815 -0.057087366 -0.050738502 -0.05938778 0.043346968 0.053346373
-0.03446492 -0.041297242 0.041161463 -0.036533948 0.06428351 -0.045417573 0.055465963 0.05675147
-0.049893577 0.047479216 0.060438313 0.051838424 -0.048638437 0.038637035 -0.045855016 0.057913613
0.07017011 0.05247849 -0.042703714 -0.056998767 -0.047200814 -0.058464497 0.04585089 0.05728638
-0.048901085 -0.055001102 0.048961878 0.0545653 -0.042481083 0.051935647 0.04592312 -0.047836646
0.03134437 0.04888714 -0.044870395 -0.05164206 -0.0496401 0.04393172 -0.0723993 0.049784165
-0.049809836 0.0533143 0.027014725 0.054488525 0.054450274 0.056586307 -0.04572614 -0.049399678
0.0484102 0.05553892 -0.045889314 -0.052915838 -0.04170491 -0.05568867 0.047487885 -0.049708117
-0.04997384 0.05568595 0.05488391 -0.042192783 -0.054685462 -0.06365545 -0.046612617 0.051057775
0.06377216 0.044897392 0.053825956 0.045670517 -0.042042572 -0.054285254 -0.046033945 0.048745535
-0.049212407 0.04771502 -0.058843546 0.057569318 0.05042509 0.045121767 -0.04813162 -0.048800707
0.05137579 -0.051492017 -0.048252393 -0.04420377 -0.056785278 -0.057073098 -0.047115266 0.050026912
-0.050845366 0.054658633 -0.062078085 -0.05480167 0.052619167 0.047948647 -0.05292761 -0.05326387
0.05421611 0.050969854 -0.05119083 0.036617707 -0.061872933 -0.059465688 -0.04224612 -0.046708103

action_model._discrete_distribution.branches.0.bias f4 [3]
00000000: 0d62 8ebc 551c 0c3d ba99 fdbc
-0.017380739 0.034206707 -0.030957092

action_model._discrete_distribution.branches.1.weight f4 [2, 128]
00000000: b30c 983c b684 a93c 9fa0 b4bc 24a8 fa3c
00000010: a147 aebc 2b0f dd3c 7022 a6bc 77e6 cc3b
00000020: c7c6 4ebc d273 b7bc 60a8 b73c 5ee6 023d
00000030: cfe2 c9bc 7369 d9ba feb6 fd3c d53b 99bc
00000040: 58f6 26ba af94 e5bb c49f 9a3c 869b e7bc
00000050: 95df 29bc 4c42 c4bc 98d9 7b3c 9b8d c93c
00000060: 0dec edbc 1e1c c9bc 83bf e23c 1abd cebc
00000070: 116b ff3c 514d 8fbc 666c 44bb 6d68 be3c
00000080: 9a69 d3bb cf58 fe3c 93c3 983c f915 c43c
00000090: 61ec d2bc c5af f63c fea0 babc b6fc 013d
000000a0: c806 bc3c b945 f53c 53c1 c2bc a105 d2bc
000000b0: 75ff 8cbc eb5a 6cbc 586a b03c 3975 e33c
000000c0: 80e2 02bd 8a0a c1bc eb3c bd3c 0e99 9e3c
000000d0: d72e cebc a816 003d 79a4 2c3d 5c69 12bd
000000e0: 4e72 ad3c 745b 863c 8003 acbc 93fe 9fbc
000000f0: e07c 96bc 299e ab3c 2478 fdbc e909 b33c
00000100: 7200 ffbb e71b ea3c 6b2f 463c 683d be3c
00000110: ec26 f73c 5b38 9c3c 29b7 4ebc 7ae4 bdbc
00000120: 6d09 993c 40ae 2b3c 3c8d b7bc ae68 91bb
00000130: 0fe1 87bc 2db2 62bc 0311 963c 306c e9bc
00000140: d04d b2bc ebb6 2c3c 311d a53c 5cf3 3dbc
00000150: ecdd d1bc 828f d0bc 6cdc eabc 381c 6b3c
00000160: 2955 ae3c 88c6 ff3c b0b3 6b3c 36cf 9d3c
00000170: 5237 9ebc af31 efbc 0f8c fdbc c90b cf3c
00000180: 3903 96bc ee8a 0b3d 3f88 c3bc 591b 963c
00000190: 6ec8 af3c c6dc bc3c dfc0 85bc e7da 92bb
000001a0: de14 cb3c 2a4c 6bbc 6751 6ebc 20e1 ffbc
000001b0: 4973 a3bc 0b68 13bc fc6d 86bc 5d93 d73c
000001c0: a60f 6dbc 42b0 ef3c d974 e8bc 3225 74bc
000001d0: 29c9 733c dc75 a73c 9602 9abc 5b7d 84bc
000001e0: 0136 ae3c 4232 ee3c 7515 01bd b0c9 753c
000001f0: 6f47 fbbc b65f f7bc a53b 9ebc 0490 e6bc
00000200: 430e c5bc 13a9 b6bb 4b20 a93c e292 c1bc
00000210: abb9 853c 2a26 5539 8d70 4a3c a3a8 f5bc
00000220: c31f 053d 7630 743c fd2c 96bc 9e2a 99bc
00000230: c5e4 1c3d 35a6 193d de36 d8bc dc51 eb3b
00000240: 06aa 9b3c 9b4a 8e3c 174d 5dbc 0648 7c3c
00000250: b1c1 083d b05f fa3b 64da ebba a2d8 eabc
00000260: c0d4 d93c f184 bd3c dc5c 71bc 0c31 c63c
00000270: 9bb7 0ebd 22de a43b 9eae c6bc 8816 abbc
00000280: ae80 e93c 8322 b1bc def8 be3a c1f2 fabc
00000290: 2039 9f3c 0f40 c6bc d785 203d 7707 aebc
000002a0: 3f57 02bd 7b28 0abd 8737 ad3c 3a17 3d3c
000002b0: b7b8 7e3c 16de 663c a115 94bc 2c60 49bc
000002c0: 5929 203d aa82 603c 16a4 68bc 665a 45bc
000002d0: 2fc9 b03c 91f2 5ebc 04f6 48bc 5988 893c
000002e0: 56d4 efbc 361e 203c 3958 873c f59a a83c
000002f0: d1b7 a53c 0cd1 ffbc 0afd 5b3c 35a2 09bd
00000300: eb63 b13b 83be 20bd 8322 5fbc 2c9b 44bc
00000310: 5e7d 94bc 9531 f6bc b57e 483c d80c 6d3c
00000320: 38e3 c4bb 3509 7dbc 15bf 8d3c 462d 943c
00000330: 5e00 e53c a9a5 853c 26a1 78bc 3e64 753c
00000340: c1f9 d43c 589a 94bc df32 d5bc f440 073c
00000350: f514 a73c 23a5 923c f3d3 063d be07 70bc
00000360: 7d38 f4ba 4f74 83bc 1730 14bd 07e9 1fbc
00000370: 3a3f 8a3c 79fd e03b bb3b b83c 5d6a c3bc
00000380: 956a c33c aea3 1a3c f7f8 e63c 4531 ccbc
00000390: b26f 2ebc a03b edbc b644 033d 1aff 023b
000003a0: ace2 afbc 80dc 9c3c 4c92 633a 3efc a23c
000003b0: 4bdb b63c a8ed d03c db75 293c 2bc8 d6bc
000003c0: b104 c83c 93f0 bcbc 21d2 193d b9b1 c83c
000003d0: 2c35 f5bc e295 e7bc 8b66 e83c 1cfe 323c
000003e0: 5ba4 87bc d020 d1bc b452 853c 0146 57bc
000003f0: a37d 313c 6108 033d 4bb3 f33c 35f8 273c
0.018560743 0.020693164 -0.022049246 0.030597754 -0.02127439 0.026984772 -0.020280093 0.0062530595
-0.012620634 -0.022394095 0.022419155 0.031957977 -0.024644284 -0.0016587212 0.030971047 -0.018705288
-0.00063691055 -0.00700625 0.01887501 -0.028272402 -0.0103682475 -0.023957394 0.015371703 0.024603656
-0.029043222 -0.02454954 0.02767921 -0.025236655 0.031178983 -0.017492922 -0.0029971837 0.023243153
-0.0064517977 0.031048207 0.018647945 0.023936259 -0.02574748 0.03011311 -0.022781845 0.031735145
0.022952452 0.029940473 -0.023773825 -0.02563745 -0.017211655 -0.014425973 0.021535084 0.027765857
-0.03195429 -0.023564596 0.023100337 0.019360092 -0.02516882 0.031271607 0.04214904 -0.03574501
0.021172669 0.01640103 -0.020997763 -0.01953057 -0.018370092 0.02094944 -0.030941077 0.021855311
-0.0077820355 0.028577758 0.012096266 0.02322264 0.030169927 0.019069841 -0.012616911 -0.023180235
0.018681252 0.010478556 -0.022406213 -0.0044375276 -0.016586808 -0.013836426 0.018318659 -0.02849397
-0.02176562 0.010541658 0.020155521 -0.011593666 -0.025618516 -0.025459055 -0.028669558 0.01434999
0.021280842 0.031222597 0.014386103 0.019263845 -0.019313488 -0.029198496 -0.030950574 0.025274174
-0.018312084 0.03406804 -0.023868678 0.018323587 0.021457877 0.023054492 -0.01632732 -0.0044816616
0.024790224 -0.014361421 -0.014545775 -0.031235278 -0.019952433 -0.008996974 -0.016409867 0.026315385
-0.014469063 0.029258851 -0.02837603 -0.014901446 0.014879503 0.020441942 -0.018800061 -0.016173055
0.021265985 0.0290767 -0.031514604 0.015001699 -0.03067371 -0.030197006 -0.01931555 -0.028144844
-0.024054652 -0.0055743544 0.020645281 -0.02362961 0.016323885 0.0002032748 0.012355936 -0.029987639
0.032500993 0.014904132 -0.018331999 -0.01869708 0.03830411 0.037512023 -0.02639335 0.0071813893
0.019001972 0.017369559 -0.013507149 0.015398031 0.033387844 0.0076408014 -0.0017994163 -0.028667752
0.026590705 0.02313468 -0.014731612 0.02419331 -0.03484307 0.005031363 -0.024253186 -0.020884767
0.028503742 -0.021622902 0.0014570018 -0.030633332 0.019436419 -0.024200467 0.03919014 -0.021243794
-0.031821486 -0.03373001 0.021144642 0.011541182 0.015546969 0.014091035 -0.01807672 -0.012290996
0.039101932 0.013703028 -0.014199277 -0.012045478 0.021580307 -0.013607637 -0.012265686 0.016788648
-0.029276054 0.009772828 0.01652156 0.020581702 0.020229252 -0.031227611 0.013427028 -0.03360196
0.0054135225 -0.039244186 -0.013619068 -0.0119998865 -0.018126186 -0.03005294 0.012237241 0.014468394
-0.006008532 -0.01544409 0.01730303 0.018087994 0.027954277 0.016314344 -0.0151751395 0.014977513
0.025997998 -0.018140003 -0.026025234 0.008255232 0.020395735 0.017901009 0.032916974 -0.014650283
-0.0018632557 -0.016046671 -0.036178675 -0.009760148 0.016875852 0.006866154 0.02248942 -0.023854429
0.023854533 0.009438438 0.028194888 -0.024925837 -0.010646747 -0.028959095 0.03204795 0.0019988478
-0.02147039 0.019148111 0.0008681163 0.01989567 0.022321364 0.025503948 0.01034304 -0.026218494
0.0244163 -0.023063933 0.03755391 0.024498807 -0.02993258 -0.028269712 0.028369209 0.010924842
-0.016557863 -0.025528342 0.016274787 -0.013139249 0.010833177 0.031990413 0.02974858 0.010252048

action_model._discrete_distribution.branches.1.bias f4 [2]
00000000: 7f43 893c 8043 89bc
0.016755817 -0.01675582

onnx::Div_78 f4 [405]
00000000: 74a4 df3b 74a4 df3b 74a4 df3b 74a4 df3b
00000010: 74a4 df3b 74a4 df3b 74a4 df3b 74a4 df3b
00000020: 74a4 df3b 74a4 df3b 74a4 df3b 74a4 df3b
00000030: 74a4 df3b 74a4 df3b 74a4 df3b 74a4 df3b
00000040: 74a4 df3b 74a4 df3b 74a4 df3b 74a4 df3b
00000050: 74a4 df3b 74a4 df3b 74a4 df3b 74a4 df3b
00000060: 74a4 df3b 74a4 df3b 74a4 df3b 74a4 df3b
00000070: 74a4 df3b 74a4 df3b 74a4 df3b 74a4 df3b
00000080: 74a4 df3b 74a4 df3b 74a4 df3b 74a4 df3b
00000090: 74a4 df3b 74a4 df3b 74a4 df3b 74a4 df3b
000000a0: 74a4 df3b 74a4 df3b 74a4 df3b 74a4 df3b
000000b0: 74a4 df3b 74a4 df3b 74a4 df3b 74a4 df3b
000000c0: 74a4 df3b 74a4 df3b 74a4 df3b 74a4 df3b
000000d0: 74a4 df3b 74a4 df3b 74a4 df3b 74a4 df3b
000000e0: 74a4 df3b 74a4 df3b 74a4 df3b 74a4 df3b
000000f0: 74a4 df3b 74a4 df3b 74a4 df3b 74a4 df3b
00000100: 74a4 df3b 74a4 df3b 74a4 df3b 74a4 df3b
00000110: 74a4 df3b 74a4 df3b 74a4 df3b 74a4 df3b
00000120: 74a4 df3b 74a4 df3b 74a4 df3b 74a4 df3b
00000130: 74a4 df3b 74a4 df3b 74a4 df3b 74a4 df3b
00000140: 74a4 df3b 74a4 df3b 74a4 df3b 74a4 df3b
00000150: 74a4 df3b 74a4 df3b 74a4 df3b 74a4 df3b
00000160: 74a4 df3b 74a4 df3b 74a4 df3b 74a4 df3b
00000170: 74a4 df3b 74a4 df3b 74a4 df3b 74a4 df3b
00000180: 74a4 df3b 74a4 df3b 74a4 df3b 74a4 df3b
00000190: 74a4 df3b 74a4 df3b 74a4 df3b 74a4 df3b
000001a0: 74a4 df3b 74a4 df3b 74a4 df3b 74a4 df3b
000001b0: 74a4 df3b 74a4 df3b 74a4 df3b 74a4 df3b
000001c0: 74a4 df3b 74a4 df3b 74a4 df3b 74a4 df3b
000001d0: 74a4 df3b 74a4 df3b 74a4 df3b 74a4 df3b
000001e0: 74a4 df3b 74a4 df3b 74a4 df3b 74a4 df3b
000001f0: 74a4 df3b 74a4 df3b 74a4 df3b 74a4 df3b
00000200: 74a4 df3b 74a4 df3b 74a4 df3b 74a4 df3b
00000210: 74a4 df3b 74a4 df3b 74a4 df3b 74a4 df3b
00000220: 74a4 df3b 74a4 df3b 74a4 df3b 74a4 df3b
00000230: 74a4 df3b 74a4 df3b 74a4 df3b 74a4 df3b
00000240: 74a4 df3b 74a4 df3b 74a4 df3b 74a4 df3b
00000250: 74a4 df3b 74a4 df3b 74a4 df3b 74a4 df3b
00000260: 74a4 df3b 74a4 df3b 74a4 df3b 74a4 df3b
00000270: 74a4 df3b 74a4 df3b 74a4 df3b 74a4 df3b
00000280: 74a4 df3b 74a4 df3b 74a4 df3b 74a4 df3b
00000290: 74a4 df3b 74a4 df3b 74a4 df3b 74a4 df3b
000002a0: 74a4 df3b 74a4 df3b 74a4 df3b 74a4 df3b
000002b0: 74a4 df3b 74a4 df3b 74a4 df3b 74a4 df3b
000002c0: 74a4 df3b 74a4 df3b 74a4 df3b 74a4 df3b
000002d0: 74a4 df3b 74a4 df3b 74a4 df3b 74a4 df3b
000002e0: 74a4 df3b 74a4 df3b 74a4 df3b 74a4 df3b
000002f0: 74a4 df3b 74a4 df3b 74a4 df3b 74a4 df3b
00000300: 74a4 df3b 74a4 df3b 74a4 df3b 74a4 df3b
00000310: 74a4 df3b 74a4 df3b 74a4 df3b 74a4 df3b
00000320: 74a4 df3b 74a4 df3b 74a4 df3b 74a4 df3b
00000330: 74a4 df3b 74a4 df3b 74a4 df3b 74a4 df3b
00000340: 74a4 df3b 74a4 df3b 74a4 df3b 74a4 df3b
00000350: 74a4 df3b 74a4 df3b 74a4 df3b 74a4 df3b
00000360: 74a4 df3b 74a4 df3b 74a4 df3b 74a4 df3b
00000370: 74a4 df3b 74a4 df3b 74a4 df3b 74a4 df3b
00000380: 74a4 df3b 74a4 df3b 74a4 df3b 74a4 df3b
00000390: 74a4 df3b 74a4 df3b 74a4 df3b 74a4 df3b
000003a0: 74a4 df3b 74a4 df3b 74a4 df3b 74a4 df3b
000003b0: 74a4 df3b 74a4 df3b 74a4 df3b 74a4 df3b
000003c0: 74a4 df3b 74a4 df3b 74a4 df3b 74a4 df3b
000003d0: 74a4 df3b 74a4 df3b 74a4 df3b 74a4 df3b
000003e0: 74a4 df3b 74a4 df3b 74a4 df3b 74a4 df3b
000003f0: 74a4 df3b 74a4 df3b 74a4 df3b 74a4 df3b
0.0068250243 0.0068250243 0.0068250243 0.0068250243 0.0068250243 0.0068250243 0.0068250243 0.0068250243
0.0068250243 0.0068250243 0.0068250243 0.0068250243 0.0068250243 0.0068250243 0.0068250243 0.0068250243
0.0068250243 0.0068250243 0.0068250243 0.0068250243 0.0068250243 0.0068250243 0.0068250243 0.0068250243
0.0068250243 0.0068250243 0.0068250243 0.0068250243 0.0068250243 0.0068250243 0.0068250243 0.0068250243
0.0068250243 0.0068250243 0.0068250243 0.0068250243 0.0068250243 0.0068250243 0.0068250243 0.0068250243
0.0068250243 0.0068250243 0.0068250243 0.0068250243 0.0068250243 0.0068250243 0.0068250243 0.0068250243
0.0068250243 0.0068250243 0.0068250243 0.0068250243 0.0068250243 0.0068250243 0.0068250243 0.0068250243
0.0068250243 0.0068250243 0.0068250243 0.0068250243 0.0068250243 0.0068250243 0.0068250243 0.0068250243
0.0068250243 0.0068250243 0.0068250243 0.0068250243 0.0068250243 0.0068250243 0.0068250243 0.0068250243
0.0068250243 0.0068250243 0.0068250243 0.0068250243 0.0068250243 0.0068250243 0.0068250243 0.0068250243
0.0068250243 0.0068250243 0.0068250243 0.0068250243 0.0068250243 0.0068250243 0.0068250243 0.0068250243
0.0068250243 0.0068250243 0.0068250243 0.0068250243 0.0068250243 0.0068250243 0.0068250243 0.0068250243
0.0068250243 0.0068250243 0.0068250243 0.0068250243 0.0068250243 0.0068250243 0.0068250243 0.0068250243
0.0068250243 0.0068250243 0.0068250243 0.0068250243 0.0068250243 0.0068250243 0.0068250243 0.0068250243
0.0068250243 0.0068250243 0.0068250243 0.0068250243 0.0068250243 0.0068250243 0.0068250243 0.0068250243
0.0068250243 0.0068250243 0.0068250243 0.0068250243 0.0068250243 0.0068250243 0.0068250243 0.0068250243
0.0068250243 0.0068250243 0.0068250243 0.0068250243 0.0068250243 0.0068250243 0.0068250243 0.0068250243
0.0068250243 0.0068250243 0.0068250243 0.0068250243 0.0068250243 0.0068250243 0.0068250243 0.0068250243
0.0068250243 0.0068250243 0.0068250243 0.0068250243 0.0068250243 0.0068250243 0.0068250243 0.0068250243
0.0068250243 0.0068250243 0.0068250243 0.0068250243 0.0068250243 0.0068250243 0.0068250243 0.0068250243
0.0068250243 0.0068250243 0.0068250243 0.0068250243 0.0068250243 0.0068250243 0.0068250243 0.0068250243
0.0068250243 0.0068250243 0.0068250243 0.0068250243 0.0068250243 0.0068250243 0.0068250243 0.0068250243
0.0068250243 0.0068250243 0.0068250243 0.0068250243 0.0068250243 0.0068250243 0.0068250243 0.0068250243
0.0068250243 0.0068250243 0.0068250243 0.0068250243 0.0068250243 0.0068250243 0.0068250243 0.0068250243
0.0068250243 0.0068250243 0.0068250243 0.0068250243 0.0068250243 0.0068250243 0.0068250243 0.0068250243
0.0068250243 0.0068250243 0.0068250243 0.0068250243 0.0068250243 0.0068250243 0.0068250243 0.0068250243
0.0068250243 0.0068250243 0.0068250243 0.0068250243 0.0068250243 0.0068250243 0.0068250243 0.0068250243
0.0068250243 0.0068250243 0.0068250243 0.0068250243 0.0068250243 0.0068250243 0.0068250243 0.0068250243
0.0068250243 0.0068250243 0.0068250243 0.0068250243 0.0068250243 0.0068250243 0.0068250243 0.0068250243
0.0068250243 0.0068250243 0.0068250243 0.0068250243 0.0068250243 0.0068250243 0.0068250243 0.0068250243
0.0068250243 0.0068250243 0.0068250243 0.0068250243 0.0068250243 0.0068250243 0.0068250243 0.0068250243
0.0068250243 0.0068250243 0.0068250243 0.0068250243 0.0068250243 0.0068250243 0.0068250243 0.0068250243

onnx::Div_81 f4 [13]
00000000: 74a4 df3b 74a4 df3b 74a4 df3b 74a4 df3b
00000010: 74a4 df3b 74a4 df3b 74a4 df3b 74a4 df3b
00000020: 74a4 df3b 74a4 df3b 74a4 df3b 74a4 df3b
00000030: 74a4 df3b
0.0068250243 0.0068250243 0.0068250243 0.0068250243 0.0068250243 0.0068250243 0.0068250243 0.0068250243
0.0068250243 0.0068250243 0.0068250243 0.0068250243 0.0068250243
