Assets/Training/results/finally_works/PlayerAgentBehavior/PlayerAgentBehavior-6714.onnx (onnx, 358391 bytes, 13 tensors)

discrete_act_size_vector f4 [1, 2]
3.0 2.0
00000000: 0000 4040 0000 0040

network_body.observation_encoder.processors.0.normalizer.running_mean f4 [255]
0.0 0.0 0.0 0.9998511 0.9998511 0.0 0.0 0.0
0.9998511 0.9998511 0.0 0.0 0.0 0.9998511 0.9998511 0.0
0.0 0.0 0.9998511 0.9998511 0.0 0.0 0.0 0.9998511
0.9998511 0.0 0.0 0.0 0.9998511 0.9998511 0.0 0.0
0.0 0.9998511 0.9998511 0.0 0.0 0.0 0.9998511 0.9998511
0.0 0.0 0.0 0.9998511 0.9998511 0.0 0.0 0.0
0.9998511 0.9998511 0.0 0.0 0.0 0.9998511 0.9998511 0.0
0.0 0.0 0.9998511 0.9998511 0.0 0.0 0.0 0.9998511
0.9998511 0.0 0.0 0.0 0.9998511 0.9998511 0.0 0.0
0.0 0.9998511 0.9998511 0.0 0.0 0.0 0.9998511 0.9998511
0.0 0.0 0.0 0.9998511 0.9998511 0.0 0.0 0.0
0.9998511 0.9998511 0.0 0.0 0.0 0.9998511 0.9998511 0.0
0.0 0.0 0.9998511 0.9998511 0.0 0.0 0.0 0.9998511
0.9998511 0.0 0.0 0.0 0.9998511 0.9998511 0.0 0.0
0.0 0.9998511 0.9998511 0.0 0.0 0.0 0.9998511 0.9998511
0.0 0.0 0.0 0.9998511 0.9998511 0.0 0.0 0.0
0.9998511 0.9998511 0.0 0.0 0.0 0.9998511 0.9998511 0.0
0.0 0.0 0.9998511 0.9998511 0.0 0.0 0.0 0.9998511
0.9998511 0.0 0.0 0.0 0.9998511 0.9998511 0.0 0.0
0.0 0.9998511 0.9998511 0.0 0.0 0.0 0.9998511 0.9998511
0.0 0.0 0.0 0.9998511 0.9998511 0.0 0.0 0.0
0.9998511 0.9998511 0.0 0.0 0.0 0.9998511 0.9998511 0.0
0.0 0.0 0.9998511 0.9998511 0.0 0.0 0.0 0.9998511
0.9998511 0.0 0.0 0.0 0.9998511 0.9998511 0.0 0.0
0.0 0.9998511 0.9998511 0.0 0.0 0.0 0.9998511 0.9998511
0.0 0.0 0.0 0.9998511 0.9998511 0.0 0.0 0.0
0.9998511 0.9998511 0.0 0.0 0.0 0.9998511 0.9998511 0.0
0.0 0.0 0.9998511 0.9998511 0.0 0.0 0.0 0.9998511
0.9998511 0.0 0.0 0.0 0.9998511 0.9998511 0.0 0.0
0.0 0.9998511 0.9998511 0.0 0.0 0.0 0.9998511 0.9998511
0.0 0.0 0.0 0.9998511 0.9998511 0.0 0.0 0.0
0.9998511 0.9998511 0.0 0.0 0.0 0.9998511 0.9998511
00000000: 0000 0000 0000 0000 0000 0000 3ef6 7f3f
00000010: 3ef6 7f3f 0000 0000 0000 0000 0000 0000
00000020: 3ef6 7f3f 3ef6 7f3f 0000 0000 0000 0000
00000030: 0000 0000 3ef6 7f3f 3ef6 7f3f 0000 0000
00000040: 0000 0000 0000 0000 3ef6 7f3f 3ef6 7f3f
00000050: 0000 0000 0000 0000 0000 0000 3ef6 7f3f
00000060: 3ef6 7f3f 0000 0000 0000 0000 0000 0000
00000070: 3ef6 7f3f 3ef6 7f3f 0000 0000 0000 0000
00000080: 0000 0000 3ef6 7f3f 3ef6 7f3f 0000 0000
00000090: 0000 0000 0000 0000 3ef6 7f3f 3ef6 7f3f
000000a0: 0000 0000 0000 0000 0000 0000 3ef6 7f3f
000000b0: 3ef6 7f3f 0000 0000 0000 0000 0000 0000
000000c0: 3ef6 7f3f 3ef6 7f3f 0000 0000 0000 0000
000000d0: 0000 0000 3ef6 7f3f 3ef6 7f3f 0000 0000
000000e0: 0000 0000 0000 0000 3ef6 7f3f 3ef6 7f3f
000000f0: 0000 0000 0000 0000 0000 0000 3ef6 7f3f
00000100: 3ef6 7f3f 0000 0000 0000 0000 0000 0000
00000110: 3ef6 7f3f 3ef6 7f3f 0000 0000 0000 0000
00000120: 0000 0000 3ef6 7f3f 3ef6 7f3f 0000 0000
00000130: 0000 0000 0000 0000 3ef6 7f3f 3ef6 7f3f
00000140: 0000 0000 0000 0000 0000 0000 3ef6 7f3f
00000150: 3ef6 7f3f 0000 0000 0000 0000 0000 0000
00000160: 3ef6 7f3f 3ef6 7f3f 0000 0000 0000 0000
00000170: 0000 0000 3ef6 7f3f 3ef6 7f3f 0000 0000
00000180: 0000 0000 0000 0000 3ef6 7f3f 3ef6 7f3f
00000190: 0000 0000 0000 0000 0000 0000 3ef6 7f3f
000001a0: 3ef6 7f3f 0000 0000 0000 0000 0000 0000
000001b0: 3ef6 7f3f 3ef6 7f3f 0000 0000 0000 0000
000001c0: 0000 0000 3ef6 7f3f 3ef6 7f3f 0000 0000
000001d0: 0000 0000 0000 0000 3ef6 7f3f 3ef6 7f3f
000001e0: 0000 0000 0000 0000 0000 0000 3ef6 7f3f
000001f0: 3ef6 7f3f 0000 0000 0000 0000 0000 0000
00000200: 3ef6 7f3f 3ef6 7f3f 0000 0000 0000 0000
00000210: 0000 0000 3ef6 7f3f 3ef6 7f3f 0000 0000
00000220: 0000 0000 0000 0000 3ef6 7f3f 3ef6 7f3f
00000230: 0000 0000 0000 0000 0000 0000 3ef6 7f3f
00000240: 3ef6 7f3f 0000 0000 0000 0000 0000 0000
00000250: 3ef6 7f3f 3ef6 7f3f 0000 0000 0000 0000
00000260: 0000 0000 3ef6 7f3f 3ef6 7f3f 0000 0000
00000270: 0000 0000 0000 0000 3ef6 7f3f 3ef6 7f3f
00000280: 0000 0000 0000 0000 0000 0000 3ef6 7f3f
00000290: 3ef6 7f3f 0000 0000 0000 0000 0000 0000
000002a0: 3ef6 7f3f 3ef6 7f3f 0000 0000 0000 0000
000002b0: 0000 0000 3ef6 7f3f 3ef6 7f3f 0000 0000
000002c0: 0000 0000 0000 0000 3ef6 7f3f 3ef6 7f3f
000002d0: 0000 0000 0000 0000 0000 0000 3ef6 7f3f
000002e0: 3ef6 7f3f 0000 0000 0000 0000 0000 0000
000002f0: 3ef6 7f3f 3ef6 7f3f 0000 0000 0000 0000
00000300: 0000 0000 3ef6 7f3f 3ef6 7f3f 0000 0000
00000310: 0000 0000 0000 0000 3ef6 7f3f 3ef6 7f3f
00000320: 0000 0000 0000 0000 0000 0000 3ef6 7f3f
00000330: 3ef6 7f3f 0000 0000 0000 0000 0000 0000
00000340: 3ef6 7f3f 3ef6 7f3f 0000 0000 0000 0000
00000350: 0000 0000 3ef6 7f3f 3ef6 7f3f 0000 0000
00000360: 0000 0000 0000 0000 3ef6 7f3f 3ef6 7f3f
00000370: 0000 0000 0000 0000 0000 0000 3ef6 7f3f
00000380: 3ef6 7f3f 0000 0000 0000 0000 0000 0000
00000390: 3ef6 7f3f 3ef6 7f3f 0000 0000 0000 0000
000003a0: 0000 0000 3ef6 7f3f 3ef6 7f3f 0000 0000
000003b0: 0000 0000 0000 0000 3ef6 7f3f 3ef6 7f3f
000003c0: 0000 0000 0000 0000 0000 0000 3ef6 7f3f
000003d0: 3ef6 7f3f 0000 0000 0000 0000 0000 0000
000003e0: 3ef6 7f3f 3ef6 7f3f 0000 0000 0000 0000
000003f0: 0000 0000 3ef6 7f3f 3ef6 7f3f

network_body.observation_encoder.processors.1.normalizer.running_mean f4 [284]
0.0 0.0 0.0 0.0 0.0 0.0 0.0 0.0
0.0 0.0 0.0 0.0 0.0 0.0 0.0 0.0
0.0 0.0 0.0 0.0 0.0 0.0 0.0 0.0
0.0 0.0 0.0 0.0 0.0 0.0 0.0 0.0
0.0 0.0 0.0 0.0 0.0 0.0 0.0 0.0
0.0 0.0 0.0 0.0 0.0 0.0 0.0 0.0
0.0 0.0 0.0 0.0 0.0 0.0 0.0 0.0
0.0 0.0 0.0 0.0 0.0 0.0 0.0 0.0
0.0 0.0 0.0 0.0 0.0 0.0 0.0 0.0
0.0 0.0 0.0 0.0 0.0 0.0 0.0 0.0
0.0 0.0 0.0 0.0 0.0 0.0 0.0 0.0
0.0 0.0 0.0 0.0 0.0 0.0 0.0 0.0
0.0 0.0 0.0 0.0 0.0 0.0 0.0 0.0
0.0 0.0 0.0 0.0 0.0 0.0 0.0 0.0
0.0 0.0 0.0 0.0 0.0 0.0 0.0 0.0
0.0 0.0 0.0 0.0 0.0 0.0 0.0 0.0
0.0 0.0 0.0 0.0 0.0 0.0 0.0 0.0
0.0 0.0 0.0 0.0 0.0 0.0 0.0 0.0
0.0 0.0 0.0 0.0 0.0 0.0 0.0 0.0
0.0 0.0 0.0 0.0 0.0 0.0 0.0 0.0
0.0 0.0 0.0 0.0 0.0 0.0 0.0 0.0
0.0 0.0 0.0 0.0 0.0 0.0 0.0 0.0
0.0 0.0 0.0 0.0 0.0 0.0 0.0 0.0
0.0 0.0 0.0 0.0 0.0 0.0 0.0 0.0
0.0 0.0 0.0 0.0 0.0 0.0 0.0 0.0
0.0 0.0 0.0 0.0 0.0 0.0 0.0 0.0
0.0 0.0 0.0 0.0 0.0 0.0 0.0 0.0
0.0 0.0 0.0 0.0 0.0 0.0 0.0 0.0
0.0 0.0 0.0 0.0 0.0 0.0 0.0 0.0
0.0 0.0 0.0 0.0 0.0 0.0 0.0 0.0
0.0 0.0 0.0 0.0 0.0 0.0 0.0 0.0
0.0 0.0 0.0 0.0 0.0 0.0 0.0 0.0
00000000: 0000 0000 0000 0000 0000 0000 0000 0000
00000010: 0000 0000 0000 0000 0000 0000 0000 0000
00000020: 0000 0000 0000 0000 0000 0000 0000 0000
00000030: 0000 0000 0000 0000 0000 0000 0000 0000
00000040: 0000 0000 0000 0000 0000 0000 0000 0000
00000050: 0000 0000 0000 0000 0000 0000 0000 0000
00000060: 0000 0000 0000 0000 0000 0000 0000 0000
00000070: 0000 0000 0000 0000 0000 0000 0000 0000
00000080: 0000 0000 0000 0000 0000 0000 0000 0000
00000090: 0000 0000 0000 0000 0000 0000 0000 0000
000000a0: 0000 0000 0000 0000 0000 0000 0000 0000
000000b0: 0000 0000 0000 0000 0000 0000 0000 0000
000000c0: 0000 0000 0000 0000 0000 0000 0000 0000
000000d0: 0000 0000 0000 0000 0000 0000 0000 0000
000000e0: 0000 0000 0000 0000 0000 0000 0000 0000
000000f0: 0000 0000 0000 0000 0000 0000 0000 0000
00000100: 0000 0000 0000 0000 0000 0000 0000 0000
00000110: 0000 0000 0000 0000 0000 0000 0000 0000
00000120: 0000 0000 0000 0000 0000 0000 0000 0000
00000130: 0000 0000 0000 0000 0000 0000 0000 0000
00000140: 0000 0000 0000 0000 0000 0000 0000 0000
00000150: 0000 0000 0000 0000 0000 0000 0000 0000
00000160: 0000 0000 0000 0000 0000 0000 0000 0000
00000170: 0000 0000 0000 0000 0000 0000 0000 0000
00000180: 0000 0000 0000 0000 0000 0000 0000 0000
00000190: 0000 0000 0000 0000 0000 0000 0000 0000
000001a0: 0000 0000 0000 0000 0000 0000 0000 0000
000001b0: 0000 0000 0000 0000 0000 0000 0000 0000
000001c0: 0000 0000 0000 0000 0000 0000 0000 0000
000001d0: 0000 0000 0000 0000 0000 0000 0000 0000
000001e0: 0000 0000 0000 0000 0000 0000 0000 0000
000001f0: 0000 0000 0000 0000 0000 0000 0000 0000
00000200: 0000 0000 0000 0000 0000 0000 0000 0000
00000210: 0000 0000 0000 0000 0000 0000 0000 0000
00000220: 0000 0000 0000 0000 0000 0000 0000 0000
00000230: 0000 0000 0000 0000 0000 0000 0000 0000
00000240: 0000 0000 0000 0000 0000 0000 0000 0000
00000250: 0000 0000 0000 0000 0000 0000 0000 0000
00000260: 0000 0000 0000 0000 0000 0000 0000 0000
00000270: 0000 0000 0000 0000 0000 0000 0000 0000
00000280: 0000 0000 0000 0000 0000 0000 0000 0000
00000290: 0000 0000 0000 0000 0000 0000 0000 0000
000002a0: 0000 0000 0000 0000 0000 0000 0000 0000
000002b0: 0000 0000 0000 0000 0000 0000 0000 0000
000002c0: 0000 0000 0000 0000 0000 0000 0000 0000
000002d0: 0000 0000 0000 0000 0000 0000 0000 0000
000002e0: 0000 0000 0000 0000 0000 0000 0000 0000
000002f0: 0000 0000 0000 0000 0000 0000 0000 0000
00000300: 0000 0000 0000 0000 0000 0000 0000 0000
00000310: 0000 0000 0000 0000 0000 0000 0000 0000
00000320: 0000 0000 0000 0000 0000 0000 0000 0000
00000330: 0000 0000 0000 0000 0000 0000 0000 0000
00000340: 0000 0000 0000 0000 0000 0000 0000 0000
00000350: 0000 0000 0000 0000 0000 0000 0000 0000
00000360: 0000 0000 0000 0000 0000 0000 0000 0000
00000370: 0000 0000 0000 0000 0000 0000 0000 0000
00000380: 0000 0000 0000 0000 0000 0000 0000 0000
00000390: 0000 0000 0000 0000 0000 0000 0000 0000
000003a0: 0000 0000 0000 0000 0000 0000 0000 0000
000003b0: 0000 0000 0000 0000 0000 0000 0000 0000
000003c0: 0000 0000 0000 0000 0000 0000 0000 0000
000003d0: 0000 0000 0000 0000 0000 0000 0000 0000
000003e0: 0000 0000 0000 0000 0000 0000 0000 0000
000003f0: 0000 0000 0000 0000 0000 0000 0000 0000

network_body._body_endoder.seq_layers.0.weight f4 [128, 539]
0.026243506 0.018945877 0.019697148 -0.0072490494 0.08808474 -0.0044023576 0.07519619 0.018311236
0.06966138 0.07819012 -0.0074083046 -0.05385212 -0.06978672 0.048187107 -0.022065224 0.012525529
-0.017741796 0.01736375 0.108514935 0.012719461 0.017283708 0.099624425 -0.014709274 0.10822913
-0.014801967 -0.04543632 0.014646788 0.06516406 0.029545816 0.077659756 0.014467379 -0.014879122
-0.02469987 0.12479151 0.040224545 -0.0158575 0.009283366 0.040234983 0.09515436 0.08352688
0.043234937 -0.023976251 0.05470653 0.102714196 0.08168538 -0.061544683 0.04393404 -0.008658501
0.05677496 0.032692797 -0.019947192 -0.009086765 -0.029538587 0.023944193 0.052051887 0.012714232
-0.06562799 -0.067528844 0.03550087 0.021989359 -0.045203183 0.07301548 -0.0028192562 0.11101727
-0.03263801 0.008451551 0.03707888 -0.06804594 0.07791805 0.07499954 0.0091295345 0.0070688343
-0.034612775 0.065338135 0.0499333 0.018748831 -0.027536478 -0.010095905 0.05776543 -0.021150721
-0.041350804 -0.011166804 -0.06605738 0.042897694 0.009062013 0.03251485 0.066166796 -0.007764869
0.0019071876 -0.036749557 -0.05681115 -0.12687144 -0.055719256 0.10969511 0.11618534 -0.012905097
-0.0117808785 0.035662897 0.083621204 0.020456813 -0.022519208 -0.027429573 0.022695038 0.069042236
-0.006454316 0.03315861 0.041840393 0.03894014 -0.026580388 0.025694357 0.015865281 -0.06940308
-0.03047194 0.024021033 0.0074543376 0.019331662 0.05247878 0.0042631333 0.05044629 0.02174963
0.020888869 0.0018744151 0.034072995 0.08066055 0.14007063 0.036185846 0.030228924 -0.032852065
0.032807376 0.046327487 -0.021192174 0.052831177 -0.121714406 0.08974946 -0.0138307195 -0.021292632
-0.045823038 0.07557278 0.024406612 -0.015902992 -0.062321898 0.00077309366 0.0033864088 0.028939787
0.03202967 0.058783676 -0.03359596 0.010877593 -0.03325874 0.011268352 0.07219668 -0.032443866
-0.0020002963 0.039690204 0.009058697 -0.025900532 0.093310274 0.060974933 0.051828194 0.009350421
-0.027761668 -0.019643033 0.025779968 0.0865529 0.038991377 -0.039581586 0.0015922606 0.030604186
0.03539987 0.03381185 0.00072764215 0.08748754 -0.026151944 0.049596164 -0.023752926 0.039688602
0.03205483 -0.08481776 0.02991915 -0.011765248 -0.024950257 -0.0387784 0.0057679815 0.014572325
0.052531198 -0.024074057 0.07860875 0.012966563 0.045520056 0.056303952 0.057326794 0.03318346
-0.025641514 -0.02385718 0.047083475 0.020966692 0.011825302 -0.030366596 0.011660307 0.035377372
0.023943337 0.015533033 -0.030168483 0.01987704 0.11392005 0.004829435 0.02128512 -0.035607982
0.037809864 0.028848944 -0.013027612 -0.038949996 -0.014894197 0.031069089 0.005918763 -0.11006243
-0.030896813 0.005927829 0.011670339 -0.0028529502 -0.0049633267 0.016685791 -0.017393578 0.011611666
0.05332837 -0.058997925 0.046469804 0.012859198 0.006980917 0.004680858 0.0567261 0.0136229545
0.004911587 -0.005990482 0.0391185 -0.028590381 0.04074266 0.009021086 0.041862126 -0.044116843
0.02488729 0.06658644 0.015684836 -0.022370435 0.058410153 0.0031708519 0.0075328546 0.009011853
0.035422478 0.028028732 0.054376572 0.08046589 0.01740043 0.028147258 0.09522763 -0.047671404
00000000: 9ffc d63c 6234 9b3c ea5b a13c 6f89 edbb
00000010: c665 b43d a741 90bb 7600 9a3d 7201 963c
00000020: a0aa 8e3d 2422 a03d 5dc1 f2bb 0a94 5cbd
00000030: 57ec 8ebd d85f 453d 21c2 b4bc e037 4d3c
00000040: 3e57 91bc 6c3e 8e3c 143d de3d 4965 503c
00000050: 9096 8d3c e407 cc3d 2bff 70bc 3ca7 dd3d
00000060: f383 72bc 6f1b 3abd 15f9 6f3c bc74 853d
00000070: 110a f23c 140c 9f3d 9608 6d3c 90c7 73bc
00000080: 6257 cabc b192 ff3d 7ec2 243d 96e7 81bc
00000090: 4219 183c 70cd 243d 4ae0 c23d 2410 ab3d
000000a0: 1e17 313d d869 c4bc f413 603d d25b d23d
000000b0: aa4a a73d 4716 7cbd 2ef4 333d 63dc 0dbc
000000c0: dc8c 683d e2e8 053d 4b68 a3bc a8e0 14bc
000000d0: e8fa f1bc 9d26 c43c 5c34 553d 5b4f 503c
000000e0: f867 86bd 904c 8abd 5c69 113d 0723 b43c
000000f0: f926 39bd 2489 953d 45c3 38bb 065d e33d
00000100: 6faf 05bd 6078 0a3c 06e0 173d ab5b 8bbd
00000110: 8093 9f3d 5c99 993d 0b94 153c aea1 e73b
00000120: 20c6 0dbd 00d0 853d dc86 4c3d 2697 993c
00000130: 2e94 e1bc 4b69 25bc 729b 6c3d 4744 adbc
00000140: 765f 29bd f8f4 36bc 1749 87bd 7eb5 2f3d
00000150: d678 143c 4b2e 053d 7582 873d 7170 febb
00000160: 99fa f93a b486 16bd cfb2 68bd 96ea 01be
00000170: e039 64bd d4a7 e03d 94f2 ed3d e66f 53bc
00000180: 9604 41bc 4213 123d 9841 ab3d 0c95 a73c
00000190: 347a b8bc fcb3 e0bc f2ea b93c 0466 8d3d
000001a0: ba7e d3bb 53d1 073d d560 2b3d b27f 1f3d
000001b0: 1dbf d9bc f97c d23c e8f7 813c 3423 8ebd
000001c0: 4aa0 f9bc c2c7 c43c 8443 f43b 6f5d 9e3c
000001d0: fdf3 563d c1b1 8b3b c5a0 4e3d 482c b23c
000001e0: 221f ab3c efae f53a 2090 0b3d 5c31 a53d
000001f0: ad6e 0f3e 9c37 143d a6a2 f73c e38f 06bd
00000200: 0761 063d e4c1 3d3d 369b adbc 8165 583d
00000210: 6745 f9bd 91ce b73d 3e9a 62bc e36d aebc
00000220: f0b0 3bbd e7c5 9a3d 60f0 c73c fe46 82bc
00000230: 3f45 7fbd 70a9 4a3a 83ee 5d3b 2213 ed3c
00000240: 8b31 033d 27c7 703d eb9b 09bd ef37 323c
00000250: 513a 08bd e59e 383c dadb 933d dce3 04bd
00000260: 6717 03bb 3292 223d ee6a 143c 5a2d d4bc
00000270: 7519 bf3d dac0 793d cd49 543d 8232 193c
00000280: 706c e3bc 6dea a0bc 8330 d33c a642 b13d
00000290: 6cb5 1f3d 4d20 22bd 66b3 d03a a1b5 fa3c
000002a0: 74ff 103d 4b7e 0a3d 3dbf 3e3a ab2c b33d
000002b0: 9a3c d6bc 5925 4b3d 7f95 c2bc 8490 223d
000002c0: ed4b 033d efb4 adbd 0119 f53c 07c3 40bc
000002d0: 7b64 ccbc 19d6 1ebd 5601 bd3b c3c0 6e3c
000002e0: f42a 573d f536 c5bc a0fd a03d b571 543c
000002f0: 3d73 3a3d f99e 663d 80cf 6a3d 61eb 073d
00000300: 270e d2bc 2270 c3bc 9ada 403d 57c2 ab3c
00000310: e9be 413c 5ec3 f8bc df0a 3f3c dde7 103d
00000320: d124 c43c 437e 7e3c e523 f7bc 2dd5 a23c
00000330: ea4e e93d 3d40 9e3b 225e ae3c add9 11bd
00000340: 84de 1a3d 9f54 ec3c c471 55bc 088a 1fbd
00000350: ca06 74bc 9a84 fe3c 2ff2 c13b 6968 e1bd
00000360: 501b fdbc 3c3e c23b f334 3f3c 90f8 3abb
00000370: 67a3 a2bb a4b0 883c fa7c 8ebc db3e 3e3c
00000380: d96e 5a3d cfa7 71bd 1f57 3e3d 63af 523c
00000390: 2dc0 e43b e261 993b a159 683d d032 5f3c
000003a0: 61f1 a03b ce4b c4bb b83a 203d 6036 eabc
000003b0: c7e1 263d 2dcd 133c 9f77 2b3d ddb3 34bd
000003c0: 6ee0 cb3c 795e 883d 7c7d 803c 3442 b7bc
000003d0: 7c3f 6f3d 11ce 4f3b 2ad6 f63b 73a6 133c
000003e0: 2917 113d 839c e53c f8b9 5e3d 4dcb a43d
000003f0: 598b 8e3c 1495 e63c b406 c33d 1743 43bd

network_body._body_endoder.seq_layers.0.bias f4 [128]
0.04504829 -0.04191359 0.04815214 -0.047817357 -0.046077512 -0.041203126 -0.04865592 0.047820676
0.04326544 0.048168577 0.048042975 0.045750707 0.04461574 0.046967626 -0.042229395 0.04323985
0.044162072 -0.047926858 0.04513876 0.043495145 -0.04897059 -0.044553667 0.047134988 0.04810377
-0.044829864 -0.047841366 0.04608046 0.028757988 0.047087375 -0.048178867 -0.047415365 -0.042213287
0.047131006 -0.041217536 -0.041040987 0.048399046 0.042795457 0.04488406 0.04691955 -0.047503192
-0.044758696 -0.0474834 -0.04338305 -0.046600413 -0.046893947 0.04626491 -0.04437809 0.047117297
0.046062373 0.04556933 -0.04608064 0.048791207 0.04700337 -0.04412042 -0.043842487 0.044086352
0.04808629 -0.047713358 -0.047505178 0.04795246 0.04811837 -0.04817176 0.046694003 -0.048413306
0.048389863 -0.048139714 0.047430262 -0.046988953 0.048854824 0.04755132 -0.04536594 0.04471425
-0.040215787 -0.04598972 -0.046848133 -0.04441833 -0.048888255 -0.042902008 -0.04623882 -0.047540743
-0.044974 0.04643698 0.048520245 0.04860417 0.046227794 0.025656419 0.043201942 0.04835781
-0.047493093 0.048503388 -0.04829961 -0.034948763 -0.047639813 -0.047082227 0.047733583 0.048781954
0.04606017 -0.03111658 0.045162197 -0.041954037 -0.046004135 0.04673942 -0.04644851 0.04750323
-0.04677493 0.039815076 0.045970585 0.0491562 -0.046768766 0.04347971 -0.047484823 -0.047363427
0.04682809 -0.031093849 -0.048430912 0.04195044 0.046954557 -0.047503546 -0.04768997 -0.048032667
-0.041641217 0.047780607 0.04509194 0.04381917 -0.039006814 -0.048305765 0.04523281 0.04155661
00000000: 8e84 383d 96ad 2bbd 2e3b 453d 22dc 43bd
00000010: c6bb 3cbd 9cc4 28bd 6e4b 47bd 9ddf 433d
00000020: 1a37 313d 6a4c 453d b6c8 443d 1865 3b3d
00000030: ffbe 363d 2061 403d bbf8 2cbd 451c 313d
00000040: 4ae3 343d f44e 44bd 6ce3 383d f727 323d
00000050: 6395 48bd e87d 36bd 9e10 413d 7508 453d
00000060: 859f 37bd 4ff5 43bd ddbe 3c3d df95 eb3c
00000070: b1de 403d 3457 45bd 9d36 42bd d7e7 2cbd
00000080: 710c 413d b8d3 28bd 981a 28bd 143e 463d
00000090: 4a4a 2f3d 59d8 373d b72e 403d b592 42bd
000000a0: e554 37bd f47d 42bd 6db2 31bd 13e0 3ebd
000000b0: de13 40bd 4680 3d3d cdc5 35bd 11fe 403d
000000c0: e6ab 3c3d e8a6 3a3d 0ebf 3cbd 4ad9 473d
000000d0: 9b86 403d 9db7 34bd 2e94 33bd e493 343d
000000e0: 21f6 443d 156f 43bd ca94 42bd cc69 443d
000000f0: c517 453d c04f 45bd 3642 3f3d 084d 46bd
00000100: 7334 463d 262e 45bd 3c46 423d 7d77 40bd
00000110: ff1b 483d 2cc5 423d a3d1 39bd 4a26 373d
00000120: 4fb9 24bd b75f 3cbd d4e3 3fbd ffef 35bd
00000130: 0d3f 48bd 04ba 2fbd eb64 3dbd 15ba 42bd
00000140: a836 38bd b434 3e3d 2abd 463d 2b15 473d
00000150: 5b59 3d3d 692d d23c 85f4 303d d712 463d
00000160: 1e88 42bd 7dab 463d d0d5 45bd 6f26 0fbd
00000170: f721 43bd 4bd9 40bd 4a84 433d 96cf 473d
00000180: 97a9 3c3d 33e8 febc fffb 383d ffd7 2bbd
00000190: d56e 3cbd d671 3f3d cb40 3ebd bf92 423d
000001a0: 1297 3fbd 2215 233d a74b 3c3d 0358 493d
000001b0: 9b90 3fbd c817 323d 727f 42bd 2700 42bd
000001c0: d0ce 3f3d 87b8 febc 7e5f 46bd 39d4 2b3d
000001d0: 6c53 403d 1493 42bd 8f56 43bd e7bd 44bd
000001e0: fb8f 2abd 99b5 433d 53b2 383d bb7b 333d
000001f0: 9cc5 1fbd 44dc 45bd 0a46 393d 4437 2a3d

network_body._body_endoder.seq_layers.2.weight f4 [128, 128]
-0.19856642 0.090568304 0.0715839 0.1551099 -0.0060138963 -0.14057899 0.03171149 -0.071179636
-0.055345953 0.0049375845 -0.025869487 -0.071604855 -0.08633241 -0.15280442 0.009085244 -0.15063146
-0.046083912 -0.10450763 -0.11298103 0.021117114 0.117147855 0.041524746 -0.27877668 -0.13884307
-0.06087915 0.028420623 -0.10289402 -0.1145395 -0.12716362 -0.15591507 -0.11192949 0.0017384172
-0.020428061 0.04124108 0.028974326 -0.091638416 -0.06523328 -0.12862197 -0.1129157 0.03176375
0.026489226 0.17403863 -0.05164119 0.21597816 -0.067518555 0.0104587935 0.07697127 -0.17197615
-0.08558287 -0.11625554 0.20869352 -0.16309926 -0.24996048 0.045945715 0.10148734 -0.08633802
-0.023045737 -0.022448761 0.14294206 0.02794968 -0.03598209 -0.09596663 -0.060956545 -0.1314071
0.014480302 0.13655871 -0.022627363 -0.048124485 -0.035375334 -0.0038236764 0.005845202 -0.20479083
0.028064007 0.08923743 0.10014351 0.008767094 -0.034504037 0.08958822 0.08959388 0.022070792
-0.03238927 -0.08034056 -0.07531644 -0.038710747 0.09857996 0.06163587 0.0666324 0.0015042834
0.09009737 -0.29634082 0.008752179 0.02959596 0.119509555 0.07182566 -0.10773591 -0.049213123
0.080570415 0.097411424 0.07459306 0.09186813 0.12011839 -0.14137171 0.123990364 -0.018376311
-0.0067111803 -0.013785428 0.0025436992 -0.035784196 0.018537723 -0.14836608 -0.029978126 0.07815032
-0.06901662 0.020032626 0.07192945 -0.048847824 -0.0029115602 -0.11943043 0.072119825 0.1289833
-0.01711576 -0.13407262 0.022085644 -0.0054666474 0.121520974 0.08726425 -0.037448294 -0.085690685
-0.012730822 -0.00238465 -0.008555074 0.1847236 0.06340657 0.039099183 -0.07748309 -0.08029278
0.119605705 -0.09057535 -0.03987002 -0.1633043 -0.108056195 0.033538383 0.17160967 -0.037827916
-0.03612359 -0.054663133 -0.06350301 -0.044537928 -0.09322229 0.1866969 -0.06152529 0.11066417
0.0924247 0.1334932 -0.16584727 -0.047660854 -0.079597466 -0.065767206 0.0052039777 0.0006072209
0.012468548 0.010981409 0.046494126 -0.1313352 -0.25979033 -0.10343081 0.021310683 0.07400765
0.038649075 0.15797026 0.0095137805 0.19116534 0.16921857 0.0061974972 0.0071160686 -0.016359968
0.03475311 0.009552146 0.16830969 -0.08571408 -0.06660659 0.0021116557 0.03724409 -0.046579726
-0.0005423545 0.15186141 0.101192124 -0.06054641 -0.09649284 -0.048402358 0.10108341 0.038971998
0.05008508 -0.03733142 0.112469904 -0.009895226 -0.14371704 0.13398385 0.024482392 -0.041960128
0.03990115 0.034572247 0.017979002 0.07720502 0.27296942 -0.01494877 -0.028763853 0.15693702
0.06802812 -0.04123905 0.047828604 -0.13034093 -0.06997429 -0.020128142 -0.0059536067 0.0011794897
-0.054647915 0.07270845 0.18929714 0.07246152 0.028675321 -0.10341441 -0.14299655 0.110483505
-0.05510668 0.046563823 -0.025963042 -0.01829684 0.22202726 -0.07439813 0.09829913 -0.20351857
0.14096743 -0.08804733 -0.12563153 -0.074833915 -0.023704499 0.0057060765 -0.041409794 0.17499864
-0.08638818 0.10440512 -0.027608624 -0.040185552 -0.033705663 0.08447267 0.09931292 -0.13217548
0.008820129 -0.045574985 -0.05470994 -0.14458315 0.06475354 0.19658257 0.015920566 -0.012115576
00000000: ff54 4bbe e07b b93d 949a 923d 21d5 1e3e
00000010: 3810 c5bb f0f3 0fbe e8e3 013d a1c6 91bd
00000020: 70b2 62bd 76cb a13b 3fec d3bc 91a5 92bd
00000030: 0ccf b0bd c378 1cbe 46da 143c 223f 1abe
00000040: 7cc2 3cbd 1908 d6bd 9962 e7bd ccfd ac3c
00000050: 37eb ef3d da15 2a3d d1bb 8ebe e12c 0ebe
00000060: 6a5c 79bd 5ed2 e83c 1aba d2bd af93 eabd
00000070: 2e37 02be 33a8 1fbe 4a3b e5bd 9adb e33a
00000080: c058 a7bc 68ec 283d 915b ed3c ecac bbbd
00000090: 0799 85bd 7ab5 03be 5940 e7bd b51a 023d
000000a0: efff d83c 2f37 323e b685 53bd 6129 5d3e
000000b0: 2b47 8abd 5c5b 2b3c 1da3 9d3d 841a 30be
000000c0: 1246 afbd 6217 eebd c1b3 553e 7e03 27be
000000d0: a4f5 7fbe 9331 3c3d 98d8 cf3d fdd1 b0bd
000000e0: 6aca bcbc 77e6 b7bc 675f 123e baf6 e43c
000000f0: f561 13bd 278a c4bd 92ad 79bd 958f 06be
00000100: ca3e 6d3c 0cd6 0b3e 055d b9bc 2e1e 45bd
00000110: bae5 10bd a596 7abb 1c89 bf3b b0b4 51be
00000120: 7de6 e53c 1dc2 b63d 0a18 cd3d dca3 0f3c
00000130: 1b54 0dbd 077a b73d ff7c b73d cecd b43c
00000140: 9caa 04bd 9789 a4bd 813f 9abd 298f 1ebd
00000150: 4ae4 c93d e575 7c3d 9176 883d 602b c53a
00000160: f884 b83d fcb9 97be 4d65 0f3c 3a73 f23c
00000170: 6dc1 f43d 5519 933d a5a4 dcbd b393 49bd
00000180: 1a02 a53d a47f c73d 3fc4 983d 5c25 bc3d
00000190: a100 f63d bfc3 10be a9ee fd3d eb89 96bc
000001a0: 76e9 dbbb 47dc 61bc 31b4 263b 7392 12bd
000001b0: 6cdc 973c 47ed 17be b094 f5bc 460d a03d
000001c0: 9658 8dbd 761b a43c bf4f 933d a814 48bd
000001d0: e0cf 3ebb f197 f4bd 8fb3 933d 3314 043e
000001e0: 5a36 8cbc 554a 09be f4ec b43c 9021 b3bb
000001f0: fddf f83d 99b7 b23d 6263 19bd 997e afbd
00000200: f094 50bc ca47 1cbb 952a 0cbc 2f28 3d3e
00000210: 4edb 813d 7726 203d 74af 9ebd 8b70 a4bd
00000220: d6f3 f43d 927f b9bd bf4e 23bd 3e39 27be
00000230: 914c ddbd 8b5f 093d 72ba 2f3e 72f1 1abd
00000240: 54f6 13bd 73e6 5fbd de0d 82bd 676d 36bd
00000250: 54eb bebd 792d 3f3e f101 7cbd e5a3 e23d
00000260: 2949 bd3d 71b2 083e ded3 29be 0738 43bd
00000270: ff03 a3bd f5b0 86bd 2186 aa3b e82d 1f3a
00000280: e148 4c3c 5eeb 333c a070 3e3d bc7c 06be
00000290: 3d03 85be 88d3 d3bd be93 ae3c 5391 973d
000002a0: 7e4e 1e3d f5c2 213e b0df 1b3c d9c0 433e
000002b0: a247 2d3e 6014 cb3b e92d e93b 5705 86bc
000002c0: 4759 0e3d 9b80 1c3c 6059 2c3e dd8a afbd
000002d0: 0969 88bd b463 0a3b 428d 183d 62ca 3ebd
000002e0: cb2c 0eba 8f81 1b3e d13d cf3d 83ff 77bd
000002f0: 0a9e c5bd 8d41 46bd d204 cf3d 1aa1 1f3d
00000300: 0326 4d3d d5e8 18bd 9f56 e63d 961f 22bc
00000310: 8f2a 13be 1033 093e 4c8f c83c 62de 2bbd
00000320: 636f 233d a19b 0d3d b348 933c aa1d 9e3d
00000330: a6c2 8b3e b0eb 74bc 2ca2 ebbc 19b4 203e
00000340: 5452 8b3d 47ea 28bd ede7 433d 1878 05be
00000350: ae4e 8fbd c6e3 a4bc 7916 c3bb 1b99 9a3a
00000360: 7ed6 5fbd 2be8 943d 1cd7 413e b566 943d
00000370: 82e8 ea3c efca d3bd b06d 12be 2d45 e23d
00000380: 8bb7 61bd b5b9 3e3d 72b0 d4bc 41e3 95bc
00000390: 1d5b 633e 0c5e 98bd 0e51 c93d 2c67 50be
000003a0: c459 103e 2952 b4bd 8da5 00be 8642 99bd
000003b0: f02f c2bc 0afa ba3b 519d 29bd d832 333e
000003c0: 49ec b0bd 5ad2 d53d 7b2b e2bc 9b99 24bd
000003d0: f30e 0abd 0200 ad3d 9264 cb3d 0259 07be
000003e0: 4d82 103c d6ac 3abd 8817 60bd 9b0d 14be
000003f0: 819d 843d f14c 493e d96b 823c 6980 46bc

network_body._body_endoder.seq_layers.2.bias f4 [128]
-0.034049377 -0.042996835 0.044625282 -0.03991043 -0.038541827 -0.040403306 0.03930876 -0.03635442
-0.04116001 -0.040889155 -0.03687049 0.043100215 0.04242211 0.042967323 0.042306717 0.03847526
-0.039717868 0.03951318 0.044642262 0.042149566 -0.040564936 -0.04081349 0.043325286 -0.03622338
0.03528637 0.0375973 0.043478347 0.042089872 -0.041311644 0.04237985 -0.041430812 -0.023427162
-0.04291382 -0.041072894 -0.040532432 0.036411338 0.039341804 -0.03535546 0.042406883 -0.040262476
-0.034422144 -0.034533422 -0.039910827 -0.041083053 0.039404623 0.044084534 0.041511923 -0.039345548
-0.041618016 -0.04219554 0.04158625 0.034617655 0.04004192 -0.04264462 -0.040459033 -0.038459256
-0.028343936 0.043215908 -0.04146526 0.040737648 -0.043207575 -0.038544536 0.027489563 -0.03608293
-0.04012986 0.042703174 -0.019136533 0.042217664 -0.02946191 0.039482173 -0.037660304 0.042467833
-0.032589942 0.03841599 -0.037506565 0.04038464 0.038240038 0.029682854 -0.038791116 -0.03895932
0.042336166 -0.036590464 0.042077094 -0.042091776 0.044578694 0.043094702 -0.04209929 0.04133456
-0.04018612 -0.043030098 -0.03362209 -0.043148365 0.04418703 0.042439375 -0.031990167 -0.041249458
-0.040412482 0.04098553 -0.039533023 0.038042743 0.037639473 0.022488235 0.038583353 0.04160655
-0.035718556 0.033075746 -0.038897127 -0.040592022 0.042994503 -0.0343509 0.042798392 -0.035835236
0.039827123 -0.042267404 -0.036271423 -0.0393042 -0.03999875 0.041461587 -0.041856032 -0.040848926
0.03958747 -0.039762944 0.043335207 -0.038740534 0.04420827 0.03625732 0.044590686 0.03792738
00000000: 5c77 0bbd 731d 30bd 00c9 363d 1e79 23bd
00000010: 09de 1dbd f07d 25bd 3902 213d 5fe8 14bd
00000020: 6697 28bd 637b 27bd 8305 17bd da89 303d
00000030: cec2 2d3d 81fe 2f3d cf49 2d3d 3c98 1d3d
00000040: 34af 22bd 92d8 213d ceda 363d 06a5 2c3d
00000050: 6b27 26bd 0c2c 27bd db75 313d f85e 14bd
00000060: 7188 103d a0ff 193d 5a16 323d 6e66 2c3d
00000070: 6636 29bd 7e96 2d3d 5bb3 29bd 52ea bfbc
00000080: 67c6 2fbd 0d3c 28bd 5605 26bd 0e24 153d
00000090: df24 213d e3d0 10bd d7b2 2d3d 44ea 24bd
000000a0: 3cfe 0cbd eb72 0dbd 8979 23bd b446 28bd
000000b0: be66 213d fc91 343d 6808 2a3d cc28 21bd
000000c0: a777 2abd 3bd5 2cbd 5856 2a3d 3ecb 0d3d
000000d0: ff02 243d 20ac 2ebd 5fb8 25bd 7487 1dbd
000000e0: 8b31 e8bc 2a03 313d 7ad7 29bd 85dc 263d
000000f0: 6dfa 30bd e0e0 1dbd cb31 e13c b2cb 13bd
00000100: 355f 24bd 86e9 2e3d 38c4 9cbc 6eec 2c3d
00000110: 1a5a f1bc 0fb8 213d b141 1abd c0f2 2d3d
00000120: 087d 05bd 165a 1d3d 7ca0 19bd 5d6a 253d
00000130: 96a1 1c3d 7529 f33c 6fe3 1ebd cf93 1fbd
00000140: b068 2d3d e2df 15bd 0859 2c3d 6d68 2cbd
00000150: 2698 363d 1284 303d 4e70 2cbd 6d4e 293d
00000160: 339a 24bd 5440 30bd 51b7 09bd 57bc 30bd
00000170: 76fd 343d e9d4 2d3d 1f08 03bd 31f5 28bd
00000180: 8f87 25bd 71e0 273d 61ed 21bd b5d2 1b3d
00000190: d92b 1a3d 3f39 b83c 9409 1e3d a16b 2a3d
000001a0: 9f4d 12bd 6f7a 073d 9852 1fbd d243 26bd
000001b0: 011b 303d 88b3 0cbd 5e4d 2f3d f8c7 12bd
000001c0: c421 233d 9620 2dbd 5891 14bd 71fd 20bd
000001d0: bbd5 23bd a0d3 293d 3b71 2bbd 3451 27bd
000001e0: 7926 223d 78de 22bd 4280 313d 65ae 1ebd
000001f0: bb13 353d 8e82 143d b9a4 363d be59 1b3d

action_model._discrete_distribution.branches.0.weight f4 [3, 128]
0.040660236 0.033853676 -0.034132224 0.044329744 0.0437959 0.038838632 -0.043738622 0.041867174
0.03385984 0.030520093 0.03499296 -0.04372731 -0.038605176 -0.032926142 -0.046257183 -0.03794581
0.054934338 -0.040611178 -0.041603003 -0.04467817 0.05893679 0.033146665 -0.040596243 0.0411086
-0.049315993 -0.035002787 -0.040788095 -0.048144966 0.026768193 -0.038055375 0.03688816 0.032897536
0.047618516 0.03524477 0.03735391 -0.04389375 -0.029590892 0.040208653 -0.043462448 0.043856166
0.037708 0.038167033 0.030446032 0.045308296 -0.048064012 -0.048628632 -0.039178416 0.039043505
0.040927775 0.04653963 -0.022121273 -0.046430096 -0.03464569 0.04526879 0.04758443 0.05042125
0.035903588 -0.05011679 0.040346824 -0.045770902 0.031536143 0.048486833 -0.024386002 0.036727905
0.034701187 -0.03428989 0.034390446 -0.038874052 0.039163806 -0.04649859 0.031455033 -0.03595943
0.050782233 -0.026876908 0.039593473 -0.038356148 -0.03895919 -0.028828071 0.039863713 0.057441168
-0.03283749 0.059635922 -0.044535834 0.04218022 -0.037779663 -0.04824783 0.041165188 -0.029356329
0.046844706 0.034274623 0.038187925 0.039500505 -0.03371032 -0.05014022 0.047686387 0.042287417
0.044338305 -0.048815552 0.032077704 -0.04424872 -0.05694246 -0.019305684 -0.04522117 -0.047556624
0.033421025 -0.039661773 0.028620202 0.04681223 -0.04870118 0.040269963 -0.048641942 0.031824015
-0.045486264 0.02541227 0.04943748 0.047111448 0.04914652 -0.038059924 0.0377398 0.035312276
-0.04975339 0.050300397 -0.043480687 0.054097682 -0.047930956 -0.023479749 -0.040012814 -0.0497592
-0.043022387 -0.05857086 0.053097993 -0.06169993 -0.05882849 -0.05889785 0.060376074 -0.049894813
-0.0532916 -0.06794041 -0.054629 0.045716904 0.061004184 0.060172822 0.048035003 0.04686272
-0.05555433 0.040288765 0.047548372 0.048685696 -0.042685576 -0.05459052 0.063001424 -0.04374738
0.04493407 0.045703374 0.059713468 0.03885326 -0.0685741 0.054029476 -0.05419936 -0.043563224
-0.04613626 -0.05923011 -0.039857484 0.041681055 0.056349464 -0.043582242 0.039224617 -0.06593797
-0.039138068 -0.048734486 -0.06585455 -0.043459944 0.04884057 0.03946524 0.060131166 -0.074256465
-0.053879596 -0.05664195 0.058272168 0.04524512 0.03740332 -0.0482932 -0.056411274 -0.055285476
-0.036855444 0.052428693 -0.057423845 0.061546113 -0.058773242 -0.051597185 0.05481552 -0.052220814
-0.06470469 0.060366318 -0.038590007 0.043062285 -0.040630624 0.048140347 -0.05981959 0.057575714
-0.041353453 0.05118217 -0.04480472 0.059417304 0.04777004 0.043185763 -0.048607185 -0.051235367
0.06731475 -0.046995647 0.05647048 -0.05049746 0.046026226 0.05667387 -0.054656494 0.061861712
-0.055500824 -0.057502083 -0.06136349 -0.052169833 0.049582865 0.05642113 -0.04208125 -0.047893804
-0.05248813 0.045057334 -0.051958412 0.041089844 0.05653441 0.04629935 0.03818656 0.042509276
-0.042646863 0.040365703 -0.051867757 -0.050889824 0.043112356 -0.043279234 0.056480184 -0.052981645
0.05306487 -0.059861977 -0.047824085 -0.052348062 -0.054703675 0.054685283 -0.058074363 -0.067782074
0.042215038 -0.05540894 0.056791194 -0.056986358 0.051591706 0.052718952 0.050290674 0.039717656
00000000: 598b 263d 27aa 0a3d 3bce 0bbd 1b93 353d
00000010: 5463 333d 4215 1f3d 4527 33bd ea7c 2b3d
00000020: 9eb0 0a3d 4605 fa3c c754 0f3d 681b 33bd
00000030: 7620 1ebd 90dd 06bd 2c78 3dbd 116d 1bbd
00000040: d402 613d e857 26bd e967 2abd 7500 37bd
00000050: b467 713d ccc4 073d 3f48 26bd 7e61 283d
00000060: 91ff 49bd 155f 0fbd 6b11 27bd a833 45bd
00000070: f848 db3c f4df 1bbd 0a18 173d 91bf 063d
00000080: a20b 433d d25c 103d 6a00 193d efc9 33bd
00000090: 9968 f2bc d4b1 243d ae05 32bd 86a2 333d
000000a0: b473 1a3d 0955 1c3d f569 f93c 3195 393d
000000b0: c5de 44bd d12e 47bd 8c79 20bd 15ec 1f3d
000000c0: e2a3 273d 57a0 3e3d ac37 b5bc 7c2d 3ebd
000000d0: a4e8 0dbd c46b 393d e4e7 423d 8386 4e3d
000000e0: a40f 133d 4347 4dbd b642 253d 457a 3bbd
000000f0: 0b2c 013d 219a 463d 27c5 c7bc 0070 163d
00000100: d522 0e3d 8e73 0cbd ffdc 0c3d 663a 1fbd
00000110: 3a6a 203d 4e75 3ebd fed6 003d 324a 13bd
00000120: 0801 503d f62c dcbc c42c 223d 561b 1dbd
00000130: ac93 1fbd d928 ecbc 2248 233d 6e47 6b3d
00000140: 9b80 06bd cc44 743d 356b 36bd 2bc5 2c3d
00000150: d9be 1abd 849f 45bd d49c 283d af7c f0bc
00000160: 3ce0 3f3d 8c63 0c3d f16a 1c3d 48cb 213d
00000170: d513 0abd d55f 4dbd cd52 433d 9235 2d3d
00000180: 159c 353d d1f2 47bd e963 033d 253e 35bd
00000190: 7f3c 69bd f426 9ebc d539 39bd bcca 42bd
000001a0: 7ce4 083d 6274 22bd ea74 ea3c 2ebe 3f3d
000001b0: e37a 47bd 1ef2 243d c63c 47bd e659 023d
000001c0: ce4f 3abd 652d d03c f47e 4a3d eff7 403d
000001d0: dd4d 493d b9e4 1bbd 0c95 1a3d 9ba3 103d
000001e0: 36ca 4bbd ca07 4e3d ce18 32bd 8895 5d3d
000001f0: 4053 44bd 9a58 c0bc 7ae4 23bd 4ed0 4bbd
00000200: 3e38 30bd 00e8 6fbd 487d 593d 11b9 7cbd
00000210: 25f6 70bd df3e 71bd e74c 773d 815e 4cbd
00000220: 4b48 5abd 5724 8bbd a9c2 5fbd a641 3b3d
00000230: 86df 793d c777 763d 5ac0 443d 20f3 3f3d
00000240: f08c 63bd d505 253d 15c2 423d a76a 473d
00000250: 12d7 2ebd 4f9a 5fbd e406 813d 7430 33bd
00000260: ca0c 383d 7633 3b3d 1c96 743d 9924 1f3d
00000270: 9470 8cbd 034e 5d3d 2600 5ebd 5a6f 32bd
00000280: 60f9 3cbd 469b 72bd 9a41 23bd c1b9 2a3d
00000290: b2ce 663d 4b83 32bd fea9 203d 7d0a 87bd
000002a0: 3d4f 20bd d09d 47bd c0de 86bd 0e03 32bd
000002b0: 0d0d 483d 4ea6 213d 194c 763d c613 98bd
000002c0: dab0 5cbd 6401 68bd ccae 6e3d f252 393d
000002d0: 3934 193d 17cf 45bd 820f 67bd 0673 62bd
000002e0: bcf5 16bd 78bf 563d 4435 6bbd c717 7c3d
000002f0: 36bc 70bd 9257 53bd 3d86 603d 7ee5 55bd
00000300: e483 84bd ac42 773d 8e10 1ebd 1462 303d
00000310: 4c6c 26bd d02e 453d 6305 75bd 83d4 6b3d
00000320: 3d62 29bd 65a4 513d 2785 37bd 8f5f 733d
00000330: 84aa 433d 8ee3 303d 5418 47bd 2ddc 51bd
00000340: 51dc 893d 827e 40bd 974d 673d 6dd6 4ebd
00000350: ff85 3c3d dc22 683d 7ddf 5fbd b562 7d3d
00000360: d554 63bd 4e87 6bbd 4858 7bbd 09b0 55bd
00000370: 6717 4b3d d819 673d 645d 2cbd 4b2c 44bd
00000380: cbfd 56bd 0a8e 383d 58d2 54bd d34d 283d
00000390: a090 673d 63a4 3d3d 8369 1c3d 351e 2e3d
000003a0: 7aae 2ebd 8256 253d 4973 54bd d971 50bd
000003b0: 9596 303d 9145 31bd c457 673d 4803 59bd
000003c0: 8d5a 593d d531 75bd 30e3 43bd ec6a 56bd
000003d0: f610 60bd adfd 5f3d 62df 6dbd 54d1 8abd
000003e0: ade9 2c3d 7cf4 62bd e29d 683d 876a 69bd
000003f0: d351 533d d4ef 573d 98fd 4d3d fbae 223d

action_model._discrete_distribution.branches.0.bias f4 [3]
-0.02756693 0.034101095 -0.022790914
00000000: 0bd4 e1bc 97ad 0b3d 03b4 babc

action_model._discrete_distribution.branches.1.weight f4 [2, 128]
0.002708652 0.0048289974 0.0064254734 -0.0034199946 0.012753793 0.0042434973 -0.01775848 -0.0033473575
0.0039870604 0.0002309882 0.0045544207 -0.003506789 0.0040915585 0.0007744279 0.006329018 -0.0015190709
-0.0014409109 0.0001932855 -0.0037191554 -0.015342326 -0.0040820856 -0.010115185 -0.0009511777 -0.006036025
0.008492297 -0.0025939199 -0.0021629697 0.009508218 -0.01069558 0.0013354733 0.007661861 -0.013796772
0.014237425 0.0025844132 -0.005301931 -0.01011225 -0.013514497 0.009739975 -0.00045035494 -0.0036562292
-0.003154247 0.015383735 -0.0016716488 0.008524192 0.0023079847 -0.002442121 0.0011842587 -0.0064962963
-0.0007090936 0.0031423473 -0.0017032308 -0.011358645 -0.0003483879 0.0058375555 0.01024888 0.0020277896
0.006404699 -0.013008617 0.006995421 -0.012477413 -0.003634345 0.008765466 -0.018554894 0.0037969
-0.0077338056 -0.006799547 -0.0049895416 0.006093455 -0.0155957695 -0.015406589 0.009424906 -0.007919238
-0.011180132 -0.0066142273 0.004917303 -0.0052393535 -0.008177503 -0.0065414817 0.002157024 -0.007861866
-0.014525911 0.0072886096 -0.0073126066 0.003302347 -0.0031838901 -0.01177714 -0.0023148549 0.009810697
-0.0008354081 -0.00011865097 0.0070034144 0.005121049 0.0040540923 -0.010746931 0.00076068746 0.0037164954
-0.015908994 -0.0008289097 0.0028440757 0.0004082081 -0.010039539 0.003588429 -0.0007702465 0.0057791104
-0.00029775593 -0.008122405 -0.0011343258 0.011647646 -0.00042755742 -0.010846369 -0.0056989314 -0.013436105
-0.0032195796 -0.005631121 -0.018215088 0.0013176156 -0.001200558 0.0067370906 -0.008433015 -0.0016143655
-0.0030205245 0.0025194795 -0.002903335 -0.00651851 0.006697362 0.0038209746 -0.005260301 0.011265196
-0.012625171 0.0047891177 0.00066683796 0.008078026 -0.013195951 0.0147307785 0.015715811 0.0051442403
-0.005627966 0.0010348236 -0.017604325 -0.0019325792 -0.00092611485 0.007389271 0.0016821539 -0.0013627391
-0.0021738452 0.007083384 -0.00795226 0.0015357042 0.008928697 -0.0014437382 0.0030648387 0.014517897
-0.023010885 -0.0082855765 -0.00545815 0.0068092123 -0.0026096976 -0.0028255498 0.018246679 0.01238141
0.005420273 0.011858919 -0.0026502442 0.00021167353 -0.00037865827 -0.006757467 -0.0029653572 -0.0064392607
-0.011407701 -0.0143904155 -0.0091529405 -0.0036920875 0.0061963745 0.0055638 0.019602694 -0.0021193372
0.002465578 -0.0075095836 0.0002723623 0.01459245 0.004272275 0.004926717 -0.0054489383 0.0066948524
-0.011785858 -0.006640132 -0.0011084022 0.013433434 -0.00622322 0.0135361245 0.021613436 -0.025065022
-0.0104646 0.0032820145 -0.013611625 0.0011581667 0.013040323 0.009087276 -0.008176554 0.0053477557
0.011337211 -0.019673996 -0.011149706 0.020627433 0.0152579285 5.8472746e-05 -0.007798965 -0.0019346544
-0.0003138537 0.0015353126 0.009987897 0.00013171005 -0.008976462 -0.0122086005 -0.009878411 -0.0053520403
0.002514066 -0.0023345568 -0.0020219388 0.0017639623 0.002012116 0.0014631554 -0.0025605299 0.005389562
-0.008188218 0.0029444464 -0.00820993 -0.010643037 0.009226676 -0.011207653 -0.006248447 0.016464464
0.009356132 -0.00047619615 0.008541561 -0.00025972264 -0.0019585267 0.0035267777 0.00077140436 0.011897981
0.0018569186 9.248129e-05 0.0056803245 0.010936814 -0.0018349234 -0.0011808814 -0.0032180094 0.0026969155
0.008482966 -0.0066899545 -0.0037755496 -0.0010199347 0.011402107 0.0013183274 -0.012179433 -0.004784281
00000000: a483 313b 913c 9e3b c78c d23b fd21 60bb
00000010: 49f5 503c 090d 8b3b 3b7a 91bc 575f 5bbb
00000020: e3a5 823b 6c35 7239 403d 953b 28d2 65bb
00000030: 7b12 863b fa02 4b3a a763 cf3b 901b c7ba
00000040: f2dc bcba aeac 4a39 13bd 73bb 615e 7bbc
00000050: 04c3 85bb 29ba 25bc 7458 79ba d9c9 c5bb
00000060: 4623 0b3c c1fe 29bb 9cc0 0dbb 5bc8 1b3c
00000070: 843c 2fbc 0c0b af3a 5910 fb3b db0b 62bc
00000080: 1744 693c 425f 293b d2bb adbb daad 25bc
00000090: e96b 5dbc 6b94 1f3c 9e1d ecb9 599d 6fbb
000000a0: 7cb7 4ebb 100c 7c3c 3a1b dbba 0da9 0b3c
000000b0: 8f41 173b fe0b 20bb 2139 9b3a e2de d4bb
000000c0: 77e2 39ba d7ef 4d3b f13e dfba 9c19 3abc
000000d0: d5a7 b6b9 f748 bf3b ebea 273c aae4 043b
000000e0: 82de d13b 1822 55bc d839 e53b 106e 4cbc
000000f0: 312e 6ebb 079d 0f3c 6f00 98bc 69d5 783b
00000100: dd6b fdbb bcce debb 4f7f a3bb 9bab c73b
00000110: 6685 7fbc eb6b 7cbc ec6a 1a3c b1bf 01bc
00000120: df2c 37bc 29bc d8bb 5421 a13b e2ae abbb
00000130: effa 05bc ed59 d6bb dc5c 0d3b 0ecf 00bc
00000140: 16fe 6dbc 4ad5 ee3b 979e efbb 306c 583b
00000150: d0a8 50bb e8f4 40bc d2b4 17bb 0cbd 203c
00000160: 4aff 5aba 41d4 f8b8 e67c e53b 79ce a73b
00000170: 31d8 843b e513 30bc df68 473a 7290 733b
00000180: 9453 82bc 304b 59ba ac63 3a3b c404 d639
00000190: e17c 24bc d92b 6b3b 5eea 49ba b15e bd3b
000001a0: 201c 9cb9 d613 05bc a8ad 94ba c5d5 3e3c
000001b0: c929 e0b9 f8b4 31bc 1abe babb 1c23 5cbc
000001c0: 95ff 52bb 4485 b8bb cf37 95bc d8b3 ac3a
000001d0: 0b5c 9dba d0c2 dc3b a12a 0abc 1e99 d3ba
000001e0: fef3 45bb da1d 253b e145 3ebb 3a99 d5bb
000001f0: 8b75 db3b 5169 7a3b 9a5e acbb a891 383c
00000200: ced9 4ebc 08ee 9c3b bdce 2e3a b259 043c
00000210: d433 58bc 5d59 713c 72be 803c 0491 a83b
00000220: cd6a b8bb eba2 873a f236 90bc 994e fdba
00000230: 84c6 72ba b321 f23b b87b dc3a f09d b2ba
00000240: 1277 0ebb bb1b e83b 324a 02bc af49 c93a
00000250: ab49 123c d13b bdba 76db 483b 79dc 6d3c
00000260: 5381 bcbc 3ac0 07bc 48da b2bb d01f df3b
00000270: 7607 2bbb dc2c 39bb 0f7a 953c 66db 4a3c
00000280: 8c9c b13b e94b 423c b8af 2dbb aef4 5d39
00000290: a786 c6b9 be6d ddbb 7056 42bb 6f00 d3bb
000002a0: 5ee7 3abc c7c5 6bbc 37f6 15bc f3f6 71bb
000002b0: f50a cb3b 8a50 b63b d495 a03c 94e4 0abb
000002c0: 8995 213b f412 f6bb d9cb 8e39 2c15 6f3c
000002d0: 71fe 8b3b 4c70 a13b 028d b2bb 7e60 db3b
000002e0: 7919 41bc 7795 d9bb ce47 91ba e817 5c3c
000002f0: 27ec cbbb 9fc6 5d3c a90e b13c 2955 cdbc
00000300: b773 2bbc 1117 573b 4b03 5fbc a0cd 973a
00000310: 14a7 553c cce2 143c f4f6 05bc 3a3c af3b
00000320: b6bf 393c 5c2b a1bc 42ad 36bc ddfa a83c
00000330: 64fc 793c a240 7538 768e ffbb 3b94 fdba
00000340: bb8c a4b9 8b3c c93a 47a4 233c a61b 0a39
00000350: 0312 13bc 9506 48bc 0fd9 21bc 2b60 afbb
00000360: 07c3 243b 5dff 18bb 8182 04bb c134 e73a
00000370: b4dd 033b 59c7 bf3a 90ce 27bb ec9a b03b
00000380: e027 06bc 9df7 403b f182 06bc 2260 2ebc
00000390: 7c2b 173c 4ea0 37bc c6bf ccbb 7ce0 863c
000003a0: 764a 193c f7a9 f9b9 e7f1 0b3c 622b 88b9
000003b0: a05a 00bb 8321 673b 1238 4a3a c0ef 423c
000003c0: d963 f33a 84f2 c138 0422 ba3b 5330 333c
000003d0: d081 f0ba cec7 9aba 3de5 52bb bcbe 303b
000003e0: 23fc 0a3c 6837 dbbb 366f 77bb 54af 85ba
000003f0: e7cf 3a3c bacb ac3a 3f8c 47bc 75c5 9cbb

action_model._discrete_distribution.branches.1.bias f4 [2]
-0.00061982445 0.000619826
00000000: b77b 22ba d27b 223a

onnx::Div_78 f4 [255]
0.012203292 0.012203292 0.012203292 0.01725742 0.01725742 0.012203292 0.012203292 0.012203292
0.01725742 0.01725742 0.012203292 0.012203292 0.012203292 0.01725742 0.01725742 0.012203292
0.012203292 0.012203292 0.01725742 0.01725742 0.012203292 0.012203292 0.012203292 0.01725742
0.01725742 0.012203292 0.012203292 0.012203292 0.01725742 0.01725742 0.012203292 0.012203292
0.012203292 0.01725742 0.01725742 0.012203292 0.012203292 0.012203292 0.01725742 0.01725742
0.012203292 0.012203292 0.012203292 0.01725742 0.01725742 0.012203292 0.012203292 0.012203292
0.01725742 0.01725742 0.012203292 0.012203292 0.012203292 0.01725742 0.01725742 0.012203292
0.012203292 0.012203292 0.01725742 0.01725742 0.012203292 0.012203292 0.012203292 0.01725742
0.01725742 0.012203292 0.012203292 0.012203292 0.01725742 0.01725742 0.012203292 0.012203292
0.012203292 0.01725742 0.01725742 0.012203292 0.012203292 0.012203292 0.01725742 0.01725742
0.012203292 0.012203292 0.012203292 0.01725742 0.01725742 0.012203292 0.012203292 0.012203292
0.01725742 0.01725742 0.012203292 0.012203292 0.012203292 0.01725742 0.01725742 0.012203292
0.012203292 0.012203292 0.01725742 0.01725742 0.012203292 0.012203292 0.012203292 0.01725742
0.01725742 0.012203292 0.012203292 0.012203292 0.01725742 0.01725742 0.012203292 0.012203292
0.012203292 0.01725742 0.01725742 0.012203292 0.012203292 0.012203292 0.01725742 0.01725742
0.012203292 0.012203292 0.012203292 0.01725742 0.01725742 0.012203292 0.012203292 0.012203292
0.01725742 0.01725742 0.012203292 0.012203292 0.012203292 0.01725742 0.01725742 0.012203292
0.012203292 0.012203292 0.01725742 0.01725742 0.012203292 0.012203292 0.012203292 0.01725742
0.01725742 0.012203292 0.012203292 0.012203292 0.01725742 0.01725742 0.012203292 0.012203292
0.012203292 0.01725742 0.01725742 0.012203292 0.012203292 0.012203292 0.01725742 0.01725742
0.012203292 0.012203292 0.012203292 0.01725742 0.01725742 0.012203292 0.012203292 0.012203292
0.01725742 0.01725742 0.012203292 0.012203292 0.012203292 0.01725742 0.01725742 0.012203292
0.012203292 0.012203292 0.01725742 0.01725742 0.012203292 0.012203292 0.012203292 0.01725742
0.01725742 0.012203292 0.012203292 0.012203292 0.01725742 0.01725742 0.012203292 0.012203292
0.012203292 0.01725742 0.01725742 0.012203292 0.012203292 0.012203292 0.01725742 0.01725742
0.012203292 0.012203292 0.012203292 0.01725742 0.01725742 0.012203292 0.012203292 0.012203292
0.01725742 0.01725742 0.012203292 0.012203292 0.012203292 0.01725742 0.01725742 0.012203292
0.012203292 0.012203292 0.01725742 0.01725742 0.012203292 0.012203292 0.012203292 0.01725742
0.01725742 0.012203292 0.012203292 0.012203292 0.01725742 0.01725742 0.012203292 0.012203292
0.012203292 0.01725742 0.01725742 0.012203292 0.012203292 0.012203292 0.01725742 0.01725742
0.012203292 0.012203292 0.012203292 0.01725742 0.01725742 0.012203292 0.012203292 0.012203292
0.01725742 0.01725742 0.012203292 0.012203292 0.012203292 0.01725742 0.01725742
00000000: 51f0 473c 51f0 473c 51f0 473c 6f5f 8d3c
00000010: 6f5f 8d3c 51f0 473c 51f0 473c 51f0 473c
00000020: 6f5f 8d3c 6f5f 8d3c 51f0 473c 51f0 473c
00000030: 51f0 473c 6f5f 8d3c 6f5f 8d3c 51f0 473c
00000040: 51f0 473c 51f0 473c 6f5f 8d3c 6f5f 8d3c
00000050: 51f0 473c 51f0 473c 51f0 473c 6f5f 8d3c
00000060: 6f5f 8d3c 51f0 473c 51f0 473c 51f0 473c
00000070: 6f5f 8d3c 6f5f 8d3c 51f0 473c 51f0 473c
00000080: 51f0 473c 6f5f 8d3c 6f5f 8d3c 51f0 473c
00000090: 51f0 473c 51f0 473c 6f5f 8d3c 6f5f 8d3c
000000a0: 51f0 473c 51f0 473c 51f0 473c 6f5f 8d3c
000000b0: 6f5f 8d3c 51f0 473c 51f0 473c 51f0 473c
000000c0: 6f5f 8d3c 6f5f 8d3c 51f0 473c 51f0 473c
000000d0: 51f0 473c 6f5f 8d3c 6f5f 8d3c 51f0 473c
000000e0: 51f0 473c 51f0 473c 6f5f 8d3c 6f5f 8d3c
000000f0: 51f0 473c 51f0 473c 51f0 473c 6f5f 8d3c
00000100: 6f5f 8d3c 51f0 473c 51f0 473c 51f0 473c
00000110: 6f5f 8d3c 6f5f 8d3c 51f0 473c 51f0 473c
00000120: 51f0 473c 6f5f 8d3c 6f5f 8d3c 51f0 473c
00000130: 51f0 473c 51f0 473c 6f5f 8d3c 6f5f 8d3c
00000140: 51f0 473c 51f0 473c 51f0 473c 6f5f 8d3c
00000150: 6f5f 8d3c 51f0 473c 51f0 473c 51f0 473c
00000160: 6f5f 8d3c 6f5f 8d3c 51f0 473c 51f0 473c
00000170: 51f0 473c 6f5f 8d3c 6f5f 8d3c 51f0 473c
00000180: 51f0 473c 51f0 473c 6f5f 8d3c 6f5f 8d3c
00000190: 51f0 473c 51f0 473c 51f0 473c 6f5f 8d3c
000001a0: 6f5f 8d3c 51f0 473c 51f0 473c 51f0 473c
000001b0: 6f5f 8d3c 6f5f 8d3c 51f0 473c 51f0 473c
000001c0: 51f0 473c 6f5f 8d3c 6f5f 8d3c 51f0 473c
000001d0: 51f0 473c 51f0 473c 6f5f 8d3c 6f5f 8d3c
000001e0: 51f0 473c 51f0 473c 51f0 473c 6f5f 8d3c
000001f0: 6f5f 8d3c 51f0 473c 51f0 473c 51f0 473c
00000200: 6f5f 8d3c 6f5f 8d3c 51f0 473c 51f0 473c
00000210: 51f0 473c 6f5f 8d3c 6f5f 8d3c 51f0 473c
00000220: 51f0 473c 51f0 473c 6f5f 8d3c 6f5f 8d3c
00000230: 51f0 473c 51f0 473c 51f0 473c 6f5f 8d3c
00000240: 6f5f 8d3c 51f0 473c 51f0 473c 51f0 473c
00000250: 6f5f 8d3c 6f5f 8d3c 51f0 473c 51f0 473c
00000260: 51f0 473c 6f5f 8d3c 6f5f 8d3c 51f0 473c
00000270: 51f0 473c 51f0 473c 6f5f 8d3c 6f5f 8d3c
00000280: 51f0 473c 51f0 473c 51f0 473c 6f5f 8d3c
00000290: 6f5f 8d3c 51f0 473c 51f0 473c 51f0 473c
000002a0: 6f5f 8d3c 6f5f 8d3c 51f0 473c 51f0 473c
000002b0: 51f0 473c 6f5f 8d3c 6f5f 8d3c 51f0 473c
000002c0: 51f0 473c 51f0 473c 6f5f 8d3c 6f5f 8d3c
000002d0: 51f0 473c 51f0 473c 51f0 473c 6f5f 8d3c
000002e0: 6f5f 8d3c 51f0 473c 51f0 473c 51f0 473c
000002f0: 6f5f 8d3c 6f5f 8d3c 51f0 473c 51f0 473c
00000300: 51f0 473c 6f5f 8d3c 6f5f 8d3c 51f0 473c
00000310: 51f0 473c 51f0 473c 6f5f 8d3c 6f5f 8d3c
00000320: 51f0 473c 51f0 473c 51f0 473c 6f5f 8d3c
00000330: 6f5f 8d3c 51f0 473c 51f0 473c 51f0 473c
00000340: 6f5f 8d3c 6f5f 8d3c 51f0 473c 51f0 473c
00000350: 51f0 473c 6f5f 8d3c 6f5f 8d3c 51f0 473c
00000360: 51f0 473c 51f0 473c 6f5f 8d3c 6f5f 8d3c
00000370: 51f0 473c 51f0 473c 51f0 473c 6f5f 8d3c
00000380: 6f5f 8d3c 51f0 473c 51f0 473c 51f0 473c
00000390: 6f5f 8d3c 6f5f 8d3c 51f0 473c 51f0 473c
000003a0: 51f0 473c 6f5f 8d3c 6f5f 8d3c 51f0 473c
000003b0: 51f0 473c 51f0 473c 6f5f 8d3c 6f5f 8d3c
000003c0: 51f0 473c 51f0 473c 51f0 473c 6f5f 8d3c
000003d0: 6f5f 8d3c 51f0 473c 51f0 473c 51f0 473c
000003e0: 6f5f 8d3c 6f5f 8d3c 51f0 473c 51f0 473c
000003f0: 51f0 473c 6f5f 8d3c 6f5f 8d3c
