Assets/Training/results/finally_works/PlayerAgentBehavior/PlayerAgentBehavior-51628.onnx (onnx, 295465 bytes, 13 tensors)

discrete_act_size_vector f4 [1, 2]
0	0x40400000	3.0
1	0x40000000	2.0

network_body.observation_encoder.processors.0.normalizer.running_mean f4 [405]
0	0x00000000	0.0
1	0x00000000	0.0
2	0x00000000	0.0
3	0x3f7ffea4	0.99997926
4	0x3f7ffea4	0.99997926
5	0x00000000	0.0
6	0x00000000	0.0
7	0x00000000	0.0
8	0x3f7ffea4	0.99997926
9	0x3f7ffea4	0.99997926
10	0x00000000	0.0
11	0x00000000	0.0
12	0x00000000	0.0
13	0x3f7ffea4	0.99997926
14	0x3f7ffea4	0.99997926
15	0x00000000	0.0
16	0x00000000	0.0
17	0x00000000	0.0
18	0x3f7ffea4	0.99997926
19	0x3f7ffea4	0.99997926
20	0x00000000	0.0
21	0x00000000	0.0
22	0x00000000	0.0
23	0x3f7ffea4	0.99997926
24	0x3f7ffea4	0.99997926
25	0x00000000	0.0
26	0x00000000	0.0
27	0x00000000	0.0
28	0x3f7ffea4	0.99997926
29	0x3f7ffea4	0.99997926
30	0x00000000	0.0
31	0x00000000	0.0
32	0x00000000	0.0
33	0x3f7ffea4	0.99997926
34	0x3f7ffea4	0.99997926
35	0x00000000	0.0
36	0x00000000	0.0
37	0x00000000	0.0
38	0x3f7ffea4	0.99997926
39	0x3f7ffea4	0.99997926
40	0x00000000	0.0
41	0x00000000	0.0
42	0x00000000	0.0
43	0x3f7ffea4	0.99997926
44	0x3f7ffea4	0.99997926
45	0x00000000	0.0
46	0x00000000	0.0
47	0x00000000	0.0
48	0x3f7ffea4	0.99997926
49	0x3f7ffea4	0.99997926
50	0x00000000	0.0
51	0x00000000	0.0
52	0x00000000	0.0
53	0x3f7ffea4	0.99997926
54	0x3f7ffea4	0.99997926
55	0x00000000	0.0
56	0x00000000	0.0
57	0x00000000	0.0
58	0x3f7ffea4	0.99997926
59	0x3f7ffea4	0.99997926
60	0x00000000	0.0
61	0x00000000	0.0
62	0x00000000	0.0
63	0x3f7ffea4	0.99997926
64	0x3f7ffea4	0.99997926
65	0x00000000	0.0
66	0x00000000	0.0
67	0x00000000	0.0
68	0x3f7ffea4	0.99997926
69	0x3f7ffea4	0.99997926
70	0x00000000	0.0
71	0x00000000	0.0
72	0x00000000	0.0
73	0x3f7ffea4	0.99997926
74	0x3f7ffea4	0.99997926
75	0x00000000	0.0
76	0x00000000	0.0
77	0x00000000	0.0
78	0x3f7ffea4	0.99997926
79	0x3f7ffea4	0.99997926
80	0x00000000	0.0
81	0x00000000	0.0
82	0x00000000	0.0
83	0x3f7ffea4	0.99997926
84	0x3f7ffea4	0.99997926
85	0x00000000	0.0
86	0x00000000	0.0
87	0x00000000	0.0
88	0x3f7ffea4	0.99997926
89	0x3f7ffea4	0.99997926
90	0x00000000	0.0
91	0x00000000	0.0
92	0x00000000	0.0
93	0x3f7ffea4	0.99997926
94	0x3f7ffea4	0.99997926
95	0x00000000	0.0
96	0x00000000	0.0
97	0x00000000	0.0
98	0x3f7ffea4	0.99997926
99	0x3f7ffea4	0.99997926
100	0x00000000	0.0
101	0x00000000	0.0
102	0x00000000	0.0
103	0x3f7ffea4	0.99997926
104	0x3f7ffea4	0.99997926
105	0x00000000	0.0
106	0x00000000	0.0
107	0x00000000	0.0
108	0x3f7ffea4	0.99997926
109	0x3f7ffea4	0.99997926
110	0x00000000	0.0
111	0x00000000	0.0
112	0x00000000	0.0
113	0x3f7ffea4	0.99997926
114	0x3f7ffea4	0.99997926
115	0x00000000	0.0
116	0x00000000	0.0
117	0x00000000	0.0
118	0x3f7ffea4	0.99997926
119	0x3f7ffea4	0.99997926
120	0x00000000	0.0
121	0x00000000	0.0
122	0x00000000	0.0
123	0x3f7ffea4	0.99997926
124	0x3f7ffea4	0.99997926
125	0x00000000	0.0
126	0x00000000	0.0
127	0x00000000	0.0
128	0x3f7ffea4	0.99997926
129	0x3f7ffea4	0.99997926
130	0x00000000	0.0
131	0x00000000	0.0
132	0x00000000	0.0
133	0x3f7ffea4	0.99997926
134	0x3f7ffea4	0.99997926
135	0x00000000	0.0
136	0x00000000	0.0
137	0x00000000	0.0
138	0x3f7ffea4	0.99997926
139	0x3f7ffea4	0.99997926
140	0x00000000	0.0
141	0x00000000	0.0
142	0x00000000	0.0
143	0x3f7ffea4	0.99997926
144	0x3f7ffea4	0.99997926
145	0x00000000	0.0
146	0x00000000	0.0
147	0x00000000	0.0
148	0x3f7ffea4	0.99997926
149	0x3f7ffea4	0.99997926
150	0x00000000	0.0
151	0x00000000	0.0
152	0x00000000	0.0
153	0x3f7ffea4	0.99997926
154	0x3f7ffea4	0.99997926
155	0x00000000	0.0
156	0x00000000	0.0
157	0x00000000	0.0
158	0x3f7ffea4	0.99997926
159	0x3f7ffea4	0.99997926
160	0x00000000	0.0
161	0x00000000	0.0
162	0x00000000	0.0
163	0x3f7ffea4	0.99997926
164	0x3f7ffea4	0.99997926
165	0x00000000	0.0
166	0x00000000	0.0
167	0x00000000	0.0
168	0x3f7ffea4	0.99997926
169	0x3f7ffea4	0.99997926
170	0x00000000	0.0
171	0x00000000	0.0
172	0x00000000	0.0
173	0x3f7ffea4	0.99997926
174	0x3f7ffea4	0.99997926
175	0x00000000	0.0
176	0x00000000	0.0
177	0x00000000	0.0
178	0x3f7ffea4	0.99997926
179	0x3f7ffea4	0.99997926
180	0x00000000	0.0
181	0x00000000	0.0
182	0x00000000	0.0
183	0x3f7ffea4	0.99997926
184	0x3f7ffea4	0.99997926
185	0x00000000	0.0
186	0x00000000	0.0
187	0x00000000	0.0
188	0x3f7ffea4	0.99997926
189	0x3f7ffea4	0.99997926
190	0x00000000	0.0
191	0x00000000	0.0
192	0x00000000	0.0
193	0x3f7ffea4	0.99997926
194	0x3f7ffea4	0.99997926
195	0x00000000	0.0
196	0x00000000	0.0
197	0x00000000	0.0
198	0x3f7ffea4	0.99997926
199	0x3f7ffea4	0.99997926
200	0x00000000	0.0
201	0x00000000	0.0
202	0x00000000	0.0
203	0x3f7ffea4	0.99997926
204	0x3f7ffea4	0.99997926
205	0x00000000	0.0
206	0x00000000	0.0
207	0x00000000	0.0
208	0x3f7ffea4	0.99997926
209	0x3f7ffea4	0.99997926
210	0x00000000	0.0
211	0x00000000	0.0
212	0x00000000	0.0
213	0x3f7ffea4	0.99997926
214	0x3f7ffea4	0.99997926
215	0x00000000	0.0
216	0x00000000	0.0
217	0x00000000	0.0
218	0x3f7ffea4	0.99997926
219	0x3f7ffea4	0.99997926
220	0x00000000	0.0
221	0x00000000	0.0
222	0x00000000	0.0
223	0x3f7ffea4	0.99997926
224	0x3f7ffea4	0.99997926
225	0x00000000	0.0
226	0x00000000	0.0
227	0x00000000	0.0
228	0x3f7ffea4	0.99997926
229	0x3f7ffea4	0.99997926
230	0x00000000	0.0
231	0x00000000	0.0
232	0x00000000	0.0
233	0x3f7ffea4	0.99997926
234	0x3f7ffea4	0.99997926
235	0x00000000	0.0
236	0x00000000	0.0
237	0x00000000	0.0
238	0x3f7ffea4	0.99997926
239	0x3f7ffea4	0.99997926
240	0x00000000	0.0
241	0x00000000	0.0
242	0x00000000	0.0
243	0x3f7ffea4	0.99997926
244	0x3f7ffea4	0.99997926
245	0x00000000	0.0
246	0x00000000	0.0
247	0x00000000	0.0
248	0x3f7ffea4	0.99997926
249	0x3f7ffea4	0.99997926
250	0x00000000	0.0
251	0x00000000	0.0
252	0x00000000	0.0
253	0x3f7ffea4	0.99997926
254	0x3f7ffea4	0.99997926
255	0x00000000	0.0

network_body.observation_encoder.processors.1.normalizer.running_mean f4 [13]
0	0x00000000	0.0
1	0x00000000	0.0
2	0x00000000	0.0
3	0x00000000	0.0
4	0x00000000	0.0
5	0x00000000	0.0
6	0x00000000	0.0
7	0x00000000	0.0
8	0x00000000	0.0
9	0x00000000	0.0
10	0x00000000	0.0
11	0x00000000	0.0
12	0x00000000	0.0

network_body._body_endoder.seq_layers.0.weight f4 [128, 418]
0	0x3c403435	0.011731197
1	0x3c7ee783	0.015558126
2	0x39505775	0.00019869006
3	0x3d06aaf0	0.032877862
4	0xbc26e95c	-0.010187473
5	0xbd8e1a30	-0.069385886
6	0xbc1bc04f	-0.009506299
7	0x3a8089c3	0.0009806681
8	0xbc8bc8ca	-0.017063517
9	0xbd638344	-0.055545107
10	0xbbb4c3f6	-0.0055165244
11	0x3d3b7bfe	0.045772545
12	0xbcc5b3af	-0.024133531
13	0x3cf158d9	0.029461311
14	0x3cbbb469	0.022913175
15	0xbdf3ec8e	-0.119103536
16	0x3cdda476	0.02705596
17	0xbce805fa	-0.028323162
18	0x3cbf39b3	0.023342943
19	0xbb8dd133	-0.004327917
20	0x3dbebca7	0.09313326
21	0x3cdea97a	0.027180422
22	0x3c889d48	0.01667656
23	0xbc567f64	-0.013091896
24	0xbc669a2f	-0.014074846
25	0x3ce3fa14	0.027829207
26	0x3bafac93	0.0053611486
27	0xbcb25e1b	-0.021773389
28	0xbd8d3c59	-0.06896276
29	0xbd9d7229	-0.0768779
30	0x3a9ea0e2	0.001210239
31	0x3c05d053	0.008167344
32	0x3d4ada42	0.049524553
33	0xbd0f70f2	-0.035019822
34	0xbd3f2b1e	-0.04667198
35	0xbd21771e	-0.03942024
36	0xbbe3d0e6	-0.006952393
37	0xbd573844	-0.052543893
38	0xbd206806	-0.039161704
39	0x3d32f754	0.0436929
40	0xbbd11d64	-0.0063816775
41	0xbde57326	-0.112036034
42	0xbd88078e	-0.06642066
43	0xbd3aef08	-0.045638114
44	0xbd415d58	-0.04720816
45	0x3d826149	0.06366212
46	0xbc0493f1	-0.008091913
47	0xbcd17d2c	-0.025572382
48	0xbda49d27	-0.08037787
49	0x3d01e128	0.031708866
50	0xbda75eea	-0.081724
51	0x3c9e5392	0.019326959
52	0xbcef617a	-0.029221285
53	0x3b7e598d	0.00388107
54	0xbd038dc2	-0.032117613
55	0xbd96d997	-0.07365721
56	0x3ddcd86d	0.107834674
57	0x3ca1fc49	0.01977362
58	0xbd99f8dd	-0.0751817
59	0xbc9c3736	-0.019069295
60	0x3c3c3daa	0.011489311
61	0x3ca42a49	0.020039694
62	0x3d0ac79f	0.03388178
63	0xbd1861c2	-0.037202604
64	0xbd891baa	-0.066947296
65	0xbcfbc3c3	-0.030732995
66	0x3d05d92a	0.032677807
67	0x3d693e13	0.056943964
68	0x3ce7c8c0	0.028293967
69	0xbd222abc	-0.039591536
70	0xbd7ed164	-0.06221141
71	0x3d0a6fb1	0.033797923
72	0x3cfc4a0a	0.030797023
73	0x3cc6aa4d	0.024251128
74	0xbd05d316	-0.03267201
75	0xbd02afa2	-0.031905778
76	0x3b0465cb	0.0020202275
77	0x3d6a10ab	0.057144802
78	0x3c902ddc	0.017599992
79	0xbcdef47e	-0.027216192
80	0x3d9e1578	0.077189386
81	0x3cb0c809	0.02157976
82	0xbd1e0259	-0.038576458
83	0xbd8f308f	-0.06991684
84	0x3d161a20	0.03664601
85	0xbd71aa08	-0.059000045
86	0xbc35169c	-0.011052754
87	0xbcbd0ddc	-0.023077898
88	0xbd749a4c	-0.05971746
89	0xbcc2088f	-0.023685722
90	0x3c1cc90c	0.009569418
91	0x3d3bd16d	0.04585402
92	0xbb8b3ed0	-0.004249431
93	0xbd8993e1	-0.06717659
94	0xbdc819fb	-0.097705804
95	0x3d92a399	0.0716011
96	0xbd5a43ae	-0.0532872
97	0x3dad9289	0.08475215
98	0xbdb57a48	-0.08861214
99	0x3c2a2708	0.010385282
100	0x3d3926ee	0.045203142
101	0xbd76fc15	-0.060298998
102	0x3c163e04	0.009170059
103	0xbcaf009f	-0.0213626
104	0xbcdc1de9	-0.026869731
105	0xbd9c6cf5	-0.076379694
106	0xbd8c2062	-0.06842114
107	0xbd6f9e2a	-0.058500446
108	0xbc0c357c	-0.008557674
109	0xbdc9b4b7	-0.09848922
110	0xbad6eaea	-0.0016396914
111	0xbce8e6b1	-0.028430315
112	0x3db0ec62	0.086388364
113	0xbd816a6d	-0.06319127
114	0xbda57e6d	-0.080807544
115	0xbd10e7ce	-0.035377316
116	0x3c2a78fe	0.010404823
117	0x3c9302ce	0.017945673
118	0xbcff609b	-0.031173995
119	0xbd67c940	-0.05658841
120	0xbd8b4865	-0.068009175
121	0x3cf55f59	0.029952692
122	0x3caff270	0.021477908
123	0xbcdb5b01	-0.026776792
124	0x3af2b835	0.0018518033
125	0xbba4c0fc	-0.0050278883
126	0xbdcd7cf1	-0.10033596
127	0xbc1ed6b6	-0.009694746
128	0xbd3cd142	-0.046098
129	0xbc854b38	-0.016271219
130	0x3c523ff6	0.012832632
131	0xbd29bd4b	-0.04144029
132	0x3d22b150	0.03971988
133	0xbd01504a	-0.03157071
134	0xbd8bbe7f	-0.068234436
135	0x3d50dae5	0.050990004
136	0x3d451120	0.048112035
137	0x3ce56c32	0.028005693
138	0x3d1bc17c	0.038026318
139	0xbd244828	-0.040107876
140	0x38fac0ea	0.00011956862
141	0x3bd7a340	0.00658074
142	0x3bd0dbd3	0.0063738613
143	0xbc67305a	-0.014110649
144	0xbd546d4e	-0.051862054
145	0x3d2908e7	0.041268256
146	0xbd3daac3	-0.04630543
147	0x3c8f081b	0.01745992
148	0xbd680704	-0.056647316
149	0xbd86f82e	-0.06590305
150	0x3d1cc902	0.038277633
151	0xbce0c11d	-0.027435834
152	0xbb24e048	-0.0025158096
153	0xbd143c44	-0.036190286
154	0xbd33eab8	-0.043925017
155	0x3de22fd0	0.11044276
156	0x3d647d1e	0.055783384
157	0xbcc43024	-0.023948736
158	0x3c244921	0.010027201
159	0xbc40ecba	-0.01177519
160	0xbde9c29e	-0.114140734
161	0x3d4e24d0	0.050328076
162	0x3d20e2e6	0.039278887
163	0xbc784668	-0.015153505
164	0xbd5aa5ea	-0.053380884
165	0xbdff2077	-0.12457364
166	0x3d8653e7	0.06558972
167	0x3d4ecf16	0.05049046
168	0x3cbaa9b7	0.022786004
169	0xbc1d8b28	-0.009615697
170	0x3bdd0f58	0.006746214
171	0xbcaff286	-0.021477949
172	0xbd609960	-0.05483377
173	0x3d796b90	0.060893595
174	0xbca7ab0d	-0.020467306
175	0xbda56492	-0.08075823
176	0x3c1451fe	0.009052752
177	0xbd49ad15	-0.04923733
178	0xbcecef89	-0.028922813
179	0xbd982185	-0.07428268
180	0x3d187423	0.03722013
181	0xbc3e7dcb	-0.011626671
182	0xbcdce5ec	-0.026965104
183	0xbda28109	-0.07934768
184	0xbce6b6bd	-0.028163308
185	0x3c371af1	0.011175857
186	0xbd34f092	-0.04417474
187	0xbc784e24	-0.015155349
188	0x3cb84905	0.022495756
189	0xbc614130	-0.013748452
190	0x3b0a078c	0.0021061627
191	0xb98fc376	-0.00027420715
192	0xbdbf27f6	-0.09333794
193	0xbd158578	-0.03650424
194	0xbc219690	-0.009862557
195	0x3d27d3fb	0.040973645
196	0xbcfea659	-0.03108518
197	0xbd39ce0a	-0.04536251
198	0x3c46880e	0.012117399
199	0xbcdb5b1b	-0.02677684
200	0xbd10296f	-0.035195764
201	0xbd658c82	-0.0560422
202	0xbc7beb7a	-0.015375966
203	0xbd16f0a6	-0.036850594
204	0xbdcbef93	-0.099578045
205	0xbd131679	-0.035910103
206	0xba7f3a97	-0.00097362086
207	0xbd068c03	-0.03284837
208	0xbd87342d	-0.066017486
209	0x3c38cf06	0.011279827
210	0x3d0923c2	0.033481367
211	0x3cbcd168	0.023049071
212	0x3d34cee9	0.044142637
213	0xbd4f7342	-0.050647028
214	0xbd62438e	-0.055240206
215	0xbd6e29d7	-0.05814537
216	0xbd935a20	-0.07194924
217	0x3d42e041	0.047577146
218	0x3ba470cf	0.0050183306
219	0xbda49357	-0.08035915
220	0x3d057d78	0.03259036
221	0x3c2659ca	0.010153243
222	0x3d32a1b5	0.043611247
223	0xbd8175b4	-0.06321278
224	0xbd4db34c	-0.05021982
225	0xbd96a732	-0.07356109
226	0xbdc1e2f3	-0.09467115
227	0xbd2aad5e	-0.041669242
228	0xbde4d053	-0.11172547
229	0xbcb26e03	-0.021780973
230	0x3d8081be	0.06274746
231	0x3a73d418	0.0009301319
232	0x3c4b3e5b	0.012405003
233	0x3bc3dba3	0.0059771105
234	0xbd4c9d7a	-0.04995487
235	0xbcbb317e	-0.022850748
236	0xbb4d6d25	-0.0031345573
237	0xbb97a173	-0.0046274005
238	0x39920d81	0.0002785735
239	0x3dbf3f11	0.09338201
240	0x3cbfcf3a	0.023414243
241	0x3d0d6aa6	0.034525536
242	0xbbde4f76	-0.006784375
243	0xbc4106ba	-0.011781389
244	0x3c137444	0.008999888
245	0xbc1a5d80	-0.009421706
246	0xbd166daf	-0.036725696
247	0xbb125df8	-0.0022333842
248	0x3c91eb73	0.017812466
249	0xbca6d972	-0.020367358
250	0x3ddc6208	0.107608855
251	0x39f97385	0.0004757905
252	0x3cbaf6a4	0.022822686
253	0x3b66d839	0.0035224094
254	0xbcbb13cb	-0.022836586
255	0xbc417a50	-0.011808947

network_body._body_endoder.seq_layers.0.bias f4 [128]
0	0xbd0d7099	-0.03453121
1	0xbd30b18c	-0.043138072
2	0xbd10eb5d	-0.03538071
3	0x3d11a6cc	0.03555946
4	0x3c691ff4	0.01422881
5	0xbd2f0392	-0.042728014
6	0x3d1c8fa5	0.038222928
7	0x3d2db0b1	0.042404834
8	0x3d3154e5	0.043293852
9	0x3d35dc5e	0.04439961
10	0xbd2a2107	-0.041535404
11	0x3d2589d0	0.04041463
12	0xbd28bf23	-0.041197907
13	0x3d2dc318	0.042422384
14	0x3d25cd13	0.040478777
15	0x3d333556	0.043752037
16	0x3d309dcf	0.043119248
17	0xbd2a7cbb	-0.04162286
18	0x3d2edcdd	0.0426911
19	0xbd1b918a	-0.037980594
20	0x3d23f686	0.040030025
21	0xbd2a2c19	-0.04154596
22	0x3d32a967	0.043618586
23	0xbd167dcb	-0.03674106
24	0x3d2447d7	0.040107574
25	0x3d201f74	0.039092496
26	0xbd282777	-0.04105326
27	0x3d2bae08	0.041914016
28	0xbd2e344e	-0.04253035
29	0xbd206dac	-0.03916709
30	0x3d2a21f7	0.041536298
31	0xbd01434c	-0.03155832
32	0x3d2e391a	0.042534925
33	0x3cf356d6	0.029704493
34	0x3d32ea5c	0.043680534
35	0xbd30eb9e	-0.043193452
36	0xbd1dcef5	-0.038527448
37	0x3d3193ec	0.04335396
38	0x3d2392c6	0.039934896
39	0xbd2a57bc	-0.041587576
40	0x3d2e05b3	0.042485904
41	0xbd1cba65	-0.038263697
42	0x3d38e443	0.045139562
43	0xbd1ce0ff	-0.03830051
44	0xbd21381e	-0.03936016
45	0x3d2f307b	0.042770844
46	0x3d2a2b48	0.041545182
47	0x3d17af4d	0.037032414
48	0xbd159338	-0.036517352
49	0x3d362d40	0.044476748
50	0x3d1cb74f	0.038260754
51	0x3d278b60	0.040904403
52	0x3d1a8fcf	0.037734803
53	0xbd184d97	-0.03718337
54	0xbd31dca1	-0.0434233
55	0x3d28747a	0.041126706
56	0xbd22b97d	-0.039727677
57	0xbd26877c	-0.04065655
58	0xbd150e57	-0.03639063
59	0x3d1db833	0.038505744
60	0x3d19c15b	0.037537914
61	0xbd270f4f	-0.040786084
62	0xbd1ba08f	-0.037994917
63	0x3d26cc9f	0.040722486
64	0xbd1ddc9e	-0.038540475
65	0x3d06708a	0.03282217
66	0xbd1dfbab	-0.038570087
67	0x3d3421c0	0.0439775
68	0x3d2b269f	0.04178488
69	0xbd2e0895	-0.042488653
70	0xbd0e5245	-0.034746427
71	0x3d3353c4	0.043781057
72	0xbd3040ee	-0.04303067
73	0x3d2110c4	0.03932263
74	0xbd231234	-0.03981228
75	0xbce8e866	-0.028431129
76	0x3d2b26f4	0.041785195
77	0xbd2f47cb	-0.042793076
78	0xbd347401	-0.044055942
79	0xbd1d0e15	-0.038343508
80	0x3d21b614	0.039480284
81	0x3d17cb7b	0.03705929
82	0x3d2bf5b6	0.041982375
83	0x3d2c35e0	0.042043567
84	0xbd350abd	-0.044199694
85	0x3d3a1050	0.045425713
86	0xbd11e807	-0.03562167
87	0xbd1dcfb7	-0.03852817
88	0x3d0897aa	0.033347763
89	0xbd318f1e	-0.043349378
90	0xbd329ee5	-0.043608565
91	0xbd305f94	-0.0430599
92	0x3cd72ba6	0.02626593
93	0xbd030788	-0.031989604
94	0xbd24ae5a	-0.040205337
95	0xbd2a52b2	-0.04158277
96	0x3d1ca5b4	0.038243964
97	0xbd217fa0	-0.039428353
98	0xbd2e2566	-0.042516135
99	0x3d0c558a	0.034261264
100	0xbd1f32b8	-0.03886673
101	0xbd2070ab	-0.03916995
102	0xbd24a6f6	-0.04019829
103	0xbd1978af	-0.03746861
104	0x3d3ac2dc	0.04559599
105	0x3d28dc09	0.041225467
106	0xbd2b5001	-0.041824345
107	0xbd282beb	-0.04105751
108	0xbd268341	-0.040652517
109	0xbd055331	-0.03255004
110	0xbd2e1424	-0.042499676
111	0xbd20217f	-0.039094444
112	0xbd2c713c	-0.042100176
113	0xbd3344fb	-0.043766957
114	0xbd162784	-0.03665878
115	0x3d2a431d	0.04156791
116	0xbd24fe32	-0.040281482
117	0x3d22d716	0.039755903
118	0xbd116233	-0.03549404
119	0xbd2b4ac0	-0.041819334
120	0x3d13a393	0.03604467
121	0x3d107b29	0.035273705
122	0xbd0ff641	-0.035146955
123	0x3d215d2f	0.039395507
124	0x3d1d8fe1	0.03846729
125	0x3d34c2d7	0.044131126
126	0xbd33562e	-0.04378336
127	0x3d1bc732	0.038031764

network_body._body_endoder.seq_layers.2.weight f4 [128, 128]
0	0x3e51a23d	0.20472045
1	0xbba55bd7	-0.0050463486
2	0xbd77cf9d	-0.06050073
3	0x3d6a7029	0.05723587
4	0xbcc2699a	-0.023731995
5	0x3cbcc230	0.023041815
6	0x3dafb4b3	0.085793875
7	0xbe01a4f9	-0.12660588
8	0xbdc2c5e6	-0.095104024
9	0x3e175c4e	0.14781305
10	0x3c6dee29	0.014522114
11	0x3df68a7f	0.12038135
12	0xbe018f52	-0.12652329
13	0xbb874c3f	-0.0041289623
14	0x3cfaf06b	0.030632218
15	0xbcb1c3f8	-0.02169989
16	0xbda164be	-0.07880543
17	0xbdbecd6e	-0.09316526
18	0x3d8cc836	0.06874125
19	0xbc7597cc	-0.0149898045
20	0xbdbaa588	-0.09113604
21	0xbb887aef	-0.0041650455
22	0xbe1f568a	-0.15560356
23	0xbe08b401	-0.13349916
24	0xbe8995c8	-0.26872087
25	0x3d08e809	0.03342441
26	0xbd5b0d96	-0.053479753
27	0xbdbc8bde	-0.09206365
28	0x3e2107bc	0.15725607
29	0x3e79563b	0.243493
30	0xbd2ff77c	-0.04296063
31	0xbcaf8355	-0.021424929
32	0x3de90fd9	0.11379976
33	0xbe1ed969	-0.15512623
34	0xbd0a3973	-0.033746194
35	0x3d57a5e8	0.052648455
36	0x3e25f91e	0.16208312
37	0x3c62c350	0.013840511
38	0xbb5c3369	-0.0033599979
39	0x3cdf67c5	0.02727116
40	0x3c3f7ebc	0.011687931
41	0x3d9c68c2	0.076371685
42	0xbd9e4e5e	-0.07729791
43	0xbd53e286	-0.0517297
44	0x3dde3e73	0.10851755
45	0x3d876f0d	0.06612978
46	0xbdd44ee9	-0.103666134
47	0x3d558e84	0.052137867
48	0x3d80b2da	0.06284113
49	0x388f52ce	6.834195e-05
50	0x3bf77f13	0.00755299
51	0xbe0ace24	-0.13555199
52	0x3c1f01dd	0.009705034
53	0x3c524cb3	0.012835669
54	0x3dfb8e97	0.12283056
55	0xbd985677	-0.07438367
56	0x3c79f46c	0.015256029
57	0xbc5f5081	-0.0136300335
58	0xbd45851d	-0.04822265
59	0xbd9ba3fe	-0.075996384
60	0xbd990f2c	-0.07473597
61	0xbd0e5f60	-0.034758925
62	0xbd64e242	-0.05587984
63	0xbe2dc7e2	-0.1697078
64	0x3da4fda2	0.08056189
65	0xbd692a03	-0.05692483
66	0x3dfb2a1c	0.12263891
67	0xbd94d3ae	-0.07266937
68	0xbd683c54	-0.05669816
69	0x3cbfc81d	0.023410851
70	0x3d35ac82	0.04435397
71	0x3cd303a7	0.025758578
72	0xbd353b07	-0.044245746
73	0x3d8cc615	0.06873719
74	0xbcb14050	-0.021637112
75	0x3d35cdf9	0.044385884
76	0x3d8682fa	0.065679505
77	0x3e3051f3	0.17218761
78	0xbda0449c	-0.07825586
79	0xbd122306	-0.035677932
80	0xbd61cda8	-0.05512777
81	0x3dea52b3	0.11441555
82	0xbe031ae1	-0.12803222
83	0xbc3d5277	-0.011555306
84	0x3daf20c0	0.085511684
85	0xbd0c297c	-0.03421925
86	0x3e4030ec	0.18768662
87	0x3e0834c6	0.13301381
88	0x3ddfc5ed	0.10926423
89	0xbe146aca	-0.14493862
90	0xbe1d9ace	-0.15391085
91	0x3d7fe520	0.06247437
92	0x3d70e2bf	0.058809992
93	0x3e006085	0.1253682
94	0x3e1762dd	0.14783807
95	0xbdc509b9	-0.09620995
96	0x3d10879a	0.03528557
97	0xbd2ad241	-0.04170442
98	0xbbe60a58	-0.007020276
99	0xbe659e80	-0.22423744
100	0x3d422454	0.047397926
101	0xbdd63029	-0.104584046
102	0xbce19b07	-0.027539743
103	0x3da52983	0.08064558
104	0xbd7fdeee	-0.06246846
105	0xbe0937a7	-0.13400136
106	0x3d3f83be	0.0467565
107	0xbe0278f9	-0.1274146
108	0xbc84c088	-0.016205087
109	0x3e17b03e	0.14813325
110	0xbd3bb09c	-0.045822725
111	0x3d6e59bd	0.05819105
112	0x3dbe6ab8	0.09297699
113	0x3dcb2881	0.09919835
114	0x3d07bdb9	0.033139918
115	0xbe6b33d0	-0.22968984
116	0xbd159895	-0.036522467
117	0xbda014b1	-0.078164466
118	0xbe55e50f	-0.2088816
119	0xbd4eab2e	-0.05045622
120	0xbe0d7fb0	-0.1381824
121	0x3b8a9973	0.0042297184
122	0x3e1c3562	0.15254739
123	0xbd626300	-0.055270195
124	0xbdf9d8a4	-0.12199524
125	0x3ba395fb	0.0049922443
126	0x3c87fccb	0.016600033
127	0xbd3ac49b	-0.045597654
128	0xbd5e387d	-0.05425309
129	0x3d0ac812	0.03388221
130	0xbd9cb642	-0.076519504
131	0x3da978f5	0.08275024
132	0xbd1e4f4c	-0.038649842
133	0xbd82171c	-0.06352064
134	0xbd20d3f6	-0.03926464
135	0x3d8219dd	0.06352589
136	0x3c213d43	0.009841266
137	0xbd15742e	-0.03648775
138	0xbb121ea4	-0.0022296095
139	0xbe4382b8	-0.19092834
140	0xbe38834c	-0.18018836
141	0x3ca48aac	0.020085655
142	0x3cbfcbff	0.023412703
143	0x3d5955dc	0.053060398
144	0x3e27cd76	0.16386971
145	0xbdaf2a0d	-0.085529424
146	0x3d4332a6	0.047655724
147	0x3d8d1ef1	0.06890667
148	0x39f110c4	0.00045979593
149	0x3d60f53a	0.054921366
150	0x3e001175	0.1250666
151	0xbd80c9f7	-0.06288522
152	0x3e047e04	0.12938696
153	0xbaa46d61	-0.0012544804
154	0x3da0f814	0.07859817
155	0x3cd860eb	0.026413402
156	0x3d909448	0.070595324
157	0x3c105e31	0.0088115195
158	0x3d56090e	0.05225473
159	0x3da99897	0.08281057
160	0xbd1418ef	-0.03615659
161	0x3d2a9121	0.041642312
162	0x3d5f4205	0.05450632
163	0xbd108961	-0.035287265
164	0xbd73d019	-0.05952463
165	0x3db2c45e	0.0872886
166	0x3e3d0a8a	0.18461052
167	0xbd927e57	-0.07153004
168	0x3d3dca31	0.046335403
169	0xbd3fe2c7	-0.04684713
170	0x3e02b935	0.12765963
171	0xbd85822f	-0.06518971
172	0xbc481c17	-0.012213728
173	0x3d95ffec	0.07324204
174	0x3d09b617	0.03362092
175	0xbd441bc8	-0.047878057
176	0x3cb95865	0.022625158
177	0x3d8d2735	0.06892244
178	0xbdc17f36	-0.09448092
179	0x3dd05deb	0.101741634
180	0x3e0fe2ba	0.14051333
181	0x3d9aa3dd	0.07550786
182	0xbd2fd8b0	-0.04293126
183	0x3e073e24	0.13207299
184	0xbd8acb3b	-0.067770444
185	0x3dcb4e2f	0.09927022
186	0xbdee711a	-0.11642666
187	0x3dce8cfc	0.100854844
188	0x3db072cd	0.086156465
189	0x3d6bb1d5	0.05754264
190	0xbd4b04ac	-0.049565002
191	0x3d8d31cb	0.06894263
192	0xbd07e25f	-0.03317487
193	0xbce0692b	-0.027393898
194	0xbdabe408	-0.08393103
195	0x3e1f1e71	0.15538956
196	0xbc6df8a4	-0.014524613
197	0x3c6d307c	0.014476892
198	0xbcd0f48a	-0.02550723
199	0x3d9cac01	0.07649995
200	0xbdb2eb9e	-0.08736347
201	0x3cc61e8e	0.024184491
202	0xbd66fbc5	-0.05639245
203	0x3d87f5ce	0.066386804
204	0xbd248e1c	-0.04017459
205	0x3d3fe8c0	0.046852827
206	0xbe12c167	-0.1433159
207	0x3dc5a234	0.096500784
208	0xbdbf1c23	-0.093315385
209	0xbc41aae1	-0.011820526
210	0x3dbba4d3	0.09162297
211	0x3d7a7ebe	0.061156027
212	0xbe37b6cd	-0.17940827
213	0x3c5c42b8	0.013443641
214	0xbe09e731	-0.13467099
215	0xbe0a2795	-0.13491662
216	0xbd06f976	-0.03295275
217	0xbd6c17a4	-0.057639733
218	0x3c0c8ee5	0.008578991
219	0x3cda0717	0.026614709
220	0xbb81f136	-0.003965522
221	0x3d3bb617	0.04582795
222	0xbd61351a	-0.054982282
223	0xbda2f681	-0.07957173
224	0x3d88f26a	0.06686862
225	0xbe018d64	-0.12651592
226	0x3d1e6708	0.038672477
227	0xbcdd9440	-0.02704823
228	0xbdba8adb	-0.09108516
229	0xbd426703	-0.04746152
230	0xbdf21377	-0.11820119
231	0x3da19876	0.07890408
232	0xbdd5f858	-0.104477584
233	0xbcb90185	-0.022583732
234	0xbd9872c1	-0.074437626
235	0xbdac1faf	-0.08404481
236	0xbe02caf7	-0.12772737
237	0xbdcb4506	-0.099252746
238	0x3d50125b	0.050798755
239	0xbc8bb998	-0.017056271
240	0x3c51ab01	0.012797118
241	0xbd9015af	-0.07035386
242	0xbdb48dac	-0.08816084
243	0x3d3fa551	0.046788517
244	0xbd3ffd8f	-0.04687267
245	0x3e77d44d	0.2420208
246	0x3cc30a1e	0.023808535
247	0xbdd615b7	-0.104533605
248	0x3e465ff6	0.19372544
249	0x3cc9c948	0.024632111
250	0xbdcfb000	-0.10140991
251	0x3bc2c648	0.005944047
252	0xbd290d1d	-0.04127227
253	0x3de347f8	0.11097711
254	0xbddb26ec	-0.10700783
255	0x3e089b7f	0.13340567

network_body._body_endoder.seq_layers.2.bias f4 [128]
0	0xbce034ec	-0.027368985
1	0x3d061b21	0.032740716
2	0x3d257e98	0.040403932
3	0x3d143151	0.036179844
4	0x3d15b69d	0.036551107
5	0x3d215ea2	0.03939689
6	0x3d249273	0.040178727
7	0xbd0cc8c5	-0.034371156
8	0xbcf7bb3e	-0.030240651
9	0xbd114802	-0.035469063
10	0xbcfd0123	-0.030884331
11	0xbd12fa5f	-0.035883304
12	0x3ce91a54	0.028454937
13	0xbcd4ec35	-0.025991539
14	0xbd041610	-0.032247603
15	0x3d0974d1	0.03355867
16	0x3cfb112b	0.030647835
17	0x3d0e0c86	0.034679912
18	0xbcffe347	-0.031236304
19	0xbd0576ea	-0.03258411
20	0xbd215fd3	-0.039398026
21	0x3cf08a61	0.02936286
22	0x3d0b27e1	0.03397358
23	0xbd131911	-0.035912577
24	0x3d162c35	0.036663253
25	0xbcd00bbe	-0.025396224
26	0xbd0d4d26	-0.034497403
27	0xbd0e1b79	-0.03469417
28	0xbc8812c7	-0.016610516
29	0x3d03156d	0.032002855
30	0x3d0359d3	0.032068085
31	0xbd1ffcb2	-0.03905935
32	0xbd08fb7e	-0.033442967
33	0x3d270129	0.04077259
34	0xbd1c9d19	-0.038235757
35	0x3d226baa	0.039653458
36	0x3d1df140	0.038560152
37	0x3d11886f	0.035530504
38	0xbd16257d	-0.036656845
39	0x3d0388e1	0.03211296
40	0x3ca7d235	0.020485977
41	0x3d2ac5ec	0.04169266
42	0x3cc3682f	0.02385339
43	0x3ce5fac2	0.028073672
44	0x3ca3a8dc	0.01997798
45	0x3d14cf42	0.03633047
46	0xbd1731e4	-0.036912814
47	0xbcfd22ad	-0.030900324
48	0xbd12f9cb	-0.035882752
49	0x3cfe5e6f	0.031050889
50	0x3d25a403	0.040439617
51	0x3d06d070	0.032913625
52	0x3cebb2d9	0.028771805
53	0xbd19914a	-0.037492074
54	0x3d1d85c6	0.038457654
55	0x3d1d0bb0	0.038341224
56	0xbcd17541	-0.025568606
57	0x3cccdb4b	0.02500691
58	0x3d054b92	0.032542773
59	0xbd148738	-0.036261767
60	0x3cfb7fa6	0.030700516
61	0x3cd8d386	0.02646805
62	0xbd14a812	-0.036293097
63	0xbd10686a	-0.035255827
64	0x3d151cb8	0.03640434
65	0x3ba3b000	0.004995346
66	0x3d280692	0.04102189
67	0xbd18fdda	-0.037351467
68	0xbd16e191	-0.03683621
69	0x3d15642c	0.036472484
70	0xbd149b2c	-0.036280796
71	0x3d0e51bd	0.03474592
72	0x3d1b07a3	0.03784908
73	0xbcf962d4	-0.030442633
74	0x3d2093eb	0.039203566
75	0xbd07af11	-0.03312594
76	0xbd1074ca	-0.03526763
77	0x3cefae24	0.029257841
78	0x3d201ca5	0.039089818
79	0x3cbfd470	0.023416728
80	0x3d2151ee	0.039384775
81	0x3ce5e941	0.028065326
82	0x3d179674	0.037008718
83	0x3d1c1151	0.03810245
84	0x3d12c3b0	0.035831153
85	0x3d1c6780	0.038184643
86	0xbd0d526f	-0.034502443
87	0xbd125c0b	-0.03573231
88	0xbd045443	-0.03230692
89	0xbd08e4e4	-0.033421412
90	0xbd039f56	-0.032134376
91	0xbd1bf8aa	-0.03807894
92	0xbd11a0d0	-0.035553753
93	0x3d0c0c99	0.0341917
94	0x3cc35829	0.023845749
95	0xbd1969f2	-0.037454553
96	0x3d09a34e	0.033603005
97	0x3d0b45b2	0.034002014
98	0xbcdeaec2	-0.02718294
99	0x3d2033a4	0.03911175
100	0xbd119caa	-0.035549797
101	0x3d14237b	0.03616665
102	0xbcaff6ea	-0.021480042
103	0x3d20b1ab	0.039231937
104	0x3d0fd4b6	0.035114966
105	0x3d21e23b	0.03952239
106	0x3ce46176	0.027878504
107	0x3ce51c28	0.027967528
108	0x3d1164d0	0.035496533
109	0xbca98447	-0.020692958
110	0x3d19f9f8	0.037591904
111	0x3d27a0e9	0.04092494
112	0x3d12cedc	0.035841808
113	0x3d148d75	0.036267716
114	0xbd1b0e41	-0.03785539
115	0x3cd2a497	0.025713248
116	0xbcc25937	-0.023724182
117	0xbd0edb05	-0.034876842
118	0x3d255551	0.040364567
119	0x3d18c578	0.037297696
120	0x3c7c9574	0.015416492
121	0x3d1e5db0	0.038663566
122	0xbcd614b0	-0.026132911
123	0xbcf66825	-0.030078957
124	0xbcd45b6f	-0.025922505
125	0xbb923279	-0.004461583
126	0xbd12d12e	-0.03584402
127	0xbcd59136	-0.026070219

action_model._discrete_distribution.branches.0.weight f4 [3, 128]
0	0x3d3030a4	0.043015137
1	0xbcc21df3	-0.023695922
2	0xbd1c3f9d	-0.038146604
3	0xbd286b50	-0.041117966
4	0xbcfe5d68	-0.031050399
5	0xbd484bae	-0.0489003
6	0xbd14b26e	-0.036302976
7	0x3cee10ad	0.029060686
8	0x3cf3cbda	0.02976029
9	0x3d167b2b	0.036738556
10	0x3cddb66d	0.027064526
11	0x3d23819f	0.03991854
12	0xbcdbc07b	-0.02682518
13	0x3d2fd498	0.042927355
14	0x3d0f0952	0.034920998
15	0xbd0553cf	-0.03255063
16	0xbd1bf5b4	-0.038076118
17	0xbd28db11	-0.041224543
18	0x3d0da01d	0.034576524
19	0x3d233f56	0.039855324
20	0x3d24b05d	0.040207256
21	0xbd138d51	-0.03602344
22	0xbcff83a5	-0.031190703
23	0x3d3dd39b	0.04634438
24	0xbcf57f2e	-0.02996787
25	0x3cc35ed3	0.023848927
26	0x3ce00cb0	0.0273498
27	0x3ce2091c	0.027592234
28	0x3d395ddb	0.045255523
29	0xbcc9425d	-0.024567777
30	0xbd04ccce	-0.03242188
31	0x3d1a42af	0.03766125
32	0x3cf01b26	0.02930982
33	0xbd13e2c6	-0.03610494
34	0x3d26a513	0.04068477
35	0xbced6664	-0.028979488
36	0xbd121905	-0.03566839
37	0xbd40b956	-0.04705175
38	0x3d0c183b	0.034202795
39	0xbd0b39d9	-0.033990715
40	0xbd2deac4	-0.042460218
41	0xbd0be4a2	-0.034153588
42	0xbd1e740f	-0.0386849
43	0xbd236343	-0.039889585
44	0xbcf9d0e6	-0.030495118
45	0xbd1e1020	-0.038589597
46	0x3d217dcc	0.03942661
47	0x3d086ec9	0.033308778
48	0x3cea750f	0.028620271
49	0xbd5f566c	-0.054525778
50	0xbd1b040d	-0.03784566
51	0xbd36b6f5	-0.044608075
52	0xbd1d956a	-0.03847257
53	0x3cfc7d3e	0.030821439
54	0xbd2f3ec4	-0.042784467
55	0xbd3be2e5	-0.04587068
56	0x3d2db1f1	0.042406026
57	0xbcacc4b3	-0.021089887
58	0xbcefce16	-0.029273074
59	0x3d19e958	0.03757605
60	0xbd250961	-0.040292148
61	0xbd3c3a61	-0.045954112
62	0x3d3010aa	0.042984642
63	0x3d3823d7	0.044956055
64	0xbd21af4e	-0.039473824
65	0x3aafe3fd	0.0013419386
66	0xbce68eb1	-0.028144212
67	0x3d19ed63	0.037579905
68	0x3cd940d0	0.026520163
69	0xbced856a	-0.02899428
70	0x3d265e63	0.040617358
71	0xbd1da163	-0.03848399
72	0xbd2b01d2	-0.041749783
73	0x3d24ba27	0.04021659
74	0xbd3bf90f	-0.045891818
75	0x3d115dfc	0.03549002
76	0x3d2a5329	0.041583214
77	0xbcddd61b	-0.027079633
78	0xbd33797c	-0.04381703
79	0xbd1494f6	-0.036274873
80	0xbd1210dd	-0.035660613
81	0xbc81193d	-0.015759105
82	0xbd3c6774	-0.045997098
83	0xbd2471e4	-0.040147677
84	0xbd0b0291	-0.033937994
85	0xbd0675b8	-0.03282711
86	0x3d0a9af5	0.033839185
87	0x3d349933	0.044091415
88	0x3cce3467	0.025171472
89	0x3d5460b0	0.05185002
90	0x3d0e1d04	0.03469564
91	0x3d060f8c	0.03272967
92	0x3d19c31a	0.03753958
93	0xbd0241fc	-0.03180121
94	0xbcbf29c2	-0.023335341
95	0x3d23b6d5	0.039969284
96	0xbcf074d8	-0.02935259
97	0xbd3d1cc0	-0.046169996
98	0x3ce8db38	0.028424844
99	0xbd5ae923	-0.053444993
100	0x3d2cd6db	0.04219709
101	0xbd5d2622	-0.053991444
102	0x3c01488d	0.007890833
103	0xbd2d6a43	-0.042337667
104	0xbd28997c	-0.041162
105	0xbc7de4a0	-0.015496403
106	0xbd5aefef	-0.053451475
107	0xbcf8eb3b	-0.030385604
108	0xbd1f9f10	-0.038970053
109	0x3cc87afa	0.024472702
110	0xbd0fc39d	-0.03509866
111	0xbd233a8c	-0.039850757
112	0xbcfc0af2	-0.030766938
113	0xbd0d3d9c	-0.034482583
114	0x3cf7a898	0.030231759
115	0xbd1731cc	-0.036912724
116	0x3c863f3f	0.01638758
117	0x3d1c1bbc	0.038112387
118	0xbd03a618	-0.03214082
119	0xbca0a7d2	-0.019611273
120	0xbcc58334	-0.024110414
121	0xbd45e1cd	-0.048311044
122	0x3d4b4144	0.04962279
123	0x3d473e3b	0.048643332
124	0x3ce9714a	0.028496403
125	0x3c99039f	0.018678484
126	0x3d541075	0.051773507
127	0x3d87e7be	0.06635998
128	0xbd48f690	-0.049063265
129	0x3d3dc669	0.046331797
130	0x3d3e61b7	0.046479907
131	0x3d18c38b	0.03729586
132	0x3d3986c6	0.045294546
133	0x3d2c28b1	0.042030994
134	0x3d42176d	0.04738562
135	0xbd33a3a4	-0.04385723
136	0xbd14e51b	-0.036351305
137	0xbd18a84f	-0.037269887
138	0xbd2780a9	-0.040894184
139	0xbd240e99	-0.040052984
140	0x3d4b576b	0.049643915
141	0xbd47a24c	-0.048738763
142	0xbd0c0c63	-0.0341915
143	0x3cf3887d	0.029728169
144	0x3d13b833	0.036064338
145	0x3d2a0043	0.041504156
146	0xbd094c91	-0.033520285
147	0xbd0f717d	-0.03502034
148	0xbd238154	-0.03991826
149	0x3d67321e	0.05644428
150	0x3d36478d	0.04450183
151	0xbd30e19e	-0.043183915
152	0x3d18145c	0.03712879
153	0xbd4954bf	-0.049153086
154	0xbd454c93	-0.04816873
155	0xbd5e7911	-0.054314677
156	0xbcea4fe7	-0.028602554
157	0x3d3bf2f3	0.04588599
158	0x3d3c1aa5	0.045923848
159	0xbd0797c6	-0.033103727
160	0xbd4d6cbc	-0.050152525
161	0x3d3b0e54	0.04566796
162	0xbd3d33a9	-0.046191845
163	0x3d4c6db1	0.049909297
164	0x3d3fca58	0.04682383
165	0x3d782838	0.06058523
166	0xbd49fd5c	-0.049313888
167	0x3d03d3c1	0.032184366
168	0x3ce6a86d	0.028156484
169	0x3d4614f1	0.048359815
170	0x3cf0e2ab	0.029404959
171	0x3d41bc5d	0.047298778
172	0x3d215b7c	0.039393887
173	0x3d42e13e	0.04757809
174	0xbd157cdd	-0.036496032
175	0xbd370c52	-0.044689484
176	0xbd2d40b0	-0.04229802
177	0x3d679483	0.056538116
178	0x3d23f296	0.04002627
179	0x3ccf7aee	0.025327172
180	0x3d55f002	0.052230842
181	0xbd121bc9	-0.03567103
182	0x3d3ba862	0.04581488
183	0x3d377926	0.04479327
184	0xbd65a78c	-0.05606799
185	0x3d07e069	0.033173
186	0x3d35feb5	0.04443236
187	0xbcfdead1	-0.030995758
188	0x3d1c3cdf	0.03814399
189	0x3d3c7207	0.046007182
190	0xbd3de8c0	-0.046364546
191	0xbd40641d	-0.046970475
192	0x3d2008c3	0.039070856
193	0x3c9d79e1	0.019223155
194	0x3d5ac9c5	0.05341508
195	0xbd35010a	-0.044190444
196	0xbd440ffe	-0.047866814
197	0x3d660ac4	0.05616261
198	0xbd3e0b40	-0.046397448
199	0x3d157678	0.036489934
200	0x3d269fb7	0.04067966
201	0xbd0d03d2	-0.03442747
202	0x3d22894c	0.039681718
203	0xbd372666	-0.044714354
204	0xbd450514	-0.048100546
205	0x3d6815c9	0.0566614
206	0x3d6911d2	0.05690176
207	0x3d372ad3	0.044718575
208	0x3d440bb1	0.047862712
209	0x3d53db97	0.05172309
210	0x3d5de3bb	0.05417226
211	0x3d1b038a	0.037845172
212	0x3d1cfb4a	0.038325585
213	0x3d27e5bc	0.040990576
214	0xbd39dbb7	-0.045375552
215	0xbd4357fc	-0.04769133
216	0xbce55a8f	-0.027997283
217	0xbcbe5279	-0.023232685
218	0xbd1c3097	-0.038132276
219	0xbd527a3d	-0.051386107
220	0xbd323833	-0.043510627
221	0x3d2c9720	0.04213631
222	0x3d099f1c	0.033599004
223	0xbd25b90f	-0.04045969
224	0x3d2237cf	0.039604004
225	0x3d088ae9	0.0333356
226	0xbd2272cc	-0.03966026
227	0x3d3e8fc9	0.046523843
228	0xbd398027	-0.04528823
229	0x3d2c684e	0.04209166
230	0xbd6a3985	-0.05718376
231	0x3d36fd61	0.044675235
232	0x3d1420e0	0.036164165
233	0x3d6427d3	0.05570204
234	0x3d1390cd	0.036026765
235	0x3d36959a	0.044576265
236	0x3d2d3127	0.042283203
237	0xbd1686a4	-0.036749497
238	0x3d26f528	0.040761143
239	0x3d1d82f2	0.038454957
240	0x3d344f77	0.044021096
241	0x3d17af5f	0.03703248
242	0xbd3e8821	-0.04651654
243	0x3d4a00b1	0.049317066
244	0xbd209410	-0.039203703
245	0xbd3a16a3	-0.045431744
246	0x3d48b664	0.049002066
247	0x3d42303d	0.047409285
248	0x3d3997aa	0.045310654
249	0x3cd9f66f	0.026606767
250	0xbd16fd3c	-0.036862597
251	0xbd2d043c	-0.042240366
252	0xbd29d411	-0.041462008
253	0xbcee8ef5	-0.029120902
254	0xbd2bdfea	-0.041961588
255	0xbd47e394	-0.04880102

action_model._discrete_distribution.branches.0.bias f4 [3]
0	0xbccd22ac	-0.025040947
1	0x3cc091a8	0.023506954
2	0x3a77ba01	0.0009450019

action_model._discrete_distribution.branches.1.weight f4 [2, 128]
0	0x3c650285	0.0139776515
1	0xbd33a40d	-0.043857623
2	0xbcbbf9bf	-0.022946237
3	0xbcf9e6ee	-0.030505624
4	0xbd090afa	-0.033457734
5	0xbcccc88c	-0.024997972
6	0xbd29fc10	-0.04150015
7	0x3cda1b9d	0.026624495
8	0x3d11624b	0.03549413
9	0x3cf69a83	0.030102974
10	0x3cf1cb89	0.029515998
11	0x3cc1b47f	0.023645638
12	0xbcb30efc	-0.021857731
13	0x3cce0dbe	0.025153037
14	0x3cddb84c	0.027065419
15	0xbccd3bdd	-0.02505296
16	0xbc8c5bb9	-0.01713358
17	0xbc5d61b6	-0.013512066
18	0x3d4dede0	0.050275683
19	0x3c9b6ab8	0.018971786
20	0x3ca01985	0.019543419
21	0xbc5df907	-0.013548142
22	0xbc8e8aa3	-0.017400092
23	0x3d0de3fd	0.034641255
24	0xbcd751bd	-0.026284093
25	0x3cf9b91b	0.030483773
26	0x3d4056fe	0.046957962
27	0x3cfe049a	0.031008054
28	0x3c6e4cb3	0.014544654
29	0xbd4450eb	-0.047928732
30	0xbcdee3c5	-0.027208218
31	0x3cb21913	0.021740472
32	0x3cfb9c7f	0.030714272
33	0xbd033d4d	-0.032040883
34	0x3cfd7cc8	0.03094329
35	0xbcecfd9a	-0.02892952
36	0xbcbf75ca	-0.023371596
37	0xbcd6770a	-0.02617981
38	0x3cfc26b7	0.03078018
39	0xbcb4e621	-0.02208239
40	0xbcb41fcc	-0.021987818
41	0xbcc281d2	-0.023743544
42	0xbccc577e	-0.024944063
43	0xbce5d76d	-0.028056825
44	0xbc67dee8	-0.014152266
45	0xbcec7ac2	-0.02886713
46	0x3ce29b4f	0.027661948
47	0x3cadecf3	0.02123115
48	0x3d1555d4	0.036458805
49	0xbca6fe40	-0.020384908
50	0xbd359fb7	-0.04434177
51	0xbcba2230	-0.02272138
52	0xbc920212	-0.017823253
53	0x3cfe58cf	0.031048207
54	0xbd088b35	-0.033335883
55	0xbc89e5fc	-0.016833298
56	0x3c93005c	0.017944507
57	0xbc539eb7	-0.012916259
58	0xbd13293b	-0.035927992
59	0x3cd2eb52	0.025746975
60	0xbd1e3c9d	-0.038632024
61	0xbca1a858	-0.019733593
62	0x3d0b33cf	0.033984955
63	0x3caaca88	0.020848528
64	0xbd07322c	-0.033006832
65	0xbc0433e5	-0.008069013
66	0xbcae3806	-0.021266948
67	0x3d000404	0.03125383
68	0x3c7ae908	0.015314348
69	0xbd1398f7	-0.03603455
70	0x3ca965fd	0.020678515
71	0xbd233b78	-0.039851636
72	0xbcba8cdc	-0.022772245
73	0x3d00855d	0.031377185
74	0xbd516063	-0.051117312
75	0x3d2b11ca	0.04176501
76	0x3cc341d3	0.023835098
77	0xbcc8574b	-0.024455687
78	0xbcebd60a	-0.028788585
79	0xb9df7b4e	-0.00042625744
80	0xbcd07e5a	-0.025450874
81	0xbd0d61bd	-0.03451704
82	0xbcf0f3a8	-0.02941306
83	0xbd1a0505	-0.037602443
84	0xbc776260	-0.015099138
85	0xbcf2ec0d	-0.029653573
86	0x3d0945ed	0.033513952
87	0x3cf378ed	0.029720748
88	0x3c958dce	0.018256094
89	0x3d0916e3	0.033469092
90	0x3d0d398e	0.034478717
91	0x3ce247b3	0.02762208
92	0x3c8e6d89	0.017386215
93	0xbd11654e	-0.035497002
94	0xbd1d7254	-0.03843911
95	0x3d2955d2	0.04134161
96	0xbd20e130	-0.039277256
97	0xbcaf094a	-0.021366734
98	0x3c79f313	0.015255707
99	0xbcaca31c	-0.02107387
100	0x3d06679f	0.032813665
101	0xbcce4216	-0.025177997
102	0x3d11465e	0.035467498
103	0xbd1495e7	-0.03627577
104	0xbd1a86d3	-0.037726235
105	0xbcc12e9d	-0.023581797
106	0xbc710489	-0.014710554
107	0xbca875b0	-0.02056393
108	0xbd01c174	-0.031678632
109	0x3c88153a	0.016611684
110	0xbcfce19d	-0.0308693
111	0xbcea3d79	-0.028593766
112	0xbc9accda	-0.018896509
113	0xbc9ba1a7	-0.01899798
114	0x3d01abd8	0.031658024
115	0xbc0100b3	-0.007873702
116	0x3d0dd7b4	0.03462954
117	0x3ce98cf9	0.028509604
118	0xbcba088d	-0.022709155
119	0xbc985b3e	-0.018598195
120	0xbc8ace12	-0.016943965
121	0xbcfe9a9e	-0.031079587
122	0x3c8af508	0.016962543
123	0x3c2ae0b5	0.010429551
124	0x3cb9e891	0.022693904
125	0x3cc5ef80	0.024162054
126	0x3d6096e4	0.0548314
127	0x3c070ab6	0.0082423
128	0xbca9ddc6	-0.020735633
129	0x3cc229b1	0.02370152
130	0x3d15bd20	0.036557317
131	0x3cf79154	0.030220665
132	0x3cff90cf	0.03119698
133	0x3cfb9e2a	0.030715067
134	0x3c94131f	0.018075524
135	0xbcce64ec	-0.025194608
136	0xbd34eb3a	-0.044169642
137	0xbd17150c	-0.036885306
138	0xbd395875	-0.045250375
139	0xbd3bfcc3	-0.04589535
140	0x3c91732a	0.01775511
141	0xbc606349	-0.013695546
142	0xbd05520c	-0.03254895
143	0x3d2db63e	0.042410128
144	0x3ce43a7c	0.027859919
145	0x3ce22afc	0.027608387
146	0xbcd55b7c	-0.0260446
147	0xbcf678ac	-0.030086838
148	0xbd1bec50	-0.038067162
149	0x3c8f6fbd	0.017509336
150	0x3ce3bfd9	0.027801441
151	0xbcfd4c6e	-0.030920234
152	0x3ccffc5e	0.025388893
153	0xbc626b8c	-0.0138195865
154	0xbcd846ff	-0.026401041
155	0xbcc0d6c2	-0.023539905
156	0xbc678119	-0.0141299
157	0x3cd4d783	0.02598167
158	0x3cf4e9be	0.029896613
159	0xbd018a5b	-0.031626087
160	0xbd29fb0f	-0.041499194
161	0x3cfe1d7b	0.031019917
162	0xbd12a4f7	-0.035801854
163	0x3cbd1376	0.023080569
164	0x3cfb0def	0.030646292
165	0x3cb4ab8c	0.022054456
166	0xbd2c04b9	-0.04199669
167	0x3d018320	0.03161919
168	0x3cb1fb95	0.021726409
169	0x3d08c899	0.03339443
170	0x3ce3ec01	0.027822496
171	0x3b1ba6f6	0.002375064
172	0x3c9c3d48	0.01907219
173	0x3cb0159f	0.021494685
174	0xbd34e684	-0.04416515
175	0xbcecfabe	-0.028928157
176	0xbcca6db3	-0.024710512
177	0x3c589a89	0.013220438
178	0x3c2f0683	0.010682705
179	0x3d0879fd	0.033319462
180	0x3c588a40	0.013216555
181	0xbd02c08f	-0.03192192
182	0x3ceca3fe	0.028886791
183	0x3d0283e7	0.031864073
184	0xbc413acf	-0.011793806
185	0x3d1539a5	0.036431927
186	0x3cad7707	0.02117492
187	0xbcf1b882	-0.029506925
188	0x3cebfffd	0.028808588
189	0x3cafa997	0.021443171
190	0xbd16a2cd	-0.036776353
191	0xbd251a70	-0.040308416
192	0x3c41f152	0.01183732
193	0x3c44de61	0.01201591
194	0x3d13ab5b	0.03605209
195	0xbcc9ea73	-0.024647927
196	0xbd1e2b9c	-0.038615808
197	0x3cfa64f8	0.030565724
198	0xbd16a9e3	-0.03678311
199	0x3d08243a	0.033237673
200	0x3d10ba0d	0.03533368
201	0xbc854d32	-0.016272161
202	0x3c0962d2	0.008385377
203	0xbd0ccdc3	-0.034375917
204	0xbce5e46e	-0.028063025
205	0x3c2ad133	0.010425854
206	0x3d184a94	0.0371805
207	0x3cea05af	0.028567163
208	0x3cd947e7	0.026523544
209	0x3c8f261b	0.017474225
210	0x3cc1b7c8	0.023647204
211	0x3cf301e5	0.02966399
212	0x3d10cd74	0.035352185
213	0x3cde1942	0.027111653
214	0xbcbf248d	-0.023332858
215	0xbcd79081	-0.026314022
216	0xbd06daf1	-0.032923643
217	0xbd1556df	-0.0364598
218	0xbd1b02e2	-0.037844546
219	0xbcfff255	-0.031243483
220	0xbd013965	-0.031548876
221	0x3d077636	0.03307172
222	0x3cc24140	0.023712754
223	0xbca5efcf	-0.020255951
224	0x3ccc8dd7	0.024969978
225	0x3ceafb20	0.028684199
226	0xbd009fa6	-0.031402253
227	0x3d236fb5	0.039901454
228	0xbcfe70ca	-0.031059641
229	0x3d1e4819	0.038642976
230	0xbc407dbb	-0.0117487265
231	0x3ce84a5c	0.02835577
232	0x3cee55d7	0.029093666
233	0x3cf15272	0.029458258
234	0x3cba2d8f	0.022726802
235	0x3ca22689	0.019793766
236	0x3cf42d17	0.029806657
237	0xbd1437c2	-0.036185987
238	0x3cfe1fe7	0.031021072
239	0x3cf67f9f	0.030090151
240	0x3d032f24	0.03202738
241	0x3d1520d9	0.03640828
242	0xbd1d438c	-0.038394496
243	0x3c985ff8	0.018600449
244	0xbd412d30	-0.047162235
245	0xbcc97ee3	-0.024596637
246	0x3d15f79c	0.03661309
247	0x3cf4bc00	0.029874802
248	0x3c3e757d	0.011624691
249	0x3ced08c9	0.028934853
250	0xbcc0979f	-0.023509799
251	0xbceb2c3e	-0.02870762
252	0xbca1693f	-0.019703506
253	0xbc393387	-0.011303789
254	0xbc9288fb	-0.017887583
255	0xbcf0d949	-0.029400485

action_model._discrete_distribution.branches.1.bias f4 [2]
0	0xbcbe0e64	-0.023200221
1	0x3cbe0e65	0.023200223

onnx::Div_78 f4 [405]
0	0x3b90366a	0.004401018
1	0x3b90366a	0.004401018
2	0x3b90366a	0.004401018
3	0x3bcbf232	0.0062239403
4	0x3bcbf232	0.0062239403
5	0x3b90366a	0.004401018
6	0x3b90366a	0.004401018
7	0x3b90366a	0.004401018
8	0x3bcbf232	0.0062239403
9	0x3bcbf232	0.0062239403
10	0x3b90366a	0.004401018
11	0x3b90366a	0.004401018
12	0x3b90366a	0.004401018
13	0x3bcbf232	0.0062239403
14	0x3bcbf232	0.0062239403
15	0x3b90366a	0.004401018
16	0x3b90366a	0.004401018
17	0x3b90366a	0.004401018
18	0x3bcbf232	0.0062239403
19	0x3bcbf232	0.0062239403
20	0x3b90366a	0.004401018
21	0x3b90366a	0.004401018
22	0x3b90366a	0.004401018
23	0x3bcbf232	0.0062239403
24	0x3bcbf232	0.0062239403
25	0x3b90366a	0.004401018
26	0x3b90366a	0.004401018
27	0x3b90366a	0.004401018
28	0x3bcbf232	0.0062239403
29	0x3bcbf232	0.0062239403
30	0x3b90366a	0.004401018
31	0x3b90366a	0.004401018
32	0x3b90366a	0.004401018
33	0x3bcbf232	0.0062239403
34	0x3bcbf232	0.0062239403
35	0x3b90366a	0.004401018
36	0x3b90366a	0.004401018
37	0x3b90366a	0.004401018
38	0x3bcbf232	0.0062239403
39	0x3bcbf232	0.0062239403
40	0x3b90366a	0.004401018
41	0x3b90366a	0.004401018
42	0x3b90366a	0.004401018
43	0x3bcbf232	0.0062239403
44	0x3bcbf232	0.0062239403
45	0x3b90366a	0.004401018
46	0x3b90366a	0.004401018
47	0x3b90366a	0.004401018
48	0x3bcbf232	0.0062239403
49	0x3bcbf232	0.0062239403
50	0x3b90366a	0.004401018
51	0x3b90366a	0.004401018
52	0x3b90366a	0.004401018
53	0x3bcbf232	0.0062239403
54	0x3bcbf232	0.0062239403
55	0x3b90366a	0.004401018
56	0x3b90366a	0.004401018
57	0x3b90366a	0.004401018
58	0x3bcbf232	0.0062239403
59	0x3bcbf232	0.0062239403
60	0x3b90366a	0.004401018
61	0x3b90366a	0.004401018
62	0x3b90366a	0.004401018
63	0x3bcbf232	0.0062239403
64	0x3bcbf232	0.0062239403
65	0x3b90366a	0.004401018
66	0x3b90366a	0.004401018
67	0x3b90366a	0.004401018
68	0x3bcbf232	0.0062239403
69	0x3bcbf232	0.0062239403
70	0x3b90366a	0.004401018
71	0x3b90366a	0.004401018
72	0x3b90366a	0.004401018
73	0x3bcbf232	0.0062239403
74	0x3bcbf232	0.0062239403
75	0x3b90366a	0.004401018
76	0x3b90366a	0.004401018
77	0x3b90366a	0.004401018
78	0x3bcbf232	0.0062239403
79	0x3bcbf232	0.0062239403
80	0x3b90366a	0.004401018
81	0x3b90366a	0.004401018
82	0x3b90366a	0.004401018
83	0x3bcbf232	0.0062239403
84	0x3bcbf232	0.0062239403
85	0x3b90366a	0.004401018
86	0x3b90366a	0.004401018
87	0x3b90366a	0.004401018
88	0x3bcbf232	0.0062239403
89	0x3bcbf232	0.0062239403
90	0x3b90366a	0.004401018
91	0x3b90366a	0.004401018
92	0x3b90366a	0.004401018
93	0x3bcbf232	0.0062239403
94	0x3bcbf232	0.0062239403
95	0x3b90366a	0.004401018
96	0x3b90366a	0.004401018
97	0x3b90366a	0.004401018
98	0x3bcbf232	0.0062239403
99	0x3bcbf232	0.0062239403
100	0x3b90366a	0.004401018
101	0x3b90366a	0.004401018
102	0x3b90366a	0.004401018
103	0x3bcbf232	0.0062239403
104	0x3bcbf232	0.0062239403
105	0x3b90366a	0.004401018
106	0x3b90366a	0.004401018
107	0x3b90366a	0.004401018
108	0x3bcbf232	0.0062239403
109	0x3bcbf232	0.0062239403
110	0x3b90366a	0.004401018
111	0x3b90366a	0.004401018
112	0x3b90366a	0.004401018
113	0x3bcbf232	0.0062239403
114	0x3bcbf232	0.0062239403
115	0x3b90366a	0.004401018
116	0x3b90366a	0.004401018
117	0x3b90366a	0.004401018
118	0x3bcbf232	0.0062239403
119	0x3bcbf232	0.0062239403
120	0x3b90366a	0.004401018
121	0x3b90366a	0.004401018
122	0x3b90366a	0.004401018
123	0x3bcbf232	0.0062239403
124	0x3bcbf232	0.0062239403
125	0x3b90366a	0.004401018
126	0x3b90366a	0.004401018
127	0x3b90366a	0.004401018
128	0x3bcbf232	0.0062239403
129	0x3bcbf232	0.0062239403
130	0x3b90366a	0.004401018
131	0x3b90366a	0.004401018
132	0x3b90366a	0.004401018
133	0x3bcbf232	0.0062239403
134	0x3bcbf232	0.0062239403
135	0x3b90366a	0.004401018
136	0x3b90366a	0.004401018
137	0x3b90366a	0.004401018
138	0x3bcbf232	0.0062239403
139	0x3bcbf232	0.0062239403
140	0x3b90366a	0.004401018
141	0x3b90366a	0.004401018
142	0x3b90366a	0.004401018
143	0x3bcbf232	0.0062239403
144	0x3bcbf232	0.0062239403
145	0x3b90366a	0.004401018
146	0x3b90366a	0.004401018
147	0x3b90366a	0.004401018
148	0x3bcbf232	0.0062239403
149	0x3bcbf232	0.0062239403
150	0x3b90366a	0.004401018
151	0x3b90366a	0.004401018
152	0x3b90366a	0.004401018
153	0x3bcbf232	0.0062239403
154	0x3bcbf232	0.0062239403
155	0x3b90366a	0.004401018
156	0x3b90366a	0.004401018
157	0x3b90366a	0.004401018
158	0x3bcbf232	0.0062239403
159	0x3bcbf232	0.0062239403
160	0x3b90366a	0.004401018
161	0x3b90366a	0.004401018
162	0x3b90366a	0.004401018
163	0x3bcbf232	0.0062239403
164	0x3bcbf232	0.0062239403
165	0x3b90366a	0.004401018
166	0x3b90366a	0.004401018
167	0x3b90366a	0.004401018
168	0x3bcbf232	0.0062239403
169	0x3bcbf232	0.0062239403
170	0x3b90366a	0.004401018
171	0x3b90366a	0.004401018
172	0x3b90366a	0.004401018
173	0x3bcbf232	0.0062239403
174	0x3bcbf232	0.0062239403
175	0x3b90366a	0.004401018
176	0x3b90366a	0.004401018
177	0x3b90366a	0.004401018
178	0x3bcbf232	0.0062239403
179	0x3bcbf232	0.0062239403
180	0x3b90366a	0.004401018
181	0x3b90366a	0.004401018
182	0x3b90366a	0.004401018
183	0x3bcbf232	0.0062239403
184	0x3bcbf232	0.0062239403
185	0x3b90366a	0.004401018
186	0x3b90366a	0.004401018
187	0x3b90366a	0.004401018
188	0x3bcbf232	0.0062239403
189	0x3bcbf232	0.0062239403
190	0x3b90366a	0.004401018
191	0x3b90366a	0.004401018
192	0x3b90366a	0.004401018
193	0x3bcbf232	0.0062239403
194	0x3bcbf232	0.0062239403
195	0x3b90366a	0.004401018
196	0x3b90366a	0.004401018
197	0x3b90366a	0.004401018
198	0x3bcbf232	0.0062239403
199	0x3bcbf232	0.0062239403
200	0x3b90366a	0.004401018
201	0x3b90366a	0.004401018
202	0x3b90366a	0.004401018
203	0x3bcbf232	0.0062239403
204	0x3bcbf232	0.0062239403
205	0x3b90366a	0.004401018
206	0x3b90366a	0.004401018
207	0x3b90366a	0.004401018
208	0x3bcbf232	0.0062239403
209	0x3bcbf232	0.0062239403
210	0x3b90366a	0.004401018
211	0x3b90366a	0.004401018
212	0x3b90366a	0.004401018
213	0x3bcbf232	0.0062239403
214	0x3bcbf232	0.0062239403
215	0x3b90366a	0.004401018
216	0x3b90366a	0.004401018
217	0x3b90366a	0.004401018
218	0x3bcbf232	0.0062239403
219	0x3bcbf232	0.0062239403
220	0x3b90366a	0.004401018
221	0x3b90366a	0.004401018
222	0x3b90366a	0.004401018
223	0x3bcbf232	0.0062239403
224	0x3bcbf232	0.0062239403
225	0x3b90366a	0.004401018
226	0x3b90366a	0.004401018
227	0x3b90366a	0.004401018
228	0x3bcbf232	0.0062239403
229	0x3bcbf232	0.0062239403
230	0x3b90366a	0.004401018
231	0x3b90366a	0.004401018
232	0x3b90366a	0.004401018
233	0x3bcbf232	0.0062239403
234	0x3bcbf232	0.0062239403
235	0x3b90366a	0.004401018
236	0x3b90366a	0.004401018
237	0x3b90366a	0.004401018
238	0x3bcbf232	0.0062239403
239	0x3bcbf232	0.0062239403
240	0x3b90366a	0.004401018
241	0x3b90366a	0.004401018
242	0x3b90366a	0.004401018
243	0x3bcbf232	0.0062239403
244	0x3bcbf232	0.0062239403
245	0x3b90366a	0.004401018
246	0x3b90366a	0.004401018
247	0x3b90366a	0.004401018
248	0x3bcbf232	0.0062239403
249	0x3bcbf232	0.0062239403
250	0x3b90366a	0.004401018
251	0x3b90366a	0.004401018
252	0x3b90366a	0.004401018
253	0x3bcbf232	0.0062239403
254	0x3bcbf232	0.0062239403
255	0x3b90366a	0.004401018

onnx::Div_81 f4 [13]
0	0x3b90366a	0.004401018
1	0x3b90366a	0.004401018
2	0x3b90366a	0.004401018
3	0x3b90366a	0.004401018
4	0x3b90366a	0.004401018
5	0x3b90366a	0.004401018
6	0x3b90366a	0.004401018
7	0x3b90366a	0.004401018
8	0x3b90366a	0.004401018
9	0x3b90366a	0.004401018
10	0x3b90366a	0.004401018
11	0x3b90366a	0.004401018
12	0x3b90366a	0.004401018
