Assets/Training/results/finally_works/PlayerAgentBehavior/PlayerAgentBehavior-74417.onnx (onnx, 224882 bytes, 11 tensors)

discrete_act_size_vector f4 [1, 2]
3.0 2.0
00000000: 0000 4040 0000 0040

network_body.observation_encoder.processors.0.normalizer.running_mean f4 [284]
14.344137 3.3468375 0.0 5.500539 0.16256888 0.005294421 0.0 0.0
619.6423 27.294836 0.0 492.89062 14.233046 0.0 221.16759 1.9512316
0.0 439.45663 7.5686812 0.0 579.57275 18.069548 0.0 594.4489
27.381004 0.0 339.20416 8.128751 0.0 389.34726 7.030422 0.0
482.35022 9.753697 0.0 211.21474 1.7593666 0.0 175.50452 13.510632
0.0 568.4423 10.779124 0.0 110.419334 9.740777 0.0 381.11697
7.2359667 0.0 337.64667 8.041678 0.0 632.49896 27.911531 0.0
432.4061 7.906619 0.0 170.37315 7.870026 0.0 356.69833 11.715172
0.0 478.5724 20.216198 0.0 248.6145 11.01971 0.0 547.87994
23.725113 0.0 347.56802 13.388313 0.0 231.53558 8.842379 0.0
313.18805 8.517541 0.0 294.64346 9.551363 0.0 408.0476 16.778395
0.0 310.7386 11.676585 0.0 559.5404 23.867006 0.0 494.1959
11.580927 0.0 428.1402 7.4595556 0.0 516.58765 15.850554 0.0
576.18146 21.828316 0.0 520.663 19.510859 0.0 445.6214 18.035099
0.0 392.11508 9.1512985 0.0 338.13922 7.7801466 0.0 324.37146
8.209908 0.0 498.3369 9.655536 0.0 541.1654 12.893277 0.0
416.77777 8.323129 0.0 488.3826 19.088264 0.0 362.7169 10.83673
0.0 526.12756 13.069013 0.0 419.90283 13.393506 0.0 293.62186
10.816996 0.0 140.63747 9.992523 0.0 447.99023 19.9352 0.0
607.1394 26.555092 0.0 458.83963 11.277505 0.0 206.9497 20.073324
0.0 336.76837 14.301468 0.0 439.86966 8.524885 0.0 322.06467
9.511735 0.0 313.4047 4.292919 0.0 430.11804 2.7315042 0.0
349.4793 2.9922738 0.0 424.46307 3.1322858 0.0 488.02386 9.403887
0.0 365.1755 4.3325834 0.0 217.25656 4.5676694 0.0 556.884
20.707775 0.0 618.5107 24.105434 0.0 530.1014 18.809803 0.0
534.9672 12.590352 0.0 497.67166 7.8997426 0.0 363.74915 4.0326376
0.0 331.33737 2.6182537 0.0 582.0477 20.380426 0.0 529.8754
16.771923 0.0 280.26306 7.6744494 0.0 313.12973 3.7077684 0.0
439.69626 2.8166018 0.0 604.3889 20.152046 0.0 300.05078 9.764223
0.0 209.01956 0.2041094 0.0 469.3704 11.92874 0.0 540.3342
8.552435 0.0 601.27924 20.781391 0.0 623.92126 24.011322 0.0
545.63025 18.778172 0.0 520.8166 17.276993 0.0 285.13055 2.8247674
00000000: 9681 6541 9632 5640 0000 0000 6a04 b040
00000010: 7578 263e d37c ad3b 0000 0000 0000 0000
00000020: 1be9 1a44 d35b da41 0000 0000 0072 f643
00000030: 8eba 6341 0000 0000 e72a 5d43 f5c1 f93f
00000040: 0000 0000 73ba db43 a332 f240 0000 0000
00000050: a8e4 1044 6f8e 9041 0000 0000 bb9c 1444
00000060: 4c0c db41 0000 0000 229a a943 5d0f 0241
00000070: 0000 0000 73ac c243 38f9 e040 0000 0000
00000080: d42c f143 250f 1c41 0000 0000 f936 5343
00000090: ed32 e13f 0000 0000 2881 2f43 8c2b 5841
000000a0: 0000 0000 4f1c 0e44 4b77 2c41 0000 0000
000000b0: b3d6 dc42 39da 1b41 0000 0000 f98e be43
000000c0: 0a8d e740 0000 0000 c6d2 a843 b7aa 0041
000000d0: 0000 0000 ef1f 1e44 d14a df41 0000 0000
000000e0: fb33 d843 0603 fd40 0000 0000 875f 2a43
000000f0: 41d7 fb40 0000 0000 6359 b243 5871 3b41
00000100: 0000 0000 4449 ef43 c6ba a141 0000 0000
00000110: 509d 7843 bb50 3041 0000 0000 51f8 0844
00000120: 08cd bd41 0000 0000 b5c8 ad43 8836 5641
00000130: 0000 0000 1c89 6743 627a 0d41 0000 0000
00000140: 1298 9c43 d947 0841 0000 0000 5d52 9343
00000150: 62d2 1841 0000 0000 1806 cc43 273a 8641
00000160: 0000 0000 8a5e 9b43 4bd3 3a41 0000 0000
00000170: 96e2 0b44 a1ef be41 0000 0000 1319 f743
00000180: 7a4b 3941 0000 0000 f211 d643 aeb4 ee40
00000190: 0000 0000 9c25 0144 df9b 7d41 0000 0000
000001a0: 9d0b 1044 64a0 ae41 0000 0000 6f2a 0244
000001b0: 3d16 9c41 0000 0000 8acf de43 e247 9041
000001c0: 0000 0000 bb0e c443 b86b 1241 0000 0000
000001d0: d211 a943 f6f6 f840 0000 0000 8c2f a243
000001e0: c85b 0341 0000 0000 202b f943 137d 1a41
000001f0: 0000 0000 964a 0744 dd4a 4e41 0000 0000
00000200: 8e63 d043 892b 0541 0000 0000 f930 f443
00000210: c4b4 9841 0000 0000 c35b b543 3f63 2d41
00000220: 0000 0000 2a88 0344 ad1a 5141 0000 0000
00000230: 90f3 d143 cd4b 5641 0000 0000 99cf 9243
00000240: 6a12 2d41 0000 0000 31a3 0c43 60e1 1f41
00000250: 0000 0000 c0fe df43 4a7b 9f41 0000 0000
00000260: ecc8 1744 d470 d441 0000 0000 796b e543
00000270: a970 3441 0000 0000 20f3 4e43 2b96 a041
00000280: 0000 0000 5a62 a843 d0d2 6441 0000 0000
00000290: 51ef db43 ee65 0841 0000 0000 4708 a143
000002a0: 1130 1841 0000 0000 cdb3 9c43 985f 8940
000002b0: 0000 0000 1c0f d743 f7d0 2e40 0000 0000
000002c0: 5abd ae43 6a81 3f40 0000 0000 463b d443
000002d0: 5f77 4840 0000 0000 0e03 f443 5276 1641
000002e0: 0000 0000 7796 b643 86a4 8a40 0000 0000
000002f0: ae41 5943 592a 9240 0000 0000 9338 0b44
00000300: 86a9 a541 0000 0000 afa0 1a44 eed7 c041
00000310: 0000 0000 7d86 0444 7a7a 9641 0000 0000
00000320: e7bd 0544 1572 4941 0000 0000 f9d5 f843
00000330: b1ca fc40 0000 0000 e4df b543 5e0b 8140
00000340: 0000 0000 2fab a543 7891 2740 0000 0000
00000350: 0e83 1144 1d0b a341 0000 0000 0778 0444
00000360: e62c 8641 0000 0000 ac21 8c43 1795 f540
00000370: 0000 0000 9b90 9c43 144c 6d40 0000 0000
00000380: 1fd9 db43 3443 3440 0000 0000 e418 1744
00000390: 6437 a141 0000 0000 8006 9643 423a 1c41
000003a0: 0000 0000 0205 5143 0e02 513e 0000 0000
000003b0: 69af ea43 1edc 3e41 0000 0000 6415 0744
000003c0: c6d6 0841 0000 0000 df51 1644 4a40 a641
000003d0: 0000 0000 f6fa 1b44 3017 c041 0000 0000
000003e0: 5668 0844 b239 9641 0000 0000 4334 0244
000003f0: 4837 8a41 0000 0000 b690 8e43 fdc8 3440

network_body._body_endoder.seq_layers.0.weight f4 [128, 284]
0.03662521 0.023690699 -0.04024165 0.07063702 -0.068048514 0.12092016 0.033728432 -0.0049551367
0.083379366 0.018005796 -0.14433862 -0.008646551 0.07757484 -0.008898073 -0.15409623 0.05575765
-0.117952116 -0.029656587 -0.0028361622 -0.0027324646 -0.0709156 0.06748494 0.14056933 -0.0573658
-0.10860063 -0.024986975 0.12644249 -0.02598187 0.02044249 0.061827302 0.06268681 0.0552291
-0.032534435 0.07659217 0.0075513646 0.021080274 0.021124907 0.015348334 0.0768102 0.09470509
0.0678531 -0.022783546 0.08487927 -0.09491542 -0.095809326 0.0647446 -0.09849334 -0.05038034
0.0032302646 0.04029073 -0.02929521 -0.040672105 -0.0005066118 0.019826634 -0.109393254 0.040974434
-0.08161077 -0.0936013 -0.00963025 -0.0048302184 0.07133539 0.05727627 0.12639473 -0.005100417
0.029775482 0.018388635 0.047584146 0.09312895 0.09403073 0.057965063 -0.037294377 0.0007262985
-0.0032949452 -0.020037903 0.14132746 -0.05004038 -0.04013089 0.061061166 0.14432068 0.03907671
-0.0038321319 0.03642233 0.08334116 -0.00280253 0.013682305 -0.013648616 -0.018627334 0.029286232
-0.0057643703 0.038898867 -0.0016156357 0.06798365 0.027904583 -0.03928271 -0.06220582 0.021431709
-0.038818553 -0.03598291 0.027032536 -0.033685513 0.008113064 0.00013868725 -0.07344677 0.07551461
-0.16262203 -0.05115337 0.10356656 0.03882333 -0.0041513224 -0.03536227 0.06843395 -0.0128260795
-0.06617756 0.06361567 -0.008078724 -0.027080985 0.10386007 -0.000689667 -0.005090141 0.0005420655
0.0632457 -0.021570172 0.044572476 -0.14295779 0.03151393 -0.085082024 0.04052083 -0.0329488
-0.038924944 -0.09151169 0.01742359 -0.07186844 0.019917157 -0.0589101 0.073370785 0.0091967555
-0.0063786493 -0.087569974 0.013230054 0.046022847 0.039459664 -0.0029272684 0.04226945 -0.02868143
0.013013802 -0.064402945 -0.021480173 -0.020340899 -0.06499739 0.013942152 0.11686583 0.14531742
0.046093013 0.048041113 -0.011891727 -0.015711783 -0.00702675 0.027804308 -0.06983565 -0.075346544
0.017290007 0.07243846 -0.028155165 0.046012893 0.09687462 0.055040587 0.0092223175 -0.020881467
0.0037742362 -0.02552682 -0.048680484 -0.03589331 0.026638675 0.04528853 -0.07702166 -0.051278785
0.02400799 -0.0337872 -0.033133797 -0.022728022 -0.0008935728 -0.038077228 0.067716435 -0.041128498
0.08436658 -0.104605734 -0.05863301 0.037917063 0.050327666 0.010389319 0.038102187 0.0425122
-0.060053695 -0.040716227 -0.02019663 0.031712744 0.05734243 -0.046250768 -0.13403745 0.1561492
-0.04559231 -0.04699575 0.019095987 -0.07891638 0.026932903 0.010977853 0.058304425 0.058698755
0.010032345 -0.06989987 0.01709095 0.006693745 0.014979122 -0.04573447 -0.06501285 0.010340345
0.013385674 -0.059021436 -0.064142264 -0.046805963 0.08282016 -0.02395459 0.07406063 -0.02459925
0.07105871 0.15479045 0.048672277 0.088841155 -0.014549672 -0.047381483 0.09993402 0.016565133
0.061092734 -0.037143417 0.039109655 0.035899635 0.05626525 0.021326493 -0.055241 -0.016209818
-0.022404982 0.013338301 -0.07161077 -0.054878417 -0.06375484 0.03470912 0.07443598 0.030270007
0.05537255 0.05597526 -0.076106265 -0.06364482 -0.03788415 -0.08828778 -0.02193716 -0.062313356
00000000: 5104 163d ff12 c23c 6ed4 24bd 24aa 903d
00000010: 055d 8bbd fda4 f73d d326 0a3d b35e a2bb
00000020: cdc2 aa3d e480 933c 81cd 13be 43aa 0dbc
00000030: 8fdf 9e3d 39c9 11bc 67cb 1dbe 2262 643d
00000040: e190 f1bd 5ff2 f2bc e8de 39bb 2613 33bb
00000050: 333c 91bd 8b35 8a3d 68f1 0f3e 67f8 6abd
00000060: 026a debd 7cb1 ccbc 247a 013e eed7 d4bc
00000070: 0277 a73c a03e 7d3d f161 803d e937 623d
00000080: d442 05bd 5bdc 9c3d 7071 f73b 8ab0 ac3c
00000090: 240e ad3c 9477 7b3c ab4e 9d3d bef4 c13d
000000a0: 91f6 8a3d 8fa4 babc 2fd5 ad3d 0463 c2bd
000000b0: ae37 c4bd d198 843d e0b6 c9bd 9e5b 4ebd
000000c0: d9b2 533b e407 253d 82fc efbc cb97 26bd
000000d0: 24ce 04ba 776b a23c 9209 e0bd cfd4 273d
000000e0: 8c23 a7bd 0ab2 bfbd 32c8 1dbc cf46 9ebb
000000f0: 4a18 923d 869a 6a3d 9f6d 013e 6621 a7bb
00000100: b6eb f33c c3a3 963c 98e7 423d 64ba be3d
00000110: 2f93 c03d c66c 6d3d fdc1 18bd 1165 3e3a
00000120: 02f0 57bb 8726 a4bc 25b8 103e 24f7 4cbd
00000130: 4a60 24bd 461b 7a3d cdc8 133e e60e 203d
00000140: 8124 7bbb 952f 153d c5ae aa3d a7aa 37bb
00000150: bf2b 603c 729e 5fbc 5a98 98bc aee9 ef3c
00000160: 0be3 bcbb 6b54 1f3d bdc3 d3ba 033b 8b3d
00000170: 2798 e43c e8e6 20bd 88cb 7ebd 8d91 af3c
00000180: 3400 1fbd d162 13bd 5673 dd3c d2f9 09bd
00000190: a8ec 043c 936c 1139 436b 96bd 67a7 9a3d
000001a0: 6486 26be 3286 51bd b41a d43d 3605 1f3d
000001b0: d107 88bb 07d8 10bd 1927 8c3d 7a24 52bc
000001c0: 1a88 87bd ef48 823d a05c 04bc f1d8 ddbc
000001d0: 97b4 d43d c5ca 34ba 33cb a6bb 6619 0e3a
000001e0: f686 813d eeb3 b0bc a191 363d 8763 12be
000001f0: c014 013d 7c3f aebd 2bf9 253d 52f5 06bd
00000200: c36f 1fbd 7b6a bbbd ebbb 8e3c c32f 93bd
00000210: 4e29 a33c b84b 71bd 6c43 963d fdad 163c
00000220: fd03 d1bb e357 b3bd dec2 583c 7482 3c3d
00000230: 75a0 213d 6ad7 3fbb bb22 2d3d 51f5 eabc
00000240: d737 553c b1e5 83bd 30f7 afbc f5a1 a6bc
00000250: 5a1d 85bd a06d 643c 5a57 ef3d 17ce 143e
00000260: 07cc 3c3d c2c6 443d 85d5 42bc ffb5 80bc
00000270: a740 e6bb dcc5 e33c fe05 8fbd 4a4f 9abd
00000280: c6a3 8d3c 9e5a 943d a9a5 e6bc 0478 3c3d
00000290: 3366 c63d 3d72 613d 3419 173c 9c0f abbc
000002a0: 2d59 773b 9f1d d1bc 3065 47bd dd04 13bd
000002b0: 5a39 da3c 7780 393d 88bd 9dbd b409 52bd
000002c0: 67ac c43c 7264 0abd 4eb7 07bd 1e30 babc
000002d0: a83e 6aba def6 1bbd eaae 8a3d 5b76 28bd
000002e0: 63c8 ac3d 883b d6bd 2b29 70bd ec4e 1b3d
000002f0: 6224 4e3d f637 2a3c 0a11 1c3d 4621 2e3d
00000300: ddfa 75bd 0fc6 26bd 6773 a5bc 39e5 013d
00000310: e5df 6a3d 7271 3dbd 1d41 09be 93e5 1f3e
00000320: 01bf 3abd 9e7e 40bd 306f 9c3c e99e a1bd
00000330: 64a2 dc3c 74dc 333c 9fd0 6e3d 1b6e 703d
00000340: b45e 243c aa27 8fbd 5202 8c3c 3457 db3b
00000350: fe6a 753c 1154 3bbd 7525 85bd 8d6a 293c
00000360: 964f 5b3c 76c0 71bd 055d 83bd 9cb7 3fbd
00000370: 9e9d a93d 6b3c c4bc 19ad 973d 5e84 c9bc
00000380: 3b87 913d 6381 1e3e 955c 473d 5af2 b53d
00000390: bf61 6ebc 1613 42bd 35aa cc3d 9ab3 873c
000003a0: 603c 7a3d b223 18bd 7231 203d 7f0b 133d
000003b0: 6476 663d e6b4 ae3c 6344 62bd 74ca 84bc
000003c0: a78a b7bc e488 5a3c aba8 92bd 31c8 60bd
000003d0: e691 82bd 262b 0e3d e471 983d cef8 f73c
000003e0: 54ce 623d 5046 653d 9add 9bbd 3758 82bd
000003f0: 692c 1bbd 39d0 b4bd 8fb5 b3bc 4a3c 7fbd

network_body._body_endoder.seq_layers.0.bias f4 [128]
-0.025999745 -0.0036968861 0.006650816 0.03228465 0.008901012 0.013622719 0.0014832261 0.011059752
-0.017131492 0.015761886 0.0033711996 -0.044810478 0.023080055 0.009049412 -0.0020460105 0.0074178525
0.03357395 0.029602187 0.0025673206 -0.008172378 0.03352994 -0.008021461 0.014727627 -0.0036291098
0.034189492 0.02332569 -0.006941812 -0.009880387 0.030143347 -0.0135885505 -0.0037048708 0.0016184184
0.028055852 0.0021709602 -0.036997363 -0.0051469514 0.0066721635 0.007561176 0.010788682 0.00071804447
0.02290026 0.013178295 0.009260235 -0.0049368837 0.011256496 0.012001362 -0.010242939 0.011559075
0.011170377 0.03229085 0.007880612 0.0060010026 -0.029156683 0.024961762 -0.013214315 -0.010127846
0.029714534 0.007805682 -0.0067545264 0.03831843 0.034171443 0.0077888626 -0.024047453 0.010572017
-0.017917374 0.023503844 0.014512409 0.01699714 -0.012350791 0.002987693 0.004380198 -0.0032101762
0.020924855 -0.01627152 0.01597629 -0.0072121513 0.0036803135 -0.013231085 -0.004202696 0.0026297544
0.008829431 0.020065969 -0.03733621 -0.013922089 0.016733604 0.019949224 0.00391248 -0.017677616
0.021049656 -0.0011728402 0.00405073 0.01881666 0.011366341 -0.024161775 -0.023723528 0.031305134
0.02200781 0.031146433 -0.012326451 -0.014026122 -0.0166922 0.0063617174 0.014815541 -0.0014908584
-0.033899434 0.028479168 -0.02296176 -0.013151597 0.025601491 0.0014759767 -0.015524153 -0.0062711835
0.019552609 0.029522043 0.016441153 -0.010126202 0.013316192 -0.014637505 -0.008142939 0.02306735
0.010649013 0.003408224 -0.0041784933 0.027709268 0.026469043 0.0103849135 -0.018642152 0.017240813
00000000: 6bfd d4bc 7547 72bb 17ef d93b e93c 043d
00000010: 8dd5 113c d331 5f3c cf68 c23a f633 353c
00000020: 5857 8cbc 121f 813c 58ef 5c3b 318b 37bd
00000030: 6212 bd3c fc43 143c 5c16 06bb 7511 f33b
00000040: d784 093d 4980 f23c 7e40 283b 70e5 05bc
00000050: b156 093d 726c 03bc 254c 713c 5cd6 6dbb
00000060: 480a 0c3d 8415 bf3c 2478 e3bb 59e1 21bc
00000070: 2eef f63c 83a2 5ebc 6bcd 72bb 1c21 d43a
00000080: 63d5 e53c ab46 0e3b 8c8a 17bd c2a7 a8bb
00000090: 2aa2 da3b bec3 f73b 03c3 303c 263b 3c3a
000000a0: 5399 bb3c c7e9 573c 3eb8 173c 95c5 a1bb
000000b0: 2b6d 383c 5ca1 443c 00d2 27bc 4662 3d3c
000000c0: f503 373c 6943 043d af1d 013c 0fa4 c43b
000000d0: ffd9 eebc 9c7c cc3c db80 58bc 44ef 25bc
000000e0: e56b f33c cec6 ff3b 1355 ddbb c9f3 1c3d
000000f0: 5bf7 0b3d b739 ff3b 2aff c4bc 4136 2d3c
00000100: 75c7 92bc 228b c03c 75c5 6d3c 963d 8b3c
00000110: f95a 4abc 2ccd 433b c487 8f3b d261 52bb
00000120: 9a6a ab3c da4b 85bc b5e0 823c e953 ecbb
00000130: 6a31 713b 31c7 58bc c5b6 89bb f557 2c3b
00000140: 51a9 103c 6361 a43c dbed 18bd 7919 64bc
00000150: e914 893c 8e6c a33c 4334 803b a6d0 90bc
00000160: 5470 ac3c fdb9 99ba fcbb 843b 6525 9a3c
00000170: e439 3a3c eaee c5bc d857 c2bc d039 003d
00000180: b949 b43c ce26 ff3c e2f4 49bc d2cd 65bc
00000190: 15be 88bc f475 d03b e2bc 723c e868 c3ba
000001a0: 22da 0abd 254d e93c 4d1a bcbc cc79 57bc
000001b0: 38ba d13c 8f75 c13a 0459 7ebc 807e cdbb
000001c0: cb2c a03c 36d8 f13c 99af 863c 5fe8 25bc
000001d0: 282c 5a3c 25d2 6fbc f669 05bc bdf7 bc3c
000001e0: 3379 2e3c 835c 5f3b beeb 88bb 8cfe e23c
000001f0: 9bd5 d83c 7c25 2a3c 6db7 98bc 9b3c 8d3c

network_body._body_endoder.seq_layers.2.weight f4 [128, 128]
0.14040218 -0.19263396 -0.025212858 0.008083519 0.1254168 -0.044275027 0.17103396 -0.015519277
-0.012513484 0.21064158 0.103278846 -0.010810347 0.053843744 0.07668517 -0.004902891 -0.033846322
-0.01698836 0.031966604 -0.11082892 0.0108018285 -0.0893868 0.07480973 0.18865344 0.07526283
0.1673575 0.1297518 -0.06586368 -0.04243732 0.065128215 -0.14019279 -0.023322064 -0.11702917
0.009664264 -0.09152535 -0.049969345 -0.08124966 -0.11179628 0.00063882454 -0.121685855 -0.034829043
0.0042314115 -0.124900304 0.1274206 -0.15723385 0.00587321 0.08018615 -0.021379389 0.046161857
-0.24178946 0.039163064 0.07809502 0.005183047 0.052544106 0.0890736 0.004007621 -0.10496662
-0.025196813 -0.012989561 -0.038303792 0.023234652 -0.008645616 -0.0040246495 -0.015955653 0.012495141
-0.019527892 0.011709687 0.15729733 0.08303348 -0.0839468 0.024180733 0.017468162 0.09354984
-0.11376612 0.0031050257 -0.017741285 -0.04526057 -0.1885549 0.021017332 -0.11933101 -0.055919457
0.07772613 -0.10483292 -0.064174265 0.04298908 -0.045103665 0.009819767 -0.047736548 0.009831093
0.083631195 -0.02347327 -0.057110872 -0.018192433 0.010298319 0.09932558 -0.14688893 0.09535575
0.05335367 -0.068190694 0.023733296 0.019458055 -0.1410975 0.020475525 -0.050238468 -0.053946618
0.04193686 -0.0627649 0.020695368 -0.08183346 0.04367088 0.023913322 0.005939236 0.034402218
0.06070193 0.03809739 -0.044991165 -0.09206916 0.04859679 0.032183625 0.16064247 -0.013889474
9.236004e-05 0.11947242 0.016492516 0.17746522 0.116761476 -0.15158506 0.014504766 -0.08040872
0.086371504 -0.01317512 0.21887892 0.022668267 0.032998197 -0.07691531 0.0232422 0.08104905
0.0056564794 -0.099821806 0.11450828 -0.0945651 -0.08133618 0.12234126 -0.032805238 -0.060040742
-0.01138732 0.17476465 0.105557956 0.026980847 -0.2573135 0.015690777 -0.11010038 -0.031327467
0.09035915 0.14185143 -0.08078742 0.07348964 -0.015194781 -0.0001167901 0.08496302 0.0051862146
0.041030876 0.022772226 -0.031710226 0.029964913 -0.101080604 -0.04698265 0.1911087 -0.08228155
0.082995206 0.016789217 0.07189891 0.012013477 0.0954249 -0.10078958 -0.09013524 -0.11140195
-0.0047344626 -0.042655565 0.01766272 0.0449629 -0.033767506 0.106692925 -0.08726441 -0.015326273
0.12583724 0.06889102 -0.11607857 0.15723126 -0.096162125 0.17196009 -0.032842502 -0.05005723
0.08339196 0.072094515 0.10244003 0.05002572 -0.050494526 0.0727234 -0.07103249 0.09958534
0.08137226 -0.09562987 0.0023876233 -0.08840241 -0.12512447 -0.055153828 -0.016019907 0.014186254
-0.18467925 -0.01982229 -0.19364573 -0.08806364 0.052796684 -0.07135371 -0.11679651 0.0041457354
-0.1185349 0.024008935 0.09956107 -0.2533681 0.12670378 0.10820574 0.034025077 0.075611435
0.029148672 -0.029493785 0.06452785 -0.087079085 0.11709379 0.13672768 -0.20107074 -0.058298938
-0.030638745 -0.08244515 0.119534485 -0.19364557 0.12675403 -0.06623558 0.030307658 0.07499443
-0.048966784 -0.028237762 0.06215376 -0.0040299348 0.02626666 0.016199803 -0.03641187 -0.0123723205
0.047875516 0.11243702 -0.11552827 0.12523496 -0.050067894 -0.005135387 0.11612224 0.04657462
00000000: 97c5 0f3e d641 45be 328b cebc bc70 043c
00000010: 436d 003e bb59 35bd 8723 2f3e 9144 7ebc
00000020: 5b05 4dbc 6db2 573e dc83 d33d e21d 31bc
00000030: 428b 5c3d 1d0d 9d3d 6ea8 a0bb 71a2 0abd
00000040: 2c2b 8bbc 6aef 023d 46fa e2bd 27fa 303c
00000050: 6d10 b7bd d835 993d 5e2e 413e 6623 9a3d
00000060: c45f 2b3e a8dd 043e 89e3 86bd c1d2 2dbd
00000070: f161 853d b38e 0fbe ea0d bfbc fdac efbd
00000080: dc56 1e3c a571 bbbd a8ac 4cbd 3966 a6bd
00000090: 73f5 e4bd ca76 273a 6f36 f9bd e6a8 0ebd
000000a0: a7a7 8a3b bbcb ffbd 8c7a 023e e901 21be
000000b0: 0e74 c03b a338 a43d d423 afbc 3714 3d3d
000000c0: a897 77be 7369 203d 48f0 9f3d 8dd6 a93b
000000d0: 7d38 573d 386c b63d 5d52 833b bdf8 d6bd
000000e0: 8c69 cebc 2bd2 54bc 70e4 1cbd 9956 be3c
000000f0: 57a6 0dbc 35e1 83bb 6eb5 82bc 6bb8 4c3c
00000100: f5f8 9fbc fdd9 3f3c 8d12 213e 750d aa3d
00000110: 4dec abbd ac16 c63c 6419 8f3c 0f97 bf3d
00000120: 36fe e8bd b07d 4b3b 2c56 91bc 2663 39bd
00000130: 8914 41be 8a2c ac3c d163 f4bd cd0b 65bd
00000140: e12e 9f3d a4b2 d6bd cc6d 83bd 5115 303d
00000150: 9fbe 38bd 17e3 203c 6687 43bd 9812 213c
00000160: d546 ab3d 044b c0bc 17ed 69bd 4c08 95bc
00000170: 48ba 283c 366b cb3d 0d6a 16be e049 c33d
00000180: 6189 5a3d 90a7 8bbd 546c c23c 8066 9f3c
00000190: dd7b 10be 4abc a73c dac6 4dbd 21f7 5cbd
000001a0: fcc5 2b3d e28a 80bd 5589 a93c 4d98 a7bd
000001b0: 3de0 323d dfe5 c33c ec9d c23b 57e9 0c3d
000001c0: 96a2 783d 020c 1c3d a848 38bd c18e bcbd
000001d0: 6d0d 473d fad2 033d 767f 243e ad90 63bc
000001e0: 6bb1 c138 f5ad f43d 501b 873c 71b9 353e
000001f0: a420 ef3d 1d39 1bbe 66a5 6d3c 54ad a4bd
00000200: 8be3 b03d 75dc 57bc cc21 603e cdb2 b93c
00000210: 1e29 073d c685 9dbd 6d66 be3c 0bfd a53d
00000220: fd59 b93b 606f ccbd 5183 ea3d 59ab c1bd
00000230: 9593 a6bd 0e8e fa3d c95e 06bd 48ed 75bd
00000240: e291 3abc 81f5 323e c52e d83d f006 dd3c
00000250: 98be 83be f289 803c 4f7c e1bd 3b51 00bd
00000260: 380e b93d 8041 113e e073 a5bd bd81 963d
00000270: 88f3 78bc 35ed f4b8 1801 ae3d 1ff1 a93b
00000280: fe0f 283d d28c ba3c 95e2 01bd fa78 f53c
00000290: 5903 cfbd e170 40bd 00b2 433e 3b83 a8bd
000002a0: 64f9 a93d 8a89 893c bc3f 933d 2dd4 443c
000002b0: 216e c33d c46a cebd d398 b8bd b526 e4bd
000002c0: 8d23 9bbb 9ab7 2ebd 69b1 903c 052b 383d
000002d0: cc4f 0abd d281 da3d afb7 b2bd 0c1b 7bbc
000002e0: 7adb 003e bc16 8d3d 9aba edbd 3b01 213e
000002f0: a6f0 c4bd 4e16 303e dc85 06bd cf08 4dbd
00000300: 67c9 aa3d 4aa6 933d 14cc d13d c5e7 4c3d
00000310: 59d3 4ebd 02f0 943d 7b79 91bd 66f3 cb3d
00000320: 80a6 a63d 98d9 c3bd ac79 1c3b 530c b5bd
00000330: a120 00be fbe8 61bd 2e3c 83bc 766d 683c
00000340: 8f1c 3dbe 5b62 a2bc 114b 46be b65a b4bd
00000350: 5641 583d e521 92bd 0233 efbd f3d8 873b
00000360: 6dc2 f2bd 63ae c43c ade6 cb3d 77b9 81be
00000370: a3be 013e f99a dd3d e15d 0b3d 2bda 9a3d
00000380: 32c9 ee3c f39c f1bc 2d27 843d 8556 b2bd
00000390: dece ef3d 5702 0c3e 7de5 4dbe deca 6ebd
000003a0: 1bfe fabc 01d9 a8bd 7fce f43d 064b 46be
000003b0: cfcb 013e 85a6 87bd c447 f83c ae96 993d
000003c0: 6591 48bd e152 e7bc f194 7e3d 8b0d 84bb
000003d0: 2e2d d73c 73b5 843c 9d24 15bd 46b5 4abc
000003e0: 1e19 443d 6145 e63d 169a ecbd 983d 003e
000003f0: fe13 4dbd c046 a8bb 7fd1 ed3d 07c5 3e3d

network_body._body_endoder.seq_layers.2.bias f4 [128]
0.0072352113 0.016654577 0.0336118 -0.013805253 -0.0008667225 0.027518611 -0.03048085 -0.035460368
0.0027459085 -0.008582123 -0.010202485 0.03569068 0.033860233 0.02087261 0.029048335 0.004363656
0.036999546 0.020999929 0.001900106 0.0045271628 -0.016327428 -0.044773497 -0.029733945 -0.021560889
0.0354552 -0.023748344 0.0046117757 0.029510256 0.016547324 -0.03331768 0.041161858 0.028900843
0.018144848 -0.031084321 -0.025267785 -0.039008304 -0.015770078 -0.0043166834 -0.026911814 0.031517643
0.034741282 0.006008967 -0.02421849 0.021686453 0.00079468684 0.01630699 -0.023122478 0.0070716282
-0.008477717 0.015410445 -0.029041044 -0.01478334 -0.035694253 0.03138297 0.028973708 0.018961903
0.0012643895 0.016940134 0.034511052 0.0068985918 -0.02464512 -0.016851032 0.017076856 -0.034220424
-0.021367941 0.0025873634 0.012066965 -0.033338178 -0.017229017 -0.03887698 -0.010081378 -0.01416631
0.0062358202 -0.02102767 0.010787105 -0.02233316 -0.013646285 -0.027800372 -0.031202659 -0.006767602
-0.014582057 0.033308964 0.035853267 0.013809045 0.009963482 -0.012789922 -0.032815956 0.0040563717
0.014343943 -0.0326283 0.014578424 -0.018860761 -0.038886946 -0.013149507 0.0057927934 0.02916516
0.030760325 0.010210246 0.022354107 -0.034724694 -0.03309231 -0.03333764 0.03254578 -0.0020795586
0.021059765 0.037496183 0.029066514 -0.028381588 -0.015193398 -0.02342512 -0.010907379 -0.02257747
0.022731766 0.012149845 -0.0017766792 0.009934874 -0.014802049 -0.020807499 -0.009304863 -0.018349657
-0.0031383792 0.020330442 -0.014933225 -0.034027968 -0.024856718 0.018954992 -0.037081074 -0.013923173
00000000: 5a15 ed3b 2e6f 883c 87ac 093d 6e2f 62bc
00000010: c334 63ba b66e e13c fab2 f9bc e43e 11bd
00000020: b3f4 333b 089c 0cbc 5328 27bc 6430 123d
00000030: 07b1 0a3d 09fd aa3c c6f6 ed3c 00fd 8e3b
00000040: d68c 173d 0b08 ac3c fa0c f93a 9858 943b
00000050: 19c1 85bc 6a64 37bd 9a94 f3bc 76a0 b0bc
00000060: 7939 113d e38b c2bc 611e 973b 7ebf f13c
00000070: 418e 873c 1f78 08bd 5699 283d 76c1 ec3c
00000080: 81a4 943c 8ca4 febc 63fe cebc 2cc7 1fbd
00000090: 4030 81bc f772 8dbb 2a76 dcbc a518 013d
000000a0: e04c 0e3d dee6 c43b db65 c6bc caa7 b13c
000000b0: 8852 503a 3d96 853c 5a6b bdbc 1eb9 e73b
000000c0: 1fe6 0abc 177c 7c3c 7ce7 edbc d235 72bc
000000d0: 2334 12bd 6e8b 003d 455a ed3c fe55 9b3c
000000e0: dfb9 a53a 09c6 8a3c 765b 0d3d 950d e23b
000000f0: 90e4 c9bc 2d0b 8abc c3e4 8b3c b72a 0cbd
00000100: d20b afbc c190 293b 85b4 453c 9d8d 08bd
00000110: de23 8dbc 783d 1fbd 5d2c 25bc d019 68bc
00000120: da55 cc3b 3842 acbc 66bc 303c 08f4 b6bc
00000130: ab94 5fbc 9bbd e3bc b89c ffbc c3c2 ddbb
00000140: 94e9 6ebc fb6e 083d e0da 123d 553f 623c
00000150: df3d 233c d28c 51bc 066a 06bd 50eb 843b
00000160: dc02 6b3c 41a5 05bd 58da 6e3c e281 9abc
00000170: eb47 1fbd 0871 57bc 79d1 bd3b c6eb ee3c
00000180: 14fd fb3c e048 273c f61f b73c 7b3b 0ebd
00000190: cd8b 07bd 0d8d 08bd b94e 053d 3449 08bb
000001a0: 8785 ac3c 9995 193d e61c ee3c 8180 e8bc
000001b0: bbed 78bc 0ae6 bfbc ddb4 32bc 63f4 b8bc
000001c0: f837 ba3c 2510 473c 76df e8ba e2c5 223c
000001d0: 4b84 72bc 7d74 aabc 6d73 18bc 0552 96bc
000001e0: 44ad 4dbb 078c a63c 7caa 74bc e960 0bbd
000001f0: 51a0 cbbc 8047 9b3c 53e2 17bd 051e 64bc

action_model._discrete_distribution.branches.0.weight f4 [3, 128]
-0.04325333 -0.017978996 -0.028499741 0.005373959 0.0006460969 -0.012656458 0.013832651 0.02163741
-0.015915075 0.0009724489 0.0020063831 -0.03060595 -0.042273294 0.001241477 -0.018074585 -0.00855775
-0.03827354 -0.0042122286 -0.01681543 -0.0020986237 0.009122405 0.025816793 0.014546985 0.023503367
-0.04409508 0.028675593 -0.003919116 -0.027766969 -0.042304143 0.026883218 -0.04885221 -0.01531501
0.0008498722 0.036495224 0.0028823828 0.017325232 0.0047810003 -0.021890515 0.018325686 -0.038218386
-0.028178839 -0.034818307 0.038108133 -0.025140012 0.01335991 -0.019064706 0.014323563 -0.0098193735
-0.029690683 -0.018531881 0.034715448 0.018424118 0.032789353 -0.030765047 -0.02913347 -0.036844388
-0.022255411 -0.037100587 -0.026985608 -0.012145087 0.02688426 -0.004261322 -0.008500041 0.019473888
0.014758606 -0.00865495 -0.031098384 0.02170641 0.03205464 0.020226391 0.019498305 -0.014819179
-0.006007005 0.040359985 -0.010465031 0.016466843 0.014779381 -0.0015876774 0.017148007 -0.0024620395
0.0029294766 -0.040887125 -0.02232415 0.0005920678 -0.022143502 0.0051286723 0.0109271 -0.018863993
-0.0034234175 0.02226558 0.0010443984 -0.0010904543 0.02377431 -0.008155873 -0.008680346 -0.026208507
-0.0040570684 -0.0117638 -0.021881284 0.035717975 0.01305523 0.030693226 -0.04113515 -0.005971352
-0.032227483 -0.016810229 -0.035531107 0.0029563494 0.008602707 0.02465012 0.013481951 0.028146777
-0.012665018 -0.023066645 -0.002925702 -0.022949614 0.03224495 0.026662845 0.009120764 0.020692993
-0.018756744 0.0038434006 0.036665626 0.020606488 0.019188605 -0.044476915 0.03314433 0.036094785
0.0072507234 0.0061748857 0.011682456 -0.0016741168 0.017773494 0.026175471 -0.01651672 -0.027088847
-0.0035351145 0.0010665698 -0.011429347 0.0318652 0.022130722 0.025691502 0.032944314 0.008184348
0.058193058 0.033513952 -0.0032202732 -0.010582928 -0.019241534 -0.03734834 -0.033601254 -0.050847378
0.017640458 -0.04657593 0.00912899 0.047177054 0.017121501 -0.03529471 0.04266857 0.02872181
0.022010772 -0.03731365 -0.0069259247 -0.053295992 -0.010621014 0.0014294179 -0.015788449 0.04221953
0.044885885 -0.00028942295 -0.045704078 0.010384364 -0.01201953 0.012626511 -0.004754927 0.021731572
0.0035716244 0.01027698 -0.035422564 -0.0062327143 -0.037967645 0.036076885 0.039557215 0.018405778
0.020386912 -0.014380847 0.034792595 0.03944647 -0.04461777 -0.02166679 0.0057666544 -0.033163954
-0.024470467 0.020391237 0.015557918 -0.035612978 -0.02432474 -0.029207649 -0.0071809907 -0.003702704
0.027043972 -0.028517881 0.009125884 -0.0049705557 -0.007830261 -0.028813776 0.0019777818 -0.0034158868
-0.016869716 0.04242465 0.042519152 0.013961107 0.010132675 -0.011157494 0.0007047087 0.016668476
0.024016684 -0.03379809 0.025965665 -0.016142463 -0.027719727 -0.007000057 0.007924479 0.044716
0.039010588 0.036013108 0.039965495 -0.036866337 -0.00902308 -0.03972099 0.03652882 -0.000699113
0.016819922 0.04362473 0.024617808 -0.01685223 -0.030914452 -0.015947562 -0.02226035 -0.02768283
0.039186925 0.036644675 0.00094820914 0.004898821 -0.015621297 -0.01952194 -0.0052748984 -0.023953278
0.00041932904 0.03313812 -0.041692644 -0.03608789 -0.032837722 0.001164015 -0.042357013 -0.036146734
00000000: 672a 31bd b048 93bc 4a78 e9bc 0918 b03b
00000010: d45e 293a 085d 4fbc 58a2 623c f040 b13c
00000020: 5560 82bc f1eb 7e3a 867d 033b 54b9 fabc
00000030: c326 2dbd 0eb9 a23a 2711 94bc ce35 0cbc
00000040: b7c4 1cbd bc06 8abb 83c0 89bc 1089 09bb
00000050: 2476 153c bd7d d33c 7a56 6e3c 228a c03c
00000060: 0b9d 34bd 14e9 ea3c ee6b 80bb 8e77 e3bc
00000070: 1c47 2dbd 323a dc3c 4119 48bd cfeb 7abc
00000080: f5c9 5e3a 047c 153d 5ce6 3c3b a5ed 8d3c
00000090: f0a9 9c3b bd53 b3bc c01f 963c e28a 1cbd
000000a0: 4fd7 e6bc a49d 0ebd 4617 1c3d 6df2 cdbc
000000b0: 86e3 5a3c 962d 9cbc 61ad 6a3c 70e1 20bc
000000c0: e039 f3bc 2cd0 97bc c931 0e3d 2dee 963c
000000d0: 214e 063d fb06 fcbc 51a9 eebc 24ea 16bd
000000e0: fb50 b6bc c9f6 17bd ec10 ddbc 30fc 46bc
000000f0: 613c dc3c 8fa2 8bbb c243 0bbc b487 9f3c
00000100: 15ce 713c 7ecd 0dbc 0ac2 febc a4d1 b13c
00000110: ba4b 033d d1b1 a53c e9ba 9f3c 24cc 72bc
00000120: 69d6 c4bb 8350 253d 8575 2bbc 79e5 863c
00000130: 3825 723c 9d19 d0ba fa79 8c3c 2b5a 21bb
00000140: 76fc 3f3b 4279 27bd 23e1 b6bc ff34 1b3a
00000150: 4a66 b5bc 6c0e a83b 9407 333c a988 9abc
00000160: 6a5b 60bb 4e66 b63c 32e4 883a 93ed 8eba
00000170: 57c2 c23c 36a0 05bc 0338 0ebc 39b3 d6bc
00000180: 28f1 84bb f4bc 40bc 6140 b3bc 034d 123d
00000190: 9ae5 553c 5c70 fb3c 557d 28bd 55ab c3bb
000001a0: f700 04bd 9bb5 89bc 1189 11bd 50bf 413b
000001b0: 5ef2 0c3c 0cef c93c 67e3 5c3c 1294 e63c
000001c0: f080 4fbc 43f6 bcbc 22bd 3fbb d400 bcbc
000001d0: 4813 043d 0a6c da3c 426f 153c 5a84 a93c
000001e0: bea7 99bc 90e1 7b3b b22e 163d f0ce a83c
000001f0: 6c31 9d3c 6d2d 36bd 59c2 073d 20d8 133d
00000200: 7a97 ed3b b256 ca3b c667 3f3c 0a6e dbba
00000210: b899 913c f16d d63c 134e 87bc 6ee9 ddbc
00000220: 61ad 67bb 25cc 8b3a 2842 3bbc 1585 023d
00000230: 7d4b b53c fc76 d23c 9ef0 063d a517 063c
00000240: d85b 6e3d ed45 093d 380b 53bb 0464 2dbc
00000250: 6ca0 9dbc 93fa 18bd 78a1 09bd 5745 50bd
00000260: b982 903c 67c6 3ebd c291 153c ba3c 413d
00000270: 6442 8c3c 3091 10bd 3dc5 2e3d 004a eb3c
00000280: ef4f b43c 33d6 18bd def2 e2bb e64c 5abd
00000290: c303 2ebc 4e5b bb3a c756 81bc 63ee 2c3d
000002a0: 43da 373d b1bd 97b9 3334 3bbd 2e23 2a3c
000002b0: 90ed 44bc 6ddf 4e3c 38cf 9bbb 6906 b23c
000002c0: ea11 6a3b c760 283c 4017 11bd cc3b ccbb
000002d0: f683 1bbd 5bc5 133d bf06 223d b7c7 963c
000002e0: 7402 a73c a59d 6bbc ae82 0e3d 9f92 213d
000002f0: 1fc1 36bd 8d7e b1bc 34f6 bc3b edd6 07bd
00000300: 4a76 c8bc 860b a73c a3e6 7e3c eade 11bd
00000310: ad44 c7bc e144 efbc 844e ebbb 11a9 72bb
00000320: 528b dd3c 559e e9bc bb84 153c 0be0 a2bb
00000330: 7f4a 00bc de0a ecbc ac9d 013b 12dd 5fbb
00000340: 5c32 8abc 78c5 2d3d 9028 2e3d 20bd 643c
00000350: 8503 263c eccd 36bc 33bc 383a 548c 883c
00000360: a3be c43c de6f 0abd f2b5 d43c 333d 84bc
00000370: 7b14 e3bc bc60 e5bb add5 013c 2028 373d
00000380: 91c9 1f3d 7b82 133d dcb2 233d 2801 17bd
00000390: 8ad5 13bc 7ab2 22bd 3e9f 153d ae44 37ba
000003a0: efc9 893c d8af 323d 49ab c93c b00d 8abc
000003b0: 4e40 fdbc 76a4 82bc 565b b6bc 1ac7 e2bc
000003c0: 7882 203d ba18 163d 3d91 783a 4a86 a03b
000003d0: 78f0 7fbc 7aec 9fbc 0ed9 acbb aa39 c4bc
000003e0: 64d9 db39 d6bb 073d e8c5 2abd e5d0 13bd
000003f0: d980 06bd dd91 983a 8c7e 2dbd 990e 14bd

action_model._discrete_distribution.branches.0.bias f4 [3]
-0.034915514 0.0423409 -0.017836701
00000000: 9203 0fbd a76d 2d3d 461e 92bc

action_model._discrete_distribution.branches.1.weight f4 [2, 128]
-0.008106506 0.009007028 -0.005167956 0.004208099 -0.00921884 -0.00018644346 0.011463338 0.010018871
-0.008802749 0.013274659 0.009957843 -0.0074384953 -0.0035811965 0.0039351103 0.0014021116 0.033889864
-0.018149989 -0.011310247 0.0060466966 0.00059002545 0.0061861384 0.011965769 0.007019232 -0.010366098
-0.00885099 -0.0057822587 0.019101905 -0.004471253 -0.0026660329 0.0010070122 -0.00046450846 0.0005181352
0.0005452002 0.014984202 0.001420846 0.010272179 0.019882116 0.0093110595 -0.0052827373 -0.021172622
0.00038551394 0.004591662 -0.0042156293 9.9014665e-05 0.014372141 -0.0048371744 0.0074811587 -0.009479573
-0.00050693966 0.0033361905 0.0052001486 0.024578549 0.00794365 -0.0002512717 3.2497355e-05 0.021683613
0.00087942375 0.016285766 0.0026452597 -0.0088332435 -0.019471217 0.0037928547 0.008686229 -0.0008356017
-0.011126555 -0.0029178916 -0.0014607548 0.017979058 0.027421888 -0.0029158643 0.018239042 0.020368425
-0.008879204 -0.005932022 0.002786037 0.028095128 0.023613226 0.011685653 -0.0066414834 0.019776095
0.009444692 -0.005366903 -0.017550498 0.006717815 0.0023011118 0.0029731523 0.022640796 -0.009579912
0.0027909349 0.004003751 8.879613e-05 0.009620164 0.016603047 0.005981247 -0.00494369 0.006617229
-0.0035065943 -0.012145673 -0.012070204 -0.005101904 0.0116361985 -0.0034135347 -0.00929425 0.0056390804
0.009935755 -0.008020792 -0.0045526274 0.0062202686 -0.0049471883 0.008759028 0.008540693 -0.0032171719
-0.015809605 0.010293252 0.008403668 -0.0037670562 0.0013453583 0.0013973794 -0.003978438 0.011877021
0.00043427123 -0.010252137 0.007267908 0.009035223 -0.0011487225 0.002805168 0.0073987506 -0.010169144
0.00054841756 0.011773668 0.0056187073 -0.005059191 -0.0069625624 0.0076144496 -0.00344886 -6.570398e-05
-0.015819276 -0.022728002 0.0066328677 0.010002454 0.0061545745 0.008917472 0.006650699 -0.0037162735
0.011874631 0.008254278 0.0077192616 0.0036544087 -0.0059580165 -0.01763302 -0.022902532 -0.010959801
-0.0014793413 0.0020877928 -0.0151949935 -0.008531554 0.011147644 -0.010519369 0.0012286827 0.012418585
0.0049745142 0.008512868 -0.0018596568 -0.010611808 -0.017218491 -0.004761029 -0.004910445 0.002930943
0.0031232692 0.003744935 0.0134347 -0.0031250326 -0.02480085 -0.0036923862 0.007294712 -0.005315
-0.0035891156 -0.016176967 -0.014711528 -0.015557196 -0.016145747 -8.6515734e-05 -0.011417097 -0.0069762575
0.013150878 0.011872953 0.013865357 0.006777819 -0.0031299859 0.0034100192 0.005290475 -0.006039581
0.004456629 0.0020928194 0.0046812543 -0.00941226 -0.009347856 -0.008809239 -0.011782804 -0.015407054
0.0134223355 0.01402175 -0.0051195812 -0.0017002053 -0.017272538 -0.0056531252 -0.008562984 -0.014572894
-0.008711958 0.012956482 -0.009276906 0.010726478 0.001700376 0.012876838 -0.02896332 -0.0051717134
0.024921186 -0.011609752 0.007210621 -0.0054932917 0.0067203464 -0.012754115 -0.0043888274 -0.011156126
-0.0031424763 0.007368927 0.012087367 -0.008498312 -0.016277082 -0.012777549 0.003402694 -0.009658854
-0.0048798462 -0.0032985292 0.006946768 0.0068896073 -0.006314707 -0.0056743077 -0.0028648349 -0.009574028
-0.008125768 0.01722952 -0.014955277 -0.0068322457 -0.01610106 -0.0006519683 -0.006262644 -0.023116017
-0.00011889033 -0.0070931837 -0.0035721273 -0.004794169 -0.01030467 -0.016884187 0.0038893938 0.010278665
00000000: 27d1 04bc 3792 133c f557 a9bb 18e4 893b
00000010: 9e0a 17bc 0980 43b9 b9d0 3b3c 3126 243c
00000020: 6839 10bc f57d 593c 3926 233c 9fbe f3bb
00000030: 82b2 6abb 19f2 803b 0fc7 b73a 19d0 0a3d
00000040: 49af 94bc 9d4e 39bc 5e23 c63b f0ab 1a3a
00000050: 17b5 ca3b 130c 443c 9601 e63b 91d6 29bc
00000060: be03 11bc 1a79 bdbb 997b 9c3c 9783 92bb
00000070: 9cb8 2ebb b9fd 833a 4589 f3b9 77d3 073a
00000080: c4eb 0e3a 4c80 753c ae3b ba3a a44c 283c
00000090: d2df a23c 6a8d 183c d01a adbb 3572 adbc
000000a0: ce1e ca39 a775 963b 4323 8abb 18a6 cf38
000000b0: 2179 6b3c 2981 9ebb 8224 f53b 3650 1bbc
000000c0: 25e4 04ba fda3 5a3b 0266 aa3b f458 c93c
000000d0: 1526 023c 1ebd 83b9 c54d 0838 d5a1 b13c
000000e0: 2189 663a ba69 853c 185c 2d3b 4fb9 10bc
000000f0: 1a82 9fbc 8b91 783b af50 0e3c 480c 5bba
00000100: 274c 36bc 193a 3fbb cc76 bfba d148 933c
00000110: dea3 e03c 1618 3fbb 0b6a 953c afdb a63c
00000120: 157a 11bc 6861 c2bb f295 363b c127 e63c
00000130: 8670 c13c 2e75 3f3c cda0 d9bb 7a01 a23c
00000140: e9bd 1a3c d8dc afbb 10c6 8fbc 1e21 dc3b
00000150: 40ce 163b 38d9 423b 3179 b93c 10f5 1cbc
00000160: 1ee8 363b e631 833b 0f38 ba38 e49d 1d3c
00000170: 1d03 883c 56fe c33b adfe a1bb 57d5 d83b
00000180: e4ce 65bb a5fe 46bc 1bc2 45bc df2d a7bb
00000190: c1a5 3e3c 9cb5 5fbb e946 18bc 09c8 b83b
000001a0: 94c9 223c a469 03bc 352e 95bb 65d3 cb3b
000001b0: 061c a2bb 0782 0f3c 43ee 0b3c 30d7 52bb
000001c0: 2583 81bc 07a5 283c 8aaf 093c b7e0 76bb
000001d0: bc56 b03a 4628 b73a 8f5d 82bb d697 423c
000001e0: e6ae e339 94f8 27bc a227 ee3b 7908 143c
000001f0: bb90 96ba e9d6 373b 3871 f23b 7b9c 26bc
00000200: aec3 0f3a 58e6 403c 221d b83b 92c7 a5bb
00000210: 3526 e4bb a282 f93b 4506 62bb 8eca 89b8
00000220: 6d97 81bc 1330 babc 8758 d93b 55e1 233c
00000230: 50ac c93b 971a 123c 1bee d93b b98c 73bb
00000240: d08d 423c f43c 073c dcf1 fc3b ce7e 6f3b
00000250: 773b c3bb 2073 90bc 179e bbbc bd90 33bc
00000260: 75e6 c1ba 5ad3 083b 6cf4 78bc eec7 0bbc
00000270: 9ca4 363c 6e59 2cbc c00b a13a 5277 4b3c
00000280: 4001 a33b 8e79 0b3c babf f3ba 26dd 2dbc
00000290: cb0d 8dbc 6802 9cbb cce7 a0bb 1015 403b
000002a0: c3af 4c3b 956d 753b 371d 5c3c 59cd 4cbb
000002b0: 272b cbbc f6fb 71bb 7b08 ef3b 7429 aebb
000002c0: 5e37 6bbb 8f85 84bc 9f08 71bc 9ce3 7ebc
000002d0: 1644 84bc c86f b5b8 c70e 3bbc 1799 e4bb
000002e0: c876 573c c686 423c 862b 633c 7718 de3b
000002f0: 7320 4dbb a17a 5f3b b95b ad3b ade7 c5bb
00000300: ea08 923b af27 093b 3565 993b e135 1abc
00000310: c027 19bc a054 10bc a90c 41bc de6d 7cbc
00000320: 5be9 5b3c 7bbb 653c 29c2 a7bb 6cd9 deba
00000330: 237f 8dbc da3d b9bb c24b 0cbc 26c3 6ebc
00000340: 9abc 0ebc 6d47 543c 2afe 17bc 1cbe 2f3c
00000350: 27df de3a 60f9 523c 7c44 edbc 7a77 a9bb
00000360: 8427 cc3c d436 3ebc 1347 ec3b 1201 b4bb
00000370: 5a36 dc3b a3f6 50bc 27d0 8fbb 2fc8 36bc
00000380: 01f2 4dbb 0a77 f13b 170a 463c 813c 0bbc
00000390: 8457 85bc ed58 51bc bbff 5e3b 2c40 1ebc
000003a0: 1ee7 9fbb 232c 58bb b7a1 e33b 37c2 e13b
000003b0: 9aeb cebb 8bef b9bb f4bf 3bbb 62dc 1cbc
000003c0: f121 05bc ec24 8d3c fa06 75bc 08e1 dfbb
000003d0: 5fe6 83bc dae8 2aba de36 cdbb cd5d bdbc
000003e0: c354 f9b8 f06d e8bb 5a1a 6abb 6818 9dbb
000003f0: ebd4 28bc b550 8abc 33e5 7e3b d967 283c

action_model._discrete_distribution.branches.1.bias f4 [2]
0.0019670941 -0.0019670941
00000000: 5dea 003b 5dea 00bb

onnx::Div_68 f4 [284]
11.873242 2.2441838 0.0036657345 4.2947097 8.76624 0.07266238 0.0036657345 0.0036657345
29.497305 2.884477 0.0036657345 32.51479 0.61289555 0.0036657345 16.57184 0.8725884
0.0036657345 37.21675 0.10860065 0.0036657345 29.10463 1.6141813 0.0036657345 8.381056
1.411384 0.0036657345 22.879465 0.8937891 0.0036657345 16.82526 0.4291491 0.0036657345
68.54159 0.70587444 0.0036657345 16.8188 0.9002599 0.0036657345 37.8745 0.7029047
0.0036657345 2.3664572 0.47556657 0.0036657345 1.3062701 0.05768949 0.0036657345 35.69205
2.9537075 0.0036657345 30.377937 0.29116684 0.0036657345 2.399183 0.103382215 0.0036657345
28.895021 2.886266 0.0036657345 79.409515 1.4630537 0.0036657345 77.50308 2.18022
0.0036657345 67.13842 3.9198496 0.0036657345 130.09587 5.4187183 0.0036657345 181.79073
8.074647 0.0036657345 145.45595 7.0822577 0.0036657345 25.916613 0.5706567 0.0036657345
63.772503 2.8075047 0.0036657345 20.64902 0.880044 0.0036657345 60.917824 3.302175
0.0036657345 62.67561 3.3026445 0.0036657345 149.0771 7.6841836 0.0036657345 72.478745
7.9059086 0.0036657345 27.765543 0.49691427 0.0036657345 50.59921 4.3960395 0.0036657345
29.30802 3.02034 0.0036657345 35.95252 2.2250419 0.0036657345 42.4491 2.3675432
0.0036657345 27.561893 4.5102158 0.0036657345 26.754522 0.43739882 0.0036657345 37.566048
1.4561837 0.0036657345 95.98241 0.8072247 0.0036657345 21.416662 1.6827009 0.0036657345
73.44962 2.6665657 0.0036657345 67.445114 6.031697 0.0036657345 82.66548 5.586271
0.0036657345 100.69183 2.7276635 0.0036657345 76.69316 0.82594275 0.0036657345 50.18038
1.7161509 0.0036657345 78.59311 0.35439306 0.0036657345 168.628 4.813457 0.0036657345
41.037064 2.2293332 0.0036657345 84.82755 8.013134 0.0036657345 105.072395 6.5614214
0.0036657345 89.71867 4.479741 0.0036657345 28.436426 1.781194 0.0036657345 64.62872
0.9424621 0.0036657345 15.14537 3.0842495 0.0036657345 56.51971 0.6222667 0.0036657345
57.763027 2.1246302 0.0036657345 56.970722 3.0841992 0.0036657345 22.071745 3.4897153
0.0036657345 65.3996 3.3520195 0.0036657345 72.104675 1.2777778 0.0036657345 183.88173
7.839663 0.0036657345 43.735985 3.0900934 0.0036657345 43.142246 3.140586 0.0036657345
12.917091 2.6520512 0.0036657345 45.626923 2.022572 0.0036657345 75.91404 3.4692702
0.0036657345 16.769276 0.5665295 0.0036657345 121.05222 8.667192 0.0036657345 55.931377
4.2676196 0.0036657345 118.008514 3.9121466 0.0036657345 62.71159 3.2066438 0.0036657345
55.609917 1.2118278 0.0036657345 68.27509 8.536102 0.0036657345 175.69931 7.562241
0.0036657345 1.6407815 2.9150047 0.0036657345 130.11845 6.6910386 0.0036657345 32.517677
3.3857696 0.0036657345 64.31194 7.192327 0.0036657345 43.21591 3.075664 0.0036657345
51.337032 3.486011 0.0036657345 9.365156 2.1172824 0.0036657345 128.6813 8.018347
00000000: cdf8 3d41 b5a0 0f40 d23c 703b 436e 8940
00000010: 8542 0c41 04d0 943d d23c 703b d23c 703b
00000020: 7bfa eb41 459b 3840 d23c 703b 250f 0242
00000030: b9e6 1c3f d23c 703b 2193 8441 f461 5f3f
00000040: d23c 703b f4dd 1442 056a de3d d23c 703b
00000050: 48d6 e841 7e9d ce3f d23c 703b ce18 0641
00000060: 3ba8 b43f d23c 703b 2509 b741 5dcf 643f
00000070: d23c 703b 229a 8641 6eb9 db3e d23c 703b
00000080: 4b15 8942 30b4 343f d23c 703b e78c 8641
00000090: 6f77 663f d23c 703b 7d7f 1742 90f1 333f
000000a0: d23c 703b 0974 1740 767d f33e d23c 703b
000000b0: dc33 a73f d14b 6c3d d23c 703b a9c4 0e42
000000c0: 8b09 3d40 d23c 703b 0406 f341 d213 953e
000000d0: d23c 703b 378c 1940 0eba d33d d23c 703b
000000e0: 0129 e741 95b8 3840 d23c 703b acd1 9e42
000000f0: 5845 bb3f d23c 703b 9401 9b42 b988 0b40
00000100: d23c 703b df46 8642 d1de 7a40 d23c 703b
00000110: 8b18 0243 2466 ad40 d23c 703b 6dca 3543
00000120: c131 0141 d23c 703b b974 1143 dba1 e240
00000130: d23c 703b 3955 cf41 8f16 123f d23c 703b
00000140: 0b17 7f42 28ae 3340 d23c 703b 3131 a541
00000150: 904a 613f d23c 703b daab 7342 d656 5340
00000160: d23c 703b d3b3 7a42 875e 5340 d23c 703b
00000170: bd13 1543 d5e4 f540 d23c 703b 1ef5 9042
00000180: 34fd fc40 d23c 703b d51f de41 8c6b fe3e
00000190: d23c 703b 9765 4a42 5bac 8c40 d23c 703b
000001a0: d376 ea41 404d 4140 d23c 703b 61cf 0f42
000001b0: 1667 0e40 d23c 703b e1cb 2942 d485 1740
000001c0: d23c 703b c27e dc41 b053 9040 d23c 703b
000001d0: 4309 d641 bdf2 df3e d23c 703b a243 1642
000001e0: 3a64 ba3f d23c 703b fef6 bf42 47a6 4e3f
000001f0: d23c 703b 5355 ab41 be62 d73f d23c 703b
00000200: 35e6 9242 03a9 2a40 d23c 703b e6e3 8642
00000210: a903 c140 d23c 703b ba54 a542 bbc2 b240
00000220: d23c 703b 3862 c942 0a92 2e40 d23c 703b
00000230: e662 9942 fc70 533f d23c 703b b6b8 4842
00000240: d5aa db3f d23c 703b ac2f 9d42 0273 b53e
00000250: d23c 703b c5a0 2843 d707 9a40 d23c 703b
00000260: f425 2442 65ad 0e40 d23c 703b b5a7 a942
00000270: cc35 0041 d23c 703b 1125 d242 2af7 d140
00000280: d23c 703b f66f b342 0a5a 8f40 d23c 703b
00000290: cd7d e341 2afe e33f d23c 703b e841 8142
000002a0: 3245 713f d23c 703b 6f53 7241 5864 4540
000002b0: d23c 703b 2f14 6242 df4c 1f3f d23c 703b
000002c0: 570d 6742 f1f9 0740 d23c 703b 05e2 6342
000002d0: 8563 4540 d23c 703b ef92 b041 7f57 5f40
000002e0: d23c 703b 98cc 8242 7d87 5640 d23c 703b
000002f0: 9835 9042 398e a33f d23c 703b b9e1 3743
00000300: 85de fa40 d23c 703b a6f1 2e42 17c4 4540
00000310: d23c 703b a991 2c42 5cff 4840 d23c 703b
00000320: 68ac 4e41 35bb 2940 d23c 703b f881 3642
00000330: d271 0140 d23c 703b fdd3 9742 8608 5e40
00000340: d23c 703b 7a27 8641 1408 113f d23c 703b
00000350: bd1a f242 d2ac 0a41 d23c 703b bbb9 5f42
00000360: 5790 8840 d23c 703b 5c04 ec42 9c60 7a40
00000370: d23c 703b abd8 7a42 a739 4d40 d23c 703b
00000380: 8e70 5e42 2c1d 9b3f d23c 703b d98c 8842
00000390: e093 0841 d23c 703b 06b3 2f43 e1fd f140
000003a0: d23c 703b 2105 d23f 708f 3a40 d23c 703b
000003b0: 531e 0243 fd1c d640 d23c 703b 1a12 0242
000003c0: 73b0 5840 d23c 703b b79f 8042 8b27 e640
000003d0: d23c 703b 18dd 2c42 aed7 4440 d23c 703b
000003e0: 1f59 4d42 ce1a 5f40 d23c 703b aed7 1541
000003f0: 8e81 0740 d23c 703b 6aae 0043 264b 0041
