Assets/Training/results/finally_works/PlayerAgentBehavior/PlayerAgentBehavior-8461.onnx (onnx, 224882 bytes, 11 tensors)

discrete_act_size_vector f4 [1, 2]
3.0 2.0
00000000: 0000 4040 0000 0040

network_body.observation_encoder.processors.0.normalizer.running_mean f4 [284]
9.836501 3.2732098 0.0 2.4949174 -0.291472 0.003190735 0.0 0.0
588.55145 24.250765 0.0 458.58984 13.587333 0.0 238.60637 2.8715436
0.0 400.18506 7.678586 0.0 548.8892 16.366186 0.0 585.84845
25.89296 0.0 363.2701 9.070288 0.0 371.62045 7.4815884 0.0
410.01428 9.00897 0.0 228.91714 2.7088974 0.0 215.4369 14.248908
0.0 569.56494 11.2779455 0.0 109.09755 9.787398 0.0 418.7022
10.351154 0.0 369.6322 8.3464 0.0 633.0826 27.893515 0.0
462.79834 10.950554 0.0 195.98943 8.314609 0.0 408.1796 13.791517
0.0 440.33234 21.608812 0.0 239.22652 9.944328 0.0 565.72174
22.951698 0.0 331.8957 10.900168 0.0 242.0641 8.584697 0.0
372.92517 11.415614 0.0 303.07336 9.314527 0.0 436.02054 17.783772
0.0 307.66162 11.172477 0.0 540.12256 22.125523 0.0 451.57947
9.212857 0.0 445.04205 7.91618 0.0 543.97925 18.588926 0.0
558.22107 20.15195 0.0 524.10876 20.299915 0.0 403.72656 15.534027
0.0 401.89948 8.2161875 0.0 350.9791 7.8628025 0.0 363.09412
9.744946 0.0 485.73352 9.892815 0.0 518.26697 12.32486 0.0
356.58975 7.9230156 0.0 451.2847 19.602001 0.0 372.04477 9.990783
0.0 549.9702 15.019689 0.0 387.24237 12.508302 0.0 304.63535
11.662146 0.0 171.85736 9.625198 0.0 497.71127 21.384432 0.0
601.07404 26.364794 0.0 413.554 9.231826 0.0 182.9434 19.788544
0.0 350.24234 12.620813 0.0 443.6487 7.9299912 0.0 307.6077
9.492256 0.0 327.0138 4.8307033 0.0 460.32596 3.3803592 0.0
361.57324 5.2397027 0.0 466.21576 6.3842463 0.0 487.83682 9.145282
0.0 345.5842 3.3114672 0.0 246.43079 5.773754 0.0 591.2769
21.667719 0.0 571.384 20.82741 0.0 514.7404 16.444887 0.0
535.52435 12.7500925 0.0 449.38614 6.1454077 0.0 387.13943 6.7288775
0.0 315.1277 2.0204048 0.0 602.05347 21.987764 0.0 504.27377
13.759702 0.0 293.31723 7.98156 0.0 371.40353 6.5955863 0.0
467.53195 4.0877924 0.0 625.9578 22.814938 0.0 314.3379 10.363739
0.0 210.51892 0.3837111 0.0 478.3117 12.037325 0.0 507.30545
6.9036884 0.0 548.5323 20.090029 0.0 579.03925 20.759052 0.0
502.04932 15.728539 0.0 511.19202 15.019369 0.0 311.42212 4.3843627
00000000: 4f62 1d41 457c 5140 0000 0000 baac 1f40
00000010: d13b 95be a61b 513b 0000 0000 0000 0000
00000020: 4b23 1344 9101 c241 0000 0000 804b e543
00000030: b765 5941 0000 0000 3b9b 6e43 5fc7 3740
00000040: 0000 0000 b017 c843 fab6 f540 0000 0000
00000050: e938 0944 f3ed 8241 0000 0000 4d76 1244
00000060: c824 cf41 0000 0000 93a2 b543 e61f 1141
00000070: 0000 0000 6bcf b943 2c69 ef40 0000 0000
00000080: d401 cd43 be24 1041 0000 0000 caea 6443
00000090: 935e 2d40 0000 0000 d96f 5743 87fb 6341
000000a0: 0000 0000 2864 0e44 7772 3441 0000 0000
000000b0: f231 da42 2f99 1c41 0000 0000 e259 d143
000000c0: 549e 2541 0000 0000 ecd0 b843 db8a 0541
000000d0: 0000 0000 4945 1e44 eb25 df41 0000 0000
000000e0: 3066 e743 7835 2f41 0000 0000 4bfd 4343
000000f0: a308 0541 0000 0000 fd16 cc43 0eaa 5c41
00000100: 0000 0000 8a2a dc43 d9de ac41 0000 0000
00000110: fd39 6f43 f81b 1f41 0000 0000 316e 0d44
00000120: 149d b741 0000 0000 a6f2 a543 1767 2e41
00000130: 0000 0000 6910 7243 eb5a 0941 0000 0000
00000140: 6c76 ba43 5ba6 3641 0000 0000 6489 9743
00000150: 4d08 1541 0000 0000 a102 da43 2a45 8e41
00000160: 0000 0000 b0d4 9943 77c2 3241 0000 0000
00000170: d807 0744 1201 b141 0000 0000 2cca e143
00000180: dd67 1341 0000 0000 6285 de43 5951 fd40
00000190: 0000 0000 acfe 0744 1fb6 9441 0000 0000
000001a0: 268e 0b44 3237 a141 0000 0000 f606 0344
000001b0: 3a66 a241 0000 0000 00dd c943 608b 7841
000001c0: 0000 0000 22f3 c843 8175 0341 0000 0000
000001d0: 537d af43 149c fb40 0000 0000 0c8c b543
000001e0: 4ceb 1b41 0000 0000 e4dd f243 f848 1e41
000001f0: 0000 0000 1691 0144 a032 4541 0000 0000
00000200: 7d4b b243 5889 fd40 0000 0000 71a4 e143
00000210: e6d0 9c41 0000 0000 bb05 ba43 3fda 1f41
00000220: 0000 0000 187e 0944 a550 7041 0000 0000
00000230: 069f c143 0122 4841 0000 0000 5351 9843
00000240: 2698 3a41 0000 0000 7cdb 2b43 d000 1a41
00000250: 0000 0000 0bdb f843 5113 ab41 0000 0000
00000260: bd44 1644 19eb d241 0000 0000 e9c6 ce43
00000270: 8fb5 1341 0000 0000 83f1 3643 f04e 9e41
00000280: 0000 0000 051f af43 daee 4941 0000 0000
00000290: 09d3 dd43 7dc2 fd40 0000 0000 c9cd 9943
000002a0: 48e0 1741 0000 0000 c481 a343 1f95 9a40
000002b0: 0000 0000 b929 e643 ce57 5840 0000 0000
000002c0: 60c9 b443 a5ab a740 0000 0000 9e1b e943
000002d0: bf4b cc40 0000 0000 1deb f343 1353 1241
000002e0: 0000 0000 c7ca ac43 14ef 5340 0000 0000
000002f0: 486e 7643 98c2 b840 0000 0000 b9d1 1344
00000300: 7d57 ad41 0000 0000 93d8 0e44 899e a641
00000310: 0000 0000 63af 0044 218f 8341 0000 0000
00000320: 8fe1 0544 6100 4c41 0000 0000 6db1 e043
00000330: 2ea7 c440 0000 0000 d991 c143 f752 d740
00000340: 0000 0000 5890 9d43 504e 0140 0000 0000
00000350: 6c83 1644 f1e6 af41 0000 0000 0b23 fc43
00000360: bd27 5c41 0000 0000 9ba8 9243 f168 ff40
00000370: 0000 0000 a7b3 b943 0b0f d340 0000 0000
00000380: 17c4 e943 32cf 8240 0000 0000 4d7d 1c44
00000390: fe84 b641 0000 0000 402b 9d43 e0d1 2541
000003a0: 0000 0000 d884 5243 c875 c43e 0000 0000
000003b0: e627 ef43 e298 4041 0000 0000 19a7 fd43
000003c0: 04eb dc40 0000 0000 1122 0944 61b8 a041
000003d0: 0000 0000 83c2 1044 8a12 a641 0000 0000
000003e0: 5006 fb43 19a8 7b41 0000 0000 9498 ff43
000003f0: 564f 7041 0000 0000 08b6 9b43 b34c 8c40

network_body._body_endoder.seq_layers.0.weight f4 [128, 284]
-0.064993694 -0.039623205 0.032776747 -0.029221864 -0.021330373 -0.06550116 0.023835966 0.080433466
0.010546409 -0.07284921 0.005755801 0.05667097 0.007825443 0.07946228 -0.06144471 -0.04471072
-0.11096957 0.017567448 0.07367095 0.031371415 -0.06207261 -0.018916348 -0.026961345 -0.057911266
-0.09792856 0.044438396 0.028809195 0.069849856 -0.02259787 -0.021406261 0.050814427 -0.013929015
0.08747133 0.0019100236 -0.010543859 0.009319073 -0.06609634 -0.029239332 0.013687999 -0.0116997
0.053831145 -0.036255274 0.039467126 -0.0034228312 -0.15268317 0.031150442 -0.06653372 0.030816004
-0.017966218 -0.04438867 0.00047122382 0.1221035 0.13839291 -0.04962139 -0.0110992165 -0.061888017
-0.122461885 0.0753851 -0.0650977 0.10054716 0.027169775 0.03305178 0.007731388 -0.04128123
0.08832799 -0.11683164 0.0010173246 0.046957485 -0.05453694 0.037508592 -0.04308841 -0.12159068
0.04600603 -0.039367877 -0.053449634 0.0013472984 -0.06604341 0.027139934 0.037500184 0.020597931
-0.088919654 -0.045822203 0.061882287 0.05857917 -0.10452673 -0.037710283 0.12866513 0.078650296
-0.030675258 0.046682823 0.033003166 -0.08585521 0.060273796 0.03354268 0.08632618 -0.012079517
0.02512544 0.050255824 -0.09026921 -0.06349013 -0.013484799 -0.012193018 -0.08277823 0.120683074
-0.023625918 0.086077586 0.0216784 -0.0031362039 0.058269564 -0.017085088 0.04977034 -0.056256473
0.040641792 -0.033599067 -0.045196947 -0.07575431 0.033384368 0.02828042 -0.022997212 0.09919365
0.010910542 0.15313873 -0.03146061 0.039130613 0.02525858 -0.08036545 -0.030988509 -0.07702603
0.009163899 0.11692776 0.055074286 -0.052762475 -0.0012523987 0.054410618 -0.02657684 0.0066267136
0.021595132 -0.10499435 0.018190142 0.12851046 0.005761002 -0.04771415 -0.15518865 0.0057359757
0.016975557 -0.021138947 0.030320782 -0.028833352 0.016090788 -0.029208355 -0.005705507 0.03814322
-0.08604401 -0.036808856 -0.021964243 -0.05370281 0.07470096 -0.00079373835 0.0055294754 0.018791929
0.011273402 -0.054496244 0.0070504826 0.014604994 0.13277149 -0.12596647 -0.012048083 -0.12285267
0.004550637 -0.014944281 0.047530383 0.032071956 0.077827804 -0.017704915 -0.054392345 0.077412814
0.07405242 -0.035242986 0.08769085 0.024072226 0.04890969 0.0010457815 -0.021122051 -0.009243579
-0.016298994 -0.035200488 0.036042817 -0.023153134 0.08950196 0.03271661 0.052521028 -0.04355235
-0.06897082 -0.08518997 -0.11156073 -0.058069468 -0.038554072 -0.01398068 -0.016016085 -0.03802102
-0.008666459 0.060965616 0.008444 -0.0518024 0.016046058 0.009276748 0.018711008 -0.022390394
-0.014388059 -0.09826071 0.009012745 -0.11272132 0.017038561 0.0066416673 -0.00328318 0.049456865
-0.010421911 -0.0036614698 -0.07284483 0.03516234 0.0028928763 0.04088287 0.04622264 0.03141497
-0.02371271 -0.040336482 -0.041937225 0.076543175 0.019200232 -0.032245893 -0.087554164 -0.08763938
-0.067054555 0.07259063 0.07120974 -0.07152879 -0.05653545 0.04678802 0.00018060277 0.06816068
0.018376334 0.083773404 -0.1058868 -0.01854557 -0.086965874 0.091136694 -0.08813423 0.01384038
-0.09983892 0.009395036 -0.040116556 -0.009425769 0.015132999 0.012773167 -0.024236402 -0.13812552
00000000: 6a1b 85bd f14b 22bd e940 063d b162 efbc
00000010: 09bd aebc 7925 86bd a543 c33c 4dba a43d
00000020: d8ca 2c3c f731 95bd 299b bc3b d21f 683d
00000030: 4936 003c 1fbd a23d 73ad 7bbd 9722 37bd
00000040: 0444 e3bd 9ce9 8f3c cce0 963d 507f 003d
00000050: d93f 7ebd 75f6 9abc 0ade dcbc 5d34 6dbd
00000060: c58e c8bd 0905 363d 4301 ec3c 710d 8f3d
00000070: 2b1f b9bc 2f5c afbc ca22 503d 8636 64bc
00000080: 2b24 b33d c259 fa3a 26c0 2cbc 06af 183c
00000090: 855d 87bd 5387 efbc a143 603c 19b0 3fbc
000000a0: 0c7e 5c3d 6980 14bd 48a8 213d 9451 60bb
000000b0: fa58 1cbe 362f ff3c d542 88bd d871 fc3c
000000c0: e42d 93bc e5d0 35bd 970e f739 6611 fa3d
000000d0: dfb6 0d3e cc3f 4bbd 7dd9 35bc 4a7e 7dbd
000000e0: 4ccd fabd 8163 9a3d f151 85bd abeb cd3d
000000f0: 2693 de3c 4e61 073d 9557 fd3b 8216 29bd
00000100: 4ee5 b43d 6d45 efbd c057 853a 7e56 403d
00000110: 2062 5fbd 9ca2 193d 797d 30bd 8904 f9bd
00000120: d270 3c3d 3640 21bd 01ee 5abd d597 b03a
00000130: c441 87bd 9154 de3c cb99 193d febc a83c
00000140: 821b b6bd 10b0 3bbd 4878 7d3d b6f0 6f3d
00000150: 1c12 d6bd 1976 1abd cbc0 033e 6813 a13d
00000160: ae4a fbbc 7d36 3f3d 542e 073d dbd4 afbd
00000170: a8e1 763d 0d64 093d c8cb b03d 2be9 45bc
00000180: ded3 cd3c 0dd9 4d3d 10df b8bd 1d07 82bd
00000190: 59ef 5cbc 39c5 47bc a287 a9bd b028 f73d
000001a0: 248b c1bc 7249 b03d e696 b13c c588 4dbb
000001b0: 11ac 6e3d 07f6 8bbc fcdb 4b3d 306d 66bd
000001c0: 0278 263d 2d9f 09bd 6f20 39bd 1325 9bbd
000001d0: 0cbe 083d 57ac e73c a664 bcbc 0a26 cb3d
000001e0: 21c2 323c 66d0 1c3e d7dc 00bd 6c47 203d
000001f0: 15eb ce3c a496 a4bd 9ddb fdbc d3bf 9dbd
00000200: 2e24 163c d277 ef3d 9395 613d 771d 58bd
00000210: 8727 a4ba abdd 5e3d acb7 d9bc e724 d93b
00000220: 46e8 b03c 4707 d7bd 7e03 953c 3f98 033e
00000230: cac6 bc3b ea6f 43bd c6e9 1ebe daf4 bb3b
00000240: 5310 8b3c 962b adbc 4a63 f83c ec33 ecbc
00000250: d4d0 833c 5c46 efbc 43f5 babb 113c 1c3d
00000260: d837 b0bd e2c4 16bd 5bee b3bc 7af7 5bbd
00000270: d1fc 983d e112 50ba 9a30 b53b 88f1 993c
00000280: 13b4 383c 7437 5fbd bc07 e73b c949 6f3c
00000290: 40f5 073e 5bfd 00be 5365 45bc 2e9a fbbd
000002a0: 831d 953b dcd8 74bc 38af 423d e25d 033d
000002b0: 2f64 9f3d e609 91bc 82ca 5ebd 9c8a 9e3d
000002c0: cca8 973d f35a 10bd 4397 b33d 1e33 c53c
000002d0: 8755 483d 9b12 893a 2708 adbc 6172 17bc
000002e0: 7885 85bc 632e 10bd a2a1 133d a4ab bdbc
000002f0: ce4c b73d da01 063d 4a20 573d f363 32bd
00000300: 9340 8dbd 1478 aebd f479 e4bd 40da 6dbd
00000310: e0ea 1dbd 390f 65bc 2a34 83bc eebb 1bbd
00000320: c3fd 0dbc 15b7 793d b458 0a3c c12e 54bd
00000330: 0673 833c 80fd 173c d447 993c 0f6c b7bc
00000340: e5bb 6bbc e93c c9bd 31aa 133c 6fda e6bd
00000350: 7494 8b3c 58a2 d93b 9f2a 57bb 4893 4a3d
00000360: aac0 2abc 45f5 6fbb ac2f 95bd 6306 103d
00000370: 6996 3d3b cc74 273d f353 3d3d fcac 003d
00000380: 2841 c2bc de37 25bd 5ec6 2bbd abc2 9c3d
00000390: ce49 9d3c 4514 04bd 994f b3bd 467c b3bd
000003a0: e653 89bd 65aa 943d 6ad6 913d b07d 92bd
000003b0: b791 67bd cba4 3f3d 3060 3d39 d497 8b3d
000003c0: f789 963c 6491 ab3d 2edb d8bd e1ec 97bc
000003d0: 2a1b b2bd e0a5 ba3d b87f b4bd c3c2 623c
000003e0: 5978 ccbd a3ed 193c 4251 24bd 8a6e 1abc
000003f0: 66f0 773c 8c46 513c 6b8b c6bc c770 0dbe

network_body._body_endoder.seq_layers.0.bias f4 [128]
-0.009740599 0.033613496 -0.034901965 0.027681937 0.013876701 0.022522202 0.02453925 0.00082775624
0.021675862 0.028192619 -0.024727106 -0.024415027 0.013597181 0.026263887 -0.030226119 0.030378561
0.033481862 0.023204144 0.02740108 0.0058841663 0.026001215 0.015012794 -0.031943467 -0.026182251
0.03354317 -0.027906902 -0.026207391 -0.027742004 -0.025107404 0.027509632 -0.034745246 -0.023386102
0.022863738 -0.026315268 0.023953795 -0.031488355 -0.025789378 0.020745903 -0.030604852 0.024930025
0.030609159 0.0010328064 -0.019040886 0.023458783 -0.0013727903 -0.02356842 0.01783701 -0.025231043
-0.024418473 0.029030988 -0.031344574 -0.03200358 0.006379536 -0.0038215155 -0.030095955 0.02876466
-0.02640656 0.020252185 0.016854983 -0.029737672 0.024094991 -0.0007062962 -0.032625064 0.031280715
-0.023421232 0.0028542823 0.022503503 -0.000986725 -0.031090964 -0.024759423 -0.02689277 -0.020408658
0.011645751 0.016813003 0.03361203 0.02568024 0.021946656 -0.004446107 -0.027312525 0.025576204
-0.0011134367 0.020384908 -0.028554667 -0.02802656 -0.024363393 0.02360448 0.030632492 0.0030970315
-0.032097436 0.022706758 0.020274747 -0.004342315 0.019838238 0.033410084 0.017471394 0.024466196
-0.030972268 -0.022211999 0.0259485 0.006494611 0.0030911744 -0.017950902 -0.030909762 0.018398372
0.023706915 0.017613089 0.02256701 0.03572311 0.024007214 0.022245655 -0.022898516 0.0012377815
0.032272443 0.0008793087 -0.03203462 0.01551313 0.02569189 0.015688505 0.028361943 -0.028262673
0.033021018 0.019556861 -0.0153960865 0.03249637 0.019819628 -0.010970183 -0.025267577 0.030302301
00000000: 0997 1fbc 4eae 093d 5df5 0ebd 3bc5 e23c
00000010: 1a5b 633c 7b80 b83c 8a06 c93c c8fd 583a
00000020: 9491 b13c 35f4 e63c 8090 cabc 0602 c8bc
00000030: b6c6 5e3c 5d27 d73c c49c f7bc 76dc f83c
00000040: 4724 093d 9e16 be3c 3b78 e03c f7cf c03b
00000050: 8000 d53c 39f8 753c 27d7 02bd 297c d6bc
00000060: 9064 093d 049d e4bc e2b0 d6bc 3343 e3bc
00000070: 0bae cdbc e15b e13c 0851 0ebd 3694 bfbc
00000080: bc4c bb3c 1e93 d7bc c03a c43c eff9 00bd
00000090: 3f44 d3bc 50f3 a93c 07b7 fabc 0d3a cc3c
000000a0: 0fc0 fa3c 3b5f 873a a2fb 9bbc a22c c03c
000000b0: 33ef b3ba 8f12 c1bc ec1e 923c 55b1 cebc
000000c0: 4009 c8bc 65d2 ed3c 2b63 00bd 3016 03bd
000000d0: 6d0b d13b 6472 7abb cb8b f6bc dda3 eb3c
000000e0: 9252 d8bc e9e7 a53c 7613 8a3c 6b9c f3bc
000000f0: dc62 c53c bc26 39ba dca1 05bd 3520 003d
00000100: e2dd bfbc e90e 3b3b 4459 b83c ff54 81ba
00000110: 7ab2 febc 46d4 cabc 3a4e dcbc 0f30 a7bc
00000120: d2cd 3e3c 6cbb 893c c5ac 093d 5e5f d23c
00000130: 79c9 b33c a6b0 91bb 84be dfbc 3085 d13c
00000140: bcf0 91ba 40fe a63c 7aeb e9bc f597 e5bc
00000150: bd95 c7bc 2f5e c13c fef0 fa3c 91f7 4a3b
00000160: 9a78 03bd 8603 ba3c 3a17 a63c fa49 8ebb
00000170: cd83 a23c 03d9 083d 2b20 8f3c 556d c83c
00000180: 8eb9 fdbc f0f5 b5bc f391 d43c bfd0 d43b
00000190: 4d95 4a3b c50d 93bc 7836 fdbc 2fb8 963c
000001a0: 0135 c23c 5349 903c 73de b83c 6552 123d
000001b0: c7aa c43c 853c b63c ab95 bbbc 0e3d a23a
000001c0: 1c30 043d 6881 663a bc36 03bd c92a 7e3c
000001d0: cc77 d23c 2e85 803c 4e57 e83c 1f87 e7bc
000001e0: 0c41 073d b635 a03c de3f 7cbc ea1a 053d
000001f0: c65c a23c 48bc 33bc f3fd cebc 883c f83c

network_body._body_endoder.seq_layers.2.weight f4 [128, 128]
-0.14897469 -0.0010154869 -0.09645809 -0.03638432 0.04312481 0.16626434 0.064413324 0.09563507
0.047685787 0.058419015 -0.12056719 -0.15684162 -0.03762891 -0.102823205 -0.18104188 0.22739793
-0.034556255 -0.03798386 0.033262506 -0.01158808 -0.018011933 -0.085523516 -0.10772628 -0.005044687
0.057748158 -0.033228464 -0.044307955 -0.10023178 -0.041040763 0.0145863965 -0.18079062 -0.0955302
0.062186792 -0.16755368 -0.011514045 -0.09518894 -0.015428359 0.020930883 -0.011249414 0.022456542
-0.009518056 0.006131683 0.11786863 0.09137244 -0.117089964 -0.23795712 0.07509466 0.015712315
-0.088846326 -0.010062725 0.032532327 -0.09708516 0.07995432 0.06406633 -0.09367991 0.032117452
-0.03376553 0.07636858 -0.01835168 0.045731224 -0.017612291 -0.045738224 -0.063063264 -0.06301507
0.021430885 0.10339696 -0.1362511 0.006633407 -0.009262878 -0.14974761 0.21010877 0.03856013
0.039564174 -0.0043642414 0.06454895 0.037958633 0.03609084 0.10148636 0.011452565 0.039136663
0.034085043 0.021751495 -0.0819184 0.075068064 0.10466499 0.024821984 0.16422412 0.13424967
0.04551997 0.018040393 -0.003928386 0.00031666874 0.006638808 0.011311969 -0.11125563 -0.04301713
0.04689371 -0.031175438 0.14255273 0.06678704 -0.07437708 -0.15731905 -0.061562058 -0.07112116
0.036458507 0.059673004 -0.007216192 0.014275706 0.113570794 0.1056944 0.008535742 0.14403176
0.1955879 -0.1258616 -0.15726826 -0.034034807 -0.017196503 0.059853602 0.114039145 -0.21421772
-0.017568478 0.15311326 -0.027578069 0.0886685 -0.033347324 -0.14007463 -0.009604252 0.21060497
0.01591785 -0.017864097 0.113364756 -0.08933704 0.028237507 0.013029013 0.079115145 0.06597427
-0.059246298 -0.15176584 -0.030273434 -0.020181997 -0.024567503 0.014368474 0.11550962 -0.032376364
-0.032529674 0.15471916 -0.10434742 0.047837585 -0.057478614 0.022162685 0.0068642315 -0.055921767
-0.13011636 -0.11537372 0.11322406 -0.0817123 0.016480068 -0.0202919 -0.014844138 0.09268879
-0.04275127 -0.12616639 -0.04073943 0.05509954 0.10904019 -0.014894507 -0.1506353 -0.18517983
-0.0023412316 -0.076222636 0.055282142 -0.08115259 -0.13253915 0.0104695335 0.03048226 -0.055406656
0.11930458 0.097378634 0.063177355 -0.019630332 -0.058042575 0.18786883 0.09513032 -0.030004969
0.12467497 -0.10978673 0.015285653 0.031660464 0.07868359 0.07363817 -0.10491041 -0.014230483
0.08741584 -0.020062476 -0.07749119 -0.01128127 0.068712994 -0.03596267 0.063987896 -0.10941241
0.07495918 0.14461407 -0.07750726 -0.07570739 0.048079275 0.115200855 0.050707657 -0.028202966
-0.02157926 -0.09000782 0.023883276 0.012495799 -0.084832154 -0.022393662 -0.048919637 -0.29856738
-0.10465876 -0.04945825 0.017596064 -0.011159136 -0.020910816 -0.021498948 -0.09360381 0.070309564
0.17159744 0.12692334 -0.00048584433 -0.16635332 -0.16892104 -0.07313576 0.023898836 0.053570297
-0.07160462 -0.0044021513 0.0045116576 -0.10541563 -0.04408052 0.0046221497 0.13954845 0.037976816
-0.07526461 0.08749142 0.05229279 -0.05961239 -0.08308477 -0.04594542 -0.040562335 -0.063406445
0.031515878 -0.13125926 -0.022289736 -0.01704484 -0.07240518 0.02846883 -0.037626207 -0.074170105
00000000: d28c 18be 161a 85ba d28b c5bd ba07 15bd
00000010: a4a3 303d 3341 2a3e 22eb 833d 52dc c33d
00000020: 2c52 433d c748 6f3d eeeb f6bd 179b 20be
00000030: c620 1abd f994 d2bd 0b63 39be 01db 683e
00000040: dc8a 0dbd f794 1bbd 443e 083d eedb 3dbc
00000050: c38d 93bc f426 afbd 999f dcbd e74d a5bb
00000060: 5589 6c3d 921a 08bd 427c 35bd 5246 cdbd
00000070: 5c1a 28bd c8fb 6e3c 2d21 39be 56a5 c3bd
00000080: 94b7 7e3d 3193 2bbe 68a5 3cbc 6bf2 c2bd
00000090: 3ac7 7cbc 3e77 ab3c 764f 38bc c8f6 b73c
000000a0: 9ff1 1bbc 49ec c83b 1c65 f13d 7921 bb3d
000000b0: ddcc efbd 08ab 73be 3bcb 993d 1db7 803c
000000c0: 10f5 b5bd 21de 24bc 9e40 053d 96d4 c6bd
000000d0: 17bf a33d 3535 833d 41db bfbd 978d 033d
000000e0: b94d 0abd 2167 9c3d 4356 96bc aa50 3b3d
000000f0: a747 90bc 0158 3bbd 5027 81bd 0c0e 81bd
00000100: d38f af3c c9c1 d33d 6985 0bbe 0d5d d93b
00000110: 54c3 17bc 7057 19be c126 573e 3af1 1d3d
00000120: 0b0e 223d e901 8fbb 3d32 843d 837a 1b3d
00000130: fdd3 133d 15d8 cf3d 8aa3 3b3c c44d 203d
00000140: c29c 0b3d 3130 b23c d6c4 a7bd 49bd 993d
00000150: 995a d63d 7957 cb3c 5e2a 283e bf78 093e
00000160: 2673 3a3d 72c9 933c b1b9 80bb 8f06 a639
00000170: 5c8a d93b d655 393c fed9 e3bd bb32 30bd
00000180: 9e13 403d a263 ffbc 58f9 113e a5c7 883d
00000190: 0353 98bd 3f18 21be 7f28 7cbd f9a7 91bd
000001a0: 8455 153d ae6b 743d ce75 ecbb a7e4 693c
000001b0: ce97 e83d 4e76 d83d 7fd9 0b3c 107d 133e
000001c0: 3248 483e dde1 00be ee0a 21be 1568 0bbd
000001d0: aedf 8cbc 0d29 753d 5b8d e93d e45b 5bbe
000001e0: c5eb 8fbc b9c9 1c3e 67eb e1bc d597 b53d
000001f0: 3497 08bd b96f 0fbe 275b 1dbc d4a8 573e
00000200: 2766 823c ba57 92bc c82b e83d 57f6 b6bd
00000210: 5852 e73c a477 553c 1f07 a23d 851d 873d
00000220: 3fac 72bd 8168 1bbe feff f7bc b754 a5bc
00000230: ca41 c9bc bf69 6b3c 4f90 ec3d 149d 04bd
00000240: d63d 05bd b36e 1e3e 1ab4 d5bd 58f1 433d
00000250: b26e 6bbd 858e b53c 59ed e03b 390e 65bd
00000260: 393d 05be 0f49 ecbd 04e2 e73d c758 a7bd
00000270: 3501 873c 333b a6bc d434 73bc 9fd3 bd3d
00000280: f51b 2fbd c331 01be 63de 26bd 0eb0 613d
00000290: 7750 df3d 1708 74bc 2440 1abe c89f 3dbe
000002a0: 596f 19bb 9d1a 9cbd 876f 623d 5433 a6bd
000002b0: 58b8 07be 6888 2b3c efb5 f93c 17f2 62bd
000002c0: f655 f43d 736e c73d 2163 813d cacf a0bc
000002d0: 0dbe 6dbd b060 403e afd3 c23d fbcc f5bc
000002e0: 9755 ff3d ddd7 e0bd ad70 7a3c 67ae 013d
000002f0: dd24 a13d 9ccf 963d 45db d6bd f926 69bc
00000300: 1307 b33d 105a a4bc b3b3 9ebd 13d5 38bc
00000310: 66b9 8c3d 984d 13bd 160c 833d 9d13 e0bd
00000320: 3384 993d b615 143e 20bc 9ebd 7a0c 9bbd
00000330: c6ee 443d 6dee eb3d d5b2 4f3d e809 e7bc
00000340: fdc6 b0bc 0556 b8bd dca6 c33c 2ebb 4c3c
00000350: 7bbc adbd ea72 b7bc f55f 48bd d3dd 98be
00000360: 5557 d6bd bc94 4abd 9f25 903c cfd4 36bc
00000370: 294d abbc 901e b0bc 5bb3 bfbd 76fe 8f3d
00000380: 3db7 2f3e 31f8 013e ecb8 feb9 8658 2abe
00000390: a3f9 2cbe 34c8 95bd 7ec7 c33c 876c 5b3d
000003a0: 71a5 92bd ec3f 90bb 87d6 933b 26e4 d7bd
000003b0: c68d 34bd 6775 973b cae5 0e3e 948d 1b3d
000003c0: 5524 9abd b42e b33d f730 563d 1f2c 74bd
000003d0: 5928 aabd 4431 3cbd b124 26bd 3ddb 81bd
000003e0: cb16 013d d468 06be f798 b6bc 9fa1 8bbc
000003f0: 2b49 94bd 7737 e93c f01d 1abd 7fe6 97bd

network_body._body_endoder.seq_layers.2.bias f4 [128]
0.03020536 -0.025171332 0.02032296 -0.021980701 0.0210266 -0.02019309 0.030557824 -0.019857502
0.030843066 -0.027921047 0.032166928 0.030810216 -0.014917477 0.025848217 0.014728028 -0.014163775
0.014415107 -0.026967376 -0.029464738 -0.015308874 -0.0072716554 0.021429807 0.027194122 0.02744997
-0.026498424 0.022823406 0.0030785694 -0.033705387 0.0034900222 0.022647291 -0.0125376675 0.029515909
-0.0004194606 0.028426504 0.023349497 0.010276179 0.02869368 -0.018622998 0.012457301 0.0033539587
0.03236624 -0.010207076 0.031819195 0.025370846 -0.026532928 -0.020747418 0.03425449 0.012597675
0.027175544 0.03216832 -0.015707398 -0.023017777 -0.031576414 0.030572843 -0.028392727 -0.027876591
-0.020978514 -0.027745215 -0.011135819 0.0017631971 0.023596935 0.029967995 -0.017218124 0.019877465
0.024621828 -0.034945942 -0.030958094 0.028262926 0.01953577 0.007389247 -0.02254478 0.027847253
-0.02518708 -0.030893689 -0.030983595 -0.025434835 0.031293698 -0.0035310949 0.023100585 -0.03191999
0.033714406 0.0331977 0.015283994 0.026171606 0.022834254 0.030209461 0.027224414 0.014860346
0.002986596 0.0271131 7.416172e-05 0.023296632 -0.031599395 -0.024120795 0.0129373465 0.011385845
0.032066867 0.030236246 -0.033637643 -0.008368491 0.014801579 0.025977517 -0.005825026 0.0334124
0.029167851 -0.02577697 -0.024018658 0.016642554 -0.031780805 -0.029094316 -0.0321882 0.028269943
0.023189561 -0.030129803 -0.026270185 -0.011962525 0.02587055 -0.030011676 0.028803507 0.017080346
-0.026936196 -0.0299499 -0.0292102 0.027452163 0.03155314 0.0230856 -0.024115747 -0.029470736
00000000: 3b71 f73c 1c34 cebc 567c a63c df10 b4bc
00000010: fa3f ac3c fb6b a5bc 6754 fa3c 33ac a2bc
00000020: 99aa fc3c aeba e4bc 78c1 033d b565 fc3c
00000030: 6f68 74bc a4bf d33c d44d 713c 2e0f 68bc
00000040: 572d 6c3c b0ea dcbc 0960 f1bc 12d2 7abc
00000050: 1147 eebb 908d af3c 35c6 de3c c2de e03c
00000060: 3913 d9bc 27f8 ba3c d3c1 493b a90e 0abd
00000070: dbb8 643b d086 b93c ca6a 4dbc 59cb f13c
00000080: 0ceb dbb9 b3de e83c 7247 bf3c 6b5d 283c
00000090: 020f eb3c 428f 98bc b519 4c3c 17ce 5b3b
000000a0: 7692 043d 943b 27bc d854 023d 85d6 cf3c
000000b0: 955b d9bc 7df6 a9bc 704e 0c3d 7b66 4e3c
000000c0: 3f9f de3c eec2 033d cdac 80bc c78f bcbc
000000d0: 4556 01bd e673 fa3c dd97 e8bc 735d e4bc
000000e0: 22db abbc ef49 e3bc 0373 36bc 141b e73a
000000f0: 5c4e c13c 717f f53c 060d 8dbc 11d6 a23c
00000100: b7b3 c93c 7a23 0fbd d49b fdbc a787 e73c
00000110: 7b09 a03c 7f21 f23b d5af b8bc ec1f e43c
00000120: 2355 cebc c314 fdbc 4fd1 fdbc b75c d0bc
00000130: d22d 003d f169 67bb 703d bd3c 89be 02bd
00000140: 1e18 0a3d 50fa 073d b869 7a3c d665 d63c
00000150: e70e bb3c d579 f73c bc05 df3c cf78 733c
00000160: c4ba 433b 4b1c de3c 4587 9b38 94d8 be3c
00000170: 5e6e 01bd f998 c5bc 2af7 533c b28b 3a3c
00000180: 8c58 033d 01b2 f73c a0c7 09bd ff1b 09bc
00000190: 5282 723c cdce d43c dcdf bebb 71db 083d
000001a0: 6bf1 ee3c 392a d3bc c7c2 c4bc f755 883c
000001b0: 972c 02bd 3457 eebc c6d7 03bd 5e96 e73c
000001c0: 09f8 bd3c c7d2 f6bc 9234 d7bc 77fe 43bc
000001d0: 7aee d33c 0cdb f5bc 55f5 eb3c 15ec 8b3c
000001e0: 4ca9 dcbc 7e59 f5bc 3b4a efbc 5ce3 e03c
000001f0: de3d 013d 031e bd3c 638e c5bc 9d6c f1bc

action_model._discrete_distribution.branches.0.weight f4 [3, 128]
-0.019586759 0.01738528 -0.009434281 -0.0011674233 -0.0008129579 0.022023616 -0.02169158 0.009219645
-0.010709583 0.015096947 -0.0078854 -0.026233854 -0.00047602193 -0.0077082925 0.0042662555 0.029737027
-0.0022188746 0.01465154 0.022475552 -0.0018397529 0.013364085 -0.017246315 -0.010378726 -0.008143123
0.022613492 -0.020718023 -0.0028986554 0.010663315 0.008182968 -0.016546406 -0.0013799912 -0.016519247
-0.0010331114 0.0014215519 0.0057509704 -0.0072286795 -0.018250257 -0.012818374 0.0035306045 -0.019601623
-0.011252899 0.0021217114 -0.024260713 -0.016814694 0.0016357023 0.0113883605 -0.013185686 -0.008402587
0.0056422986 0.0009092076 0.027146572 0.029754605 0.02179303 -0.017209077 0.024433848 0.030446865
0.027782938 0.016092302 -0.020364521 0.0114084445 -0.010837127 -0.015384837 -0.0030762996 -0.010726828
-0.012515465 0.013707866 0.014479007 -0.01837252 -0.009264651 0.006935892 0.03136466 -0.027868476
0.014073794 0.021241939 0.007646856 0.02028562 -0.011571886 -0.0038182347 -0.017618654 0.0053838203
-0.023900092 -0.014698178 -0.01985535 -0.028467417 -0.020981995 -0.01455059 -0.0052418895 -0.015447154
0.024106672 0.008824962 -0.007915548 0.00049161253 0.015724406 0.015103765 -0.027627882 -7.3145035e-05
-0.03289989 -0.025535695 0.008409557 -0.007476747 -0.0051447293 -0.01930043 0.0042187423 -0.0078024184
-0.019186199 0.008709606 0.019306323 -0.032882176 0.010168393 -9.443262e-05 0.004976045 -0.0003959902
-0.021779964 0.009131037 0.026034333 -0.00013863834 -0.008480458 0.03977987 0.0010322924 -0.033097733
0.01527928 0.022849843 0.026439527 0.009534794 -0.02124401 -0.047259185 0.027430765 -0.0013383427
0.033534173 -0.034008585 0.0325322 0.002241827 0.00914031 -0.019340714 0.027736899 -0.008985458
0.023744835 -0.027588634 0.023307346 0.036868062 -0.00980816 0.014333766 0.0053072753 -0.026801344
0.009863247 -0.0023324774 -0.028357862 -0.010265994 0.019360768 0.022820212 0.018325618 0.018360801
-0.012486881 0.006436034 -0.008345332 -0.023168165 -0.015463825 0.028475193 0.0027126889 0.029556485
0.0039498745 0.016932597 0.017583571 0.010400375 0.011696855 4.923164e-05 -0.0009651576 0.011175493
0.029068088 0.0019440945 0.030427657 0.024585538 -0.010966697 -0.016397959 0.035910062 0.019475728
0.022143897 0.011077776 -0.010773492 -0.04028846 -0.04390658 0.027032278 -0.032679684 -0.02493681
-0.017732736 -0.019166186 0.008186034 0.0022512325 0.0197743 0.007962204 -0.013936367 0.023402968
0.025362743 -0.029978577 -0.016495232 0.020729192 0.0019246357 -0.010907629 -0.047230523 0.028101651
-0.0466958 -0.02249952 -0.04025451 -0.019169264 0.011414407 0.0009881898 0.01781223 -0.037543416
0.024068302 0.02975973 0.0045587644 0.030398361 0.019465782 0.037283458 0.026406528 0.01820393
-0.010096948 0.009101085 0.013999036 0.021501018 -0.02474405 -0.024941234 0.011171242 0.003228292
0.033624407 0.026206609 -0.023424659 0.0036512096 0.012698673 0.026730942 0.0075802067 0.026004713
0.017352428 -0.033061374 -0.019724626 0.018187169 -0.032577507 -0.0013286698 -0.02023926 0.0137768695
-0.001062998 -0.00053306896 -0.036906883 -0.0021824348 0.01969856 -0.030312484 0.01954216 0.021967085
-0.03334426 -0.022212489 -0.030058727 0.01978262 0.029658923 0.0037219862 -0.032147627 -0.022986703
00000000: 6974 a0bc 936b 8e3c 3e92 1abc 3a04 99ba
00000010: ae1c 55ba df6a b43c 8ab2 b1bc fe0d 173c
00000020: 3f77 2fbc 2f59 773c c431 01bc 61e8 d6bc
00000030: 9592 f9b9 d895 fcbb f2cb 8b3b 119b f33c
00000040: 8a6a 11bb 030d 703c a61e b83c dd23 f1ba
00000050: 09f5 5a3c 2548 8dbc 880b 2abc bc6a 05bc
00000060: ee3f b93c d8b8 a9bc 5ef7 3dbb 2fb5 2e3c
00000070: db11 063c 548c 87bc d2e0 b4ba 5f53 87bc
00000080: 7769 87ba 5e53 ba3a a372 bc3b 8fde ecbb
00000090: 9081 95bc 2804 52bc b761 673b 9593 a0bc
000000a0: 145e 38bc 690c 0b3b 67be c6bc f8be 89bc
000000b0: 1065 d63a 3f96 3a3c c708 58bc 01ab 09bc
000000c0: 08e3 b83b e457 6e3a 7d62 de3c eebf f33c
000000d0: 4c87 b23c 0dfa 8cbc 7e29 c83c b46b f93c
000000e0: 0b99 e33c 01d4 833c 7fd3 a6bc 7cea 3a3c
000000f0: 358e 31bc af10 7cbc be9b 49bb 94bf 2fbc
00000100: aa0d 4dbc f596 603c 5b39 6d3c f881 96bc
00000110: c3ca 17bc 7b46 e33b 3b78 003d 6e4c e4bc
00000120: c595 663c 9303 ae3c 7a92 fa3b 072e a63c
00000130: 0298 3dbc 593b 7abb ff54 90bc c26a b03b
00000140: 20ca c3bc a0d0 70bc b0a7 a2bc 8034 e9bc
00000150: 6fe2 abbc 9965 6ebc 28c4 abbb 0f16 7dbc
00000160: 5b7b c53c 9396 103c 37b0 01bc 8fdf 003a
00000170: 78d0 803c c875 773c de53 e2bc 7165 99b8
00000180: 09c2 06bd 3c30 d1bc 3dc8 093c 80ff f4bb
00000190: 1e95 a8bb ef1b 9ebc 603d 8a3b 6eab ffbb
000001a0: 602c 9dbc bcb2 0e3c 4b28 9e3c 76af 06bd
000001b0: 5599 263c 200a c6b8 170e a33b e89c cfb9
000001c0: e56b b2bc 589a 153c f445 d53c 725f 11b9
000001d0: 9ef1 0abc 38f0 223d fc4d 873a 7d91 07bd
000001e0: f255 7a3c 982f bb3c b597 d83c d337 1c3c
000001f0: eb07 aebc d992 41bd 7cb6 e03c 546b afba
00000200: 215b 093d 964c 0bbd 7c40 053d 9eeb 123b
00000210: 3dc1 153c 6b70 9ebc 7e38 e33c be37 13bc
00000220: 8784 c23c 8f01 e2bc 0cef be3c f702 173d
00000230: 68b2 20bc 2cd8 6a3c a7e8 ad3b 7e8e dbbc
00000240: 7599 213c 7adc 18bb bf4e e8bc b332 28bc
00000250: 799a 9e3c 74f1 ba3c 9b1f 963c 6469 963c
00000260: c695 4cbc 5ee5 d23b dcba 08bc 2acb bdbc
00000270: fc5b 7dbc cf44 e93c 5ec7 313b 7120 f23c
00000280: f36d 813b 3bb6 8a3c 6c0b 903c 5666 2a3c
00000290: 2aa4 3f3c 127e 4e38 a102 7dba 6a19 373c
000002a0: 3320 ee3c fdd0 fe3a 6c43 f93c 9c67 c93c
000002b0: a9ad 33bc 0355 86bc 6e16 133d 908b 9f3c
000002c0: 1e67 b53c 8f7f 353c 4d83 30bc 8305 25bd
000002d0: 63d7 33bd cc72 dd3c 22db 05bd 4848 ccbc
000002e0: 3e44 91bc 6802 9dbc b71e 063c 6a89 133b
000002f0: b6fd a13c e773 023c 5c55 64bc 95b7 bf3c
00000300: 87c5 cf3c a295 f5bc 0221 87bc 44d0 a93c
00000310: 0f44 fc3a e9b5 32bc cb74 41bd 6f35 e63c
00000320: 1844 3fbd ea50 b8bc eae1 24bd dc08 9dbc
00000330: 7e03 3b3c 2686 813a f4ea 913c 20c7 19bd
00000340: e32a c53c adca f33c b061 953b fc05 f93c
00000350: b476 9f3c 8ab6 183d 8152 d83c 6920 953c
00000360: ab6d 25bc b81c 153c 365c 653c e722 b03c
00000370: 09b4 cabc 8f51 ccbc 9607 373c c191 533b
00000380: bfb9 093d 3eaf d63c 12e5 bfbc 2249 6f3b
00000390: 180e 503c d9fa da3c 6263 f83b d607 d53c
000003a0: ae26 8e3c 5d6b 07bd 8a95 a1bc 42fd 943c
000003b0: fe6f 05bd c326 aeba cecc a5bc 61b8 613c
000003c0: 4b54 8bba a7bd 0bba ac2b 17bd 2e07 0fbb
000003d0: e05e a13c e351 f8bc e116 a03c 51f4 b33c
000003e0: fe93 08bd f7f6 b5bc b83d f6bc 290f a23c
000003f0: 45f7 f23c 91ec 733b 3bad 03bd 9c4e bcbc

action_model._discrete_distribution.branches.0.bias f4 [3]
-0.021127846 0.028149528 -0.024487626
00000000: 4e14 adbc d799 e63c 469a c8bc

action_model._discrete_distribution.branches.1.weight f4 [2, 128]
0.017120413 -0.009284442 0.00829816 -0.006246165 0.006276561 -0.013108339 0.0053988686 0.021851806
0.02288019 -0.0062379236 0.011217981 0.019747216 -0.003053839 0.002589937 -0.022088194 -0.016298262
-0.025552452 -0.0061811353 -0.009139712 -0.0011731768 -0.003866542 -0.0031565547 0.006397915 0.03146791
0.008159936 -0.003669885 -0.00542406 -0.006901484 0.011036893 -0.0051319324 -0.0063206847 -0.002726907
0.021505587 0.014168693 -0.016998557 0.01782251 -0.012020579 -0.015921773 -0.00831166 -0.014909062
0.009296532 0.017368864 0.00956565 0.0035110675 -0.0046125576 -0.0040999358 0.026751978 0.014604023
-0.016009267 0.02542123 -0.0019434353 -0.002549667 -0.01655562 -0.0024014174 -0.0049063275 -0.016875885
0.0068279095 -0.0020082106 0.0025582996 0.020536728 0.0061014 -0.002171518 -0.0022420434 -0.023139307
-0.013733648 -0.0043193996 -0.005807259 0.02160707 0.000880294 0.00020345984 0.00057485816 0.0013959617
-0.005186948 -0.016503936 -0.0014965913 0.004875669 0.023170419 0.024758646 0.010620604 -0.009206084
0.0020204019 -0.0017521782 -0.019406158 -0.012925966 -0.007404812 0.0040661846 0.010259932 -0.0025608926
0.0128885945 0.0058685914 0.008216016 -0.020660589 -0.01389458 -0.0069945985 -0.007882378 0.01065632
0.0024726563 0.019470327 -0.011629111 -0.015775107 0.015106977 -0.004490616 0.0077568735 0.019095942
0.017306795 0.00019423668 0.004579506 -0.006864876 -0.015936533 0.0020210878 -0.016433565 -0.008749005
0.004267493 -0.013621357 0.001425494 -0.02547546 0.0055260556 -0.018783739 0.04791052 -0.006369957
0.0010521592 -0.014700481 -0.008287928 -0.009192436 0.015478337 -0.00970216 0.004650231 -0.0079129515
-0.013004182 -0.003124656 0.011567298 0.01699673 -0.0152033 0.017390888 -0.00063579687 -0.014620991
-0.021275757 0.005736726 -0.014898002 -0.0058505028 -0.006103087 0.004061539 0.033341505 0.012146037
0.03415299 0.005449165 -0.0006705275 0.0015962488 -0.003689495 -0.0151412655 0.0045172675 -0.025047334
0.0016074658 -0.0037378247 -0.0034497054 0.015956465 0.005356492 0.0090279095 -0.0029651595 0.008948076
-0.020847725 -0.04969174 0.023381678 -0.011817621 0.009081376 0.013587556 0.0068739885 0.01799062
-0.016181927 -0.0012279509 -0.018694475 0.020279419 -0.0055892277 0.013410631 -0.011773167 0.007477683
-0.0042002215 -0.01756713 0.016768912 0.002438852 0.01776695 -0.0010271916 0.015005667 -3.2424337e-05
0.019160805 -0.001169727 -0.007451482 -0.018455425 -0.0017400268 0.00059430185 -0.0014393134 -0.0042768
0.01389561 0.014582149 0.01927993 0.0073772874 -0.008191358 0.0041895425 0.0029601622 0.0072591184
0.00037246034 0.0076530073 0.018497802 0.00014216735 -0.023336412 0.012163169 0.007504031 0.02262289
-0.016841607 -0.0065746643 0.019943967 -0.0038053654 -0.0035090377 -0.018887421 -0.009297233 -0.01718118
-0.018048355 0.00030517226 0.007504719 0.014750577 0.0058206483 0.0048779678 0.00072921376 -0.0051926896
-0.017373348 -0.009149378 0.02813021 0.015048388 0.004344702 0.0058968826 -0.016307108 -0.018475566
-0.012181834 -0.0022943958 -0.0005580222 -0.009799449 0.0153640555 0.015963044 -0.009818499 0.0033395516
-0.0007104236 -0.010847041 0.010744932 0.024793448 0.0035236166 0.006313116 -0.024295297 0.015575015
0.0066498285 0.014606501 0.0049642837 -0.0005523569 5.0409715e-05 0.009586376 -0.007722428 0.01638781
00000000: 1c40 8c3c c61d 18bc 01f5 073c a1ac ccbb
00000010: 9cab cd3b 5cc4 56bc fee8 b03b 8f02 b33c
00000020: 3c6f bb3c 7f67 ccbb 9fcb 373c eac4 a13c
00000030: eb22 48bb efbb 293b 4df2 b4bc ef83 85bc
00000040: 6053 d1bc 1f8b cabb bbbe 15bc 48c5 99ba
00000050: cf65 7dbb 33de 4ebb 9aa5 d13b 7fe4 003d
00000060: 41b1 053c 7482 70bb 50bc b1bb d825 e2bb
00000070: 16d4 343c c529 a8bb bf1d cfbb e8b5 32bb
00000080: 7c2c b03c ce23 683c 8f40 8bbc 8300 923c
00000090: f6f1 44bc 616e 82bc a12d 08bc 2345 74bc
000000a0: 7b50 183c 2649 8e3c 3eb9 1c3c f019 663b
000000b0: f024 97bb c158 86bb f726 db3c b645 6f3c
000000c0: de25 83bc 2f40 d03c deba feba 5018 27bb
000000d0: a79f 87bc 1961 1dbb 42c5 a0bb 4c3f 8abc
000000e0: a8bc df3b 2f9c 03bb 25a9 273b a43c a83c
000000f0: 41ee c73b 0750 0ebb 3fef 12bb a58e bdbc
00000100: 1803 61bc c089 8dbb d24a bebb 4f01 b13c
00000110: 88c3 663a d657 5539 14b2 163a b4f8 b63a
00000120: 46f7 a9bb 4333 87bc 4529 c4ba 13c4 9f3b
00000130: e4cf bd3c a5d2 ca3c 0b02 2e3c 1dd5 16bc
00000140: b868 043b 58a9 e5ba aaf9 9ebc 6ec7 53bc
00000150: 11a4 f2bb a13d 853b 4619 283c a6d4 27bb
00000160: af2a 533c 504d c03b 789c 063c 6540 a9bc
00000170: 18a6 63bc f232 e5bb 1725 01bc d897 2e3c
00000180: 4a0c 223b 3c80 9f3c 0788 3ebc cc3a 81bc
00000190: 4183 773c 0426 93bb 5f2d fe3b 186f 9c3c
000001a0: fbc6 8d3c 03ac 4b39 ae0f 963b c1f2 e0bb
000001b0: 558d 82bc 3a74 043b af9f 86bc fd57 0fbc
000001c0: 53d6 8b3b 1d2c 5fbc a4d7 ba3a e9b1 d0bc
000001d0: ea13 b53b 5be0 99bc d23d 443d 12bb d0bb
000001e0: 9be8 893a 49da 70bc 17ca 07bc df9b 16bc
000001f0: da98 7d3c cff5 1ebc f760 983b 53a5 01bc
00000200: 7e0f 55bc 07c7 4cbb c484 3d3c ba3c 8b3c
00000210: 4317 79bc 5677 8e3c 9bab 26ba e28c 6fbc
00000220: 7f4a aebc 25fb bb3b c016 74bc 93b5 bfbb
00000230: 68fc c7bb a916 853b 1a91 083d 2c00 473c
00000240: 01e4 0b3d e98e b23b 57c6 2fba 3939 d13a
00000250: 74cb 71bb 1213 78bc 9605 943b 1130 cdbc
00000260: 9ab1 d23a 4bf6 74bb 7414 62bb 22b7 823c
00000270: 8385 af3b cce9 133c 1f53 42bb f39a 123c
00000280: d9c8 aabc 9189 4bbd ef8a bf3c b29e 41bc
00000290: 0dca 143c 579e 5e3c 323f e13b 1161 933c
000002a0: f68f 84bc 32f3 a0ba 2825 99bc 0621 a63c
000002b0: d725 b7bb 43b8 5b3c 3ee4 40bc 5a07 f53b
000002c0: 03a2 89bb f1e8 8fbc f55e 893c 26d5 1f3b
000002d0: ff8b 913c d5a2 86ba 54da 753c 5eff 07b8
000002e0: 1ff7 9c3c 8651 99ba 902b f4bb d52f 97bc
000002f0: 9c11 e4ba ecca 1b3a 58a7 bcba 6624 8cbb
00000300: 6aaa 633c f7e9 6e3c f2f0 9d3c 2cbd f13b
00000310: 0c35 06bc 6e48 893b 48ff 413b e6dd ed3b
00000320: c846 c339 14c6 fa3b b488 973c c212 1539
00000330: 012c bfbc 0748 473c 60e4 f53b a453 b93c
00000340: 69f7 89bc 4870 d7bb 8861 a33c 7063 79bb
00000350: e2f7 65bb cbb9 9abc 6c53 18bc 8cbf 8cbc
00000360: 25da 93bc 87ff 9f39 25ea f53b 67ac 713c
00000370: 23bb be3b 5cd7 9f3b b528 3f3a 7027 aabb
00000380: 8d52 8ebc 46e7 15bc 5371 e63c 848d 763c
00000390: 015e 8e3b a33a c13b 7c96 85bc 125a 97bc
000003a0: 5196 47bc 935d 16bb 3c48 12ba de8d 20bc
000003b0: 85b9 7b3c eec4 823c c5dd 20bc 61dc 5a3b
000003c0: b93b 3aba cab7 31bc 830b 303c a11b cb3c
000003d0: 7aec 663b 41de ce3b ee06 c7bc 592e 7f3c
000003e0: cee6 d93b 1b50 6f3c 6eab a23b 0bcc 10ba
000003f0: 056f 5338 2d10 1d3c 6c0c fdbb bb3f 863c

action_model._discrete_distribution.branches.1.bias f4 [2]
0.0032507547 -0.0032507563
00000000: 9d0a 553b a40a 55bb

onnx::Div_68 f4 [284]
10.544419 2.6154943 0.01087085 6.522567 9.077332 0.05743456 0.01087085 0.01087085
78.3384 7.657631 0.01087085 86.33076 1.6279281 0.01087085 44.01862 2.3166804
0.01087085 98.80597 0.29101673 0.01087085 77.29127 4.2854013 0.01087085 22.409025
3.7480266 0.01087085 60.778923 2.3735611 0.01087085 44.68952 1.1401597 0.01087085
181.95775 1.8741122 0.01087085 44.672493 2.390129 0.01087085 100.561775 1.8678676
0.01087085 6.8707075 1.2641319 0.01087085 3.5040157 0.16067111 0.01087085 94.79169
7.841977 0.01087085 80.680275 0.774367 0.01087085 7.074575 0.30581796 0.01087085
76.75983 7.662983 0.01087085 52.6618 0.96385217 0.01087085 93.70802 4.360883
0.01087085 132.97237 2.684866 0.01087085 105.966255 3.6762726 0.01087085 141.65005
8.801393 0.01087085 111.62394 4.8101535 0.01087085 43.556904 0.4590075 0.01087085
124.33163 7.454491 0.01087085 34.881054 1.2465755 0.01087085 49.10021 2.1749268
0.01087085 53.25945 2.3696399 0.01087085 171.87508 10.246502 0.01087085 75.21189
5.17674 0.01087085 57.212067 1.2693709 0.01087085 48.18878 4.8979387 0.01087085
60.473293 5.901797 0.01087085 39.661896 3.520941 0.01087085 89.69702 6.283974
0.01087085 43.775883 3.0345883 0.01087085 48.755466 0.31031147 0.01087085 99.76073
3.866496 0.01087085 110.873924 0.5382586 0.01087085 56.494755 2.6015816 0.01087085
117.60565 1.9195392 0.01087085 131.17387 4.803346 0.01087085 92.82726 4.0103683
0.01087085 66.542625 3.6328194 0.01087085 57.957005 2.0494342 0.01087085 66.37832
3.1597307 0.01087085 130.4395 0.9422599 0.01087085 110.37442 3.1619897 0.01087085
48.91618 2.398841 0.01087085 78.82378 5.2386746 0.01087085 69.560356 6.5445814
0.01087085 64.55107 3.1302066 0.01087085 21.417475 1.1927832 0.01087085 43.037037
0.90724725 0.01087085 28.066149 3.8104782 0.01087085 52.8833 1.6535368 0.01087085
75.31084 5.6372356 0.01087085 78.5378 8.188778 0.01087085 21.233242 3.6682913
0.01087085 42.96636 2.1991487 0.01087085 120.71336 2.519236 0.01087085 126.27786
5.8734484 0.01087085 110.52844 8.192819 0.01087085 29.915638 4.4738655 0.01087085
12.30517 2.7286685 0.01087085 109.47924 3.5118587 0.01087085 113.18873 8.120277
0.01087085 43.708267 1.5039726 0.01087085 85.430504 5.960171 0.01087085 44.940567
5.5723343 0.01087085 131.91405 4.1458435 0.01087085 120.7869 8.096291 0.01087085
48.63671 3.219477 0.01087085 45.561974 5.625486 0.01087085 187.06007 8.022603
0.01087085 4.4827986 3.0003245 0.01087085 106.59927 6.0093226 0.01087085 86.09461
2.861474 0.01087085 154.845 7.844092 0.01087085 114.81229 8.161791 0.01087085
86.498276 6.128223 0.01087085 22.093643 5.6011662 0.01087085 166.27579 10.207644
00000000: f1b5 2841 4264 2740 a61b 323c deb8 d040
00000010: c03c 1141 8040 6b3d a61b 323c a61b 323c
00000020: 43ad 9c42 500b f540 a61b 323c 59a9 ac42
00000030: f35f d03f a61b 323c 1113 3042 7e44 1440
00000040: a61b 323c a89c c542 2500 953e a61b 323c
00000050: 2195 9a42 0222 8940 a61b 323c af45 b341
00000060: abdf 6f40 a61b 323c 9e1d 7342 6de8 1740
00000070: a61b 323c 12c2 3242 c1f0 913f a61b 323c
00000080: 2ff5 3543 e9e2 ef3f a61b 323c a2b0 3242
00000090: e0f7 1840 a61b 323c a11f c942 4916 ef3f
000000a0: a61b 323c d6dc db40 13cf a13f a61b 323c
000000b0: cb41 6040 f886 243e a61b 323c 5895 bd42
000000c0: 7af1 fa40 a61b 323c 4d5c a142 ea3c 463f
000000d0: a61b 323c eb62 e240 2c94 9c3e a61b 323c
000000e0: 0885 9942 2837 f540 a61b 323c afa5 5242
000000f0: 04bf 763f a61b 323c 826a bb42 5b8c 8b40
00000100: a61b 323c edf8 0443 d8d4 2b40 a61b 323c
00000110: b9ee d342 0d48 6b40 a61b 323c 6aa6 0d43
00000120: 81d2 0c41 a61b 323c 753f df42 c7ec 9940
00000130: a61b 323c 453a 2e42 0803 eb3e a61b 323c
00000140: cba9 f842 318b ee40 a61b 323c 3386 0b42
00000150: c98f 9f3f a61b 323c 9d66 4442 0032 0b40
00000160: a61b 323c ad09 5542 2ea8 1740 a61b 323c
00000170: 05e0 2b43 acf1 2341 a61b 323c 7d6c 9642
00000180: dba7 a540 a61b 323c 28d9 6442 bf7a a23f
00000190: a61b 323c 50c1 4042 eabb 9c40 a61b 323c
000001a0: a7e4 7142 85db bc40 a61b 323c c8a5 1e42
000001b0: 1957 6140 a61b 323c e064 b342 5116 c940
000001c0: a61b 323c 811a 2f42 b236 4240 a61b 323c
000001d0: 9905 4342 25e1 9e3e a61b 323c 7e85 c742
000001e0: ac74 7740 a61b 323c 73bf dd42 51cb 093f
000001f0: a61b 323c a1fa 6142 5080 2640 a61b 323c
00000200: 1836 eb42 76b3 f53f a61b 323c 832c 0343
00000210: 03b5 9940 a61b 323c 8fa7 b942 f054 8040
00000220: a61b 323c d315 8542 1d80 6840 a61b 323c
00000230: f9d3 6742 ee29 0340 a61b 323c b3c1 8442
00000240: 0739 4a40 a61b 323c 8370 0243 f237 713f
00000250: a61b 323c b4bf dc42 0a5e 4a40 a61b 323c
00000260: 2baa 4342 9c86 1940 a61b 323c c6a5 9d42
00000270: 39a3 a740 a61b 323c e71e 8b42 366d d140
00000280: a61b 323c 261a 8142 4e55 4840 a61b 323c
00000290: fd56 ab41 1fad 983f a61b 323c ed25 2c42
000002a0: 5b41 683f a61b 323c 7987 e041 e0de 7340
000002b0: a61b 323c 8088 5342 18a7 d33f a61b 323c
000002c0: 269f 9642 3c64 b440 a61b 323c 5b13 9d42
000002d0: 3c05 0341 a61b 323c aedd a941 49c5 6a40
000002e0: a61b 323c 8ddd 2b42 dabe 0c40 a61b 323c
000002f0: 3e6d f142 2a3b 2140 a61b 323c 448e fc42
00000300: 4af3 bb40 a61b 323c 900e dd42 c915 0341
00000310: a61b 323c 3a53 ef41 e829 8f40 a61b 323c
00000320: fae1 4441 81a2 2e40 a61b 323c 5ff5 da42
00000330: 4bc2 6040 a61b 323c a160 e242 a8ec 0141
00000340: a61b 323c 44d5 2e42 2d82 c03f a61b 323c
00000350: 6bdc aa42 b9b9 be40 a61b 323c 24c3 3342
00000360: 9050 b240 a61b 323c ffe9 0343 c0aa 8440
00000370: a61b 323c e592 f142 688a 0141 a61b 323c
00000380: fe8b 4242 e90b 4e40 a61b 323c 763f 3642
00000390: fb03 b440 a61b 323c 610f 3b43 955c 0041
000003a0: a61b 323c 1673 8f40 5105 4040 a61b 323c
000003b0: d432 d542 5f4c c040 a61b 323c 7130 ac42
000003c0: 6422 3740 a61b 323c 52d8 1a43 cd02 fb40
000003d0: a61b 323c e49f e542 b296 0241 a61b 323c
000003e0: 1eff ac42 671a c440 a61b 323c c8bf b041
000003f0: c13c b340 a61b 323c 9a46 2643 8352 2341
