Assets/Training/results/finally_works/PlayerAgentBehavior/PlayerAgentBehavior-117949.onnx (onnx, 295465 bytes, 13 tensors)

discrete_act_size_vector f4 [1, 2]
000000 00 00 40 40 00 00 00 40
       3.0 2.0

network_body.observation_encoder.processors.0.normalizer.running_mean f4 [405]
000000 77 3d 0e 37 00 00 00 00 00 00 00 00 6d 89 ee 3d
       8.4781705e-06 0.0 0.0 0.11647306
000010 73 89 ee 3d 77 3d 0e 37 00 00 00 00 00 00 00 00
       0.1164731 8.4781705e-06 0.0 0.0
000020 66 49 ed 3d 5e 6b ed 3d 77 3d 0e 37 00 00 00 00
       0.11586265 0.11592744 8.4781705e-06 0.0
000030 00 00 00 00 6d 89 ee 3d 73 89 ee 3d 77 3d 0e 37
       0.0 0.11647306 0.1164731 8.4781705e-06
000040 00 00 00 00 00 00 00 00 c3 06 ed 3d 48 25 ed 3d
       0.0 0.0 0.11573555 0.115793765
000050 77 3d 0e 37 00 00 00 00 00 00 00 00 eb 8d ee 3d
       8.4781705e-06 0.0 0.0 0.116481625
000060 ff 8d ee 3d 77 3d 0e 37 00 00 00 00 00 00 00 00
       0.11648177 8.4781705e-06 0.0 0.0
000070 37 ec ec 3d a7 05 ed 3d 77 3d 0e 37 00 00 00 00
       0.11568492 0.11573344 8.4781705e-06 0.0
000080 00 00 00 00 eb 8d ee 3d 04 8e ee 3d 77 3d 0e 37
       0.0 0.116481625 0.11648181 8.4781705e-06
000090 00 00 00 00 00 00 00 00 8d bf ec 3d ff db ec 3d
       0.0 0.0 0.11559973 0.115653984
0000a0 77 3d 0e 37 00 00 00 00 00 00 00 00 a4 80 ee 3d
       8.4781705e-06 0.0 0.0 0.1164563
0000b0 5e 86 ee 3d 77 3d 0e 37 00 00 00 00 00 00 00 00
       0.11646722 8.4781705e-06 0.0 0.0
0000c0 41 b2 ec 3d 81 cb ec 3d 77 3d 0e 37 00 00 00 00
       0.11557437 0.11562253 8.4781705e-06 0.0
0000d0 00 00 00 00 af 77 ee 3d a5 7f ee 3d 77 3d 0e 37
       0.0 0.116439216 0.1164544 8.4781705e-06
0000e0 00 00 00 00 00 00 00 00 be 85 ec 3d d7 a4 ec 3d
       0.0 0.0 0.11548947 0.11554878
0000f0 77 3d 0e 37 00 00 00 00 00 00 00 00 55 73 ee 3d
       8.4781705e-06 0.0 0.0 0.116430916
000100 1c 7c ee 3d 77 3d 0e 37 00 00 00 00 00 00 00 00
       0.11644766 8.4781705e-06 0.0 0.0
000110 46 62 ec 3d 66 8a ec 3d 77 3d 0e 37 00 00 00 00
       0.11542182 0.11549835 8.4781705e-06 0.0
000120 00 00 00 00 c7 6e ee 3d d2 78 ee 3d 77 3d 0e 37
       0.0 0.11642223 0.116441384 8.4781705e-06
000130 00 00 00 00 00 00 00 00 2a 43 ec 3d 33 6d ec 3d
       0.0 0.0 0.11536248 0.115442656
000140 77 3d 0e 37 00 00 00 00 00 00 00 00 52 6a ee 3d
       8.4781705e-06 0.0 0.0 0.11641373
000150 51 75 ee 3d 77 3d 0e 37 00 00 00 00 00 00 00 00
       0.1164347 8.4781705e-06 0.0 0.0
000160 77 31 ec 3d ca 5a ec 3d 77 3d 0e 37 00 00 00 00
       0.11532872 0.11540754 8.4781705e-06 0.0
000170 00 00 00 00 64 58 ee 3d fe 69 ee 3d 77 3d 0e 37
       0.0 0.11637953 0.1164131 8.4781705e-06
000180 00 00 00 00 00 00 00 00 1a 1b ec 3d 15 44 ec 3d
       0.0 0.0 0.11528607 0.11536423
000190 77 3d 0e 37 00 00 00 00 00 00 00 00 0f 35 ee 3d
       8.4781705e-06 0.0 0.0 0.11631214
0001a0 2c 56 ee 3d 77 3d 0e 37 00 00 00 00 00 00 00 00
       0.1163753 8.4781705e-06 0.0 0.0
0001b0 37 12 ec 3d 09 39 ec 3d 77 3d 0e 37 00 00 00 00
       0.11526912 0.11534316 8.4781705e-06 0.0
0001c0 00 00 00 00 ba ff ed 3d 4e 35 ee 3d 77 3d 0e 37
       0.0 0.116210416 0.11631261 8.4781705e-06
0001d0 00 00 00 00 00 00 00 00 d9 04 ec 3d 6d 2a ec 3d
       0.0 0.0 0.11524362 0.115315296
0001e0 77 3d 0e 37 00 00 00 00 00 00 00 00 a7 d7 ed 3d
       8.4781705e-06 0.0 0.0 0.11613398
0001f0 8c 1b ee 3d 77 3d 0e 37 00 00 00 00 00 00 00 00
       0.11626348 8.4781705e-06 0.0 0.0
000200 44 f3 eb 3d a1 18 ec 3d 77 3d 0e 37 00 00 00 00
       0.115210086 0.11528135 8.4781705e-06 0.0
000210 00 00 00 00 20 b4 ed 3d 90 05 ee 3d 77 3d 0e 37
       0.0 0.11606622 0.11622155 8.4781705e-06
000220 00 00 00 00 00 00 00 00 d3 e5 eb 3d 40 0a ec 3d
       0.0 0.0 0.11518445 0.115253925
000230 77 3d 0e 37 00 00 00 00 00 00 00 00 0e 8c ed 3d
       8.4781705e-06 0.0 0.0 0.11598979
000240 64 ec ed 3d 77 3d 0e 37 00 00 00 00 00 00 00 00
       0.116173536 8.4781705e-06 0.0 0.0
000250 dd dc eb 3d 3e 00 ec 3d 77 3d 0e 37 00 00 00 00
       0.11516736 0.11523484 8.4781705e-06 0.0
000260 00 00 00 00 1f 64 ed 3d 8f d4 ed 3d 77 3d 0e 37
       0.0 0.11591362 0.11612808 8.4781705e-06
000270 00 00 00 00 00 00 00 00 0b d4 eb 3d 5b f6 eb 3d
       0.0 0.0 0.11515053 0.11521598
000280 77 3d 0e 37 00 00 00 00 00 00 00 00 e3 4d ed 3d
       8.4781705e-06 0.0 0.0 0.11587121
000290 05 ce ed 3d 77 3d 0e 37 00 00 00 00 00 00 00 00
       0.11611561 8.4781705e-06 0.0 0.0
0002a0 0b cb eb 3d db ec eb 3d 77 3d 0e 37 00 00 00 00
       0.11513337 0.11519786 8.4781705e-06 0.0
0002b0 00 00 00 00 66 49 ed 3d 03 c9 ed 3d 91 eb f8 38
       0.0 0.11586265 0.116106056 0.00011869439
0002c0 00 00 00 00 00 00 00 00 18 84 eb 3d 82 db eb 3d
       0.0 0.0 0.11499804 0.11516477
0002d0 77 3d 0e 37 00 00 00 00 00 00 00 00 25 5b ed 3d
       8.4781705e-06 0.0 0.0 0.1158965
0002e0 88 ce ed 3d ac 07 70 39 00 00 00 00 00 00 00 00
       0.11611658 0.00022891042 0.0 0.0
0002f0 42 4a eb 3d d3 d6 eb 3d 77 3d 0e 37 00 00 00 00
       0.11488773 0.11515584 8.4781705e-06 0.0
000300 00 00 00 00 d9 75 ed 3d d8 da ed 3d 41 93 9b 39
       0.0 0.11594743 0.11614007 0.00029673617
000310 00 00 00 00 00 00 00 00 5d 19 eb 3d 0c c7 eb 3d
       0.0 0.0 0.11479447 0.115125746
000320 77 3d 0e 37 00 00 00 00 00 00 00 00 9b 87 ed 3d
       8.4781705e-06 0.0 0.0 0.1159813
000330 ec e6 ed 3d 1d 77 a4 39 00 00 00 00 00 00 00 00
       0.116163105 0.00031369264 0.0 0.0
000340 75 07 eb 3d 2b be eb 3d 77 3d 0e 37 00 00 00 00
       0.11476032 0.11510881 8.4781705e-06 0.0
000350 00 00 00 00 d9 75 ed 3d 5d e4 ed 3d a7 b0 ba 39
       0.0 0.11594743 0.116158225 0.000356083
000360 00 00 00 00 00 00 00 00 78 e8 ea 3d 44 af eb 3d
       0.0 0.0 0.11470121 0.11508039
000370 77 3d 0e 37 00 00 00 00 00 00 00 00 9c 5f ed 3d
       8.4781705e-06 0.0 0.0 0.11590502
000380 be e5 ed 3d b6 95 eb 39 00 00 00 00 00 00 00 00
       0.116160855 0.00044934236 0.0 0.0
000390 36 b3 ea 3d 98 a3 eb 3d 77 3d 0e 37 00 00 00 00
       0.11459963 0.115058124 8.4781705e-06 0.0
0003a0 00 00 00 00 8e 40 ed 3d 3b ec ed 3d 8d 22 bf 39
       0.0 0.115845785 0.11617323 0.000364561
0003b0 00 00 00 00 00 00 00 00 3e d2 ea 3d ce 99 eb 3d
       0.0 0.0 0.11465882 0.11503945
0003c0 77 3d 0e 37 00 00 00 00 00 00 00 00 61 52 ed 3d
       8.4781705e-06 0.0 0.0 0.11587978
0003d0 b2 f5 ed 3d 8f eb f8 38 00 00 00 00 00 00 00 00
       0.11619128 0.00011869438 0.0 0.0
0003e0 42 4a eb 3d 15 94 eb 3d 77 3d 0e 37 00 00 00 00
       0.11488773 0.11502854 8.4781705e-06 0.0
0003f0 00 00 00 00 ca 7e ed 3d 22 0d ee 3d 11 40 5e 39
       0.0 0.11596449 0.11623599 0.00021195436

network_body.observation_encoder.processors.1.normalizer.running_mean f4 [13]
000000 00 00 00 00 00 00 00 00 00 00 00 00 00 00 00 00
       0.0 0.0 0.0 0.0
000010 00 00 00 00 00 00 00 00 00 00 00 00 00 00 00 00
       0.0 0.0 0.0 0.0
000020 00 00 00 00 00 00 00 00 00 00 00 00 00 00 00 00
       0.0 0.0 0.0 0.0
000030 00 00 00 00
       0.0

network_body._body_endoder.seq_layers.0.weight f4 [128, 418]
000000 c9 de 5d 3b dd a8 64 3d 50 94 23 bd 2c bf 1c 3d
       0.0033854714 0.055825103 -0.039936364 0.038268253
000010 25 5c db 3b f2 eb 23 bd f5 ba 24 bd 89 73 2c 3d
       0.006694334 -0.040019937 -0.04021736 0.04210237
000020 64 a5 9d 3d 74 5e 3b 3d a2 6f 8c bc 56 69 96 3c
       0.076975614 0.045744374 -0.017143074 0.018360775
000030 7e 03 c0 bd ae 91 46 bd 1c 96 a6 3d 9a 69 6d 3c
       -0.09375666 -0.048478775 0.081341 0.014490509
000040 70 f6 0d bd 8b f2 56 bd c4 04 88 bd 62 49 92 bc
       -0.03465885 -0.0524774 -0.06641534 -0.017857257
000050 ff 2f 8e bd aa 37 4b ba c1 5c cb bc f6 de 95 bc
       -0.06942748 -0.000775213 -0.024824502 -0.018294793
000060 8e a8 7e 3d aa bc 1b bd a0 d3 3d bd 55 88 b3 bb
       0.062172465 -0.03802172 -0.0463444 -0.0054788985
000070 92 bd 21 3c b5 c2 0b bc ff 32 93 3d 85 d8 4a bd
       0.009871857 -0.0085303085 0.07187461 -0.049522895
000080 e6 ea bb bc 3a 52 da 3c 7b 8b d5 bc 2e 87 e7 3c
       -0.022939157 0.026650537 -0.026067486 0.0282627
000090 cb da 27 3d 05 75 99 bb 25 bb a7 3d 15 1d 4a bc
       0.04098014 -0.0046831393 0.08189992 -0.012336035
0000a0 d6 d6 9f 3d 2f 17 3c 3d 59 f7 34 3d c1 c6 a9 3c
       0.078046486 0.045920547 0.0441812 0.020724656
0000b0 8d d5 91 bd c9 55 44 bd 5a c8 dd 3b 8f 03 90 3d
       -0.0712081 -0.047933374 0.0067682685 0.07031929
0000c0 fe cd 85 bd f7 24 9d 3d 31 bd 20 bc ed 76 0a bd
       -0.065334305 0.07673066 -0.009810732 -0.033804823
0000d0 cd 7a 30 bd 50 2f 55 bc eb 77 a3 3b 3c bd 3c 3c
       -0.043085862 -0.013011768 0.0049886606 0.011519726
0000e0 20 29 b7 3c 39 71 83 bb 3f 86 5c ba ce 36 35 3a
       0.022358477 -0.0040113 -0.0008412338 0.00069127686
0000f0 56 69 a1 bc b4 6d 76 3b ec 44 25 bd 94 51 05 bd
       -0.019703548 0.003760201 -0.040348932 -0.032548502
000100 4d 7c be bb 63 4e f9 3b 67 9c 03 bd e9 3f 9b bd
       -0.0058131577 0.0076082214 -0.03213158 -0.07580549
000110 b4 95 d3 3b 7c 9c 2a 3d b2 9c ac bd ff 7b 48 bc
       0.006457055 0.04165314 -0.08428325 -0.012236594
000120 a9 6d de 3c 75 6a d3 bc e3 54 a4 3d 14 f7 b1 3c
       0.0271519 -0.025807599 0.08024003 0.021724261
000130 66 e7 ff 3c dd a7 7c 3d 4c b8 95 bc a4 76 08 bd
       0.031238269 0.061683524 -0.018276356 -0.03331627
000140 75 96 7a bd e5 08 c0 3d 9b b9 1c bc 3a 76 c9 bd
       -0.061178643 0.093766965 -0.009565736 -0.09837003
000150 c5 90 b2 3d 93 e5 34 ba fc 14 88 3c 82 1c 25 3c
       0.08719019 -0.00069006643 0.016611569 0.010077598
000160 ab cb 8c 3b 7b 34 d1 3c 4b 58 ac 3d f6 79 a1 bc
       0.00429674 0.02553772 0.08415278 -0.019711476
000170 c1 a0 07 3d 50 5c 0a bd 88 a5 4b 3b 90 9c 97 3d
       0.03311229 -0.033779442 0.0031074006 0.07402909
000180 56 ea ad bd 35 ef e3 3c 4f 83 7e bd e2 e9 1a bd
       -0.08491962 0.027824024 -0.062136944 -0.037820704
000190 18 2a 60 bd 0d 8c 8b bc ff bb 61 b9 d8 6f 51 bb
       -0.054727644 -0.017034555 -0.00021527706 -0.0031957533
0001a0 79 1c f9 3d ee 9d 0c bc c4 96 6a 3c 9e 54 82 3d
       0.12163634 -0.008582575 0.014318172 0.06363796
0001b0 74 cc 37 3c 3d 33 5a 3d a8 8a a0 3a ac 37 20 bb
       0.011218179 0.05327152 0.0012248354 -0.0024447246
0001c0 6f 2b aa bc ad 9c 6c 3d 8a b3 1f 3d 5e 57 ba bd
       -0.020772664 0.057766605 0.03898958 -0.09098695
0001d0 f1 17 2e 3d 97 8a 92 3c ad 7e 82 bc 52 9f bf bc
       0.0425033 0.01788835 -0.015929544 -0.0233914
0001e0 03 84 4f 3d 72 e2 86 3c f7 e7 a1 bd 51 17 99 3c
       0.050663006 0.0164654 -0.07905572 0.018687876
0001f0 89 5e 40 3d f5 7c 73 bd 36 b9 cc bd cf b0 98 bc
       0.046965156 -0.05944534 -0.09996264 -0.018638996
000200 03 69 4b 3b 27 af 53 bd 92 de 8f bd 91 94 88 3d
       0.0031037934 -0.05168071 -0.07024874 0.06668962
000210 ea d0 cc 3c 70 71 c1 3c 65 6f 11 bc 31 de 48 3c
       0.025001962 0.023613662 -0.008876656 0.012260006
000220 f3 24 42 3d 5c 8e 9d bc e8 ef dd 3d 5f a5 66 bd
       0.04739852 -0.019232921 0.10836774 -0.056310054
000230 68 64 81 3c 48 cd 48 bc 5a 01 51 3d 1d 53 e5 bc
       0.015794948 -0.012255974 0.05102668 -0.027993733
000240 02 ee 2c bd a1 2f 0f bd 71 e6 83 3c 88 72 2e 3d
       -0.04221917 -0.03495753 0.016101094 0.042589694
000250 06 07 b1 bc 4a 5e 06 bd 55 0e 99 bd cd 41 33 3d
       -0.021609794 -0.032804765 -0.07473437 0.043763924
000260 df 03 e6 3c 65 a2 1e 3d 3e 7c 5b 3c 0b dc 21 3d
       0.028078018 0.03872909 0.013396321 0.03951649
000270 df 9e 2f bd 36 51 78 3c 05 54 a0 3c 4c f7 e9 3c
       -0.04287612 0.015156081 0.019571314 0.028560303
000280 c0 71 58 3d 84 2a 18 bd ad b7 2f 3c 96 3b 58 3c
       0.052842855 -0.03714992 0.010724944 0.0131978
000290 a9 e2 d2 bb 17 ab 1b 3d c3 f8 a5 bc 7c 70 6d bd
       -0.0064357114 0.03800496 -0.02026022 -0.0579686
0002a0 11 b9 02 3e f8 0e 1d bd 83 eb 66 bd 99 59 3b 3d
       0.1276591 -0.038344353 -0.056376945 0.045739744
0002b0 62 3b 1e bc e6 36 94 3d c4 5b 93 3c 80 be 70 3d
       -0.009657713 0.072370335 0.017988093 0.058775425
0002c0 74 13 de bc 70 aa 53 3d 85 8e a5 3c f6 c3 5f 3d
       -0.027108885 0.051676214 0.02020956 0.054630242
0002d0 30 0f f5 3b 2e 10 8b 3d 30 5b 2a bd 60 32 b5 3c
       0.007478617 0.067901954 -0.04159087 0.022118747
0002e0 ff fa 97 3c fc 86 b1 bb b7 64 87 bd f3 88 40 bd
       0.018552301 -0.0054177027 -0.06611007 -0.047005605
0002f0 0c 56 5c 3c d7 bf c5 bc fc 56 7d 3c aa 79 80 bd
       0.01344825 -0.024139328 0.015462633 -0.062732056
000300 2b 4d f8 3c f6 cf 91 3d 74 ca 5a 3d b9 ff a8 3c
       0.030310234 0.071197435 0.05341573 0.02062975
000310 0c 47 db 3c 1d 55 12 3c 67 aa 6c 3c 75 33 26 bd
       0.026767276 0.008931425 0.014444924 -0.040576417
000320 91 20 00 bc 11 63 1a bc de f5 c1 bd be 2a 66 3d
       -0.007820264 -0.009423033 -0.094707236 0.056193106
000330 a7 3b b2 3d e2 d0 c7 3b e8 dc da bd 3b 8f 8b bd
       0.08702784 0.006097899 -0.10686666 -0.068144284
000340 04 aa a5 bb 78 95 25 3d 84 43 82 3d 15 bd 66 bd
       -0.005055668 0.040425748 0.06360534 -0.056332666
000350 c8 ba 16 3d 46 b0 c7 3b 15 c6 91 3d 70 2e fa 3b
       0.036799222 0.0060940115 0.07117859 0.0076349303
000360 bc db 57 3d 42 81 aa bd 06 d4 0a bd bc 00 18 3d
       0.05269979 -0.08325435 -0.033893608 0.037110075
000370 06 6b 03 bd fa 88 0e bc 5f 61 10 ba dd 68 82 3d
       -0.032084487 -0.00869965 -0.00055076735 0.06367657
000380 99 46 66 3d 6a 0c fd bc e4 9b a1 3c 05 ec 0f bd
       0.05621967 -0.030889709 0.019727655 -0.035137195
000390 1b 0e 07 bc 69 c6 89 bd 87 42 3a 3d cc db 71 3d
       -0.008243109 -0.06727297 0.0454736 0.059047505
0003a0 6e 2e dd bd 98 8c 80 3c aa 3a 32 3d 47 0b 5a 3b
       -0.107998714 0.01569204 0.043512978 0.0033270882
0003b0 91 e9 10 3d 59 0c 85 bd 0b c8 81 bd b6 e5 96 3c
       0.035378996 -0.06496496 -0.06336983 0.018420082
0003c0 09 bd 10 bc c0 b7 85 3d 9e cb 47 bd 55 fc 88 bc
       -0.008834132 0.06529188 -0.04877817 -0.016721884
0003d0 50 e1 8d 3d fa 66 65 3d 74 64 71 3d d6 72 07 3d
       0.069277406 0.05600641 0.05893369 0.0330685
0003e0 a3 d3 e3 bc 04 3f 9d 3c 6a 13 15 bd f5 b9 2c 3d
       -0.027810877 0.019195087 -0.036395468 0.04216953
0003f0 23 8c b1 3d 4c 17 6a bb 42 05 91 3c ea 93 43 bc
       0.08669307 -0.0035719452 0.017702702 -0.011937121

network_body._body_endoder.seq_layers.0.bias f4 [128]
000000 c2 7c bc bc b9 fd be 3c 11 e2 98 bc ea d1 e8 bc
       -0.023008708 0.023314344 -0.018662484 -0.028420407
000010 9a 9c 64 3c 50 6b c7 3b 54 90 93 bc ee ea a6 bc
       0.013953352 0.0060857907 -0.018013157 -0.020375695
000020 d4 12 01 bd 9b a1 0a bd 2d 0b a2 bc f8 84 30 3c
       -0.031512097 -0.033845525 -0.01978072 0.01077389
000030 b9 9f 47 bc 4f 04 c7 bc 84 d8 e6 3b b1 fb 8b bc
       -0.012184077 -0.024294047 0.0070448536 -0.01708779
000040 3e 7f 7d 3c 5a 8e 8a 3c 62 0e 30 3c 2f ac 04 3d
       0.015472231 0.016913582 0.010745617 0.03239077
000050 bf e7 b8 ba 10 17 42 3c 26 3e 8f 3c 24 65 f1 bc
       -0.0014107152 0.011846319 0.01748569 -0.029467173
000060 03 67 b8 3c 56 58 a6 bc bc 34 f9 bb 98 11 b5 bc
       0.022510057 -0.020305794 -0.0076051634 -0.022103116
000070 40 67 bc bc 23 b9 8c 3b 03 1f 4c 3c be 7e bd 3c
       -0.022998452 0.004294531 0.012458566 0.023131724
000080 e7 39 a7 bb d2 3c de bc f7 c8 85 3c 29 bb b1 3c
       -0.005103338 -0.02712861 0.016331179 0.02169569
000090 18 46 31 3c ef e1 a5 bc ad 45 5c 3c b7 1a b5 3b
       0.010819934 -0.020249335 0.013444346 0.0055268663
0000a0 4e f9 94 bc 4d 72 08 bd d9 bb af 3c 0a 63 e8 bc
       -0.018185284 -0.03331213 0.021451877 -0.028367538
0000b0 97 24 93 bc d2 2b 4d 3c ee 90 61 3c 83 65 2d 3b
       -0.017961783 0.012522655 0.013767464 0.002645821
0000c0 ad 3b 0f bd fd 18 8e bc 0a 49 8e 3c 2d 64 80 bc
       -0.03496902 -0.0173459 0.017368812 -0.015672768
0000d0 ae e7 45 bb 77 0a b3 3c ac 3b 03 3c d9 2f a2 3c
       -0.0030197906 0.021855576 0.008009832 0.019798206
0000e0 d5 e1 6e 3a 92 e3 fa bc db b4 2d bc 34 b0 6e 3c
       0.0009112631 -0.030626092 -0.010602201 0.014568377
0000f0 9a 74 b3 3c 2c 44 43 3c 85 c7 d5 bc 53 1d 62 bc
       0.021906186 0.011918109 -0.026096115 -0.013800937
000100 11 0c dc bc b9 3a 3d 3c db 97 80 3c e9 67 85 3c
       -0.026861222 0.011549645 0.01569741 0.0162849
000110 87 79 c8 bc f8 a4 aa bc 99 c6 e0 3a 82 20 d5 bc
       -0.024472011 -0.020830616 0.001714903 -0.026016477
000120 e8 ac 8a bc 24 d6 95 3c e1 ac ca bc ea 8d 91 bc
       -0.016928151 0.018290587 -0.024740638 -0.017767865
000130 0a 43 37 bc 15 6d 8e bc 91 e3 04 bc f2 39 c9 3c
       -0.011185417 -0.017385999 -0.008110897 0.024563763
000140 73 d2 cd bc c7 f9 c2 bc aa a3 d2 bc 6d 77 9e 3a
       -0.025124764 -0.023800744 -0.025712807 0.0012090035
000150 bd e4 81 bc b4 a4 11 3c 1c 04 f5 ba b7 66 a6 bb
       -0.015856141 0.008889366 -0.0018693241 -0.0050781625
000160 11 a2 bc bc 5b 75 be bc 90 da 00 bd 64 59 7a 3c
       -0.023026498 -0.023249319 -0.031458437 0.015280101
000170 39 48 a8 3c ad 9c c4 bc e8 8f 04 bd 7a d2 b9 bc
       0.020542251 -0.02400049 -0.032363802 -0.02268337
000180 3c d6 a0 bc 94 c6 13 bd 3f 49 dd bc 53 3a b1 b9
       -0.019633405 -0.03607805 -0.027012466 -0.00033803526
000190 39 8f 86 bc 1c 6b 9a bc f4 2c db 39 7f 38 ab 3b
       -0.016425716 -0.018849902 0.00041804428 0.0052252407
0001a0 4b 7f 8b bc d6 a0 a3 3c bd 88 2e 3c bf ec 3c bc
       -0.017028471 0.019974153 0.010652718 -0.011531054
0001b0 92 eb 74 3c a3 ba 31 3c 82 19 30 bc 68 9a 87 bc
       0.014948742 0.01084772 -0.010748269 -0.016553119
0001c0 a7 60 9e 3c d5 43 db bc 77 40 af 3c 69 95 a3 bc
       0.019333197 -0.026765743 0.021393044 -0.019968705
0001d0 5d b6 cf bc b5 62 61 bc 09 2f 6e bc 57 bf b4 bc
       -0.025355512 -0.013756444 -0.014537581 -0.022063894
0001e0 bc 4a 33 3c dd 87 2d bc a4 14 35 bc 4f 86 13 3c
       0.010943111 -0.010591474 -0.011052284 0.00900419
0001f0 2e 8c b9 bc 33 e5 af bc a0 be e7 bc b4 8a 2e 3c
       -0.02264985 -0.021471595 -0.02828914 0.010653187

network_body._body_endoder.seq_layers.2.weight f4 [128, 128]
000000 ba 97 fa bd 8c 2f 00 3e ee 2e 08 3d 7a 01 25 3e
       -0.12235971 0.12518138 0.03324788 0.16113845
000010 6f 6c 8f 3d c1 8c 78 3d 88 27 00 3c 48 32 f0 3d
       0.07003104 0.06068111 0.007821925 0.117283404
000020 6e 2d 8b bb 6d 34 2e 3c c4 32 17 3e d1 f4 c7 3b
       -0.004247359 0.0106326165 0.1476546 0.0061021824
000030 9e 9c fa 3c 5f 6a 57 3d 00 97 db bd f2 33 74 bc
       0.030592259 0.052591678 -0.1072216 -0.014904963
000040 95 6b c2 3d 3d eb 8d bd a2 d4 1c 3e f7 af b1 bd
       0.09493176 -0.06929634 0.15315488 -0.08676141
000050 41 8e e3 3d c2 24 0e bd 20 ff 65 bd ad 9a ed 3d
       0.11111117 -0.034703024 -0.05615151 0.11601768
000060 3b 15 63 bb ab 77 9c bd be 93 8d bc 90 65 6a be
       -0.0034650106 -0.07640012 -0.017282363 -0.22890306
000070 73 75 e8 3d 05 a4 70 bd 31 22 b0 3d cd 9e 5f be
       0.11350527 -0.05875017 0.086002715 -0.21837921
000080 19 0e 1b bc 59 f9 cc 3d df 4b 81 3d 47 7c 92 bb
       -0.00946381 0.10008497 0.063132994 -0.0044703814
000090 e1 a0 9a 3d ca ca 0a 3d 96 b9 7c bd fe 2b 1d bd
       0.075502165 0.0338848 -0.061700426 -0.038372032
0000a0 fa 3e 9d 3d ab b9 08 3e 59 08 8a 3d 40 d1 5f bc
       0.076780275 0.13352077 0.067398734 -0.013660729
0000b0 02 78 d8 bd a5 d3 32 be b8 5d e0 bd 27 00 f3 3d
       -0.10569765 -0.17463548 -0.109553754 0.118652634
0000c0 bd 09 55 bc 5c 45 d7 bd d5 03 aa bd 3c e7 db 3c
       -0.01300281 -0.10511276 -0.08301512 0.02684366
0000d0 fa 04 d0 3d 1f ed be 3c 3c 7a 59 3c 92 82 f7 3c
       0.10157199 0.023306428 0.013273772 0.030213628
0000e0 a4 f1 b0 3d 4a 9e bd 3d ef c0 f2 3d e5 07 aa bd
       0.08639839 0.09258707 0.118532054 -0.08302287
0000f0 97 d4 1b be 3e 85 fc bc 71 d0 77 3e f9 74 61 3e
       -0.15217815 -0.030825254 0.24200608 0.22017278
000100 de a9 fb bd 34 75 65 3e b9 56 b7 bd b3 6b 9a 3e
       -0.12288259 0.2240799 -0.08952088 0.30160293
000110 0e 3c 5c bd 71 29 c2 3d 2f ae b1 3d c1 ca cc bc
       -0.05376821 0.094805606 0.08675801 -0.024999024
000120 31 ab 3f bd 20 d3 42 3c 24 0f 19 3d ca ba 87 3d
       -0.04679412 0.011891156 0.037367955 0.06627424
000130 e6 6a 04 3e 0a f1 52 bd 7c 4d 00 3c de 83 15 3b
       0.12931404 -0.051499404 0.007830974 0.0022814195
000140 98 d2 82 3d 46 15 df 3c 82 c9 04 bd e9 94 31 3e
       0.06387824 0.027231824 -0.032418735 0.17341961
000150 b1 be 9a 3d b8 11 99 3d 3f 74 6b 3c 1a 33 1a be
       0.07555903 0.07474083 0.014370977 -0.15058556
000160 0d 09 4e 3b ad 6c cd bd 2f 2e bb bc 8a 4e 5e 3d
       0.00314385 -0.10030494 -0.02284917 0.05427412
000170 eb 62 a0 3c d8 b8 48 bd c1 22 1b 3e 1e 05 ad 3d
       0.019578418 -0.049004406 0.15149976 0.08448242
000180 78 bd 02 3a a3 cc b0 3d c8 83 1a 3e 92 17 46 3d
       0.00049873395 0.08632781 0.15089333 0.048362322
000190 89 6c af 3c 82 1c b1 3d f3 5f 14 3c b2 d7 29 3d
       0.021414058 0.086480156 0.009056079 0.04146547
0001a0 3a 72 da bc c6 83 18 3c 44 52 8f bd e1 40 97 3c
       -0.026665796 0.009308761 -0.06998113 0.018463554
0001b0 62 25 92 3d 2f 86 b6 3c a5 79 14 3d 97 cb ec 3d
       0.071360365 0.02228078 0.03624882 0.11562269
0001c0 f7 ad 25 3d 49 7c 43 3e eb 73 ab 3c c3 76 b6 bc
       0.04044911 0.1909038 0.020929297 -0.022273427
0001d0 e5 72 e6 3b 9e 03 e1 3a b4 92 a0 3d 31 51 9f 3b
       0.0070327395 0.0017167216 0.078404814 0.0048619737
0001e0 99 65 de bd 39 3d b0 3d d7 ea 9d bd aa e4 00 3e
       -0.10859222 0.08605427 -0.07710808 0.12587228
0001f0 8a 9f c5 3c 56 69 49 bc 08 43 04 3e 6d ca 8f 3c
       0.024123926 -0.01229318 0.12916195 0.017552579
000200 10 c4 ba 3c 38 1b 37 bd c2 7c 1f be ac 6c b9 bd
       0.022798568 -0.044703692 -0.15574935 -0.09053931
000210 21 0e d8 3c bd 9e 70 bc 7e e2 3e 3d a3 84 0d 3e
       0.026373925 -0.014686284 0.04660272 0.13820128
000220 be 54 84 bd e1 d8 ef 3d 36 59 03 be e8 c4 38 3c
       -0.06461476 0.11711288 -0.12827 0.011277415
000230 c0 37 c5 bd 5a c4 17 3e 5c f1 a5 bd 87 63 00 be
       -0.09629774 0.14820996 -0.08102676 -0.12537967
000240 5e 0d a9 3d ae 64 ac 3c 42 29 13 3e 5c bb 42 3e
       0.08254503 0.021044102 0.14371207 0.19016784
000250 58 85 c9 3d 91 76 cb bb 84 1b bd 3d 81 a3 0e 3d
       0.098398864 -0.0062092026 0.09233764 0.0348239
000260 81 8c c7 3d af b4 d3 bd 51 71 f8 3d 31 51 25 bc
       0.09743596 -0.10337197 0.121309884 -0.010090158
000270 e9 7a bd 3d da f5 95 3d e7 d0 cd 3d e0 f6 57 3d
       0.09251959 0.07322283 0.100496106 0.052725673
000280 7f fb 33 3d cb 4d 9b bd 58 13 9d bc ef de 54 3d
       0.043941017 -0.07583197 -0.019174263 0.05197042
000290 1e 2d e6 3d f4 98 81 3d 2e d6 85 bd 1c ad 63 3d
       0.11239074 0.063280016 -0.06534992 0.05558501
0002a0 f3 3f c7 bd 0e af b9 bd 07 8c ee 3c 41 17 cd 3b
       -0.09728994 -0.09066592 0.029119505 0.0062588756
0002b0 39 8c 68 bd bc 3b 08 3e 5d 0d 2e 3d 6e 86 ab bd
       -0.05677435 0.13304037 0.042493213 -0.0837525
0002c0 c0 23 d7 bc 1a c4 32 3e 70 85 23 3e 50 13 b9 3d
       -0.026262164 0.1745762 0.15968871 0.09036887
0002d0 89 10 23 3d b5 49 b1 3c d5 b5 e4 bd 1e 39 7c 3d
       0.03981069 0.021641592 -0.11167494 0.06157791
0002e0 51 9b 7b 3e 84 7f 6b 3d 71 eb bd bb aa fb 97 3b
       0.24570967 0.057494655 -0.005795889 0.004638155
0002f0 14 f9 2e 3d e5 0f 4f bc 73 90 1c 3d 4d 5c 39 bc
       0.04271801 -0.012638067 0.038223695 -0.01131351
000300 98 78 e7 bd 7b a5 64 3d 97 b2 f5 bd e7 db e1 3d
       -0.11302298 0.055821877 -0.11996954 0.11028271
000310 28 18 15 3c 09 ce 30 3e e8 d9 db bd 85 aa 9d bd
       0.009099998 0.17266096 -0.10734922 -0.0769854
000320 5f e3 f8 3d 0f cd 09 3d 24 1e 9c bd e1 f1 93 3c
       0.121527426 0.033642825 -0.07622936 0.018059673
000330 3a 42 aa bc 81 08 ae bc c7 23 0e 3b d7 4b 2c 3e
       -0.020783532 -0.02124429 0.0021688805 0.16825806
000340 f0 9b dc bd ab d8 55 3d 03 fd eb 3b 52 f6 8c 3d
       -0.1077193 0.052208584 0.007201792 0.06882919
000350 bb 6b a8 3c 7e ef c0 3d 2d 68 cf 3d 72 cc 3f be
       0.020559182 0.094206795 0.10127292 -0.18730333
000360 ef f9 4e 3a b8 2b 8f bc 01 e8 e9 bd 84 69 d7 3d
       0.00078955194 -0.017476901 -0.11421204 0.105181724
000370 8a 8a 67 bd b3 1b 1e be c8 d5 af be 28 65 b6 bc
       -0.056528606 -0.15440254 -0.3434279 -0.022265032
000380 f6 d8 70 3c 8d 0b 46 3d 45 74 cf bc 2b 21 e6 bd
       0.014700165 0.04835086 -0.025323996 -0.11236795
000390 38 c1 0d 3e a5 04 9c bd 37 b6 e6 3b e0 0d 14 3e
       0.13843238 -0.076180734 0.0070407647 0.14458418
0003a0 96 76 55 bc 7f 2c 51 bd 25 b8 d5 3c 15 cb ec bd
       -0.013028761 -0.051067825 0.026088784 -0.11562172
0003b0 dd 25 40 bd 1f 6a 0d 3e a9 61 03 be 76 3a 58 3e
       -0.04691111 0.13810013 -0.12830223 0.21116051
0003c0 04 e4 e5 3d 3b 5e bc 3d 4d 1a 88 3d d8 e4 01 3e
       0.11225131 0.091976605 0.066456415 0.12684953
0003d0 93 6e aa bd 08 07 1d be c1 fe 8d 3c 61 5b 8b bc
       -0.083218716 -0.15334713 0.01733339 -0.017011346
0003e0 27 b3 53 bd f5 59 c3 bd 96 b4 53 be 6d 19 e1 bb
       -0.051684525 -0.09538642 -0.20674357 -0.006869486
0003f0 8b 45 43 bd 8b eb 21 3e 41 ab 3e bd eb 56 8e 3d
       -0.047673743 0.15812509 -0.04655004 0.06950172

network_body._body_endoder.seq_layers.2.bias f4 [128]
000000 ff 32 3d bd 21 55 55 3b 6a 23 6e 3c c8 47 f3 3b
       -0.04619121 0.0032551961 0.014534811 0.0074243285
000010 8a be bb 3c 52 95 b6 bc 6b fd a0 bb da 5c 50 bd
       0.022918005 -0.022287998 -0.0049130223 -0.0508698
000020 77 08 a1 3b ab 04 03 bd a8 07 3d bd a4 0d a9 3b
       0.004914339 -0.031986874 -0.04614988 0.005159097
000030 0a a2 0f 3c 96 e3 b7 3a 1a 6d 96 bb f1 a6 9a 3b
       0.0087666605 0.0014029618 -0.0045906426 0.004719608
000040 e8 8c f4 3c 02 c9 97 3c de 8e bc bb 05 d0 9c bc
       0.029852346 0.018528465 -0.005754336 -0.01914216
000050 55 26 88 bc 51 4e 06 bd e9 8a 40 3c f6 c8 4b bd
       -0.01661984 -0.032789532 0.011751869 -0.0497522
000060 b4 28 29 bd b4 f0 b0 3c db 3a 28 bb 53 a0 5d bd
       -0.041298583 0.021599151 -0.0025669846 -0.054107975
000070 9e 3c 11 bd 21 a4 21 bd 6c 4f 50 3c 52 cb cc 3c
       -0.0354582 -0.039463166 0.012714248 0.024999294
000080 bf 21 6b 3c be 94 24 3b 3c 7a 89 bc ff 30 f7 3c
       0.014351307 0.0025113071 -0.016781919 0.03017473
000090 68 c6 8f bb 40 2e ef bb 16 d0 1d bd 39 4d 21 bd
       -0.0043876655 -0.0072992146 -0.038528524 -0.039380286
0000a0 a8 56 02 bd 28 86 73 bd 68 44 f1 bc cf 4d d4 bc
       -0.031820923 -0.059454113 -0.029451564 -0.025916008
0000b0 99 79 73 bd fb 66 31 bd 1e 5d 66 bd e3 fa cb bc
       -0.059442136 -0.0433111 -0.056241147 -0.024899906
0000c0 c3 9b 02 3c 64 ae 6e bc b8 cc 1d 3a f8 fb 20 bd
       0.007971707 -0.014567945 0.000601958 -0.039302796
0000d0 e3 68 67 3c 57 36 b6 3c b8 86 82 3c 7a ab 39 bc
       0.014124128 0.022242708 0.01593338 -0.011332387
0000e0 1c 8f 36 bd 8c 64 51 3b 85 da 54 3c a4 e8 c9 3c
       -0.044570073 0.00319508 0.012991552 0.024647065
0000f0 18 eb 26 bd 78 5a 20 bd e1 f6 11 bd 39 17 2e bd
       -0.040751547 -0.039148778 -0.035635833 -0.042502616
000100 36 82 1d bd 16 51 bc 3c 2c 52 05 bd ca b6 84 3c
       -0.038454257 0.022987884 -0.03254907 0.016200442
000110 95 de 26 bb 95 b0 b0 3c 26 97 f4 bc d5 78 bf 3c
       -0.002546226 0.021568576 -0.02985723 0.023373047
000120 87 4a 9b 3c e4 6d 3b bd 5d 33 5f 3c 23 4c 5e 3c
       0.018956436 -0.045759097 0.013623086 0.013567957
000130 42 01 e3 3b 2f 0f 2a bd 1f f7 7e bc 5a 3a 8a bc
       0.00692764 -0.041518386 -0.015561848 -0.016873527
000140 ab 54 1d bd f3 09 34 bd 34 c3 8f 3c 17 0b 67 3c
       -0.038410824 -0.0439548 0.017549135 0.014101765
000150 10 71 cc 3c bd 6a 8f 3c 4e 41 2e 3b 02 44 f3 bc
       0.024956256 0.017506951 0.0026589218 -0.029695515
000160 c5 de ae bc 11 83 43 bb 2e 6a 2a 3c ed fe 61 3c
       -0.02134646 -0.002983276 0.010401292 0.013793689
000170 7f e5 14 3c 1b d5 41 bc 1a 19 d9 bc b5 be 70 3b
       0.009087919 -0.011830593 -0.026501227 0.0036734764
000180 dc 81 05 bd b3 2d 2d bd 3b f5 39 3c 22 20 c1 3b
       -0.032594547 -0.04227991 0.011349971 0.005893723
000190 ab 05 9f 3c ec 18 ba bc 71 3e 0b bd 95 e1 0e bd
       0.019411882 -0.022716962 -0.033995096 -0.0348831
0001a0 d5 1c 89 3c 1f 5c 1b 3c 59 4f a9 bc b2 77 5e bc
       0.016737381 0.009482413 -0.020667719 -0.013578342
0001b0 29 c0 00 3c 77 b5 8c bc e7 b2 80 3b 1a 61 51 3c
       0.007858315 -0.017176373 0.003927577 0.0127794985
0001c0 39 ba 37 bd ac f3 de 3b 5b 89 a4 3c 8b dc aa bb
       -0.04485533 0.0068039503 0.020085027 -0.005214279
0001d0 89 33 46 bb 71 87 07 3c a6 e6 91 bc ea a7 66 bc
       -0.003024312 0.008272038 -0.017810177 -0.01407812
0001e0 72 d8 85 bb c2 39 a4 bc 44 db bf 3a 98 8c 14 bd
       -0.00408464 -0.020047072 0.001463749 -0.036266893
0001f0 45 aa 71 bd f8 27 96 bc 58 70 27 3c ff ee c1 3c
       -0.059000272 -0.018329605 0.010219656 0.023673533

action_model._discrete_distribution.branches.0.weight f4 [3, 128]
000000 63 ef 95 3c 30 99 c6 bc 10 c1 74 bc 10 72 1f bb
       0.018302625 -0.024242967 -0.014938608 -0.002432946
000010 f4 14 9e bc 71 c7 51 3c 41 7e 03 bc b5 86 11 3d
       -0.0192971 0.012803898 -0.008025707 0.035528857
000020 90 70 19 ba 25 7f 78 3c b5 1e eb 3c d7 07 d7 bc
       -0.000585326 0.015167032 0.028701166 -0.026248856
000030 66 9b 01 bc e2 c6 01 bd 4e 7d 67 bc eb fa 8c 3a
       -0.007910585 -0.03168381 -0.014128996 0.0010755932
000040 27 c1 3d bc 20 59 9d bc f0 80 1f bc ac be 17 3a
       -0.011581696 -0.019207537 -0.009735331 0.0005788605
000050 3b 30 a7 bb 24 37 ef 3c 81 f6 bf bc cc 6a 17 3d
       -0.005102185 0.029201098 -0.023432972 0.036967084
000060 2d 32 70 3c 5d 49 06 bc e3 21 59 bc 6d 1b 04 3d
       0.0146604 -0.008196202 -0.013252708 0.032252718
000070 ce 40 8d 3c 2b 8c 81 3c 10 57 97 bb b2 9d b5 bc
       0.017242815 0.015813908 -0.004618533 -0.022169922
000080 4e f3 99 3a b6 5b 3c bc 7b e9 e6 3c d4 17 7b bc
       0.0011745484 -0.011496475 0.028187504 -0.015325505
000090 3c df 1a 3c 04 10 f6 bb 69 5c c4 3c 17 02 41 3c
       0.009452637 -0.0075092334 0.023969846 0.011780283
0000a0 7d aa 2b 3c bd b6 4a 3d 80 c3 2c 3c b3 07 9a 3c
       0.010477659 0.04949068 0.010544658 0.0188025
0000b0 08 bf cb 3c 04 c4 ea 3b 55 75 fc 3c f2 96 03 bc
       0.024871364 0.00716448 0.030817667 -0.008031594
0000c0 ff 41 cf bc bd 50 b9 3c 08 7b 1b bb af 54 b3 3c
       -0.025300024 0.022621507 -0.0023724455 0.021890966
0000d0 16 3d 2d 3b 8f 12 49 bc 5b 52 80 3c b3 e6 86 3a
       0.0026434115 -0.012272491 0.01566427 0.0010292142
0000e0 8e 5b 24 3d 36 52 8c bb a1 ad 1c bd ea c3 a1 bc
       0.040126376 -0.0042822612 -0.038251523 -0.01974674
0000f0 34 5c c1 3c 23 07 47 3d 93 31 05 3d f3 1e dd 3c
       0.023603536 0.04859079 0.03251798 0.026992297
000100 8f e7 97 3c 5b e6 74 bb 9e 69 fd 3a 9a 56 a5 bc
       0.018543033 -0.0037368748 0.0019333845 -0.020182896
000110 c7 bd 94 3c 21 f9 80 bc 15 47 22 3d 95 61 05 bc
       0.0181569 -0.015743794 0.03961857 -0.008140941
000120 b2 41 fd 3b 2d 0e 17 3d 47 16 03 bb 79 f7 44 bb
       0.0077287788 0.036878753 -0.0020002292 -0.0030054732
000130 84 51 5a bc 43 1d 3d 3d f7 d0 ed 39 83 5a 3e 3b
       -0.013325099 0.046170484 0.00045359854 0.0029045648
000140 4d c4 25 3c 6a 01 06 3d cf bb 8a bc 29 e5 ae 3b
       0.010117603 0.032716192 -0.016935257 0.0053373766
000150 76 31 f1 bc 10 a1 97 bc ed 18 62 ba 70 07 7f 3c
       -0.02944253 -0.018509418 -0.000862493 0.015565738
000160 64 e2 65 3c 8d a4 72 3b 3f 34 83 bc 71 7f 2b bc
       0.0140310265 0.003702435 -0.016016124 -0.010467396
000170 8a 3a 85 bc 76 53 e9 3b 14 30 41 3c 3e a1 1c 39
       -0.016263265 0.007120545 0.011791248 0.00014937387
000180 f9 38 3c 3c bb 29 c2 3c 2c ed a4 bb 2f fb 2c 39
       0.011488193 0.02370154 -0.005033156 0.00016496771
000190 ca 57 c8 bc 64 16 29 3b 99 8b 77 3c 12 2a 82 3c
       -0.024455924 0.00258007 0.015108966 0.015889201
0001a0 24 7a a7 bc 14 f2 f3 bc 75 06 39 bc d6 f5 ab 3c
       -0.020443983 -0.029778518 -0.011293043 0.020991247
0001b0 ea 81 2b bc 22 4e 77 3c f1 3d ae bc 5e f7 65 bc
       -0.010467986 0.015094312 -0.02126977 -0.014036028
0001c0 98 0f 0b 3d 80 fc 26 bb b9 af 9a bc 01 ab d4 3b
       0.03395042 -0.0025480092 -0.01888262 0.006490112
0001d0 44 d6 ef bb 60 0c 47 bc e5 d3 39 3c cd 8e 33 bc
       -0.0073192436 -0.0121489465 0.0113420235 -0.010959339
0001e0 ce 07 77 3c 97 f7 5f bb e8 e6 14 bc 69 1e 63 3b
       0.015077544 -0.0034174675 -0.009088255 0.0034655577
0001f0 ef ff 37 3d e0 a8 dd 3c 8b 79 c5 bb 4c c8 a5 bb
       0.04492181 0.027058065 -0.006026452 -0.0050592776
000200 eb 38 68 bd db 97 21 bd da 3b aa bc a0 06 c0 3b
       -0.056694906 -0.03945146 -0.020780493 0.0058601648
000210 6d 5b 4a bc 73 35 2c ba 53 72 13 bd fc 2c 67 bd
       -0.012350899 -0.0006569244 -0.0359977 -0.056439385
000220 ec 5e 9d bc 3c fd 38 bd 34 5b 5f bd 2d c9 3b bd
       -0.019210301 -0.045163378 -0.054530337 -0.045846153
000230 f8 85 72 bc cc 37 33 bd fb ca a1 bc 0f 9e cb 3a
       -0.014802448 -0.043754384 -0.019750109 0.0015534776
000240 ec 3d d7 3c 10 8c 89 bc 4d 43 33 bc 56 14 cb bb
       0.026274644 -0.01679042 -0.010941339 -0.0061974926
000250 95 c4 72 bc 73 aa 1a 3c 15 3e 2a bd ee 0c 49 bd
       -0.014817377 0.009440052 -0.041563112 -0.049084596
000260 43 bb 26 bd c7 27 b4 3b e3 5b fd 3a a7 77 80 bd
       -0.04070593 0.005497906 0.0019329753 -0.06272822
000270 8a 35 9b bc e4 f0 3a bd ed c8 5c 3c 63 9a a1 3c
       -0.018946428 -0.045639887 0.013475639 0.019726938
000280 1d d0 02 3b df 1c 0f bd 0a 37 15 3d 56 54 ae bc
       0.001996047 -0.034939643 0.036429442 -0.021280449
000290 ec 6c 9b 3b a9 b0 ef bb 00 9d 80 bd 84 5e e3 bc
       0.004743209 -0.0073147607 -0.062799454 -0.02775503
0002a0 c6 b9 6a 3b 35 f2 6b bd 59 66 4e bd 04 61 f4 3b
       0.0035816296 -0.057604033 -0.050390575 0.007457854
0002b0 3d e4 61 bd 0b 82 eb bc 55 86 60 bd d5 a7 96 bc
       -0.055149306 -0.028748533 -0.05481561 -0.018390575
0002c0 b7 ab f5 bc 99 09 11 3d 64 52 c2 ba 37 c2 45 bd
       -0.029989107 0.035409544 -0.001482558 -0.04828092
0002d0 85 20 6c bc ec a4 9c 3b 5f 5e 49 3d 52 dd 03 bd
       -0.01441205 0.0047804024 0.049162265 -0.03219349
0002e0 cf 9a 2d bd 82 2d a5 bc 6a 53 5a bd e7 22 d2 bb
       -0.042383965 -0.020163301 -0.053302206 -0.006412852
0002f0 10 db 47 bd e3 32 54 bd b5 ff 6d bd 8a 1e 6a bd
       -0.0487929 -0.05180634 -0.05810519 -0.05715803
000300 c6 53 75 bc 55 17 79 3c 8b 21 1d bc fa c0 99 bc
       -0.014973586 0.015203317 -0.009590517 -0.018768776
000310 a2 58 23 3c 94 5f 5c bc 36 36 55 bb 6b ef d1 3b
       0.009969862 -0.013450522 -0.0032533533 0.0064067147
000320 ec 89 17 3d 1f 12 3e bd 7b fa 73 3c 61 5e 04 bc
       0.036996767 -0.046404 0.014891262 -0.008079142
000330 39 d7 bc bc 2f 9b 07 bd 8b fe 0d bd ba 2f 3f bc
       -0.023051845 -0.03310698 -0.03466658 -0.011669094
000340 d5 61 dc bc 9d fe 08 bd 6c b2 ce 3b b9 4e db 3b
       -0.026902119 -0.033445943 0.0063078906 0.006692734
000350 22 52 18 bc 71 76 94 bc 0c d9 93 3a 9b 34 69 3c
       -0.009296926 -0.018122884 0.0011279895 0.0142337335
000360 08 c0 8e bd 2e 19 a4 bb 7d 62 cf bc 6f 41 ad 3c
       -0.06970221 -0.0050078845 -0.025315518 0.021149365
000370 b5 0a bd bc 88 53 99 bd 05 ee 83 3b b8 50 4e 3b
       -0.023076395 -0.074866354 0.004026177 0.0031481218
000380 6d 68 8c bb ad 5c 3d bd c2 b5 1b bc b1 85 38 3c
       -0.0042849095 -0.04623096 -0.009503784 0.011262343
000390 44 60 32 bc 86 98 b3 bb 3b 2c 35 bd 4f c1 d4 bc
       -0.010887209 -0.0054808287 -0.044231635 -0.025971083
0003a0 9f 06 00 bd 6d 53 31 bd b9 2e 49 bd c9 78 15 3c
       -0.031256314 -0.04329245 -0.049116824 0.009123036
0003b0 b1 7f 03 bd b4 c3 91 bd d4 c9 1e bc a5 2b 86 bc
       -0.032104198 -0.071174055 -0.009691674 -0.016378233
0003c0 f8 b5 3e bd cb 1c 2e 3c b7 78 3e bd 0b 44 0d 3c
       -0.046560258 0.010626982 -0.04650184 0.00862218
0003d0 bb d5 28 3c 16 8c b1 bc f2 bc 7b 3c bc 50 48 bd
       0.010304864 -0.021673243 0.015364872 -0.04890512
0003e0 28 43 29 3c d9 bd 30 bd 5c fd 26 bd e8 5e d4 bc
       0.010330953 -0.043149803 -0.040768966 -0.025924161
0003f0 1a 88 35 bd ce b3 91 3c 3a 19 25 bc f7 52 a2 3c
       -0.04431925 0.017785933 -0.010076815 0.019814951

action_model._discrete_distribution.branches.0.bias f4 [3]
000000 2d 5c 11 bd c9 70 57 3d 4b 66 95 bc
       -0.035488296 0.052597795 -0.018237254

action_model._discrete_distribution.branches.1.weight f4 [2, 128]
000000 8b b4 b3 bb 56 48 e1 3c 83 aa 3e 3a 3d ad 91 3b
       -0.005484169 0.027500313 0.0007273333 0.0044457004
000010 00 e1 83 3b 32 8a af b9 0e 55 6b bb 69 b7 0b 3c
       0.004024625 -0.00033481565 -0.003590885 0.008527615
000020 8f 23 8d 3c 07 4f a5 bb cf f9 09 bc 98 da 32 3b
       0.01722887 -0.005044821 -0.008421375 0.0027290937
000030 a0 32 0f ba f4 bc 0c bb bd 3b 22 bc 02 fb 81 3c
       -0.0005462561 -0.002147493 -0.009901938 0.01586676
000040 17 8c 33 3c 79 bf 08 3b f5 3b 49 bc 51 1e b9 bb
       0.010958693 0.002086608 -0.012282361 -0.005649366
000050 55 0b a1 bc e2 a8 74 3b 7c 6c 9e 3c a0 82 0f 3c
       -0.019658724 0.0037332107 0.019338839 0.008759171
000060 2c 1d fa bb 03 c8 07 3c a4 84 c9 ba 52 9a 56 ba
       -0.007632872 0.008287433 -0.0015374613 -0.00081864477
000070 96 9a 49 bb a0 35 84 bc ab 7b 16 3c 3e ad 57 3c
       -0.0030762306 -0.016138852 0.009184758 0.013163863
000080 11 8e 30 3c f2 5e 99 3b 51 9a b5 ba 28 9f fc 3c
       0.010776059 0.004680508 -0.0013855194 0.03083761
000090 6a f4 62 bc 89 5f ee bc f3 01 40 bc de 2a 69 bc
       -0.013852218 -0.02909829 -0.011719215 -0.014231412
0000a0 22 78 e6 3b 14 e5 2d bc a2 59 d5 3b 4d 03 04 bc
       0.007033364 -0.0106136985 0.006510929 -0.008057428
0000b0 84 02 ca 3b 28 aa 6c bc ad 5a 20 3c b0 98 7f 3b
       0.0061648507 -0.014444865 0.009787244 0.003900092
0000c0 7f 92 90 bb 45 74 81 3a f7 85 20 3c a7 2b 10 bb
       -0.004411995 0.000987657 0.009797565 -0.0021998675
0000d0 c4 55 8b 3b 39 5c 76 3b 52 43 dc bc 60 28 b4 3b
       0.0042521674 0.003759159 -0.02688757 0.005497977
0000e0 d6 5f 2e 3b 3e 06 aa 3b 65 73 60 bb cc 3b 65 3c
       0.0026607416 0.0051887324 -0.0034248468 0.0139913075
0000f0 ab dd 21 bc 9a 5b 3b bb ae 21 d0 ba 52 b1 39 bc
       -0.00987951 -0.0028588534 -0.0015879178 -0.01133378
000100 db 84 9b 3b 00 91 a6 3c ca 35 91 3b 6b 5c ad bb
       0.004746062 0.020332813 0.004431461 -0.005290558
000110 66 f1 4d 3c 45 a9 42 bc d5 fb b4 bb a7 23 17 ba
       0.012569761 -0.011881177 -0.005523185 -0.00057655055
000120 9d 58 10 bd 6f 52 b3 bb 7d 35 01 3d 04 4a c8 bc
       -0.03524076 -0.0054724733 0.03154515 -0.024449356
000130 6f 6b 8f 3c ef 45 22 3b 29 8a 94 3b 23 c6 30 bc
       0.017507283 0.0024760922 0.0045330715 -0.010789427
000140 bb bb ac bb fa 16 b5 ba 2e a9 1c 3c ff d1 5f bc
       -0.0052714027 -0.0013816052 0.00956182 -0.013660907
000150 ab 9d 3f 3c ea 96 c3 3b d1 0e f2 bb 5a bb ab bb
       0.011695306 0.005968918 -0.00738702 -0.00524084
000160 2a 1b 8e 3c 0e c0 9f bc 43 4e f6 3b 45 2a 3a 3c
       0.017346937 -0.019500758 0.0075166537 0.011362617
000170 48 a7 67 3c 94 e3 da 3b e6 37 99 3c 02 e4 03 bc
       0.014139004 0.0066799615 0.018703412 -0.008049967
000180 c0 23 65 3c 12 8b bb bc 55 a9 b1 3b bd 44 a4 3b
       0.013985574 -0.022893462 0.0054217973 0.005013077
000190 f7 90 00 bc 9f 4e 9e bc 21 f5 23 bb 1a bc a0 3b
       -0.007847062 -0.019324599 -0.0025017934 0.004905236
0001a0 21 37 0b 3c ad 37 07 bc fa f1 4e 3c 55 9b 18 3c
       0.0084970305 -0.00825302 0.012630934 0.009314378
0001b0 1a 06 ef 3a 8a 04 42 3c 44 f1 fb bb c1 d2 be 3b
       0.0018236071 0.0118419025 -0.007688673 0.0058234637
0001c0 02 83 24 bc 53 8d 37 3c 0d 02 de 3b f5 08 cc 3b
       -0.010041 0.011203128 0.006775147 0.0062266537
0001d0 99 e4 58 bc 77 ba 83 39 60 a9 81 bb 3a fa a9 3b
       -0.013238096 0.00025125194 -0.0039569587 0.0051873
0001e0 f9 70 91 3b 12 c3 98 bb b7 85 4b 3c de 9d d9 bb
       0.004438516 -0.004661926 0.012422017 -0.0066411337
0001f0 f3 86 1a bb c0 cb 35 3b 1e 41 db bb 83 9d bc 3c
       -0.002357897 0.0027739853 -0.006691112 0.023024326
000200 ad 74 ec ba 72 27 6e bc b8 0a 37 3b 05 e1 60 bc
       -0.0018040143 -0.014535772 0.0027929973 -0.013725524
000210 b2 e2 2d bc e5 7d d6 3b 62 84 80 bb 18 72 e0 bb
       -0.01061313 0.0065457695 -0.0039220313 -0.0068495385
000220 66 e7 6f ba b8 e5 c4 3c a5 5f 57 3b fd fe a1 bc
       -0.00091516075 0.02403532 0.0032863405 -0.019774908
000230 c9 91 13 bc c4 d6 f9 3a 07 2f 87 3c 14 32 8c bc
       -0.009006926 0.0019061198 0.016501917 -0.017113723
000240 9f e7 29 bc e4 d5 9f bb 44 b2 01 bd 87 21 9b bb
       -0.010370164 -0.0048777927 -0.031664148 -0.0047342214
000250 7c 06 d9 3c ec 43 c4 bb f7 e1 b3 bc b6 4c 94 3c
       0.02649235 -0.005989542 -0.021958334 0.018102985
000260 b2 3a 64 3c 00 48 66 bc b3 76 07 3b e2 09 56 bb
       0.01393001 -0.014055252 0.0020670115 -0.00326597
000270 0e 68 7e 3b 71 6a 4c bc 04 7b 4e 3a 2c 04 78 bc
       0.0038819346 -0.0124765495 0.0007876607 -0.015137713
000280 ee 2c 62 bc 9c 8b c2 3a 3f 24 38 3b f7 ea aa bb
       -0.013804657 0.0014842632 0.0028097776 -0.0052159983
000290 b3 65 18 3c 72 aa e0 3b 41 6e 2e 3c 22 b2 1d bc
       0.009301591 0.006856256 0.010646404 -0.00962499
0002a0 db a2 82 bb 0c ff 92 bb 2d 8d 27 3c 83 cf 30 3c
       -0.003986699 -0.0044859704 0.01022653 0.010791662
0002b0 8e 6c fc 3b 6a 9a 56 bb 11 21 e9 3a de d2 94 3c
       0.0077033704 -0.0032745847 0.0017786344 0.018166956
0002c0 54 75 24 3c 55 ca 2d bc 2c 1c eb bb a4 fb c6 ba
       0.010037739 -0.010607322 -0.007174989 -0.0015181196
0002d0 b8 93 4f 3b d8 1c 16 3b ef 5c 45 3c ff c0 6a bc
       0.003167374 0.0022905376 0.012046083 -0.01432824
0002e0 c5 74 38 bc 43 3c 01 bc 96 72 dc bb 7d fa b5 bc
       -0.011258309 -0.007887903 -0.006727527 -0.022214169
0002f0 dd da 15 3c b0 94 fe 3b c7 ac 9f 3c 35 bc 6b 3b
       0.009146419 0.00776919 0.019491566 0.0035970334
000300 16 8b 82 bb ee e8 6d bc ae 39 1a bc 3f 85 09 bc
       -0.0039838655 -0.014520867 -0.009413166 -0.008393585
000310 15 28 9e 3b a0 5a 03 bb ff 27 b2 3c e1 a3 71 bb
       0.0048265555 -0.002004303 0.021747587 -0.003687136
000320 10 35 ea 3c 52 cd 1f 3c 0a 70 07 bd 21 5d ee 3b
       0.028589755 0.009753542 -0.033065833 0.0072742854
000330 b8 d7 46 bc 71 7f ab 3b 5d bc db bb 47 dc 0b bc
       -0.012136392 0.005233698 -0.0067058043 -0.008536405
000340 11 c2 c3 b9 9c eb 1c bc 3c e1 a0 bc 0d d2 46 3c
       -0.0003733789 -0.009577658 -0.01963865 0.012135041
000350 e0 24 b6 3a 24 ab 1a 3a b0 04 34 bc 6a b2 07 3c
       0.0013896488 0.0005900136 -0.010987446 0.008282283
000360 f0 47 89 bc ae c0 ce 3c 01 c4 8b bb 2e be 37 bc
       -0.016757935 0.025238361 -0.004265309 -0.011214776
000370 60 14 3b bc 58 07 37 3c 5c 09 b3 bc bb 5d b6 ba
       -0.011418432 0.0111711845 -0.021855049 -0.0013913432
000380 c5 e2 0c bc a1 e2 4d bb b6 2b f1 3a 43 ef 17 3c
       -0.008598988 -0.00314156 0.0018399868 0.009273353
000390 f0 90 a8 bb 00 3b 56 3c c0 05 40 3c 21 c0 81 bb
       -0.005144231 0.01307559 0.011720121 -0.003959671
0003a0 a4 9b 1f bc 6f bb 05 3b b2 e0 70 b9 75 3c 8a 3b
       -0.009741697 0.0020405909 -0.00022971889 0.004218633
0003b0 94 a0 32 b9 f4 e2 9d bc a9 a8 92 bb ad d8 18 bb
       -0.00017035223 -0.019273259 -0.0044756723 -0.0023322508
0003c0 89 c3 32 3a e6 6c 86 3c ee 82 82 bc d3 1d 30 bb
       0.0006819298 0.016409349 -0.015931573 -0.0026873245
0003d0 93 59 06 3c 33 97 7a 3c ff bd 87 3b 0a a1 3a bc
       0.008200067 0.015294838 0.0041425223 -0.011390934
0003e0 ef f9 a2 3b 7f e3 ea 3b ef 20 21 b9 78 76 05 3b
       0.004973642 0.007168233 -0.00015366425 0.0020364802
0003f0 12 80 e8 bb d7 bd 59 3c 87 3f 0c bc 55 5b fa bb
       -0.0070953453 0.01328989 -0.008560068 -0.007640282

action_model._discrete_distribution.branches.1.bias f4 [2]
000000 73 d3 ff 3a 9f d3 ff ba
       0.0019517973 -0.0019518024

onnx::Div_78 f4 [405]
000000 95 ee 86 3b b7 d2 3e 3b b7 d2 3e 3b 85 40 a4 3e
       0.0041177967 0.0029117295 0.0029117295 0.32080474
000010 83 40 a4 3e 95 ee 86 3b b7 d2 3e 3b b7 d2 3e 3b
       0.3208047 0.0041177967 0.0029117295 0.0029117295
000020 ad e0 a3 3e df df a3 3e 95 ee 86 3b b7 d2 3e 3b
       0.32007352 0.32006738 0.0041177967 0.0029117295
000030 b7 d2 3e 3b 85 40 a4 3e 82 40 a4 3e 95 ee 86 3b
       0.0029117295 0.32080474 0.32080466 0.0041177967
000040 b7 d2 3e 3b b7 d2 3e 3b 9e cc a3 3e a7 cb a3 3e
       0.0029117295 0.0029117295 0.31992048 0.31991312
000050 95 ee 86 3b b7 d2 3e 3b b7 d2 3e 3b ca 41 a4 3e
       0.0041177967 0.0029117295 0.0029117295 0.32081443
000060 d0 41 a4 3e 95 ee 86 3b b7 d2 3e 3b b7 d2 3e 3b
       0.3208146 0.0041177967 0.0029117295 0.0029117295
000070 a1 c4 a3 3e 90 c3 a3 3e 95 ee 86 3b b7 d2 3e 3b
       0.31985953 0.3198514 0.0041177967 0.0029117295
000080 b7 d2 3e 3b ca 41 a4 3e d0 41 a4 3e 95 ee 86 3b
       0.0029117295 0.32081443 0.3208146 0.0041177967
000090 b7 d2 3e 3b b7 d2 3e 3b 41 b7 a3 3e 3a b6 a3 3e
       0.0029117295 0.0029117295 0.3197575 0.31974965
0000a0 95 ee 86 3b b7 d2 3e 3b b7 d2 3e 3b cd 3d a4 3e
       0.0041177967 0.0029117295 0.0029117295 0.320784
0000b0 11 3e a4 3e 95 ee 86 3b b7 d2 3e 3b b7 d2 3e 3b
       0.32078603 0.0041177967 0.0029117295 0.0029117295
0000c0 4e b3 a3 3e 22 b2 a3 3e 95 ee 86 3b b7 d2 3e 3b
       0.31972736 0.31971842 0.0041177967 0.0029117295
0000d0 b7 d2 3e 3b 3a 3b a4 3e 60 3b a4 3e 95 ee 86 3b
       0.0029117295 0.32076436 0.3207655 0.0041177967
0000e0 b7 d2 3e 3b b7 d2 3e 3b e6 a5 a3 3e 49 a5 a3 3e
       0.0029117295 0.0029117295 0.31962508 0.3196204
0000f0 95 ee 86 3b b7 d2 3e 3b b7 d2 3e 3b dc 39 a4 3e
       0.0041177967 0.0029117295 0.0029117295 0.32075393
000100 13 3a a4 3e 95 ee 86 3b b7 d2 3e 3b b7 d2 3e 3b
       0.32075557 0.0041177967 0.0029117295 0.0029117295
000110 2c 9b a3 3e 4e 9b a3 3e 95 ee 86 3b b7 d2 3e 3b
       0.31954324 0.31954426 0.0041177967 0.0029117295
000120 b7 d2 3e 3b 89 38 a4 3e c8 38 a4 3e 95 ee 86 3b
       0.0029117295 0.32074383 0.3207457 0.0041177967
000130 b7 d2 3e 3b b7 d2 3e 3b da 91 a3 3e 99 91 a3 3e
       0.0029117295 0.0029117295 0.31947213 0.3194702
000140 95 ee 86 3b b7 d2 3e 3b b7 d2 3e 3b 35 37 a4 3e
       0.0041177967 0.0029117295 0.0029117295 0.3207337
000150 60 37 a4 3e 95 ee 86 3b b7 d2 3e 3b b7 d2 3e 3b
       0.32073498 0.0041177967 0.0029117295 0.0029117295
000160 89 8c a3 3e f8 8b a3 3e 95 ee 86 3b b7 d2 3e 3b
       0.31943157 0.31942725 0.0041177967 0.0029117295
000170 b7 d2 3e 3b dc 31 a4 3e 91 32 a4 3e 95 ee 86 3b
       0.0029117295 0.3206929 0.3206983 0.0041177967
000180 b7 d2 3e 3b b7 d2 3e 3b cc 85 a3 3e f9 84 a3 3e
       0.0029117295 0.0029117295 0.31938016 0.31937388
000190 95 ee 86 3b b7 d2 3e 3b b7 d2 3e 3b 40 27 a4 3e
       0.0041177967 0.0029117295 0.0029117295 0.32061195
0001a0 30 29 a4 3e 95 ee 86 3b b7 d2 3e 3b b7 d2 3e 3b
       0.32062674 0.0041177967 0.0029117295 0.0029117295
0001b0 29 83 a3 3e 1f 82 a3 3e 95 ee 86 3b b7 d2 3e 3b
       0.31936005 0.31935212 0.0041177967 0.0029117295
0001c0 b7 d2 3e 3b 4a 17 a4 3e 86 1a a4 3e 95 ee 86 3b
       0.0029117295 0.32049018 0.32051486 0.0041177967
0001d0 b7 d2 3e 3b b7 d2 3e 3b 1c 7f a3 3e 00 7e a3 3e
       0.0029117295 0.0029117295 0.31932914 0.31932068
0001e0 95 ee 86 3b b7 d2 3e 3b b7 d2 3e 3b 52 0b a4 3e
       0.0041177967 0.0029117295 0.0029117295 0.32039887
0001f0 59 0f a4 3e 95 ee 86 3b b7 d2 3e 3b b7 d2 3e 3b
       0.3204296 0.0041177967 0.0029117295 0.0029117295
000200 c7 79 a3 3e 80 78 a3 3e 95 ee 86 3b b7 d2 3e 3b
       0.31928846 0.31927872 0.0041177967 0.0029117295
000210 b7 d2 3e 3b a2 00 a4 3e 9c 05 a4 3e 95 ee 86 3b
       0.0029117295 0.32031733 0.3203553 0.0041177967
000220 b7 d2 3e 3b b7 d2 3e 3b c1 75 a3 3e 5b 74 a3 3e
       0.0029117295 0.0029117295 0.31925777 0.3192471
000230 95 ee 86 3b b7 d2 3e 3b b7 d2 3e 3b a4 f4 a3 3e
       0.0041177967 0.0029117295 0.0029117295 0.32022583
000240 c3 fa a3 3e 95 ee 86 3b b7 d2 3e 3b b7 d2 3e 3b
       0.32027254 0.0041177967 0.0029117295 0.0029117295
000250 08 73 a3 3e 8f 71 a3 3e 95 ee 86 3b b7 d2 3e 3b
       0.319237 0.31922576 0.0041177967 0.0029117295
000260 b7 d2 3e 3b a7 e8 a3 3e 4b f0 a3 3e 95 ee 86 3b
       0.0029117295 0.32013437 0.32019266 0.0041177967
000270 b7 d2 3e 3b b7 d2 3e 3b 67 70 a3 3e df 6e a3 3e
       0.0029117295 0.0029117295 0.31921694 0.31920525
000280 95 ee 86 3b b7 d2 3e 3b b7 d2 3e 3b fe e1 a3 3e
       0.0041177967 0.0029117295 0.0029117295 0.32008356
000290 16 ed a3 3e 95 ee 86 3b b7 d2 3e 3b b7 d2 3e 3b
       0.3201682 0.0041177967 0.0029117295 0.0029117295
0002a0 b0 6d a3 3e 2d 6c a3 3e 95 ee 86 3b b7 d2 3e 3b
       0.31919622 0.3191847 0.0041177967 0.0029117295
0002b0 b7 d2 3e 3b ad e0 a3 3e 8c eb a3 3e cc c0 38 3c
       0.0029117295 0.32007352 0.32015646 0.011276435
0002c0 b7 d2 3e 3b b7 d2 3e 3b 45 58 a3 3e 7b 65 a3 3e
       0.0029117295 0.0029117295 0.31903282 0.3191336
0002d0 95 ee 86 3b b7 d2 3e 3b b7 d2 3e 3b fd e5 a3 3e
       0.0041177967 0.0029117295 0.0029117295 0.32011405
0002e0 71 ee a3 3e 52 68 7c 3c b7 d2 3e 3b b7 d2 3e 3b
       0.32017854 0.015405731 0.0029117295 0.0029117295
0002f0 d1 46 a3 3e 08 63 a3 3e 95 ee 86 3b b7 d2 3e 3b
       0.31889966 0.31911492 0.0041177967 0.0029117295
000300 b7 d2 3e 3b fc ed a3 3e bb f4 a3 3e d2 18 8f 3c
       0.0029117295 0.32017505 0.32022652 0.01746789
000310 b7 d2 3e 3b b7 d2 3e 3b 13 38 a3 3e 45 5d a3 3e
       0.0029117295 0.0029117295 0.3187872 0.31907097
000320 95 ee 86 3b b7 d2 3e 3b b7 d2 3e 3b 58 f3 a3 3e
       0.0041177967 0.0029117295 0.0029117295 0.32021594
000330 28 fa a3 3e 3b 04 93 3c b7 d2 3e 3b b7 d2 3e 3b
       0.32026792 0.017946353 0.0029117295 0.0029117295
000340 9f 32 a3 3e 91 5a a3 3e 95 ee 86 3b b7 d2 3e 3b
       0.31874558 0.31905034 0.0041177967 0.0029117295
000350 b7 d2 3e 3b fc ed a3 3e bc f8 a3 3e f3 62 9c 3c
       0.0029117295 0.32017505 0.32025707 0.019090151
000360 b7 d2 3e 3b b7 d2 3e 3b 40 29 a3 3e 0e 54 a3 3e
       0.0029117295 0.0029117295 0.3186741 0.31900066
000370 95 ee 86 3b b7 d2 3e 3b b7 d2 3e 3b 5a e7 a3 3e
       0.0041177967 0.0029117295 0.0029117295 0.32012445
000380 06 f8 a3 3e 5c 3e af 3c b7 d2 3e 3b b7 d2 3e 3b
       0.32025164 0.02139204 0.0029117295 0.0029117295
000390 2e 19 a3 3e 3c 4f a3 3e 95 ee 86 3b b7 d2 3e 3b
       0.31855148 0.3189639 0.0041177967 0.0029117295
0003a0 b7 d2 3e 3b ff dd a3 3e bc f8 a3 3e 9d 31 9e 3c
       0.0029117295 0.32005307 0.32025707 0.019310767
0003b0 b7 d2 3e 3b b7 d2 3e 3b 86 22 a3 3e 44 4d a3 3e
       0.0029117295 0.0029117295 0.31862277 0.31894886
0003c0 95 ee 86 3b b7 d2 3e 3b b7 d2 3e 3b 58 e3 a3 3e
       0.0041177967 0.0029117295 0.0029117295 0.32009387
0003d0 d7 fc a3 3e cc c0 38 3c b7 d2 3e 3b b7 d2 3e 3b
       0.3202884 0.011276435 0.0029117295 0.0029117295
0003e0 d1 46 a3 3e 17 4d a3 3e 95 ee 86 3b b7 d2 3e 3b
       0.31889966 0.31894752 0.0041177967 0.0029117295
0003f0 b7 d2 3e 3b ac f0 a3 3e 1d 07 a4 3e 6d 3a 73 3c
       0.0029117295 0.32019556 0.32036677 0.014845473

onnx::Div_81 f4 [13]
000000 b7 d2 3e 3b b7 d2 3e 3b b7 d2 3e 3b b7 d2 3e 3b
       0.0029117295 0.0029117295 0.0029117295 0.0029117295
000010 b7 d2 3e 3b b7 d2 3e 3b b7 d2 3e 3b b7 d2 3e 3b
       0.0029117295 0.0029117295 0.0029117295 0.0029117295
000020 b7 d2 3e 3b b7 d2 3e 3b b7 d2 3e 3b b7 d2 3e 3b
       0.0029117295 0.0029117295 0.0029117295 0.0029117295
000030 b7 d2 3e 3b
       0.0029117295
