Assets/Training/results/my_run/PlayerAgentBehavior/PlayerAgentBehavior-0.onnx (onnx, 72073 bytes, 7 tensors)

49 f4 [5]
000000 00 00 80 3f 00 00 80 3f 00 00 80 3f 00 00 80 3f
       1.0 1.0 1.0 1.0
000010 00 00 80 3f
       1.0

action_model._discrete_distribution.branches.0.weight f4 [1, 128]
000000 92 20 d2 3b f7 2e 62 3b 43 38 3b bc e5 a9 96 3a
       0.006412574 0.0034512857 -0.011426988 0.0011494724
000010 9d 57 1b 3c 7a 4e dd 3a a2 a1 f7 bb 97 16 09 3c
       0.009481338 0.001688435 -0.00755711 0.008367202
000020 83 07 15 3c 2c de 4a bc f7 8c 94 38 18 cf 96 bb
       0.009096029 -0.012382071 7.083447e-05 -0.004602324
000030 e4 aa 29 bc 3f 85 a3 3b 20 c0 76 bc 0b 3f fa 3a
       -0.010355685 0.0049902494 -0.015060455 0.0019092275
000040 fb 98 d2 bb d2 df 02 bc 81 ed 17 3c e7 62 a0 bb
       -0.006426928 -0.007987933 0.009272934 -0.0048946026
000050 0b 52 15 bc 1b 3d ec 3a c7 e8 8b 3a 46 2b af bb
       -0.009113799 0.0018023582 0.0010674231 -0.005345735
000060 dd 56 e5 b8 1a 48 13 bc 4b 2b cb 3a 4f 27 b0 38
       -0.000109357505 -0.008989358 0.0015500573 8.399656e-05
000070 c8 17 08 bc c7 86 ca bc d8 3d 73 bb 11 a7 ac bb
       -0.008306451 -0.02472247 -0.003711572 -0.0052689393
000080 67 13 69 b8 82 b9 d6 bb 24 ff 25 3a aa 10 f1 bb
       -5.55696e-05 -0.006552876 0.00063322694 -0.007356723
000090 b7 e6 78 3c 83 b5 39 bb 3b 61 45 3b 8a e6 4b bc
       0.015191725 -0.002833695 0.0030117768 -0.0124451015
0000a0 bb be 8e bc a3 68 a5 3b 1a d6 d9 3a 1b 5a ab 3b
       -0.017424932 0.005047874 0.0016619593 0.0052292473
0000b0 dd e5 f6 ba 1b 32 bb 3b aa 40 cf 3b 62 e4 90 bc
       -0.0018836815 0.00571276 0.006324847 -0.017687026
0000c0 e2 42 59 3b 05 bf 93 bc 63 4e a4 3c 65 dc 8c 3b
       0.0033151438 -0.018035421 0.020056909 0.004298734
0000d0 3a 7b 15 bc f4 81 25 3c 43 d2 2a bb 8b 73 ab 39
       -0.009123618 0.010101784 -0.0026065267 0.00032701748
0000e0 d7 f0 a6 3b e7 2b 3a bc e3 02 2a bb 96 6b 87 3c
       0.0050946283 -0.011363006 -0.0025941662 0.016530793
0000f0 08 d3 62 bb d3 d9 80 3b 69 3a b0 bb 29 e7 9c b9
       -0.0034610648 0.0039322167 -0.005378057 -0.00029926866
000100 78 fa 6c 38 a3 bc a3 b9 37 51 03 3c 39 36 10 bc
       5.6500052e-05 -0.00031230328 0.008014969 -0.00880199
000110 a5 5e 05 3b 30 21 ed 3b 79 9d 17 bc 00 de 9c 3b
       0.0020350602 0.0072366223 -0.009253853 0.0047872066
000120 70 7d 03 3b 55 ca d4 bb 45 aa 86 bb df 82 ea 3b
       0.002006378 -0.0064938464 -0.004109653 0.0071567143
000130 2e d0 9f 3b 13 f4 41 b9 27 72 02 bc e0 f4 b6 3a
       0.004877112 -0.00018496839 -0.007961786 0.0013958476
000140 f9 b1 88 bb 0a ca 9f 3c 76 6d 44 bc f3 6b 1c 3a
       -0.0041716066 0.01950552 -0.011988988 0.00059670134
000150 fb e3 42 3b f8 64 bb 3b 62 74 23 3c 0f cd 5c 3b
       0.0029737938 0.0057188235 0.009976478 0.003369156
000160 15 41 dc 3b 35 c5 d3 3b 9b 19 9e bc 9f c3 00 bb
       0.0067216256 0.006462718 -0.019299319 -0.001964785
000170 94 be 14 bc ba dc 5d 3b 0d af 7c ba 8b 16 18 bc
       -0.0090786405 0.0033853487 -0.00096391217 -0.009282718
000180 dc 07 0b bb 81 07 41 bb 1b 76 69 bb fa a8 26 bc
       -0.0021214401 -0.0029453936 -0.0035623375 -0.010172123
000190 d2 64 f5 3a 2f 0a f5 3b 3a b1 50 3c 8b b3 1d 3b
       0.0018722063 0.0074780206 0.012737567 0.0024063315
0001a0 c8 48 23 3c eb 3d 68 3c 20 e0 de bb e3 71 4f 3a
       0.009966083 0.014174919 -0.00680162 0.0007913394
0001b0 1d f7 56 3c 63 c6 01 3c 40 db 4b 3c fd 92 55 3b
       0.01312044 0.007920834 0.01244241 0.0032588833
0001c0 ee 25 ae 3b a8 70 fa 3a 98 22 5d 3c bb c1 e7 3b
       0.00531458 0.001910706 0.013497017 0.007072655
0001d0 2d 59 16 bc 98 a1 c2 3a ae 8f 88 3c 9d ae 00 3b
       -0.009176535 0.0014849184 0.016670074 0.0019635328
0001e0 99 d1 33 ba bb e2 3a 3c 1a bd d3 3c aa a1 9f ba
       -0.00068595406 0.011406596 0.025847007 -0.0012178917
0001f0 f8 2d d4 bb ec f2 2f 3b 3a 3c d6 3b 09 a2 2f bb
       -0.0064752065 0.0026847674 0.0065379413 -0.0026799461

network_body._body_endoder.seq_layers.0.bias f4 [128]
000000 00 00 00 00 00 00 00 00 00 00 00 00 00 00 00 00
       0.0 0.0 0.0 0.0
000010 00 00 00 00 00 00 00 00 00 00 00 00 00 00 00 00
       0.0 0.0 0.0 0.0
000020 00 00 00 00 00 00 00 00 00 00 00 00 00 00 00 00
       0.0 0.0 0.0 0.0
000030 00 00 00 00 00 00 00 00 00 00 00 00 00 00 00 00
       0.0 0.0 0.0 0.0
000040 00 00 00 00 00 00 00 00 00 00 00 00 00 00 00 00
       0.0 0.0 0.0 0.0
000050 00 00 00 00 00 00 00 00 00 00 00 00 00 00 00 00
       0.0 0.0 0.0 0.0
000060 00 00 00 00 00 00 00 00 00 00 00 00 00 00 00 00
       0.0 0.0 0.0 0.0
000070 00 00 00 00 00 00 00 00 00 00 00 00 00 00 00 00
       0.0 0.0 0.0 0.0
000080 00 00 00 00 00 00 00 00 00 00 00 00 00 00 00 00
       0.0 0.0 0.0 0.0
000090 00 00 00 00 00 00 00 00 00 00 00 00 00 00 00 00
       0.0 0.0 0.0 0.0
0000a0 00 00 00 00 00 00 00 00 00 00 00 00 00 00 00 00
       0.0 0.0 0.0 0.0
0000b0 00 00 00 00 00 00 00 00 00 00 00 00 00 00 00 00
       0.0 0.0 0.0 0.0
0000c0 00 00 00 00 00 00 00 00 00 00 00 00 00 00 00 00
       0.0 0.0 0.0 0.0
0000d0 00 00 00 00 00 00 00 00 00 00 00 00 00 00 00 00
       0.0 0.0 0.0 0.0
0000e0 00 00 00 00 00 00 00 00 00 00 00 00 00 00 00 00
       0.0 0.0 0.0 0.0
0000f0 00 00 00 00 00 00 00 00 00 00 00 00 00 00 00 00
       0.0 0.0 0.0 0.0
000100 00 00 00 00 00 00 00 00 00 00 00 00 00 00 00 00
       0.0 0.0 0.0 0.0
000110 00 00 00 00 00 00 00 00 00 00 00 00 00 00 00 00
       0.0 0.0 0.0 0.0
000120 00 00 00 00 00 00 00 00 00 00 00 00 00 00 00 00
       0.0 0.0 0.0 0.0
000130 00 00 00 00 00 00 00 00 00 00 00 00 00 00 00 00
       0.0 0.0 0.0 0.0
000140 00 00 00 00 00 00 00 00 00 00 00 00 00 00 00 00
       0.0 0.0 0.0 0.0
000150 00 00 00 00 00 00 00 00 00 00 00 00 00 00 00 00
       0.0 0.0 0.0 0.0
000160 00 00 00 00 00 00 00 00 00 00 00 00 00 00 00 00
       0.0 0.0 0.0 0.0
000170 00 00 00 00 00 00 00 00 00 00 00 00 00 00 00 00
       0.0 0.0 0.0 0.0
000180 00 00 00 00 00 00 00 00 00 00 00 00 00 00 00 00
       0.0 0.0 0.0 0.0
000190 00 00 00 00 00 00 00 00 00 00 00 00 00 00 00 00
       0.0 0.0 0.0 0.0
0001a0 00 00 00 00 00 00 00 00 00 00 00 00 00 00 00 00
       0.0 0.0 0.0 0.0
0001b0 00 00 00 00 00 00 00 00 00 00 00 00 00 00 00 00
       0.0 0.0 0.0 0.0
0001c0 00 00 00 00 00 00 00 00 00 00 00 00 00 00 00 00
       0.0 0.0 0.0 0.0
0001d0 00 00 00 00 00 00 00 00 00 00 00 00 00 00 00 00
       0.0 0.0 0.0 0.0
0001e0 00 00 00 00 00 00 00 00 00 00 00 00 00 00 00 00
       0.0 0.0 0.0 0.0
0001f0 00 00 00 00 00 00 00 00 00 00 00 00 00 00 00 00
       0.0 0.0 0.0 0.0

network_body._body_endoder.seq_layers.0.weight f4 [128, 5]
000000 18 5b 58 3e 46 20 8d 3f 01 1c a4 bd 13 40 42 be
       0.211285 1.1025474 -0.08013154 -0.18969755
000010 73 18 d3 3e cb d7 21 3f 35 9a 3c 3f 59 04 bf be
       0.4122959 0.632199 0.736728 -0.37308004
000020 23 51 fd be 16 db bd be 3a 4a e4 be 9e b0 1f bf
       -0.49475965 -0.37081212 -0.4458788 -0.6237887
000030 8f c5 99 bd 02 ce 8e be e3 06 96 be 58 8a 92 be
       -0.075083844 -0.27891546 -0.2930213 -0.28621173
000040 d3 1a 11 bf 07 81 b5 3c a9 99 b6 3e af 18 07 bf
       -0.56681556 0.022156252 0.35664108 -0.5277204
000050 03 d6 43 bf 8c 6b 0a bf f8 8d 06 be 8e cd 1a 3f
       -0.7649843 -0.54070354 -0.13140094 0.604699
000060 50 e0 33 3f 1c 3b 42 be 19 12 c6 be 0e 7b c4 be
       0.7026415 -0.18967861 -0.38685682 -0.38375133
000070 17 b8 05 3e 05 58 76 be 0e 6c fa be b9 42 cb 3e
       0.13058506 -0.24057014 -0.48910564 0.39699343
000080 ac 1d d5 bd 17 8f a9 3e 46 ee b4 ba 63 23 75 bf
       -0.1040605 0.3311698 -0.0013803921 -0.9575712
000090 ab a7 82 3b 2e e8 8a be e6 0c b4 be de a3 cf be
       0.0039872727 -0.27130264 -0.3516609 -0.40554708
0000a0 64 09 9f be 33 d9 bd bd 6f 05 6f be 66 ff bf bd
       -0.31061852 -0.09269943 -0.23341917 -0.09374885
0000b0 d0 42 03 bf 6e 33 ed bc 12 61 9a be c9 ad 8b 3c
       -0.5127382 -0.028955188 -0.30152184 0.01705064
0000c0 a6 ea 44 be ba 89 46 be 31 bd f0 be c3 22 0d 3f
       -0.19230136 -0.19388476 -0.47019342 0.5513117
0000d0 52 60 da be 63 ab 1a 3f 2b 13 13 3e 01 07 d3 bd
       -0.42651612 0.60417765 0.14362781 -0.1030407
0000e0 8d fd 4b 3d 13 8d 71 bf fe 8b 20 bf bc 39 95 bd
       0.04980235 -0.9435589 -0.6271361 -0.072864026
0000f0 4c fc 6d be fa bc d4 be 7e 84 3b 3f 1a 2f ab be
       -0.23240775 -0.41550428 0.7324904 -0.33434373
000100 ec 99 8e be 6c 4c f6 bd 10 14 a9 be d5 36 77 3e
       -0.27851808 -0.12026295 -0.3302312 0.2414201
000110 cc 04 9d bf c3 22 04 be 5f d5 33 3f 28 08 35 3f
       -1.2267089 -0.12903886 0.70247453 0.7071557
000120 36 5c 0d bd f6 e7 c1 3a 3c 67 c4 3e 97 e1 60 3f
       -0.034511767 0.0014793861 0.38360012 0.8784422
000130 c7 22 8e 3f 6d 36 d5 3d ae 75 bc be 21 9b d2 3e
       1.1104363 0.104107715 -0.36808532 0.4113398
000140 e1 f8 eb bc 54 5c 64 3e 5d 39 71 be b6 c5 01 3f
       -0.028805198 0.22300845 -0.23557039 0.5069231
000150 f8 82 2c bf da 0d ca 3e 52 f4 c8 be 14 32 10 bf
       -0.6738734 0.39463693 -0.39248902 -0.56326413
000160 26 3b 3f 3e 63 df dd be 2d ed ab be 6b 08 89 bd
       0.18674907 -0.43334493 -0.33579388 -0.06691059
000170 46 0a 2b bf 5e a9 ed be dd 5c 2b bf cf 79 48 3e
       -0.6681255 -0.4641828 -0.66938573 0.19577716
000180 58 b8 9f 3e b1 3b 64 bf 0b 87 af be 88 2d e2 be
       0.3119533 -0.8915358 -0.34282717 -0.44175363
000190 1b c2 c7 bc c1 ac 55 3b 00 35 cb be 9b b9 8a be
       -0.024384549 0.003260419 -0.39688873 -0.2709473
0001a0 55 99 0d 3f 89 69 1b 3e 79 c3 b9 bd b8 60 3b be
       0.5531209 0.15176977 -0.090704866 -0.18298614
0001b0 2b 91 1a 3e 7f d5 b6 3e 97 7b 62 3f 80 39 96 bd
       0.1509444 0.3570976 0.88469833 -0.07335186
0001c0 16 65 b3 be ca cf 8b 3f d6 54 50 3f 2b ec 6b 3e
       -0.3503806 1.0922787 0.8137945 0.2303931
0001d0 2e a7 d7 be 33 4a 7a 3e 9c fb 13 be 4e 74 4a 3f
       -0.42119735 0.24442367 -0.1445145 0.79083717
0001e0 64 07 7b 3e f8 38 8e be 3c 6c 79 3f ac 43 ce 3e
       0.24514538 -0.2777784 0.9743078 0.40286005
0001f0 11 eb 9d be ac d8 08 3f 19 11 a7 be 2c 19 8d be
       -0.30843404 0.53455615 -0.32630232 -0.27558267
000200 58 ce 8e 3e 87 b6 2e be ec b4 43 3e ab 23 4b 3e
       0.27891803 -0.17061816 0.19111985 0.19837825
000210 ad 47 c4 3c f0 16 f7 3e 9d be 6b bd f0 51 3b bf
       0.023959959 0.48259687 -0.05755483 -0.731719
000220 6c ff db be 97 3b b0 be 7a 0c 6b 3d 4f 2c 20 3f
       -0.4296831 -0.34420463 0.057384945 0.6256761
000230 f1 04 5a 3f a5 39 4f bd fb d0 88 3e 4c e2 8b bd
       0.8516379 -0.050592083 0.2672194 -0.06830272
000240 1e bb c2 3e f1 5c 06 3f 64 26 9f bd 5f a6 bf be
       0.38033384 0.5248557 -0.07770994 -0.3743162
000250 19 14 9e be 0c 79 2e be f3 a3 92 3e e4 f6 0d bf
       -0.30874708 -0.17038363 0.28640708 -0.5545485
000260 ae e7 5c bf 6f 0e 04 bf 22 ad 94 bd 3b b1 1b bf
       -0.86291015 -0.51584524 -0.07259585 -0.6081731
000270 ac 04 17 3f 0c 37 ef 3c ef 08 1b be 38 b2 8c be
       0.58991504 0.029201053 -0.15140127 -0.2747972
000280 5b c0 be 3e 4b 17 6e 3f 7b 28 b7 3d 2c 4a 60 be
       0.3725613 0.9300429 0.08943268 -0.21903294
000290 d8 5d cc 3e 6b 6a 9c 3e 8d 9b 90 3e 5a be 21 bf
       0.39915347 0.3054994 0.28243676 -0.6318108
0002a0 ce 31 2e 3e 90 ab 2f 3e ea 60 bc 3d a3 80 27 be
       0.17011186 0.1715529 0.091981724 -0.16357665
0002b0 f1 ef c8 be 5c 1e 8c be c8 92 07 bf ba 4b bb 3e
       -0.3924556 -0.27366912 -0.52958345 0.36581212
0002c0 e8 84 a5 be fc 2d 70 bd 77 f2 eb 3e 29 aa 50 bf
       -0.32327962 -0.058637604 0.46083423 -0.81509644
0002d0 79 ec 99 3d 3c 77 77 3f e8 b8 06 be a3 85 0c 3d
       0.07515807 0.9666631 -0.13156474 0.034307133
0002e0 06 8a d2 be 50 c0 2c be a2 82 52 3f 19 31 4d 3f
       -0.4112093 -0.16870236 0.8223058 0.8015304
0002f0 ad ac 49 bf 37 6c a3 3e 0e 59 ae bd e5 0a e0 be
       -0.7877911 0.319185 -0.085130796 -0.43758312
000300 8f d4 22 3f 47 56 a5 be 10 20 b5 be 2f 4f 8b 3d
       0.6360559 -0.32292387 -0.35376024 0.068022124
000310 d0 db 75 be c4 ea c6 bd ca dc 7e 3f c8 43 71 3f
       -0.24009633 -0.09712747 0.9955565 0.9424405
000320 da a2 02 bf e0 20 a3 3e 3e 78 8a be 5d f4 90 bb
       -0.5102974 0.3186102 -0.27044863 -0.0044236616
000330 e6 49 ef 3e 52 7c ea 3e 5c 05 c4 bc b5 f9 91 be
       0.46736068 0.45797974 -0.023928337 -0.28510824
000340 d9 ed 8f bd 82 d0 3c 3f 35 36 14 be 09 4d 0c bf
       -0.07027788 0.7375566 -0.14473803 -0.54805046
000350 86 c7 e8 bc 73 66 51 3e 5b 12 81 3e b0 32 04 3d
       -0.028415453 0.20449238 0.25209317 0.032274902
000360 9c 5e 6b be cb 07 3b 3c c8 8c 0e bf 48 bc 02 bf
       -0.2298531 0.011415432 -0.55683565 -0.51068544
000370 7c 42 6e 3e e6 67 14 be a7 16 6f be f6 77 12 ba
       0.2326755 -0.14492759 -0.23348485 -0.00055873336
000380 88 32 19 be 52 2d 84 3f 37 92 ee 3e 5b 40 9b be
       -0.14960682 1.0326331 0.46595928 -0.30322537
000390 e8 35 02 3e 2f fb bc 3e 0c 1e ec 3e 3b 69 e7 bd
       0.12715876 0.36910388 0.46116674 -0.11299368
0003a0 b9 57 17 bd c0 31 b4 be 3f 7d cf be 5a 90 3e bd
       -0.036948893 -0.35194206 -0.40525243 -0.046524383
0003b0 2f bc ac be 94 96 53 bf 6a 3a d9 be 11 83 d1 bd
       -0.33737323 -0.8265164 -0.4242738 -0.10230077
0003c0 b5 00 1f be 5c 11 85 3e f4 18 bf 3e 2a 00 3e bc
       -0.15527613 0.25989807 0.37323725 -0.011596719
0003d0 25 a2 44 bd d3 1b 0c 3e 3d 83 d3 3e 0c aa b9 be
       -0.048006196 0.13682489 0.41311064 -0.36262548
0003e0 5e 10 df be 9d ca 4c 3c 32 58 6e 3e 8c 01 38 3f
       -0.43567175 0.012499479 0.23275831 0.7187736
0003f0 41 6e 2e bf 58 ce a9 3e 32 33 f3 be ff 4e b1 bd
       -0.68136984 0.3316524 -0.47499996 -0.086576454

network_body._body_endoder.seq_layers.2.bias f4 [128]
000000 00 00 00 00 00 00 00 00 00 00 00 00 00 00 00 00
       0.0 0.0 0.0 0.0
000010 00 00 00 00 00 00 00 00 00 00 00 00 00 00 00 00
       0.0 0.0 0.0 0.0
000020 00 00 00 00 00 00 00 00 00 00 00 00 00 00 00 00
       0.0 0.0 0.0 0.0
000030 00 00 00 00 00 00 00 00 00 00 00 00 00 00 00 00
       0.0 0.0 0.0 0.0
000040 00 00 00 00 00 00 00 00 00 00 00 00 00 00 00 00
       0.0 0.0 0.0 0.0
000050 00 00 00 00 00 00 00 00 00 00 00 00 00 00 00 00
       0.0 0.0 0.0 0.0
000060 00 00 00 00 00 00 00 00 00 00 00 00 00 00 00 00
       0.0 0.0 0.0 0.0
000070 00 00 00 00 00 00 00 00 00 00 00 00 00 00 00 00
       0.0 0.0 0.0 0.0
000080 00 00 00 00 00 00 00 00 00 00 00 00 00 00 00 00
       0.0 0.0 0.0 0.0
000090 00 00 00 00 00 00 00 00 00 00 00 00 00 00 00 00
       0.0 0.0 0.0 0.0
0000a0 00 00 00 00 00 00 00 00 00 00 00 00 00 00 00 00
       0.0 0.0 0.0 0.0
0000b0 00 00 00 00 00 00 00 00 00 00 00 00 00 00 00 00
       0.0 0.0 0.0 0.0
0000c0 00 00 00 00 00 00 00 00 00 00 00 00 00 00 00 00
       0.0 0.0 0.0 0.0
0000d0 00 00 00 00 00 00 00 00 00 00 00 00 00 00 00 00
       0.0 0.0 0.0 0.0
0000e0 00 00 00 00 00 00 00 00 00 00 00 00 00 00 00 00
       0.0 0.0 0.0 0.0
0000f0 00 00 00 00 00 00 00 00 00 00 00 00 00 00 00 00
       0.0 0.0 0.0 0.0
000100 00 00 00 00 00 00 00 00 00 00 00 00 00 00 00 00
       0.0 0.0 0.0 0.0
000110 00 00 00 00 00 00 00 00 00 00 00 00 00 00 00 00
       0.0 0.0 0.0 0.0
000120 00 00 00 00 00 00 00 00 00 00 00 00 00 00 00 00
       0.0 0.0 0.0 0.0
000130 00 00 00 00 00 00 00 00 00 00 00 00 00 00 00 00
       0.0 0.0 0.0 0.0
000140 00 00 00 00 00 00 00 00 00 00 00 00 00 00 00 00
       0.0 0.0 0.0 0.0
000150 00 00 00 00 00 00 00 00 00 00 00 00 00 00 00 00
       0.0 0.0 0.0 0.0
000160 00 00 00 00 00 00 00 00 00 00 00 00 00 00 00 00
       0.0 0.0 0.0 0.0
000170 00 00 00 00 00 00 00 00 00 00 00 00 00 00 00 00
       0.0 0.0 0.0 0.0
000180 00 00 00 00 00 00 00 00 00 00 00 00 00 00 00 00
       0.0 0.0 0.0 0.0
000190 00 00 00 00 00 00 00 00 00 00 00 00 00 00 00 00
       0.0 0.0 0.0 0.0
0001a0 00 00 00 00 00 00 00 00 00 00 00 00 00 00 00 00
       0.0 0.0 0.0 0.0
0001b0 00 00 00 00 00 00 00 00 00 00 00 00 00 00 00 00
       0.0 0.0 0.0 0.0
0001c0 00 00 00 00 00 00 00 00 00 00 00 00 00 00 00 00
       0.0 0.0 0.0 0.0
0001d0 00 00 00 00 00 00 00 00 00 00 00 00 00 00 00 00
       0.0 0.0 0.0 0.0
0001e0 00 00 00 00 00 00 00 00 00 00 00 00 00 00 00 00
       0.0 0.0 0.0 0.0
0001f0 00 00 00 00 00 00 00 00 00 00 00 00 00 00 00 00
       0.0 0.0 0.0 0.0

network_body._body_endoder.seq_layers.2.weight f4 [128, 128]
000000 d9 6a c8 bd 98 31 fe bd a5 79 8f bd 3c 4a 99 bd
       -0.097860046 -0.12411803 -0.07005624 -0.07484862
000010 71 5f ac 3b 9a 24 48 bd 4f 27 ca 3b b3 3f f4 3d
       0.005260401 -0.04886303 0.0061692367 0.11926212
000020 f2 0f d4 3d f4 fa b1 bd c0 16 83 3c 3b 82 c0 3d
       0.10354604 -0.08690444 0.016002059 0.093998395
000030 be 39 76 3d 33 02 9e bd bd 15 01 3e b4 ef f7 b9
       0.06011366 -0.07715263 0.12605949 -0.00047290104
000040 9d e4 ef bd c9 5f 9c 3d 63 33 8a 3c 82 57 66 3e
       -0.117135264 0.07635457 0.016870206 0.22494319
000050 e5 03 ac bd 39 16 c4 bd 05 e8 da bc 1a c0 cf bc
       -0.0839918 -0.09574551 -0.026721964 -0.025360156
000060 0e f2 3c bd a8 0f 0b bd 47 08 88 3c 95 65 df 3d
       -0.04612928 -0.033950478 0.01660551 0.10908047
000070 c8 02 ba bd 8e 49 c6 3d d7 19 43 bc 5d ab 76 bb
       -0.09082562 0.09681998 -0.011908016 -0.0037638762
000080 94 37 e7 3c 8e 88 62 3d 36 69 aa bb eb 69 8e 3c
       0.028224744 0.05530601 -0.0052005304 0.01738449
000090 be f1 75 bb 52 bc a2 bd be 35 61 bd 39 26 94 bc
       -0.0037528123 -0.079460755 -0.054982893 -0.018084632
0000a0 de 0e 7b bc 24 e2 f5 bd ed 9a 99 3d 5a fa d9 3d
       -0.015323369 -0.120060235 0.07500253 0.10643454
0000b0 11 04 35 3e 89 f8 9a 3c b9 65 38 bd fa 80 ae 3d
       0.17677332 0.018917339 -0.045018885 0.08520694
0000c0 b6 d1 34 bd 36 2d 97 3c 44 c3 ca 3d 79 4d da bc
       -0.04414531 0.018454175 0.09900525 -0.02664827
0000d0 1b 95 47 bd bf 3c ab bd 6f 31 d9 bc 17 a9 04 3e
       -0.048726182 -0.08361196 -0.02651283 0.12955128
0000e0 27 97 6c 3d 6e 99 43 bd ad 0d 8a bd 98 59 19 3e
       0.057761338 -0.047753744 -0.0674089 0.14975584
0000f0 98 10 2f bc e6 cc c2 bd a7 ab f6 3d 10 69 1d 3d
       -0.010685109 -0.095117375 0.12044459 0.038430274
000100 0e 8b 0d bd bd 97 8a 3d e5 1f 0b bd 09 a7 3d 3c
       -0.03455644 0.06767223 -0.033965964 0.011575469
000110 50 c1 07 3b 29 e3 bb 3b ff b1 18 bc ac e4 c9 bc
       0.0020714588 0.0057338667 -0.009319781 -0.024645172
000120 67 95 16 be 47 67 8c bd 2d bc ed bd 1d e2 da bd
       -0.1470543 -0.06855636 -0.11608157 -0.10687659
000130 db b6 6a 3b a0 ad 9e bd f5 7b 81 3d 7c 86 17 3e
       0.0035814557 -0.0774796 0.06322471 0.14797395
000140 08 a7 9c 3d 73 09 07 be 47 e7 34 3d 1e c4 4e 3d
       0.07649046 -0.13187198 0.044165876 0.05048
000150 23 a3 59 3d 11 7f 85 3c 65 d8 8a be 5d 7c 53 3c
       0.053134095 0.016295942 -0.2711822 0.0129080685
000160 4d de 10 be 8f 4b 5a 3d 2f be 47 bc ce 8d 66 3d
       -0.14147301 0.053294715 -0.012191339 0.05628758
000170 3a 82 7c 3d 29 4a c4 bd 8a 73 1a 3c bb e5 ef bd
       0.06164763 -0.095844574 0.009426961 -0.117137395
000180 c2 a1 40 3d 63 1d 54 bc 20 fa 65 3e 88 ed 44 bd
       0.047029264 -0.012946459 0.22458696 -0.04807809
000190 01 66 15 3e 7a cc b4 3d a4 11 03 3d 3a a1 54 bb
       0.14589693 0.08828063 0.031999245 -0.0032444731
0001a0 6d 0e 3a 3b 3d 8b e3 3c f0 b6 a6 bd 59 9a 15 3d
       0.0028389946 0.027776355 -0.08140361 0.03652415
0001b0 a5 98 3e 3d ec df d2 bc 2f 93 49 bd 8a c1 4c 3e
       0.046532292 -0.02574154 -0.04921263 0.19995704
0001c0 0b f7 ac 3c 7b f6 b7 3d 99 3e 25 bd 82 b1 e0 bc
       0.021113893 0.08982559 -0.0403429 -0.027428392
0001d0 ad c8 0d be 9d 9f 5c 3e 32 28 14 3d 71 b4 15 be
       -0.13846083 0.21545263 0.036171146 -0.14619614
0001e0 3c 82 2b 3e b5 74 e6 bb 45 64 c4 bb 8a 76 83 bd
       0.16748899 -0.0070329555 -0.0059933984 -0.06419094
0001f0 e6 c3 1d 3d 02 77 a6 3c d4 dd 2c 3e e2 1d 17 bd
       0.0385169 0.02032042 0.16881496 -0.036893733
000200 b7 c2 60 bd 22 19 08 3d 08 f3 75 bd 7b 4b e5 3d
       -0.054873195 0.033227094 -0.060046226 0.111960374
000210 51 30 4e bd 08 f8 aa bd f3 48 9e 3d f1 ab 82 bd
       -0.050339047 -0.083480895 0.07728758 -0.063804515
000220 32 df 3f bc e1 ec c5 bc ed b7 b9 3d 3a 02 9d bc
       -0.011710929 -0.024160804 0.09068284 -0.0191661
000230 c8 bf a2 bd c3 3d 65 bd f2 fd 78 3c 49 50 97 3d
       -0.079467356 -0.055967104 0.015197264 0.0738836
000240 d5 00 ee 3c 8a f9 27 3e eb d8 08 3c f2 b3 03 3d
       0.029053131 0.16403785 0.0083524985 0.03215403
000250 9c 27 48 3c 8e 87 e7 3d b9 7a f2 3c e6 0b f0 bd
       0.012216475 0.11305152 0.029599534 -0.117210194
000260 d0 cb 17 bc 51 19 2b bb 2f 1f f7 3d fa 6c 86 3d
       -0.009264901 -0.002610762 0.12066495 0.065637544
000270 7a b9 f3 bc b1 9a 01 3d 51 7b e9 3d 3f 87 ab 3d
       -0.029751528 0.031641666 0.11400474 0.083754055
000280 0e 53 71 3d 1b de 15 3e 4c 02 6e bd 48 97 cc bc
       0.058917098 0.14635508 -0.05810766 -0.02497448
000290 e3 ec 27 be 21 68 41 be 59 9b c7 bd ee 0f f0 3b
       -0.16398959 -0.18887378 -0.09746427 0.0073261177
0002a0 cd e2 d0 bd 54 42 16 3e d5 04 df bc bd e4 37 be
       -0.10199509 0.1467374 -0.027223984 -0.1795835
0002b0 5c 2e 3b 3d c1 14 2c be bd 16 c6 bd 92 86 e2 3d
       0.04569851 -0.16804792 -0.09672306 0.110608235
0002c0 c4 1d 82 bc 0b 80 7d bd 37 a9 3a be 49 2d 2a bd
       -0.015883334 -0.06188969 -0.18228613 -0.041547094
0002d0 ba 66 ac bc 15 35 cf bc 99 46 16 3d b6 87 15 be
       -0.021045078 -0.025293866 0.03668842 -0.14602551
0002e0 d7 6f 37 bd 48 3d d3 bd 60 f0 c1 3d a9 1a 38 bd
       -0.044784393 -0.10314423 0.09469676 -0.0449473
0002f0 8b 54 f2 bc 21 fd 1c 3d 34 0b 9f 3c 0e 99 88 3d
       -0.029581329 0.03832734 0.019414522 0.06669818
000300 e7 8c 4e 3d 39 1d 08 be 8b c1 28 bd e6 a9 10 3d
       0.050427344 -0.13292398 -0.041200202 0.035318278
000310 ac e6 ba 3d b3 48 46 3d 11 f4 a3 bc fd 1d 6f 3d
       0.091260284 0.048409175 -0.02001384 0.05837821
000320 9e 6f c8 bd c1 02 92 bd 4b 27 a2 bc 67 45 8b bd
       -0.09786914 -0.071294315 -0.019794127 -0.06800347
000330 da ea 36 bd c4 c6 98 3d 65 b5 48 bc aa aa 21 3d
       -0.044657566 0.074597865 -0.012250279 0.0394694
000340 93 bd e8 bb 7d 1e 33 bd 6a 85 9e bd 19 ef 0c bd
       -0.007102677 -0.043730248 -0.077402905 -0.03440771
000350 39 7d cc 3c 1f fb 0d 3d 94 af 09 bb 6c 51 dc 3c
       0.024962055 0.034663316 -0.0021009194 0.026894294
000360 44 c3 f4 3b 4b d5 9f 3b 5a b6 08 3d f9 92 4d bd
       0.0074695665 0.0048777214 0.03337703 -0.050188992
000370 16 75 2d bd 10 db e5 bd c0 21 1d be 08 68 04 3d
       -0.04234799 -0.112234235 -0.15344906 0.032325774
000380 0b 2c 99 bb 90 e8 51 3c 3a 3b f9 bd b2 2d 33 3c
       -0.00467444 0.012811795 -0.121695 0.010936188
000390 98 22 dd bd bd 03 54 3d f1 32 fb 3d 40 58 48 3d
       -0.10797614 0.051761378 0.12265576 0.048912287
0003a0 c7 2c 06 3d ff 67 4b bb 6e 75 a3 b8 5c 21 72 bd
       0.032757547 -0.0031037328 -7.794319e-05 -0.059113845
0003b0 e1 19 0c 3d 6e 02 45 3c d6 1f 5c be e0 f3 ca bc
       0.034204368 0.012024505 -0.2149652 -0.024774492
0003c0 39 3c 87 bd 42 ea d1 bd dc fa 2f bd af 1d 60 3d
       -0.066032834 -0.10249759 -0.042963848 0.05471581
0003d0 f3 c0 f0 3d 5c 10 18 ba c9 27 0f 3a 49 66 17 bd
       0.11755552 -0.00058007776 0.00054609455 -0.03696278
0003e0 a3 20 05 3e f5 58 ac 3d e2 3e 96 bc d6 c9 21 bd
       0.13000731 0.08415405 -0.018340532 -0.039499126
0003f0 8a 66 8a 3d 3d 9b 22 3e 12 1f 4f be e8 35 ce bd
       0.06757839 0.15879531 -0.20226696 -0.100688756

network_body.observation_encoder.processors.0.normalizer.running_mean f4 [5]
000000 00 00 00 00 00 00 00 00 00 00 00 00 00 00 00 00
       0.0 0.0 0.0 0.0
000010 00 00 00 00
       0.0
